pqc_reup_v1_output/best_model_epoch_150.pth (torch, 61297 bytes, 6 tensors)

reupload_weights f4 [12, 3, 4]
0.2917191 0.12160441 0.1645855 -0.20193948 0.2210292 -0.44124156 0.24266641 0.6824368
0.5166532 0.14453037 -0.0072902786 -0.7911961 -0.21971968 -0.10572503 0.09525257 -0.0034344096
0.31112394 -0.9258636 -0.6364079 0.1141234 -0.28409827 0.11621183 0.18849666 0.28312185
0.2601369 0.13907146 0.08287802 -0.03795073 0.83514476 -0.29303345 0.13936684 -0.89458036
0.08466812 0.118839115 0.7083121 -0.07570738 -0.110558234 -0.062218033 0.0092534525 -0.08474995
0.34756452 0.9298348 0.113212936 -0.67476225 0.58401614 1.0988007 0.027311046 -0.40064028
-0.055064704 -0.047806658 0.16655451 0.07072184 1.0744219 0.9931891 -1.103525 -0.59808177
0.4230187 0.5221627 -1.2135489 -0.51106745 -0.046866827 0.058153797 -0.1004597 -0.14590353
0.4275845 0.19930746 -0.19719085 0.1300815 -0.28569838 -0.32245156 -0.9611794 -0.047420505
-0.011821946 -0.05696047 -0.21691678 0.08224304 -0.16710304 -0.068894535 -0.13071285 0.28478524
0.34061477 0.38885304 0.47536284 0.5042622 0.13469177 0.10219724 0.10509174 -0.07778677
-0.3510304 -0.52844214 -0.19669518 0.3821526 -0.32369137 -0.20719308 0.5988166 0.45645776
-0.24497974 0.20455292 0.1441288 0.10627772 -0.17006394 0.56214 0.76171964 0.24332215
-0.0465837 0.64336467 0.12448558 -0.20534374 -0.08444516 0.15380445 0.19185859 0.111345656
0.112106085 0.47051346 0.126491 -0.6323749 0.42264336 0.4848246 0.21205063 0.56845635
0.17413613 -0.6141393 -0.20785649 0.2528911 0.29095852 0.25989312 0.7640522 0.54323643
-0.8245952 -1.0064263 -0.6264442 -0.69978034 -0.019529203 0.08199349 0.10000233 0.2743075
-1.4621152 0.035917826 0.11431039 -0.502621 -1.2728736 0.39652973 0.4037961 0.015032238
00000000: 355c 953e bc0b f93d 1a89 283e 39c9 4ebe
00000010: 7b55 623e 6aea e1be 8b7d 783e 2eb4 2e3f
00000020: 6243 043f c5ff 133e 4ae3 eebb d48b 4abf
00000030: 32fe 60be 5d86 d8bd c813 c33d d513 61bb
00000040: a34b 9f3e 6605 6dbf a1eb 22bf 87b9 e93d
00000050: 5475 91be 7800 ee3d 4505 413e 59f5 903e
00000060: aa30 853e c068 0e3e f4bb a93d 3a72 1bbd
00000070: 0ccc 553f 7b08 96be 2eb6 0e3e 3803 65bf
00000080: 7b66 ad3d ec61 f33d f153 353f 790c 9bbd
00000090: 5b6c e2bd 56d8 7ebd cb9b 173c 6291 adbd
000000a0: faf3 b13e a709 6e3f 2fdc e73d 38bd 2cbf
000000b0: 1582 153f 80a5 8c3f 6abb df3c b920 cdbe
000000c0: 878b 61bd ead0 43bd 448d 2a3e 9dd6 903d
000000d0: a886 893f a441 7e3f 4f40 8dbf e31b 19bf
000000e0: e895 d83e 74ac 053f 9255 9bbf 51d5 02bf
000000f0: 6ef7 3fbd ad32 6e3d d1bd cdbd bc67 15be
00000100: 5bec da3e 4117 4c3e 66ec 49be 1634 053e
00000110: 0f47 92be 5f18 a5be da0f 76bf 013c 42bd
00000120: d6b0 41bc 624f 69bd 6f1f 5ebe 0a6f a83d
00000130: 0f1d 2bbe 9418 8dbd 97d9 05be 5fcf 913e
00000140: 0f65 ae3e bf17 c73e c262 f33e 5417 013f
00000150: a4ec 093e c94c d13d 573a d73d ac4e 9fbd
00000160: 42ba b3be fc47 07bf 766a 49be 81a9 c33e
00000170: e0ba a5be 6c2a 54be 0b4c 193f d5b4 e93e
00000180: f8db 7abe 5276 513e 8096 133e 22a8 d93d
00000190: 3e25 2ebe 68e8 0f3f 0f00 433f 7129 793e
000001a0: 8dce 3ebd 8cb3 243f 4cf2 fe3d a145 52be
000001b0: 96f1 acbd ea7e 1d3e 9476 443e 3109 e43d
000001c0: e097 e53d 24e7 f03e db86 013e 52e3 21bf
000001d0: b664 d83e ee3a f83e cd23 593e 5b86 113f
000001e0: be50 323e 3c38 1dbf 55d8 54be f17a 813e
000001f0: 84f8 943e b610 853e ed98 433f 8b11 0b3f
00000200: ac18 53bf 94d2 80bf a65e 20bf ce24 33bf
00000210: b5fb 9fbc 34ec a73d 06ce cc3d 0872 8c3e
00000220: 9726 bbbf 921e 133d 911b ea3d c5ab 00bf
00000230: 86ed a2bf f205 cb3e 5dbe ce3e c749 763c

reupload_bias f4 [12, 3]
-0.54643947 0.2008783 -0.3302837 0.5452917 -0.33555242 0.4171398 -0.5739163 1.0245873
0.014688022 0.56121546 0.8694998 1.7306324 -0.4494851 -0.3189872 0.34756345 0.50692314
0.23153558 -0.34206983 -0.13240191 -0.039492317 0.15690576 -0.7273205 -0.6502836 -0.18077458
0.4555085 0.71775717 -0.70128804 -0.59238607 -0.8454392 0.6500162 0.1658778 0.18849616
-1.7812427 -0.5653157 -0.44988132 0.9051595
00000000: 75e3 0bbf 0bb3 4d3e f21a a9be 3d98 0b3f
00000010: 87cd abbe 5993 d53e 2eec 12bf ad25 833f
00000020: 08a6 703c d1ab 0f3f 8a97 5e3f 5d85 dd3f
00000030: e922 e6be 4a52 a3be d6f3 b13e b7c5 013f
00000040: aa17 6d3e c723 afbe 5e94 07be b2c2 21bd
00000050: e7ab 203e ad31 3abf fc78 26bf f91c 39be
00000060: 6938 e93e efbe 373f 9d87 33bf 9da6 17bf
00000070: b46e 58bf 7667 263f dfdb 293e 2305 413e
00000080: c3ff e3bf 88b8 10bf d856 e6be 88b8 673f

mlr.0.weight f4 [64, 12]
0.004212431 -0.017236283 0.06940076 0.080896474 -0.26219115 -0.10653202 0.24310184 0.11245483
-0.014358 -0.1740439 -0.17661291 -0.2585856 -0.27564707 -0.10591454 0.20171762 -0.06493921
-0.43370277 -0.58255744 -0.067511514 0.5437647 0.067141645 -0.24056827 0.3081114 0.0029118888
-0.24187844 0.15294129 -0.18539886 -0.11606978 -0.34642035 0.1375773 0.16228424 0.04856891
-0.25863707 -0.3401632 -0.28549567 0.15954512 0.1385946 0.24292141 0.1512282 0.073061414
-0.0028269046 -0.21953918 -0.24732882 -0.27001187 0.118172616 -0.14173025 -0.058096614 -0.16613406
0.11479091 -0.20858383 -0.42996556 0.010407567 -0.010273642 0.11491293 -0.18747593 -0.43901634
-0.036400866 -0.18300614 -0.0325026 -0.43227533 -0.035906184 -0.33957836 0.32184353 0.11636159
0.30741134 -0.72778404 0.35947305 -0.23144722 0.05482838 0.0043912753 -0.07443388 -0.21450986
-0.026462268 -0.43969727 0.2719353 -0.43501577 0.3038725 0.21513963 0.4375625 -0.33610743
-0.22917965 0.10518193 0.16886158 -0.48029137 -0.033522096 -0.3746698 0.01849948 -0.3252905
-0.15547708 -0.17274916 -0.21202326 0.3765894 0.5249173 -0.18036593 0.20068415 0.0528439
-0.20792924 -0.430431 -0.11293626 -0.2660595 -0.15857005 -0.25104272 -0.10686667 -0.4162087
0.00069136167 -0.23623605 0.047216807 -0.41750756 -0.48423493 0.4203297 -0.07448566 0.096407734
-0.22022659 0.035890263 0.3027141 0.23518175 -0.5104187 0.47868255 0.31424654 -0.13158292
-0.2015953 0.5024048 -0.081061274 0.26928496 -0.28115872 -0.12084101 0.16230817 0.17821123
-0.3810998 -0.26947463 -0.3764043 -0.36407152 -0.22275299 -0.07138861 0.19482026 0.04831909
-0.21956788 -0.23158209 0.14360873 -0.21472847 -0.035543837 0.1384792 -0.13360234 -0.03147711
-0.025127577 -0.06829573 -0.14636758 -0.25733608 -0.23335256 -0.15457447 0.27881333 -0.13943434
-0.19385342 0.06997318 0.079561844 0.15816791 0.53694165 0.11803283 -0.36404854 0.062113095
0.19802897 -0.17063716 -0.2481354 0.29711577 -0.13778855 -0.4131423 -0.2906956 0.26536837
0.064547524 0.18325445 -0.048201397 -0.31297696 -0.48064896 -0.051104814 0.17247415 0.33883345
-0.28064454 0.22232601 -0.09234512 -0.24779466 -0.034337435 0.20887652 0.25716 -0.5098579
0.00019695843 -0.64220726 -0.012613516 0.36971512 -0.08596275 0.37892267 -0.15586634 -0.30121565
0.4141882 -0.105384775 0.00891472 -0.20975178 0.3456722 0.2212673 0.16344367 -0.55361277
-0.25606576 0.02019144 0.0039242674 -0.31916198 -0.08077063 0.19496186 0.022995774 0.013024541
-0.071043104 -0.26142123 -0.27142894 -0.13799106 -0.14673975 0.08993778 -0.08403643 -0.112936094
0.70798504 0.28817207 0.20151412 -0.28658938 -0.13454056 0.22775464 -0.32590812 -0.45733285
-0.0060783373 -0.3428887 -0.26974693 0.2345089 0.5630775 0.06627638 -0.17979276 -0.52535695
-0.2690712 0.055689774 -0.026757851 -0.07608746 -0.19251263 0.40969294 -0.18153045 0.1418213
-0.07452983 0.11749334 0.17018907 0.1686697 -0.015710905 0.44287375 0.18959953 0.35421026
0.38720182 -0.15076154 -0.10890328 0.45980707 0.22620985 -0.22041711 -0.022315538 -0.28467014
00000000: 6f08 8a3b 1b33 8dbc fc21 8e3d 0dad a53d
00000010: eb3d 86be 762d dabd b0ef 783e b84e e63d
00000020: d13d 6bbc 9038 32be 04da 34be 5565 84be
00000030: 9d21 8dbe b9e9 d8bd 108f 4e3e d9fe 84bd
00000040: 4a0e debe 7c22 15bf 7a43 8abd 2a34 0b3f
00000050: 8f81 893d 8757 76be c7c0 9d3e 63d5 3e3b
00000060: fbae 77be a49c 1c3e 33d9 3dbe feb5 edbd
00000070: 025e b1be 10e1 0c3e d72d 263e 32f0 463d
00000080: 146c 84be df29 aebe 7d2c 92be cc5f 233e
00000090: beeb 0d3e 64c0 783e 91db 1a3e 39a1 953d
000000a0: 9743 39bb e1ce 60be c443 7dbe ff3e 8abe
000000b0: 7c04 f23d bc21 11be b7f6 6dbd 0c1f 2abe
000000c0: 7f17 eb3d 0097 55be 7224 dcbe 8084 2a3c
000000d0: c752 28bc 7857 eb3d b1f9 3fbe c0c6 e0be
000000e0: 1319 15bd f665 3bbe 7221 05bd 3153 ddbe
000000f0: 5d12 13bd 37dd adbe adc8 a43e fc4e ee3d
00000100: 0565 9d3e 0e50 3abf da0c b83e 8000 6dbe
00000110: b993 603d b0e4 8f3b ca70 98bd 79a8 5bbe
00000120: 66c7 d8bc 0020 e1be 1b3b 8b3e 63ba debe
00000130: 2d95 9b3e 904d 5c3e 3108 e03e 4616 acbe
00000140: 12ae 6abe a069 d73d 0dea 2c3e c0e8 f5be
00000150: 774e 09bd b8d4 bfbe 398c 973c 7a8c a6be
00000160: 6235 1fbe 28e5 30be a01c 59be 53d0 c03e
00000170: fb60 063f d9b1 38be 2580 4d3e d872 583d
00000180: 67eb 54be 7461 dcbe 204b e7bd f338 88be
00000190: 3060 22be ac88 80be eadc dabd 4f19 d5be
000001a0: 7f3c 353a dde7 71be 6966 413d 8dc3 d5be
000001b0: a4ed f7be 7435 d73e f08b 98bd 6b71 c53d
000001c0: 1483 61be ab01 133d 58fd 9a3e 7cd3 703e
000001d0: cdaa 02bf e115 f53e ece4 a03e acbd 06be
000001e0: 006f 4ebe 9a9d 003f 7403 a6bd b8df 893e
000001f0: 09f4 8fbe 7e7b f7bd 1d34 263e 017d 363e
00000200: 831f c3be 94f8 89be 10b8 c0be 9567 babe
00000210: 5c19 64be 3134 92bd f67e 473e 3dea 453d
00000220: 67d6 60be db23 6dbe 2b0e 133e c8e1 5bbe
00000230: 6a96 11bd 7ecd 0d3e 0dcf 08be 24ee 00bd
00000240: 59d8 cdbc a2de 8bbd 62e1 15be 8ec1 83be
00000250: f9f3 6ebe c548 1ebe 9fc0 8e3e e0c7 0ebe
00000260: 8381 46be 194e 8f3d 52f1 a23d c5f6 213e
00000270: 0275 093f 32bb f13d 9264 babe 4d6a 7e3d
00000280: 1bc8 4a3e 82bb 2ebe 3517 7ebe 8f1f 983e
00000290: 7118 0dbe 6387 d3be 0ed6 94be 5dde 873e
000002a0: 7e31 843d 0ea7 3b3e d46e 45bd 843e a0be
000002b0: 9f17 f6be 4853 51bd 109d 303e 947b ad3e
000002c0: a4b0 8fbe 6ea9 633e 701f bdbd e2bd 7dbe
000002d0: 69a5 0cbd bae3 553e 7aaa 833e 0c86 02bf
000002e0: a086 4e39 b267 24bf eca8 4ebc 4d4b bd3e
000002f0: 3d0d b0bd 2702 c23e 6d9b 1fbe f038 9abe
00000300: 7a10 d43e f9d3 d7bd 0c0f 123c 2cc9 56be
00000310: f2fb b03e e593 623e c75d 273e 91b9 0dbf
00000320: 0d1b 83be 8568 a53c 2497 803b 3369 a3be
00000330: 126b a5bd 15a4 473e a261 bc3c e264 553c
00000340: 0c7f 91bd 01d9 85be bcf8 8abe 874d 0dbe
00000350: f242 16be 4c31 b83d 4b1b acbd 0a4b e7bd
00000360: 823e 353f 4a8b 933e b859 4e3e d8bb 92be
00000370: 00c5 09be 8338 693e 6edd a6be 8827 eabe
00000380: ca2c c7bb 1c8f afbe 451c 8abe 1a23 703e
00000390: d925 103f e9bb 873d 981b 38be cb7d 06bf
000003a0: b3c3 89be f61a 643d 4833 dbbc bed3 9bbd
000003b0: 0822 45be 46c3 d13e 1ee3 39be 9a39 113e
000003c0: 18a3 98bd 59a0 f03d 0b46 2e3e c0b7 2c3e
000003d0: 28b4 80bc 59c0 e23e 6126 423e 0c5b b53e
000003e0: 513f c63e 3c61 1abe af08 dfbd d56b eb3e
000003f0: 8ea3 673e 06b5 61be 13cf b6bc 49c0 91be

mlr.0.bias f4 [64]
-0.07937846 0.18190925 0.027739841 -0.050336607 0.15196982 -0.037990354 0.12499318 0.09046992
0.15153624 0.0010083279 0.12772845 -0.04167602 -0.11238604 0.11884335 0.17538382 0.15275507
0.078692935 -0.09840758 0.06953744 0.14356229 -0.12449487 -0.035763077 -0.038464446 0.14390025
0.014917872 -0.02113235 -0.024149736 -0.007038464 -0.069673 -0.08760084 0.060053352 -0.14529438
-0.063371874 0.02722968 0.0026613146 -0.27155265 0.1610549 -0.13112533 -0.15892498 0.03396679
-0.1506486 -0.05777197 -0.097269066 -0.009627639 -0.12056155 -0.04350876 0.001535463 -0.2336011
-0.17472936 0.0042121904 -0.011940182 0.069059506 -0.0721619 0.19884875 0.05207739 0.04849077
-0.12444063 -0.15326259 -0.044164628 -0.0393953 0.0901085 -0.043104697 0.19338277 -0.16945413
00000000: 2d91 a2bd 6b46 3a3e aa3e e33c c22d 4ebd
00000010: fa9d 1b3e c69b 1bbd 6dfc ff3d 4b48 b93d
00000020: 512c 1b3e df29 843a 3fcb 023e 79b4 2abd
00000030: a72a e6bd 2464 f33d d197 333e d36b 1c3e
00000040: c329 a13d ea89 c9bd a569 8e3d fe01 133e
00000050: 2bf7 febd 4e7c 12bd e58c 1dbd 965a 133e
00000060: 176a 743c c01d adbc abd5 c5bc eaa2 e6bb
00000070: b8b0 8ebd 1268 b3bd 81fa 753d 0dc8 14be
00000080: 1dc9 81bd c710 df3c 7369 2e3b f308 8bbe
00000090: 93eb 243e b845 06be 3bbd 22be c320 0b3d
000000a0: a043 1abe 4da2 6cbd 0135 c7bd 3fbd 1dbc
000000b0: f9e8 f6bd 3e36 32bd 9741 c93a 2035 6fbe
000000c0: 41ec 32be 6a06 8a3b c1a0 43bc 126f 8d3d
000000d0: 9ec9 93bd 029f 4b3e 1a4f 553d 429e 463d
000000e0: bbda febd def0 1cbe f8e5 34bd f75c 21bd
000000f0: ce8a b83d 8d8e 30bd 2206 463e 6285 2dbe

mlr.2.weight f4 [208, 64]
0.018994987 0.506131 0.045872785 -0.054672375 -0.31686342 0.75369716 -0.19123949 -0.35225284
-0.29439497 0.53010255 0.4492074 -0.013706058 -0.10063428 -0.0025375858 0.26357165 0.5820207
-0.34009874 -0.05848989 -0.56957823 -0.22572432 0.1574879 -0.06024313 0.16589995 0.027863793
-0.2602274 0.166078 0.1230526 0.06274175 -0.017339434 0.16474786 0.050087962 -0.10527857
-0.04429257 0.073161185 -0.06469173 0.11928755 0.15704712 0.06760791 -0.06894484 0.15316576
0.090194285 0.27960998 0.09000641 0.30548814 0.0024329573 0.45687208 0.82381445 0.054429352
-0.040175244 -0.002098918 -0.11008343 -0.62000424 -0.044561315 -0.22999915 -0.07188346 1.0461317
0.21741937 0.35047498 0.28129748 0.15206672 -0.47901246 -0.12362622 0.19472955 0.07003924
-0.107314005 0.29173088 0.098302506 0.0075720698 -0.5976471 0.49091104 -0.08354581 0.18508522
-0.561751 0.5645458 0.048115924 0.12368679 -0.052962467 -0.21120058 0.20735191 0.20229447
-0.39189267 0.05134192 -0.861891 -0.1987679 0.20170613 0.09794232 -0.011568178 -0.14403825
0.6286614 0.03643128 0.07481128 0.13891533 -0.061217885 -0.029537495 -0.032910407 -0.07333222
0.21099669 -0.12012197 0.5624112 0.12461425 0.22930668 0.042622343 -0.11173847 0.160848
-0.021380946 0.57327205 0.12339535 0.12777205 -0.008843452 0.57002836 0.6419659 -0.088436246
0.020327166 -0.016731739 0.029783415 0.22800437 -0.067873776 -0.23312017 -0.05139836 0.14053555
0.2839696 -0.15834682 0.031016955 0.170709 -0.063545056 0.0231954 0.065310545 0.018850565
0.120442525 0.63720524 -0.109130494 0.11410265 -0.39715102 0.7373631 -0.09510798 -0.20405324
-0.5221985 0.6255949 0.4552886 0.009370759 -0.08734545 -0.21973465 0.3741527 0.5621683
-0.41989988 0.009858817 -0.44547728 -0.2530491 0.2728127 0.05003093 0.16869196 -0.012434934
0.20616655 0.25064495 -0.109016314 -0.007069843 0.017377008 0.15176706 0.23825897 -0.028682351
0.058754213 0.08132695 -0.11732249 0.10010758 0.19892082 -0.09593727 -0.08802503 0.012725818
-0.06850253 0.35856426 -0.009408683 0.17039675 -0.06315607 0.41526487 0.7628173 0.12262978
-0.046328604 -0.089500114 0.051755037 -0.63242614 0.09146073 -0.23682302 0.12826163 0.73142046
0.24131459 0.23803034 0.1299215 0.17397213 -0.1725746 0.0013688952 0.16756578 -0.04370269
-0.109022975 -0.29615235 0.047647297 -0.08169487 -0.60660636 0.52778226 -0.18688713 0.1500069
-0.62546736 -0.019324563 0.011388931 0.02130197 0.033989847 0.0091452245 -0.12040938 -0.2932232
-0.22767082 0.03408824 -0.49272656 -0.1872018 0.19604258 -0.004552081 -0.00954415 -0.14932331
0.8785519 -0.10851816 -0.11552875 0.06832308 -0.056378633 0.1104213 0.52792174 -0.12399177
0.0664194 -0.0119724125 0.48261952 0.114847556 0.33158237 0.08030215 0.039277438 -0.08339587
0.029373258 0.73494434 -0.08176258 0.053815868 0.12235613 0.4992934 0.5001209 0.075218126
-0.015991509 -0.12324117 0.0072223996 0.5148887 -0.09021748 -0.11477782 -0.10815726 -0.2943241
0.38130197 0.10280496 0.08893558 0.057949457 -0.13811252 -0.031234175 -0.08252508 -0.069560766
00000000: 609b 9b3c cd91 013f 1ae5 3b3d 24f0 5fbd
00000010: ec3b a2be 4cf2 403f 49d4 43be 7c5a b4be
00000020: f0ba 96be cdb4 073f 83fe e53e 608f 60bc
00000030: 5819 cebd a04d 26bb ddf2 863e 4fff 143f
00000040: 6c21 aebe 1893 6fbd e1cf 11bf 4724 67be
00000050: 8244 213e 80c1 76bd ade1 293e 9c42 e43c
00000060: 873c 85be 5a10 2a3e 0003 fc3d bf7e 803d
00000070: 6e0b 8ebc aab3 283e 0929 4d3d 4a9c d7bd
00000080: 206c 35bd 88d5 953d 197d 84bd 084d f43d
00000090: f6d0 203e 0476 8a3d f432 8dbd 7cd7 1c3e
000000a0: c8b7 b83d 0a29 8f3e 4855 b83d f168 9c3e
000000b0: 4072 1f3b 23eb e93e 81e5 523f 50f1 5e3d
000000c0: cc8e 24bd 008e 09bb 6c73 e1bd 99b8 1ebf
000000d0: ed85 36bd e684 6bbe a337 93bd a5e7 853f
000000e0: 2fa3 5e3e 7571 b33e 3906 903e 61b7 1b3e
000000f0: 1f41 f5be be2f fdbd 2f67 473e bc70 8f3d
00000100: 72c7 dbbd c05d 953e d352 c93d 201f f83b
00000110: 66ff 18bf b158 fb3e 111a abbd fb86 3d3e
00000120: eace 0fbf 1386 103f 3415 453d 804f fd3d
00000130: 2cef 58bd f744 58be 0f54 543e 4826 4f3e
00000140: 28a6 c8be e84b 523d e3a4 5cbf d089 4bbe
00000150: 0d8c 4e3e fc95 c83d 7588 3dbc c37e 13be
00000160: f4ef 203f f738 153d a836 993d d23f 0e3e
00000170: 9bbf 7abd 9ef8 f1bc 10cd 06bd 342f 96bd
00000180: 840f 583e 8202 f6bd 2efa 0f3f c235 ff3d
00000190: 5fcf 6a3e c494 2e3d 24d7 e4bd 57b5 243e
000001a0: 1827 afbc f5c1 123f b4b6 fc3d add6 023e
000001b0: 20e4 10bc 61ed 113f e157 243f 101e b5bd
000001c0: 2885 a63c 0011 89bc 59fc f33c fa79 693e
000001d0: 6801 8bbd 0eb7 6ebe 1687 52bd 8de8 0f3e
000001e0: 7764 913e ab25 22be 4517 fe3c 57ce 2e3e
000001f0: e923 82bd 4804 be3c 89c1 853d 806c 9a3c
00000200: 92aa f63d e21f 233f cf7f dfbd a6ae e93d
00000210: 6157 cbbe d4c3 3c3f f9c7 c2bd 55f3 50be
00000220: cdae 05bf fd26 203f 961b e93e d087 193c
00000230: 2ce2 b2bd 1f02 61be f190 bf3e 43ea 0f3f
00000240: 1efd d6be e086 213c 9915 e4be a78f 81be
00000250: 1bae 8b3e 3ced 4c3d 96bd 2c3e e5bb 4bbc
00000260: 531d 533e 8954 803e f243 dfbd 24aa e7bb
00000270: 3a5a 8e3c d368 1b3e 29fa 733e 40f7 eabc
00000280: 42a8 703d be8e a63d c646 f0bd 3405 cd3d
00000290: e6b1 4b3e c27a c4bd 7846 b4bd f37f 503c
000002a0: 0e4b 8cbd bc95 b73e e026 1abc 7c7c 2e3e
000002b0: f857 81bd 999d d43e ff47 433f 5225 fb3d
000002c0: 10c3 3dbd d64b b7bd 17fd 533d aee6 21bf
000002d0: c34f bb3d bc81 72be 0457 033e 5f3e 3b3f
000002e0: 2c1b 773e 3abe 733e 240a 053e c025 323e
000002f0: 65b7 30be 806c b33a 5d96 2b3e 9801 33bd
00000300: 7047 dfbd 48a1 97be d029 433d a44f a7bd
00000310: 8e4a 1bbf bd1c 073f 575f 3fbe 699b 193e
00000320: a11e 20bf 8c4e 9ebc a498 3a3c 7881 ae3c
00000330: f038 0b3d dad5 153c 3199 f6bd 5a21 96be
00000340: 8a22 69be 1ca0 0b3d a846 fcbe d4b1 3fbe
00000350: 63bf 483e a029 95bb 115f 1cbc 36e8 18be
00000360: c7e8 603f c53e debd 569a ecbd f9ec 8b3d
00000370: 48ed 66bd 9024 e23d e125 073f 66ef fdbd
00000380: e506 883d f027 44bc e819 f73e 3235 eb3d
00000390: 2ac5 a93e 7475 a43d 61e1 203d 74cb aabd
000003a0: 30a0 f03c 5025 3c3f 2473 a7bd 076e 5c3d
000003b0: da95 fa3d 62a3 ff3e ec07 003f f60b 9a3d
000003c0: a000 83bc de65 fcbd e1a9 ec3b bfcf 033f
000003d0: f1c3 b8bd a210 ebbd 8e81 ddbd a6b1 96be
000003e0: 033a c33e 688b d23d db23 b63d 695c 6d3d
000003f0: 5e6d 0dbe d0de ffbc e902 a9bd e075 8ebd

mlr.2.bias f4 [208]
0.12271658 0.08955358 0.010635692 0.12876268 0.15595998 0.13781305 0.16248459 0.046103302
0.086630456 0.1375857 0.10208078 0.045471456 0.10462221 -0.017801762 0.039241042 0.059108846
0.11952416 0.08005239 0.009182013 0.05542951 0.098894395 0.048221305 0.11842523 0.073212825
0.118746065 0.0983949 0.10062966 0.117402546 0.08349672 0.13286768 0.09193509 0.12242368
0.10885306 0.015191874 0.06102467 0.021715697 0.05155276 0.044581193 0.10373397 -0.0010518124
0.047715764 0.09101234 0.07555321 0.085796446 0.0048212116 0.14713779 0.04699914 0.066505864
0.054727238 0.14050575 0.1302259 0.05655357 0.17088473 0.1871301 0.0792023 0.13118346
0.10847744 0.15421328 0.13233198 0.15867548 0.11272098 0.13069431 0.089107074 0.14716198
0.08822975 0.049917966 0.11493356 0.023206433 0.054246332 0.011843741 0.11959078 0.14415114
0.12872797 0.081072874 0.036016215 0.10380514 0.080524094 0.10388169 0.1622314 0.18670699
0.18291338 0.14528397 0.15043247 0.16257478 0.14197183 0.12430884 0.12939513 0.1483066
0.15685709 0.11729958 0.13648483 0.1716666 0.17886056 0.077088065 0.19752952 0.16156478
0.08585963 0.16810761 0.14411588 0.099757984 0.064264685 0.05645339 0.16385683 0.082056746
0.1985244 0.15445872 0.11671417 0.2421417 0.086658426 0.16058584 0.24532853 0.18228784
0.2572188 0.19888371 0.132402 0.20627876 0.1473597 0.19916622 0.083657645 0.15656124
0.13597764 0.1490085 0.10419509 0.17359042 0.1823985 0.19952506 0.0783394 0.082643315
0.14903337 0.047322012 0.13096935 0.17061898 0.1930451 0.14097522 0.11353456 0.12431846
0.13649476 0.17831819 0.07555492 0.14360678 0.18970464 0.15605319 0.15202624 0.12747079
0.10352793 0.0885485 0.052083574 0.023144484 0.10566869 0.04431185 0.05639025 0.12883578
0.07455246 0.19642605 0.16461632 0.037428807 0.17544688 0.08997181 0.2188521 0.17644693
0.12008579 0.19167244 0.08588506 0.09343838 0.15184811 0.13873132 0.09418974 0.112242274
0.02442247 0.034957934 0.033311445 0.015583156 0.10703587 0.01524359 0.015747642 0.055949263
0.13675359 0.16183035 0.12313494 0.06406385 0.113789484 0.07767336 0.18717326 0.06402845
0.15669616 0.17431033 0.07737413 0.17436415 0.09605159 0.15549293 0.061349466 0.076013274
0.04028506 0.067994684 0.082127154 0.10095516 0.004051824 0.0058518145 0.06529489 -0.012031298
0.013438789 -0.011937966 0.13553812 0.14216328 0.058001045 0.12226994 0.15866002 0.1232705
00000000: d552 fb3d de67 b73d 5341 2e3c 5dda 033e
00000010: f9b3 1f3e dd1e 0d3e 5c62 263e d1d6 3c3d
00000020: 4f6b b13d 44e3 0c3e ba0f d13d 4740 3a3d
00000030: 2b44 d63d 00d5 91bc 37bb 203d 1e1c 723d
00000040: 15c9 f43d 82f2 a33d 2770 163c 0e0a 633d
00000050: 2589 ca3d b483 453d ed88 f23d 9bf0 953d
00000060: 2331 f33d 4483 c93d ec16 ce3d bf70 f03d
00000070: 5400 ab3d 770e 083e 7748 bc3d 44b9 fa3d
00000080: 5aee de3d 56e7 783c 01f5 793d 1ee5 b13c
00000090: fd28 533d c59a 363d 7a72 d43d f8dc 89ba
000000a0: 9b71 433d ad64 ba3d a4bb 9a3d 0cb6 af3d
000000b0: 41fb 9d3b 4aab 163e 2c82 403d 3a34 883d
000000c0: ab29 603d bde0 0f3e f059 053e b7a4 673d
000000d0: 68fc 2e3e 089f 3f3e d134 a23d f554 063e
000000e0: 6c29 de3d 16ea 1d3e 0982 073e d37b 223e
000000f0: 42da e63d bbd4 053e c57d b63d a1b1 163e
00000100: cdb1 b43d c876 4c3d 4962 eb3d 6b1b be3c
00000110: 6731 5e3d 400c 423c 03ec f43d 5b9c 133e
00000120: 44d1 033e 8909 a63d bd85 133d ca97 d43d
00000130: d1e9 a43d ecbf d43d fd1f 263e 1e30 3f3e
00000140: a54d 3b3e 52c5 143e f80a 1a3e 017a 263e
00000150: 1061 113e a295 fe3d 2880 043e afdd 173e
00000160: 259f 203e c33a f03d aec2 0b3e 5fc9 2f3e
00000170: 3927 373e 59e0 9d3d 2e45 4a3e 3d71 253e
00000180: 2cd7 af3d 6724 2c3e 1d93 133e ea4d cc3d
00000190: 349d 833d ab3b 673d 16ca 273e 5e0d a83d
000001a0: fb49 4b3e 6d2a 1e3e d707 ef3d fef3 773e
000001b0: f979 b13d 9d70 243e 6737 7b3e aaa9 3a3e
000001c0: 2fb2 833e 2ca8 4b3e 6494 073e bd3a 533e
000001d0: 76e5 163e 3bf2 4b3e b354 ab3d 9751 203e
000001e0: b93d 0b3e af95 183e 3c64 d53d b0c1 313e
000001f0: acc6 3a3e 4c50 4c3e 6870 a03d e640 a93d
00000200: 349c 183e bad4 413d d41c 063e beb6 2e3e
00000210: 9dad 453e cf5b 103e cf84 e83d ad9a fe3d
00000220: 48c5 0b3e 0b99 363e 8abc 9a3d a80d 133e
00000230: ef41 423e 68cc 1f3e c4ac 1b3e b487 023e
00000240: 7406 d43d ea58 b53d 9655 553d 8099 bd3c
00000250: d368 d83d 5880 353d 76f9 663d 87ed 033e
00000260: f6ae 983d e923 493e 2e91 283e f34e 193d
00000270: 59a8 333e 2443 b83d c41a 603e 81ae 343e
00000280: 8aef f53d c845 443e 82e4 af3d 9f5c bf3d
00000290: 127e 1b3e 950f 0e3e 8de6 c03d 47df e53d
000002a0: a211 c83c 0d30 0f3d 9571 083d 7e50 7f3c
000002b0: 9f35 db3d 40c0 793c 3301 813c 0e2b 653d
000002c0: 2209 0c3e dbb6 253e 2c2e fc3d e833 833d
000002d0: 760a e93d 3613 9f3d 59aa 3f3e 5921 833d
000002e0: f574 203e 687e 323e 5476 9e3d 848c 323e
000002f0: b2b6 c43d 8a39 1f3e 9449 7b3d d9ac 9b3d
00000300: f201 253d cc40 8b3d 4832 a83d 94c1 ce3d
00000310: 2ac5 843b 94c0 bf3b 54b9 853d ec1e 45bc
00000320: 5e2e 5c3c 7597 43bc 81ca 0a3e 4093 113e
00000330: 8192 6d3d aa68 fa3d c677 223e 3e75 fc3d
