pqc_reup_v1_output/best_model_epoch_22.pth (torch, 61285 bytes, 6 tensors)

reupload_weights f4 [12, 3, 4]
0	0x3e42df94	0.19030601
1	0x3df83c7c	0.121209115
2	0x3e5b99ec	0.21445435
3	0xbe539f1d	-0.20666166
4	0x3ec14163	0.377452
5	0x3e22fd6d	0.15916987
6	0x3ec1bfbe	0.378416
7	0x3f567706	0.83775365
8	0x3d407da7	0.04699483
9	0x3e900f65	0.28136745
10	0x3e06a29f	0.13147973
11	0xbe8acfcc	-0.2711166
12	0xbe261c73	-0.1622179
13	0xbe28538b	-0.16438119
14	0xbbd4f4a1	-0.0064988886
15	0x3dfd19b2	0.123584166
16	0xbe982fed	-0.29724064
17	0xbefb93bf	-0.4913616
18	0xbdad9a0f	-0.0847665
19	0xbb3f3f94	-0.0029182183
20	0xbb5e3132	-0.0033903834
21	0x3e1ba603	0.15200047
22	0x3e0dfa70	0.13865066
23	0x3e57514e	0.21027109
24	0x3d2dacc3	0.042401087
25	0x3dc80e9d	0.09768412
26	0x3dbe1edc	0.0928323
27	0x3d70e5dd	0.058812965
28	0x3f4793b6	0.77959764
29	0x3ed031a6	0.4066288
30	0x3ead05c5	0.33793464
31	0x3ed5ebd7	0.41781494
32	0xbe3bcf55	-0.1834081
33	0xbb932a07	-0.004491094
34	0x3e2843ba	0.16432086
35	0x3e3f49e3	0.1868053
36	0x3d13ef51	0.0361169
37	0xbe271625	-0.16317041
38	0x3d8e332f	0.06943356
39	0xbe6c64ca	-0.23085323
40	0x3eb0da09	0.34541348
41	0x3f3a95e6	0.72884977
42	0x3ead9c9d	0.3390855
43	0xbe7539a8	-0.23947775
44	0x3f1572a3	0.58378047
45	0x3f64b400	0.8933716
46	0x3f0c3e9e	0.54783046
47	0xbd68147c	-0.05666016
48	0xbd5f033c	-0.054446444
49	0x3c4bb7eb	0.012433986
50	0x3e090a56	0.13382849
51	0x3e485eed	0.19567461
52	0x3e97a734	0.29619753
53	0x3ef27a1c	0.47358787
54	0xbea0e2ca	-0.31423026
55	0xbea321be	-0.3186168
56	0x3d58e2d4	0.052950695
57	0x3e730283	0.23731427
58	0xbeae9666	-0.3409912
59	0xbe732450	-0.23744321
60	0xbd7c9208	-0.061662704
61	0x3df0f5e2	0.117656484
62	0xbe3d7bf3	-0.18504314
63	0xbcff4d74	-0.031164862
64	0x3ea6b7f7	0.3256223
65	0xbc36a434	-0.0111475475
66	0x3dd3c2c8	0.10339886
67	0x3dabcb66	0.083884045
68	0x3d71689b	0.05893765
69	0xbe51d242	-0.20490363
70	0xbe9ae347	-0.30251524
71	0x3dbbab5f	0.09163546
72	0xbd301cc2	-0.042996176
73	0xbd0ece9c	-0.034865007
74	0xbd889d48	-0.06670624
75	0x3dee8e80	0.116482735
76	0x3d35f8b4	0.044426635
77	0xbe101a73	-0.1407259
78	0xbe89a62b	-0.2688459
79	0xbd43b3a9	-0.04777876
80	0x3eb8a978	0.36066794
81	0x3e6e185f	0.23251484
82	0x3e1eb3b2	0.15498236
83	0x3e356df1	0.1771772
84	0x3e09fee1	0.13476135
85	0x3dc52129	0.096254654
86	0x3da700f6	0.0815448
87	0xbcbd1a4b	-0.023083827
88	0xbe9705a0	-0.2949648
89	0xbed41463	-0.41421804
90	0x3e618a65	0.2202545
91	0x3e993f03	0.29930887
92	0xbee9b226	-0.4564373
93	0xbeb5480b	-0.35406527
94	0x3f03b45f	0.514471
95	0x3eb03f9a	0.34423524
96	0xbe88af3d	-0.26696196
97	0x3e23fa78	0.16013515
98	0xbc7bd704	-0.015371088
99	0x3d9035d9	0.070415206
100	0xbe64acd0	-0.22331548
101	0x3f110604	0.56649804
102	0x3f340805	0.70324737
103	0x3edf9e0b	0.43675265
104	0xbf0e363f	-0.5555152
105	0x3dec5670	0.11539924
106	0x3e7e3205	0.24823768
107	0x3cfe276a	0.031024653
108	0xbd8d8eeb	-0.06912025
109	0x3dc360aa	0.095399216
110	0x3d07e591	0.033177916
111	0x3e178d86	0.1480008
112	0xbd9942a9	-0.074834175
113	0xbd026efe	-0.03184413
114	0xbcdc9f6e	-0.02693149
115	0xbf725593	-0.94661826
116	0x3e946b62	0.28988177
117	0x3e5279f6	0.20554337
118	0x3e012a74	0.12613851
119	0x3e46a2ca	0.19398037
120	0xbda9ab18	-0.08284587
121	0xbe205eb9	-0.15661134
122	0x3d79debe	0.06100344
123	0x3d6cd4ce	0.057820134
124	0xbd9dd2b3	-0.07706203
125	0xbdf81ede	-0.121152624
126	0x3ee11a8b	0.43965563
127	0x3eb0ab3b	0.34505638
128	0xbf126f94	-0.57201505
129	0xbf3e7efa	-0.744125
130	0xbecace6a	-0.39610606
131	0xbef8c416	-0.48587102
132	0xbd9a7fdf	-0.07543921
133	0x3e87158b	0.26383623
134	0x3db9a180	0.09064007
135	0x3da4be6e	0.08044134
136	0xbf48b95d	-0.7840784
137	0xbe031163	-0.12799601
138	0xbef65ede	-0.48119253
139	0xbe20a8fb	-0.15689461
140	0xbf56f753	-0.83971137
141	0x3e061ee3	0.1309772
142	0xbe2ba564	-0.1676231
143	0x3c1fee4b	0.009761403

reupload_bias f4 [12, 3]
0	0xbee7b0c2	-0.45252043
1	0x3f3722cc	0.7153747
2	0xbc14ece4	-0.009089682
3	0x3ed7557c	0.42057407
4	0xbedcbaab	-0.43111166
5	0x3db1b895	0.08677784
6	0xbea9add7	-0.33140442
7	0x3f6c8caf	0.92402166
8	0x3d4aba77	0.049494233
9	0x3eb2571a	0.34832078
10	0x3e4b15fd	0.19832607
11	0x3f49dc9a	0.78852236
12	0xbecb9111	-0.39759114
13	0x3d805fd9	0.062682815
14	0xbe5c2559	-0.21498622
15	0x3e5b3876	0.21408257
16	0xbe8f1de4	-0.27952492
17	0xbe936758	-0.28789783
18	0xbe166081	-0.14685251
19	0xbe8a3f95	-0.27001634
20	0xbdceccf3	-0.10097685
21	0xbf0edf53	-0.55809516
22	0xbeadafba	-0.3392313
23	0xbd1739a7	-0.036920216
24	0x3eecf949	0.4628394
25	0x3f189e3b	0.5961644
26	0xbf087a61	-0.53311735
27	0xbecc62d0	-0.39919138
28	0xbf25cbcb	-0.6476409
29	0x3e3e411a	0.18579522
30	0x3e643fdd	0.22289987
31	0x3dd3614a	0.10321291
32	0xbf85bdf6	-1.0448596
33	0xbedeeef3	-0.4354168
34	0xbf0e8246	-0.5566753
35	0xbe208d1b	-0.15678827

mlr.0.weight f4 [64, 12]
0	0x3b8a086f	0.004212431
1	0xbc8d331b	-0.017236283
2	0x3d8e21fc	0.06940076
3	0x3da5ad0d	0.080896474
4	0xbe863deb	-0.26219115
5	0xbdda2d76	-0.10653202
6	0x3e78efb0	0.24310184
7	0x3de64eb8	0.11245483
8	0xbc6b3dd1	-0.014358
9	0xbe323890	-0.1740439
10	0xbe34da04	-0.17661291
11	0xbe846555	-0.2585856
12	0xbe1b9827	-0.1519476
13	0x3d941717	0.072309665
14	0x3e0c9842	0.13729957
15	0x3e04dce5	0.1297489
16	0xbe93d222	-0.28871256
17	0xbe49d1dd	-0.19708963
18	0xbdb988a5	-0.09059266
19	0x3e963ca2	0.29343134
20	0x3c0742ae	0.008255644
21	0xbdc53fb2	-0.096312895
22	0x3d98c234	0.07458916
23	0xbdd68993	-0.10475459
24	0xbe4973e1	-0.1967311
25	0x3e4e9bcc	0.2017662
26	0xbe1083d7	-0.14112793
27	0xbd88630f	-0.06659519
28	0xbe9824f3	-0.2971569
29	0x3e3cb045	0.18426616
30	0x3e55d15c	0.20880646
31	0x3dc5716a	0.09640773
32	0xbe57f0b7	-0.21087919
33	0xbe966b50	-0.29378748
34	0xbe7ad965	-0.24496992
35	0x3e534d5e	0.20634982
36	0x3e0debbe	0.1385946
37	0x3e78c064	0.24292141
38	0x3e1adb91	0.1512282
39	0x3d95a139	0.073061414
40	0xbb394397	-0.0028269046
41	0xbe60cee1	-0.21953918
42	0xbe7d43c4	-0.24732882
43	0xbe8a3eff	-0.27001187
44	0x3df2047c	0.118172616
45	0xbe1121bc	-0.14173025
46	0xbd6df6b7	-0.058096614
47	0xbe2a1f0c	-0.16613406
48	0xbd5776ac	-0.05260341
49	0xbe500e52	-0.20317963
50	0xbe4126e0	-0.18862486
51	0x3dc41c12	0.095756665
52	0xbdafb459	-0.085793205
53	0x3e367d1c	0.17821163
54	0xbdbdaa0e	-0.09260951
55	0xbe58d84d	-0.21176262
56	0xbd509fad	-0.05093353
57	0xbe0f4aff	-0.13993452
58	0xbdb4dfec	-0.08831772
59	0xbe8cb4e0	-0.27481747
60	0x3e28210b	0.16418855
61	0xbe6a6215	-0.22888978
62	0x3e2647cb	0.16238324
63	0x3dab93c8	0.083777964
64	0x3e56d1b0	0.20978427
65	0xbe73fa57	-0.23825966
66	0x3e6edb07	0.2332574
67	0xbe450b48	-0.19242585
68	0x3dbeef6a	0.09323008
69	0x3e8530c0	0.26013756
70	0xbc408598	-0.011750601
71	0xbd64c6a9	-0.05585352
72	0xba9883dd	-0.0011635978
73	0xbe9474a8	-0.28995252
74	0x3e6a49ac	0.22879666
75	0xbeca503d	-0.39514342
76	0x3e709d3f	0.23497485
77	0x3e3e3f94	0.1857894
78	0x3ec0b2ba	0.37636358
79	0xbe46db82	-0.19419673
80	0xbe6333c8	-0.22187722
81	0x3d26c64c	0.040716454
82	0x3e94f0ff	0.29090115
83	0xbec99d9f	-0.39378068
84	0xbd8631bb	-0.06552454
85	0xbe313377	-0.17304789
86	0xbcced62a	-0.025248606
87	0xbe117ffd	-0.1420898
88	0xbdf1aa87	-0.11800104
89	0xbdbbaf0d	-0.09164248
90	0xbe8c74de	-0.27432913
91	0x3e728b75	0.23686011
92	0x3e77d042	0.24200538
93	0xbd397beb	-0.045284193
94	0xbd06a7da	-0.03287492
95	0xbdf14881	-0.11781407
96	0xbe857964	-0.26069176
97	0xbe8fd516	-0.2809226
98	0x3ddbba19	0.10728855
99	0xbe224cc5	-0.15849598
100	0xbe3e095d	-0.1855826
101	0xbcb882e7	-0.022523357
102	0xbdc4e0e0	-0.09613204
103	0xbdbf4484	-0.0933924
104	0x3c17f82b	0.009275476
105	0xbd7acdf8	-0.061231583
106	0xbdcb8f4f	-0.09939443
107	0xbe0d8960	-0.13821936
108	0xbe8247d3	-0.25445423
109	0x3e81bee7	0.2534096
110	0xbe0d534f	-0.13801311
111	0x3dd059ba	0.10173364
112	0xbdeea9e4	-0.11653498
113	0x3d116090	0.03549248
114	0x3e7d9bd8	0.24766481
115	0x3e2f0e20	0.17095232
116	0xbe84a554	-0.25907385
117	0x3e0a5eeb	0.13512771
118	0x3e7d742b	0.24751346
119	0x3dd78f11	0.105253346
120	0x3e2590ae	0.16168472
121	0x3e97cd03	0.296486
122	0xbdbf9b6e	-0.09355818
123	0x3dd1368a	0.102154806
124	0xbe71f291	-0.23627688
125	0xbd51970a	-0.051169433
126	0x3e269414	0.16267425
127	0x3e4fab0b	0.20280091
128	0xbe4b9691	-0.19881655
129	0xbe70ebe1	-0.2352748
130	0xbe84e60a	-0.25956756
131	0xbe6859c1	-0.22690488
132	0xbe64195c	-0.22275299
133	0xbd923431	-0.07138861
134	0x3e477ef6	0.19482026
135	0x3d45ea3d	0.04831909
136	0xbe60d667	-0.21956788
137	0xbe6d23db	-0.23158209
138	0x3e130e2b	0.14360873
139	0xbe5be1c8	-0.21472847
140	0xbd11966a	-0.035543837
141	0x3e0dcd7e	0.1384792
142	0xbe08cf0d	-0.13360234
143	0xbd00ee24	-0.03147711
144	0xbccdd859	-0.025127577
145	0xbd8bdea2	-0.06829573
146	0xbe15e162	-0.14636758
147	0xbe83c18e	-0.25733608
148	0xbe6ef3f9	-0.23335256
149	0xbe1e48c5	-0.15457447
150	0x3e8ec09f	0.27881333
151	0xbe0ec7e0	-0.13943434
152	0xbe468183	-0.19385342
153	0x3d8f4e19	0.06997318
154	0x3da2f152	0.079561844
155	0x3e21f6c5	0.15816791
156	0x3e7ee12e	0.24890587
157	0x3e543c8f	0.20726226
158	0xbe91dd5f	-0.28489205
159	0x3dbfa7af	0.09358155
160	0x3e3f875b	0.18703978
161	0x3c5449e8	0.012957074
162	0xbe31a0bd	-0.17346473
163	0x3ebe7c74	0.37204325
164	0xbd97a2ad	-0.07404075
165	0xbdf5b7e2	-0.119979635
166	0xbe82ab9f	-0.25521562
167	0x3de01512	0.10941519
168	0x3d0fca69	0.035105143
169	0x3dc0c04b	0.09411677
170	0x3b24e762	0.002516233
171	0xbe1a60fe	-0.15076062
172	0xbe9aa20e	-0.30201763
173	0x3cc113aa	0.023568947
174	0x3e520bac	0.20512265
175	0x3e4d2eb1	0.20037343
176	0xbe4e9f00	-0.20177841
177	0xbd1dfbcd	-0.038570214
178	0xbea8b073	-0.3294712
179	0xbe07712a	-0.13226762
180	0x3bd41f16	0.0064734323
181	0x3de4e245	0.1117597
182	0x3e33e67e	0.17568395
183	0xbe98848c	-0.29788625
184	0x3e0a5ffb	0.13513176
185	0xbe7c85a5	-0.24660356
186	0x3d33bdfc	0.043882355
187	0x3e644bf1	0.22294594
188	0xbd382fbe	-0.044967405
189	0x3e5fbd01	0.21849443
190	0xbe9b32ef	-0.30312297
191	0xbe0225a8	-0.12709677
192	0x3e65774a	0.22408786
193	0xbde8e658	-0.113720596
194	0x3c937f61	0.018005075
195	0xbe6806bb	-0.22658817
196	0x3e7e646f	0.24843
197	0x3dd5dcad	0.10442481
198	0x3e3773b5	0.17915232
199	0xbe922cf9	-0.28549936
200	0xbe63886d	-0.22220011
201	0xba14be64	-0.00056741224
202	0x3e4b3e78	0.19848049
203	0xbe79bfd3	-0.24389581
204	0xbda56b12	-0.08077063
205	0x3e47a415	0.19496186
206	0x3cbc61a2	0.022995774
207	0x3c5564e2	0.013024541
208	0xbd917f0c	-0.071043104
209	0xbe85d901	-0.26142123
210	0xbe8af8bc	-0.27142894
211	0xbe0d4d87	-0.13799106
212	0xbe1642f2	-0.14673975
213	0x3db8314c	0.08993778
214	0xbdac1b4b	-0.08403643
215	0xbde74b0a	-0.112936094
216	0x3ea64a70	0.32478666
217	0x3ddb54e6	0.107095525
218	0x3e6e7b3c	0.23289198
219	0xbe14dbe0	-0.14537
220	0xbdca48a0	-0.09877133
221	0x3dec1fc9	0.115295
222	0xbe2866a4	-0.16445404
223	0xbe3255b9	-0.17415513
224	0x3c41a82c	0.01181988
225	0xbdaffb34	-0.08592835
226	0xbe28493d	-0.16434188
227	0x3e4362a2	0.19080594
228	0x3e794c09	0.24345411
229	0x3d13760e	0.036001258
230	0xbd91e365	-0.0712345
231	0xbe8fa38d	-0.28054467
232	0xbdf8c888	-0.12147623
233	0x3d7cb98c	0.06170039
234	0x3de85c40	0.1134572
235	0xbccf2b45	-0.025289187
236	0xbde9e386	-0.1142035
237	0x3e239a6c	0.15976876
238	0xbe711922	-0.23544744
239	0x3e4a1584	0.1973477
240	0xbd0e7c32	-0.03478641
241	0x3dc837be	0.09776257
242	0x3c1e3243	0.009655538
243	0x3e11e41f	0.14247178
244	0xbc6c605c	-0.014427271
245	0x3e9c4563	0.30521688
246	0x3d6ee0c3	0.05831982
247	0x3eb312f0	0.34975386
248	0x3eb821b2	0.35963207
249	0xbd3285ca	-0.043584622
250	0xbe1253c5	-0.14289768
251	0x3eb6111e	0.35559934
252	0x3e67a38e	0.22620985
253	0xbe61b506	-0.22041711
254	0xbcb6cf13	-0.022315538
255	0xbe91c049	-0.28467014

mlr.0.bias f4 [64]
0	0xbda2912d	-0.07937846
1	0x3e2f08f9	0.17093267
2	0x3da50b81	0.08058835
3	0xbd4e2dc2	-0.050336607
4	0x3d47be5c	0.048765525
5	0xbe009509	-0.12556852
6	0x3dc4b9ea	0.09605773
7	0x3de9dc28	0.114189446
8	0x3d9ec429	0.07752258
9	0xbe10d7a3	-0.14144759
10	0x3e4a674f	0.19765972
11	0xbd2ab479	-0.04167602
12	0xbde62aa7	-0.11238604
13	0x3e3f2b2e	0.18668815
14	0x3ea9b04a	0.3314231
15	0x3e370a3f	0.17875002
16	0x3da60a21	0.08107401
17	0xbdc989ea	-0.09840758
18	0x3dfdd44a	0.123940066
19	0x3e3bdce0	0.18345976
20	0xbe7d58d3	-0.24740915
21	0xbd127c4e	-0.035763077
22	0xbe532bfd	-0.20622249
23	0x3d5c5ab1	0.053797428
24	0x3d662c09	0.05619434
25	0xbd9430dd	-0.072358824
26	0xbcc5d5ab	-0.024149736
27	0x3d02b6b5	0.031912524
28	0xbd8eb0b8	-0.069673
29	0xbe83697b	-0.25666413
30	0x3e1b382d	0.15158148
31	0xbe14c80d	-0.14529438
32	0xbdc61fad	-0.096740104
33	0x3cdf10c7	0.02722968
34	0xbcddfffa	-0.027099598
35	0xbe8b08f3	-0.27155265
36	0x3e079f70	0.13244414
37	0xbe0645b8	-0.13112533
38	0xbe22bd3b	-0.15892498
39	0x3cd0ac32	0.025472734
40	0xbe1a43a0	-0.1506486
41	0xbe4875fa	-0.19576254
42	0xbdc73501	-0.097269066
43	0xbe095451	-0.1341107
44	0xbdf6e8f9	-0.12056155
45	0xbdbd26e1	-0.09235931
46	0xbc4786f9	-0.012178176
47	0xbe6f3520	-0.2336011
48	0xbe32ec41	-0.17472936
49	0x3b8a066a	0.0042121904
50	0x3d246f9e	0.04014551
51	0x3d6d5440	0.057941675
52	0xbe402052	-0.18762329
53	0x3dbcb61c	0.09214422
54	0x3db23376	0.08701222
55	0x3d46c2a4	0.048525468
56	0xbe8f95a6	-0.2804386
57	0xbe289820	-0.16464281
58	0xbe81b853	-0.2533594
59	0xbe315dd1	-0.17320944
60	0x3e01c251	0.12671782
61	0xbd308e8d	-0.043104697
62	0x3dfb1799	0.1226036
63	0xbe2d8562	-0.16945413

mlr.2.weight f4 [208, 64]
0	0x3c9b9b60	0.018994987
1	0xbcfa655e	-0.030565914
2	0x3d4763a2	0.048679
3	0xbd5ff024	-0.054672375
4	0xbd006380	-0.03134489
5	0xbdc0e3eb	-0.09418472
6	0xbe999d5f	-0.30002877
7	0x3df31122	0.11868502
8	0x3d78837c	0.06067227
9	0x3c1dfd9c	0.009642985
10	0x3d57927a	0.052629925
11	0xbc608f60	-0.013706058
12	0xbdce1958	-0.10063428
13	0x3e3eb952	0.18625382
14	0x3c840351	0.016114863
15	0x3da437a4	0.08018425
16	0xbe5f91bc	-0.21832937
17	0xbd6f9318	-0.05848989
18	0x3d4b1142	0.049577005
19	0x3dada746	0.084791705
20	0x3e0c4f80	0.13702202
21	0xbd76c180	-0.06024313
22	0x3e0b2423	0.13588004
23	0xbc96bcc0	-0.01840055
24	0xbcc9f17d	-0.024651283
25	0x3beb704c	0.0071850177
26	0x3dfc0300	0.1230526
27	0x3d566d3b	0.052350264
28	0xbc8e0b6e	-0.017339434
29	0x3c18640b	0.009301196
30	0x3d46a130	0.048493564
31	0xbdd79c4a	-0.10527857
32	0xbd241f2d	-0.040068794
33	0x3d95d588	0.073161185
34	0x3e1a8d66	0.15093002
35	0x3df44d08	0.11928755
36	0xbdb8d136	-0.09024279
37	0x3d8a7604	0.06760791
38	0xbd8d32f4	-0.06894484
39	0x3e0b3b3c	0.13596815
40	0x3db8b7c8	0.090194285
41	0x3e578aa1	0.21048976
42	0x3db85548	0.09000641
43	0x3e01862a	0.12648836
44	0x3b1f7240	0.0024329573
45	0x3e00500d	0.12530537
46	0x3d04874d	0.032355595
47	0x3d5ef150	0.054429352
48	0xbd248ecc	-0.040175244
49	0xbb098e00	-0.002098918
50	0xbdded126	-0.10879736
51	0x3c6ce123	0.014457974
52	0xbd523afb	-0.05132578
53	0xbd2cb550	-0.0421651
54	0xbd85d7c8	-0.06535298
55	0xbd780ce4	-0.06055917
56	0x3e18ce7a	0.14922515
57	0x3e088d7c	0.13335222
58	0x3e170821	0.14749195
59	0x3e0c93fb	0.13728325
60	0xbaddbc79	-0.0016917131
61	0xbdfd2fbe	-0.12362622
62	0x3d42356c	0.04741423
63	0x3d8f70bc	0.07003924
64	0xbddbc772	-0.107314005
65	0x3dcb7b6c	0.0993565
66	0x3dce0081	0.1005869
67	0x3bf81f20	0.0075720698
68	0xbd9a3abe	-0.075307354
69	0x3de3c558	0.11121625
70	0xbec6b367	-0.38808748
71	0x3da98604	0.082775146
72	0xbdad210c	-0.08453569
73	0x3e4127fd	0.1886291
74	0xbd14e243	-0.036348592
75	0x3dfd4f80	0.12368679
76	0xbd58ef2c	-0.052962467
77	0x3e4a1bd1	0.19737174
78	0x3c943469	0.018091397
79	0x3db6c9f4	0.08925238
80	0xbea76363	-0.32693014
81	0x3d524be8	0.05134192
82	0xbbe71ce8	-0.0070530064
83	0xbd8bd70a	-0.06828125
84	0x3de4fbe5	0.111808576
85	0x3dc895fc	0.09794232
86	0x3ad22f6e	0.0016035864
87	0x3d20ee58	0.039289802
88	0x3cb0808a	0.021545667
89	0x3e3f654e	0.18690988
90	0x3d9936a8	0.07481128
91	0x3dc7c660	0.09754634
92	0xbd7abf9b	-0.061217885
93	0xbca81f81	-0.020522835
94	0x3d067c12	0.032833166
95	0xbd962f34	-0.07333222
96	0x3e485326	0.19562969
97	0xbdf60282	-0.12012197
98	0x3df26429	0.1183551
99	0x3dff35c2	0.12461425
100	0x3d80364a	0.06260355
101	0x3d2e94c4	0.042622343
102	0xbde4d724	-0.11173847
103	0x3e4d33bf	0.20039271
104	0xbcaf2718	-0.021380946
105	0x3d6bf418	0.057605833
106	0x3dfcb6b4	0.12339535
107	0x3c5c33bc	0.013440069
108	0xbc10e420	-0.008843452
109	0x3e545e23	0.20739035
110	0x3cab07e2	0.020877782
111	0xbdb51e10	-0.088436246
112	0x3ca68528	0.020327166
113	0xbc891100	-0.016731739
114	0x3cebdeb8	0.028792724
115	0xbd33fe12	-0.043943472
116	0x3d112678	0.035437077
117	0xbd63b78c	-0.055594966
118	0xbd381684	-0.044943348
119	0xbd7cd16a	-0.06172315
120	0x3e45f57d	0.19331928
121	0x3dc2c722	0.09510638
122	0xbd582833	-0.052772712
123	0x3e4f63c3	0.202529
124	0x3e089e08	0.13341534
125	0x3cbe0448	0.0231954
126	0xbd964e92	-0.07339205
127	0x3c9a6c80	0.018850565
128	0x3df6aa92	0.120442525
129	0x3e18c874	0.14920217
130	0xbdd9fadc	-0.10643551
131	0x3de9aea6	0.11410265
132	0x3c1ebd70	0.00968872
133	0x3d9872ee	0.07443796
134	0xbe87014b	-0.26368174
135	0x3dda3e0a	0.10656364
136	0xbdc78f98	-0.09744185
137	0x3e47d3e1	0.19514419
138	0xbc08c4c4	-0.008347694
139	0x3c1987d0	0.009370759
140	0xbdb2e22c	-0.08734545
141	0x3dccb2a1	0.09995008
142	0x3e215708	0.15755856
143	0x3d5fd286	0.05464413
144	0xbe8182eb	-0.25295195
145	0x3c2186e0	0.009858817
146	0x3e3984eb	0.1811711
147	0x3e069ebd	0.13146491
148	0x3e527091	0.20550753
149	0x3d4ced3c	0.05003093
150	0x3df22e4a	0.11825235
151	0xbbbd06c0	-0.005768627
152	0x3da9b823	0.082870744
153	0x3deb9c8e	0.1150447
154	0xbddf43f2	-0.109016314
155	0xbd0e0f02	-0.03468228
156	0x3c8e5a3a	0.017377008
157	0x3cd48239	0.025941001
158	0x3df7b254	0.1209456
159	0xbceaf740	-0.028682351
160	0x3dbd67de	0.09248327
161	0x3da68ebe	0.08132695
162	0x3cbbc67e	0.022921797
163	0x3dcd0534	0.10010758
164	0x3dca20b8	0.09869522
165	0xbdc47ac2	-0.09593727
166	0xbdb44678	-0.08802503
167	0xbca4b1f3	-0.020104384
168	0xbd8c4b0e	-0.06850253
169	0x3dc25e68	0.09490663
170	0xbc1a26e0	-0.009408683
171	0x3cf104c3	0.029421216
172	0xbd8157f8	-0.06315607
173	0x3d479392	0.04872472
174	0x3d5f7c00	0.054561615
175	0x3dfb2552	0.12262978
176	0xbd3dc310	-0.046328604
177	0xbdb74bd6	-0.089500114
178	0x3d54d650	0.051962197
179	0x3d628a32	0.055307575
180	0x3df489ee	0.119403705
181	0x3d9ff508	0.07810408
182	0x3e0b06b9	0.13576783
183	0xbcffbb36	-0.031217199
184	0x3e28274e	0.16421244
185	0x3e315b43	0.1731997
186	0xbcd97b93	-0.026548183
187	0x3e4a2f4c	0.19744605
188	0x3e44d7de	0.19222972
189	0x3ab36c80	0.0013688952
190	0x3d76dcb0	0.060269058
191	0xbd330198	-0.04370269
192	0xbddf4770	-0.109022975
193	0x3d7f9b97	0.06240424
194	0x3d4a08f2	0.049324937
195	0xbda74fa4	-0.08169487
196	0x3d7851e0	0.060624957
197	0xbdd39838	-0.10331768
198	0xbee29a6a	-0.44258434
199	0x3df7e86e	0.12104879
200	0x3d0b6574	0.0340323
201	0x3ccdf909	0.025143163
202	0x3d90bd81	0.07067395
203	0x3cae8178	0.02130197
204	0x3d0b38f0	0.033989847
205	0x3e0e0043	0.13867287
206	0xbd5cb7d9	-0.05388627
207	0xbcb0c716	-0.021579307
208	0xbeaf96f1	-0.34294847
209	0x3d0ba01c	0.03408824
210	0x3d190115	0.037354548
211	0x3dfaa824	0.122391015
212	0x3db6cf2e	0.08926235
213	0xbb9529a0	-0.004552081
214	0x3d54506c	0.05183451
215	0xbd07fb48	-0.033198625
216	0x3e0d9597	0.13826595
217	0x3db073ef	0.086158626
218	0xbdec9a56	-0.11552875
219	0x3d002f96	0.03129538
220	0xbd66ed48	-0.056378633
221	0x3dabe6d7	0.083936386
222	0x3cb92b62	0.022603694
223	0xbdfdef66	-0.12399177
224	0x3d8e9ea6	0.069638535
225	0xbc4427f0	-0.0119724125
226	0x3b01624c	0.0019742427
227	0x3deb3532	0.114847556
228	0xbcdf6f98	-0.027274892
229	0x3da47574	0.08030215
230	0x3d20e161	0.039277438
231	0xbd167dcf	-0.036741074
232	0x3cf0a030	0.029373258
233	0x3e8a6dbb	0.27036843
234	0xbda77324	-0.08176258
235	0xbcc82f28	-0.024436548
236	0x3dfa95da	0.12235613
237	0x3e35e2ff	0.17762373
238	0x3cf46ef2	0.02983806
239	0x3d9a0bf6	0.075218126
240	0xbc8300a0	-0.015991509
241	0xbdfc65de	-0.12324117
242	0x3c19df90	0.00939168
243	0x3dba620a	0.09100731
244	0xbc451598	-0.012029074
245	0x3d321dc8	0.043485433
246	0xbdd2ee78	-0.102993906
247	0x3e071c5e	0.13194415
248	0x3e8eef8c	0.27917135
249	0x3e084603	0.13307957
250	0x3d980dce	0.07424508
251	0x3e03badd	0.12864251
252	0xbc5f7716	-0.013639232
253	0xbcffded0	-0.031234175
254	0xbc438480	-0.011933446
255	0xbd8e75e0	-0.069560766

mlr.2.bias f4 [208]
0	0x3db38ff0	0.08767688
1	0x3cba1c98	0.022718713
2	0xbd33977b	-0.043845635
3	0x3d9291ee	0.0715674
4	0x3df2edd4	0.11861768
5	0x3dfce591	0.12348474
6	0x3e0c73f9	0.13716115
7	0xbbb22f10	-0.005437739
8	0x3dd5c63e	0.10438202
9	0x3de697f7	0.11259454
10	0x3dc88210	0.097904325
11	0xbc4cb6f1	-0.0124947885
12	0x3dfff9f5	0.124988474
13	0xbd4aa764	-0.049476042
14	0xbc921b69	-0.017835336
15	0x3db1b54e	0.08677159
16	0x3de0cbf6	0.109764025
17	0x3d8fbffe	0.070190415
18	0x3c6a69d9	0.014307463
19	0xbcf102c9	-0.029420273
20	0x3dbd8f6d	0.09255872
21	0xbc379649	-0.011205264
22	0x3dad9511	0.08475698
23	0x3d2f332c	0.04277341
24	0x3da11d59	0.07866926
25	0x3d922cda	0.07137461
26	0x3ce67d7b	0.028136006
27	0x3caf0d3f	0.02136862
28	0x3cc304b1	0.023805948
29	0x3cbbe160	0.022934616
30	0xbb59df5b	-0.0033244702
31	0x3da7a29c	0.08185312
32	0x3d9ea432	0.077461615
33	0xbd31d6b0	-0.043417633
34	0x3c9d1234	0.019173719
35	0xbd057df2	-0.032590814
36	0x3d2f5e94	0.042814806
37	0x3b6fe2cf	0.0036603694
38	0x3df5edef	0.12008273
39	0xbd3ec538	-0.0465748
40	0x3c8790d0	0.016548544
41	0x3e0aed3b	0.13567059
42	0x3d448a23	0.0479833
43	0x3dde93d3	0.10868039
44	0xbbbc4d9f	-0.005746558
45	0x3dd26246	0.102726504
46	0xbd11616d	-0.035493303
47	0xbc1b3d5d	-0.009475079
48	0xbd1c3632	-0.038137622
49	0x3e02628d	0.12732907
50	0x3d94d1d2	0.072665825
51	0x3bec9507	0.007219914
52	0x3d89e781	0.06733609
53	0x3d9e4bd7	0.07729309
54	0xbc885eb5	-0.016646722
55	0xbbaa5f8d	-0.005199379
56	0x3d6992a9	0.05702463
57	0x3dd46184	0.10370162
58	0x3d8565b5	0.0651354
59	0x3e0b9756	0.13631949
60	0x3d7aa31e	0.061190717
61	0x3dcb6ce0	0.09932876
62	0x3d89bdbd	0.06725643
63	0x3e005791	0.12533404
64	0x3d8ba770	0.068190455
65	0xbbfea675	-0.007771308
66	0x3dd31705	0.10307125
67	0x3bdb5439	0.0066933897
68	0xbc0df0c7	-0.008663363
69	0xbd096a3a	-0.03354857
70	0x3df8aeb4	0.12142697
71	0x3d6e21ed	0.058137823
72	0x3db11ac4	0.08647683
73	0xbc49f114	-0.012325544
74	0xbd5ba7c8	-0.053626806
75	0x3d3a684b	0.045509618
76	0xbd2bced8	-0.04194531
77	0x3d55b3e3	0.052173506
78	0x3d081eab	0.033232372
79	0x3d95dd0d	0.07317553
80	0x3e00041c	0.12501568
81	0xbcbb2c79	-0.022848355
82	0x3dc07418	0.09397143
83	0x3cbc4c4e	0.022985604
84	0x3cc48ede	0.023993906
85	0x381f3d28	3.796551e-05
86	0x3c40133a	0.011723334
87	0x3da8320a	0.08212669
88	0x3db5be48	0.08874184
89	0xbd1ff23b	-0.03904937
90	0x3d8062f0	0.06268871
91	0x3d853363	0.06503942
92	0x3de78a6e	0.113057
93	0x3d058ba4	0.032603875
94	0x3e14295b	0.14468901
95	0x3e033883	0.12814526
96	0xbd16dd9f	-0.036832448
97	0x3dabab2d	0.083822586
98	0x3d8c54da	0.06852122
99	0x3b82b518	0.003988873
100	0xbd0bae51	-0.034101788
101	0xbd2441ee	-0.040101938
102	0x3d7ea52c	0.06216924
103	0xbb9d3a22	-0.0047981897
104	0x3daba134	0.083803564
105	0x3d5b99f2	0.05361361
106	0x3cbe1d61	0.023207368
107	0x3e075f4d	0.13219948
108	0xbc3676b2	-0.011136698
109	0x3cdcba3b	0.02694427
110	0x3de851c0	0.113437176
111	0x3db76974	0.089556605
112	0x3e11dfda	0.14245549
113	0x3dceb160	0.10092425
114	0xbcce2f4a	-0.025169034
115	0x3dcdb100	0.10043526
116	0x3d3955a3	0.045247685
117	0x3dd6a152	0.10479988
118	0xbc3450b7	-0.011005572
119	0x3da6c347	0.08142715
120	0x3b995553	0.004679361
121	0x3d970357	0.07373684
122	0xbca94188	-0.02066113
123	0x3d911731	0.070845015
124	0x3db5d574	0.088786036
125	0x3dc763b8	0.09735817
126	0xbcc00fec	-0.023445092
127	0xbd655fa4	-0.055999413
128	0x3d891704	0.06693843
129	0xbd18cda0	-0.037305474
130	0xbccd820b	-0.025086423
131	0x3d8bd1bc	0.06827113
132	0x3df04263	0.11731412
133	0xbceb1cff	-0.02870035
134	0x3c53f23b	0.01293617
135	0xbc281a5d	-0.010260192
136	0x3ccdb606	0.02511121
137	0x3dbc9b32	0.09209289
138	0xbd285cf9	-0.04110429
139	0x3df88400	0.12134552
140	0x3dc6450f	0.09681141
141	0x3d67d426	0.056598805
142	0x3dd5ad32	0.10433425
143	0x3d8c8682	0.06861593
144	0x3d3f1cdb	0.046658378
145	0x3c15c2b3	0.009140658
146	0xbd033714	-0.03203495
147	0xbd876b18	-0.066122234
148	0x3d7574c0	0.059925795
149	0xbc3b139a	-0.011418248
150	0xbd8bfac9	-0.06834943
151	0xbc55f811	-0.013059632
152	0xbd3c10da	-0.04591451
153	0x3dbfee5e	0.09371637
154	0x3d98711a	0.074434474
155	0xbdb2147a	-0.08695312
156	0x3da02ac1	0.07820655
157	0xbbf94264	-0.0076067913
158	0x3e032783	0.12808041
159	0x3d87354c	0.066019624
160	0x3cda5bdf	0.026655136
161	0x3dcef15a	0.10104628
162	0xbcb13a98	-0.021634385
163	0x3b0c45fc	0.0021404019
164	0x3dd6a5fe	0.10480879
165	0x3de38a94	0.11110416
166	0x3cf2dcdb	0.029646328
167	0x3db97530	0.09055555
168	0xbd699653	-0.057028126
169	0xbd7c8f89	-0.061660323
170	0xbc43e296	-0.011955878
171	0xbda9042f	-0.08252751
172	0x3da1fb44	0.07909253
173	0xbd26f53f	-0.04076123
174	0xbd56858d	-0.052373458
175	0x3d5e2e58	0.054243416
176	0x3c8d38e3	0.01723904
177	0x3d82b6a7	0.063824944
178	0x3d7c9dee	0.06167405
179	0xbd3b6c5c	-0.045757636
180	0x3d511025	0.051040787
181	0xbbeaf090	-0.0071697906
182	0x3dc5afe9	0.09652693
183	0xbcce2d78	-0.025168166
184	0x3d71a633	0.05899639
185	0x3da530d6	0.08065955
186	0xbd170365	-0.03686847
187	0x3da5c145	0.08093504
188	0x3c531a78	0.012884729
189	0x3db04536	0.08606951
190	0xbc0617c6	-0.008184379
191	0x3cf4484a	0.029819626
192	0xbd51e561	-0.051244143
193	0x3cbed7a7	0.02329619
194	0x3dbf852d	0.09351573
195	0x3d6c2a36	0.057657443
196	0xbd2b8b99	-0.041881178
197	0xbd8ce2c5	-0.0687919
198	0x3d9f17c2	0.07768203
199	0xbd2f5610	-0.042806685
200	0xbd80d759	-0.06291074
201	0xbd1aa277	-0.037752595
202	0x3d5bc2d7	0.05365261
203	0x3d1bc187	0.03802636
204	0xbd0aee6c	-0.033918783
205	0x3d81e020	0.063415766
206	0x3df76e50	0.12081587
207	0x3d476726	0.048682354
