pqc_reup_v1_output/best_model_epoch_240.pth (torch, 61297 bytes, 6 tensors)

reupload_weights f4 [12, 3, 4]
000000 9e 9e 35 3e ce 22 80 3d 6e f7 14 3e 6e 8d b4 bd
       0.17736289 0.062566385 0.14547512 -0.08816038
000010 94 8d a1 3d ee e0 4f bf b6 07 f5 3e d8 45 30 3f
       0.07888332 -0.8120259 0.47857445 0.68856573
000020 61 2a 32 3f 5d 4e 4a 3d 60 91 a0 3e de 71 32 bf
       0.69595915 0.04939114 0.31360912 -0.69705
000030 a4 76 65 be 3f 07 a8 3c f9 80 8f 3d a0 eb c8 bd
       -0.22408539 0.020511268 0.070070215 -0.09810567
000040 e0 89 29 3f 73 d0 6f bf 53 ae 0d bf c2 cf 2b 3e
       0.66226006 -0.93677443 -0.5534412 0.16778472
000050 0e 3c c6 be 7a 07 86 bc 90 fb ce 3e bb 70 9e 3e
       -0.38717693 -0.016360987 0.40426302 0.30945382
000060 e8 cb be 3e 0f 0a 73 3d e3 f7 44 3c 9a 55 be bc
       0.37264943 0.059335764 0.012021991 -0.023234177
000070 b0 9f 24 3f 06 a3 a6 be 0a 1b d0 bd 36 80 56 bf
       0.64306164 -0.32546252 -0.10161407 -0.83789384
000080 2d 99 96 be 6c f1 8f 3e 0c 72 47 3f bd 22 0a be
       -0.2941374 0.28113878 0.77908397 -0.13489814
000090 82 61 2c be 4f ee ef bd 02 c0 b3 3c 53 5a ae bd
       -0.16834071 -0.11715376 0.021942142 -0.08513322
0000a0 30 bc 42 3e 41 f7 5f 3f b1 bd 54 3e 7f bc 36 bf
       0.190171 0.87486655 0.20775487 -0.7138137
0000b0 c5 ea cd 3e e1 38 8b 3f a3 9d b3 be fa e9 73 be
       0.40218177 1.0876733 -0.35081205 -0.23819724
0000c0 ac 0f aa 3d c6 1b b9 bd f7 ba ca 3d 84 44 5e 3d
       0.083037704 -0.090385005 0.09898942 0.05426456
0000d0 51 18 68 3f 4f 73 5f 3f 33 18 8e bf 60 10 c5 be
       0.90662104 0.8728532 -1.1101135 -0.38489056
0000e0 a8 83 a5 3e 18 50 6d 3e 3e fc 93 bf 47 71 89 be
       0.32327008 0.23175085 -1.1561353 -0.26844236
0000f0 49 1e 34 bd 1d c5 83 3c 4e 32 dd bd a1 15 48 be
       -0.043974195 0.016085202 -0.108006105 -0.19539501
000100 c9 51 1f 3f c7 06 c9 3e 7c af 92 be 93 88 06 3d
       0.6223417 0.39262983 -0.2864951 0.03284509
000110 e1 4e 36 be de 2e bd be ee 09 97 bf cf 42 41 3e
       -0.17803527 -0.3694982 -1.1799905 0.18873142
000120 e7 5e ba bb 10 29 0f 3d 82 7a 87 be 90 80 15 3d
       -0.005687583 0.03495127 -0.26460654 0.03649956
000130 27 9b 9f bd 5c fa 72 bd 97 6c e6 be 37 b4 11 3f
       -0.07793265 -0.059320793 -0.45004722 0.5691561
000140 51 f7 d6 3e 46 18 a5 3e 13 82 8a 3e 86 5f 1e 3f
       0.41985562 0.32245082 0.27052364 0.6186451
000150 ff 7f ae 3d 19 c0 8e 3d dc 9c 94 3d 65 8a a5 3a
       0.08520507 0.069702335 0.07256481 0.0012629746
000160 dd c4 63 be 15 a3 1a bf 33 c9 ae be 77 23 7e 3e
       -0.22243066 -0.60405093 -0.34137878 0.24818216
000170 89 29 a8 be fb 38 49 3e 98 9e 4a 3f fd e3 f7 3d
       -0.3284419 0.19650643 0.79148245 0.12104032
000180 6f bf 55 be 83 6c 41 3d 79 a6 4d 3e b9 4b 66 3d
       -0.20873807 0.047222625 0.20083036 0.05622456
000190 41 4d 0f be 22 b1 8e 3e 3d 3e 2b 3f 4b 87 84 3d
       -0.13994314 0.27869517 0.66891843 0.064711176
0001a0 d4 73 28 3e 4b 53 46 3f f1 8a 89 be 03 e4 89 be
       0.16450435 0.77470845 -0.26863816 -0.26931772
0001b0 62 7f 07 be 84 9f 88 3e 3b 17 6f 3e 20 1b 0b bb
       -0.13232186 0.266842 0.23348705 -0.0021225885
0001c0 c7 50 83 be ee 8b 2b 3f 4d fe be 3e b9 4a 37 bf
       -0.25647566 0.6701039 0.3730339 -0.7159839
0001d0 88 14 02 3f eb 39 99 3e 70 d5 b7 be 19 31 74 3f
       0.5081258 0.29927 -0.35905027 0.9538742
0001e0 f9 44 34 3e 36 0c 1e bf f1 37 39 be 6c 00 96 3e
       0.17604436 -0.6173738 -0.18087746 0.29297197
0001f0 4b 5f bd 3e ba 5a 29 3f 2a a8 15 3f cf 72 84 3e
       0.36986765 0.6615406 0.58459723 0.25868842
000200 55 fd 84 bf af ab 71 bf 89 d6 8f bf b9 69 8d bf
       -1.0389811 -0.94402593 -1.1237346 -1.1047889
000210 55 77 62 3c 30 fa e3 3d 11 ac f1 3d 34 a1 85 3e
       0.013822396 0.11131704 0.11800397 0.2609955
000220 72 5e 8c bf 9e 13 04 3f e6 88 01 be 8c a7 59 bf
       -1.0966322 0.51592433 -0.12649879 -0.8502128
000230 7c 4d a1 bf 8a a5 2f 3f 48 f3 91 3e c3 2d 73 be
       -1.2601771 0.6861197 0.2850592 -0.23747925

reupload_bias f4 [12, 3]
000000 87 39 14 bf 99 ea 82 3e cb b9 f6 be 1d 6d 0e 3f
       -0.5790028 0.2556961 -0.48188624 0.55635244
000010 4c d5 cc be 68 db db 3e 08 35 13 bf 3f d8 68 3f
       -0.40006483 0.4294083 -0.57502794 0.90954965
000020 c8 b1 30 3e 2e 74 06 3f ec dd 76 3f 7f cc f5 3f
       0.17255318 0.52521026 0.96432376 1.9203032
000030 df c5 c5 be 99 a3 e5 be 01 2a 0a 3f 6d b6 10 3f
       -0.38627526 -0.44851378 0.5397034 0.5652836
000040 82 f1 89 3e f8 d9 1e bf 80 02 b3 bd 16 fa 94 bb
       0.26942068 -0.62051344 -0.08740711 -0.004546414
000050 7a b2 8c 3e 54 38 41 bf d5 bc 3f bf d9 9e 57 be
       0.27479917 -0.75476575 -0.7489751 -0.2105669
000060 0c 3f 02 3f 53 03 60 3f 38 c9 06 bf 9c 54 24 bf
       0.5087745 0.8750507 -0.52650785 -0.64191604
000070 60 11 2c bf 97 7f 2a 3f f9 31 6f 3e 3e d1 f5 3e
       -0.6721401 0.66600937 0.23358907 0.48011202
000080 19 94 07 c0 d4 ab 14 bf f0 16 4e bf 51 d1 96 3f
       -2.1184142 -0.5807469 -0.8050375 1.1782628

mlr.0.weight f4 [64, 12]
000000 6f 08 8a 3b 1b 33 8d bc fc 21 8e 3d 0d ad a5 3d
       0.004212431 -0.017236283 0.06940076 0.080896474
000010 eb 3d 86 be 76 2d da bd b0 ef 78 3e b8 4e e6 3d
       -0.26219115 -0.10653202 0.24310184 0.11245483
000020 d1 3d 6b bc 90 38 32 be 04 da 34 be 55 65 84 be
       -0.014358 -0.1740439 -0.17661291 -0.2585856
000030 38 69 9c be 19 cf 89 bc 08 5a 86 3e ae 3c b1 bd
       -0.30549026 -0.016822385 0.26240563 -0.08654152
000040 95 62 16 bf e0 f8 17 bf dd c2 b8 3b 37 37 0f 3f
       -0.58744174 -0.5936413 0.005638464 0.55943626
000050 2c f1 a8 3d 70 c3 bc be 67 9c db 3e 3f 34 96 3d
       0.08249125 -0.36867857 0.42892763 0.07334184
000060 fb ae 77 be a4 9c 1c 3e 33 d9 3d be fe b5 ed bd
       -0.24187844 0.15294129 -0.18539886 -0.11606978
000070 02 5e b1 be 10 e1 0c 3e d7 2d 26 3e 32 f0 46 3d
       -0.34642035 0.1375773 0.16228424 0.04856891
000080 14 6c 84 be df 29 ae be 7d 2c 92 be cc 5f 23 3e
       -0.25863707 -0.3401632 -0.28549567 0.15954512
000090 be eb 0d 3e 64 c0 78 3e 91 db 1a 3e 39 a1 95 3d
       0.1385946 0.24292141 0.1512282 0.073061414
0000a0 97 43 39 bb e1 ce 60 be c4 43 7d be ff 3e 8a be
       -0.0028269046 -0.21953918 -0.24732882 -0.27001187
0000b0 7c 04 f2 3d bc 21 11 be b7 f6 6d bd 0c 1f 2a be
       0.118172616 -0.14173025 -0.058096614 -0.16613406
0000c0 72 a3 88 3e 85 fe 14 be 94 fd ea be c0 d3 82 bd
       0.266872 -0.14550216 -0.4589659 -0.06388044
0000d0 9f 4c dc 3d 72 c9 16 3e 87 8f 51 be 42 9d 1d bf
       0.10756802 0.14725283 -0.20464908 -0.6156808
0000e0 9e 66 2e be d6 83 20 be b9 29 48 3e da aa 9c be
       -0.17031333 -0.15675291 0.19547166 -0.305991
0000f0 a4 b4 e6 bd 7e 50 96 be fa 73 a8 3e 63 bd 90 3e
       -0.11264923 -0.29358286 0.32900983 0.2826949
000100 7a a5 ea 3e 20 ed 44 bf c0 84 c2 3e 22 53 75 be
       0.45829374 -0.76924324 0.37991905 -0.23957494
000110 1a 6e 25 3e c7 45 49 be c8 65 79 be 47 b0 60 be
       0.16155282 -0.19655524 -0.24355233 -0.21942244
000120 5c 87 d4 bd a4 cf d7 be ed a2 a3 3e 4f 91 09 bf
       -0.1037738 -0.42150605 0.3196024 -0.5373735
000130 2f 34 9e 3e cb 7c a0 3e ad e6 e4 3e bc df b4 be
       0.30899188 0.3134521 0.44707242 -0.35326946
000140 b0 01 84 be 45 a5 a1 3d 27 d4 24 3e 2c 3e e4 be
       -0.25782537 0.07892851 0.16096555 -0.44578683
000150 1a 8a 22 be e8 a5 8a be e1 26 06 3d 57 29 e3 be
       -0.15872994 -0.270797 0.03275192 -0.44367477
000160 cd 15 6a be ad c5 37 bc ad 22 06 be 00 ad e3 3e
       -0.22859879 -0.011216563 -0.13099165 0.44467926
000170 f7 63 44 3f 03 d4 a7 be b1 6f 53 3e 4f 1c 04 bd
       0.76715034 -0.3277894 0.20648076 -0.03225356
000180 2d 0a 45 3e 5b 4e 15 bf 3c a1 e3 be 03 43 bf be
       0.19242163 -0.58322686 -0.4445895 -0.37355813
000190 c3 77 2e be 17 e0 e6 be 86 a8 b2 be e1 35 96 be
       -0.17037873 -0.45092842 -0.34894198 -0.2933798
0001a0 a4 2e ce bc 8a 77 11 be a3 1b 41 3d 75 f3 1c be
       -0.025168724 -0.14205757 0.047145497 -0.15327246
0001b0 de 64 00 bf c5 8c d8 3e 88 8b 72 bd 0b ec 86 3d
       -0.5015391 0.422949 -0.0592151 0.065879904
0001c0 16 43 8b be cd 12 00 bb f1 81 9b 3e 9d b6 9e 3e
       -0.2719962 -0.0019542456 0.30372575 0.30998698
0001d0 e3 c5 27 bf a8 d5 ee 3e 29 7d dc 3e 90 60 8d bc
       -0.65536326 0.46647382 0.4306424 -0.017257959
0001e0 fd b0 b3 bd 2e fd 05 3f 28 9b ea bb 3e ee de 3e
       -0.08773992 0.52339447 -0.0071596093 0.4354114
0001f0 2d a7 ff be 22 21 9c be 2b 0e 72 3e 39 f0 ac 3e
       -0.49932232 -0.30494028 0.23638217 0.33777025
000200 c1 3a b0 be 7a d4 29 be 3b 47 ac be 75 20 8a be
       -0.34419826 -0.1658496 -0.33648095 -0.26977888
000210 5c 19 64 be 31 34 92 bd f6 7e 47 3e 3d ea 45 3d
       -0.22275299 -0.07138861 0.19482026 0.04831909
000220 67 d6 60 be db 23 6d be 2b 0e 13 3e c8 e1 5b be
       -0.21956788 -0.23158209 0.14360873 -0.21472847
000230 6a 96 11 bd 7e cd 0d 3e 0d cf 08 be 24 ee 00 bd
       -0.035543837 0.1384792 -0.13360234 -0.03147711
000240 59 d8 cd bc a2 de 8b bd 62 e1 15 be 8e c1 83 be
       -0.025127577 -0.06829573 -0.14636758 -0.25733608
000250 f9 f3 6e be c5 48 1e be 9f c0 8e 3e e0 c7 0e be
       -0.23335256 -0.15457447 0.27881333 -0.13943434
000260 83 81 46 be 19 4e 8f 3d 52 f1 a2 3d c5 f6 21 3e
       -0.19385342 0.06997318 0.079561844 0.15816791
000270 9d 1a 26 3f 32 05 8f 3d b7 07 e8 be e0 f1 44 3e
       0.6488436 0.06983413 -0.45318386 0.19232893
000280 96 bb b3 3e d5 34 ba be 1e b2 9f be 08 9d 8a 3e
       0.35104054 -0.36368433 -0.3119058 0.2707293
000290 d9 50 ab be 02 f7 aa be 28 18 37 be 3c 12 d1 3e
       -0.3346012 -0.33391577 -0.17880309 0.40834224
0002a0 ec 5b 43 3d 22 9d 77 3e 19 16 85 3b f6 36 c7 be
       0.047695085 0.24181035 0.004061472 -0.3890912
0002b0 eb 4b 24 bf 98 ba 54 3d 04 b6 76 3e 59 e5 d6 3e
       -0.6417834 0.051935762 0.24092871 0.41971853
0002c0 a9 e1 9b be b5 50 03 3e d7 de 73 3d 31 d7 55 be
       -0.30445603 0.12823756 0.05953869 -0.2088287
0002d0 b0 5b 28 bd 9d 7c a7 3e ff 6a 9e 3e b8 b7 fb be
       -0.041103065 0.3271226 0.30941007 -0.49163604
0002e0 2a e7 af bc ec 73 3b bf d0 9c 90 bb 8d 59 cf 3e
       -0.021472532 -0.7322376 -0.0044132248 0.4049801
0002f0 49 d3 0b 3e 0f 07 d2 3e 66 5f 8a be 02 8d 0f bf
       0.13654818 0.4102101 -0.27025908 -0.56074536
000300 a1 ee ee 3e 63 e9 09 be 1d e6 25 3c 36 28 6e be
       0.46666434 -0.13467936 0.010125664 -0.23257527
000310 bd ba df 3e ca cb 60 3e 3b 2c d9 3d fa 5d 16 bf
       0.43697158 0.2195274 0.106041394 -0.58737147
000320 cc 8c bd be d3 93 aa 3d 67 b7 28 3c c0 df 76 be
       -0.37021482 0.083289765 0.010297633 -0.24108791
000330 12 6b a5 bd 15 a4 47 3e a2 61 bc 3c e2 64 55 3c
       -0.08077063 0.19496186 0.022995774 0.013024541
000340 0c 7f 91 bd 01 d9 85 be bc f8 8a be 87 4d 0d be
       -0.071043104 -0.26142123 -0.27142894 -0.13799106
000350 f2 42 16 be 4c 31 b8 3d 4b 1b ac bd 0a 4b e7 bd
       -0.14673975 0.08993778 -0.08403643 -0.112936094
000360 eb 80 3e 3f b2 13 b1 3e 9a 51 7f 3e c4 f5 9b be
       0.74415463 0.3458534 0.24933472 -0.30460942
000370 93 7c 13 be 74 1b 6e 3e b7 a6 c3 be 23 e1 04 bf
       -0.1440299 0.2325266 -0.3821313 -0.5190603
000380 fc 9c 4f be b6 db d4 be 8a 61 42 be da 18 de 3e
       -0.20274729 -0.41573876 -0.1898252 0.43378335
000390 a3 4e 28 3f 6c 7c e8 bb e3 d2 00 be 4d f9 05 bf
       0.6574499 -0.0070949104 -0.12580447 -0.5233353
0003a0 96 68 83 be c2 02 f8 3b 41 a9 65 bd 65 4b aa bd
       -0.2566573 0.007568688 -0.056069616 -0.083151616
0003b0 1c 51 b2 be 87 24 f8 3e b0 09 0d be a4 3d 86 3e
       -0.34827507 0.48465368 -0.13773227 0.26218903
0003c0 64 a8 3d be c9 af 03 3e 2f 4a 4c 3e db c1 05 3e
       -0.18521267 0.12860025 0.19950174 0.13062231
0003d0 43 51 1d be 64 e3 ed 3e b0 b3 78 3e 7f c7 b8 3e
       -0.1536303 0.46462548 0.24287295 0.36089703
0003e0 6b d2 b4 3e 27 5f 6c be 84 a1 ed bd c9 ed 06 3f
       0.35316786 -0.23083173 -0.11603072 0.5270658
0003f0 8e a3 67 3e 06 b5 61 be 13 cf b6 bc 49 c0 91 be
       0.22620985 -0.22041711 -0.022315538 -0.28467014

mlr.0.bias f4 [64]
000000 2d 91 a2 bd 7a fe 1c 3e aa 3e e3 3c c2 2d 4e bd
       -0.07937846 0.1533145 0.027739841 -0.050336607
000010 70 86 0c 3e bb 1f bf bd 41 65 da 3d d6 dd 9e 3d
       0.13723159 -0.09332224 0.10663844 0.077571556
000020 d5 b5 51 3e f5 0f 2a 3d ed 37 c2 3d 79 b4 2a bd
       0.2047952 0.041519124 0.09483323 -0.04167602
000030 a7 2a e6 bd 89 40 e0 3d 4c c4 23 3e 74 d4 e2 3d
       -0.11238604 0.10949809 0.1599285 0.110756785
000040 03 5c 29 3d ea 89 c9 bd 5b b9 be 3d c2 79 28 3e
       0.041347515 -0.09840758 0.093126975 0.16452697
000050 40 7d ab bd 4e 7c 12 bd d8 a7 7e bc bb 4f 02 3e
       -0.08373499 -0.035763077 -0.015542947 0.12725727
000060 35 44 f0 3b 5c 6b 02 bc ab d5 c5 bc b2 e7 30 bd
       0.0073323497 -0.007960167 -0.024149736 -0.043189712
000070 b8 b0 8e bd 68 d1 b8 bd d4 e1 4b 3d 0d c8 14 be
       -0.069673 -0.09024316 0.049775913 -0.14529438
000080 1d c9 81 bd c7 10 df 3c 75 e0 d3 3c f3 08 8b be
       -0.063371874 0.02722968 0.025863865 -0.27155265
000090 eb 7e ef 3d b8 45 06 be 3b bd 22 be a4 d9 b4 3c
       0.116941296 -0.13112533 -0.15892498 0.022076435
0000a0 a0 43 1a be 97 58 c6 bc 01 35 c7 bd 01 2e 19 3c
       -0.1506486 -0.024212165 -0.097269066 0.009349347
0000b0 f9 e8 f6 bd a7 89 2f bd 1a 28 06 bb 20 35 6f be
       -0.12056155 -0.042855885 -0.002047068 -0.2336011
0000c0 41 ec 32 be e4 6e c0 bc c1 a0 43 bc 8b 89 91 3d
       -0.17472936 -0.023490377 -0.011940182 0.07106312
0000d0 0f 45 18 bd ac b5 5d 3e 58 9c fe 3d e5 01 1c 3d
       -0.037175234 0.21651334 0.12432164 0.038087744
0000e0 7d 21 ec bd 3a ce d5 bd 40 5f c7 bc e9 be 3b bc
       -0.11529825 -0.10439725 -0.02433741 -0.011459091
0000f0 99 b6 ec 3d 8d 8e 30 bd 4c a9 2f 3e 62 85 2d be
       0.11558265 -0.043104697 0.17154425 -0.16945413

mlr.2.weight f4 [208, 64]
000000 60 9b 9b 3c 2c 6a 09 3f 1a e5 3b 3d 24 f0 5f bd
       0.018994987 0.5367763 0.045872785 -0.054672375
000010 7d 18 0b be 83 5c 5e 3f 48 c0 a3 be 10 0a 0c bf
       -0.1358356 0.8685991 -0.31982636 -0.54702854
000020 b6 6c 95 be 87 0a b9 3e 3d d4 24 3f 60 8f 60 bc
       -0.29184502 0.36140844 0.6438635 -0.013706058
000030 58 19 ce bd 0b 79 1b bd 5a 77 11 3e 7d 1f 36 3f
       -0.10063428 -0.037957232 0.14205685 0.711418
000040 5c 2e f4 be 18 93 6f bd 95 f4 3c bf 1d 90 a3 be
       -0.4769162 -0.05848989 -0.738107 -0.31945887
000050 d4 b1 34 3e 80 c1 76 bd 97 20 42 3e 78 ca 5a be
       0.17645961 -0.06024313 0.18957745 -0.21366298
000060 ec b2 08 bf 04 e7 b6 3e 00 03 fc 3d 2d e9 7e 3d
       -0.53398013 0.35723126 0.1230526 0.062234093
000070 6e 0b 8e bc 36 8c a3 3e 72 cb 83 3d 4a 9c d7 bd
       -0.017339434 0.3194291 0.064352885 -0.10527857
000080 20 6c 35 bd 88 d5 95 3d 5b 33 a2 be 08 4d f4 3d
       -0.04429257 0.073161185 -0.31679806 0.11928755
000090 4b b8 1e 3e 04 76 8a 3d f4 32 8d bd b0 e2 5d 3e
       0.1549999 0.06760791 -0.06894484 0.21668506
0000a0 c8 b7 b8 3d e1 43 ad 3e 48 55 b8 3d f7 a8 fc 3e
       0.090194285 0.3384085 0.09000641 0.4934766
0000b0 40 72 1f 3b 5e 97 d2 3e 5b 4f cd 3e 50 f1 5e 3d
       0.0024329573 0.4113111 0.40099606 0.054429352
0000c0 cc 8e 24 bd ac 5d f8 bc 6c 73 e1 bd b9 97 e2 be
       -0.040175244 -0.030318104 -0.11008343 -0.4425638
0000d0 ba 5f 58 bd 2a 1c 47 bc 24 2f d2 3d af 75 c4 3f
       -0.052825667 -0.012152711 0.102628976 1.5348414
0000e0 e4 32 81 3e f3 33 10 3f 63 df c0 3e 27 bf 3f 3e
       0.2523414 0.5632927 0.3767043 0.18725263
0000f0 bc 9f 4f bf be 2f fd bd 23 a2 06 3f bc 70 8f 3d
       -0.8110311 -0.12362622 0.5259115 0.07003924
000100 72 c7 db bd c2 a9 c3 3e d3 52 c9 3d 20 1f f8 3b
       -0.107314005 0.38215452 0.098302506 0.0075720698
000110 20 8c f4 be cd ad 75 3f 07 e1 cf bd 1d 16 25 3f
       -0.47763157 0.95968324 -0.101503424 0.6448687
000120 dc 3f 17 bf e5 2e a2 3e b1 bb d3 3e 80 4f fd 3d
       -0.59081817 0.31676403 0.41354135 0.12368679
000130 2c ef 58 bd 8a a2 dc be eb 8f 9b 3e fd 42 fb 3e
       -0.052962467 -0.43092757 0.30383238 0.49074546
000140 e8 6b 1e bf e8 4b 52 3d 39 d1 8f bf 83 63 6b be
       -0.618834 0.05134192 -1.1235725 -0.2298718
000150 f6 39 8f 3e fc 95 c8 3d f1 95 45 bc d6 cd 0c be
       0.27973908 0.09794232 -0.012059675 -0.13750395
000160 ce d8 55 3f 4c d5 d2 3e a8 36 99 3d 98 c4 0c 3e
       0.8353394 0.41178358 0.07481128 0.1374687
000170 9b bf 7a bd 56 68 b1 3d 2e 1e ae bc 34 2f 96 bd
       -0.061217885 0.086624786 -0.021254625 -0.07333222
000180 84 0f 58 3e 82 02 f6 bd c0 62 d6 3e c2 35 ff 3d
       0.21099669 -0.12012197 0.41872215 0.12461425
000190 1b fd ab 3e c4 94 2e 3d 24 d7 e4 bd 1d 8f a3 3d
       0.33591542 0.042622343 -0.11173847 0.07986281
0001a0 18 27 af bc dd d7 54 3f b4 b6 fc 3d b1 cb 1e 3e
       -0.021380946 0.8314188 0.12339535 0.1550739
0001b0 20 e4 10 bc 43 0f 0c 3f 90 5e bc 3e 10 1e b5 bd
       -0.008843452 0.5471079 0.36790895 -0.088436246
0001c0 28 85 a6 3c 64 cc e1 3b 59 fc f3 3c 73 25 e1 3e
       0.020327166 0.0068908203 0.029783415 0.43973884
0001d0 40 0a f4 bd 93 3f fa bd 6f 43 97 3e eb e0 4c 3d
       -0.119160175 -0.12219157 0.29543635 0.050019186
0001e0 4b e2 9f 3e 65 b3 1e be d8 65 08 3e 08 9b 3d 3e
       0.31227335 -0.15498121 0.133201 0.18516171
0001f0 e0 5d 01 be 48 04 be 3c 3b 95 c6 3e 80 6c 9a 3c
       -0.12633467 0.0231954 0.3878573 0.018850565
000200 92 aa f6 3d fa f8 37 3f cf 7f df bd a6 ae e9 3d
       0.120442525 0.71864283 -0.109130494 0.11410265
000210 74 e4 bc bd 9b 9a 63 3f e7 87 23 be 45 8c 9e 3d
       -0.092232615 0.88907784 -0.15969811 0.07741598
000220 99 c4 ff be 10 b7 b1 3e 66 d3 51 3f d0 87 19 3c
       -0.4995468 0.34709978 0.81963193 0.009370759
000230 2c e2 b2 bd b3 34 e2 be 2a 11 e0 3e e0 25 62 3f
       -0.08734545 -0.4418083 0.43763095 0.8833904
000240 8f 6f 24 bf e0 86 21 3c f5 e6 f9 be c4 4e ac be
       -0.64232725 0.009858817 -0.4880902 -0.33653843
000250 f1 ca b5 3e 3c ed 4c 3d 86 55 48 3e ef 91 80 bc
       0.35506395 0.05003093 0.19563875 -0.015694587
000260 57 f1 3a 3e 2d 72 47 3f f2 43 df bd 3d 0b 06 bc
       0.18256126 0.77908593 -0.109016314 -0.00818139
000270 3a 5a 8e 3c 00 f5 af 3e 8b 39 a4 3e 40 f7 ea bc
       0.017377008 0.34366608 0.32075152 -0.028682351
000280 42 a8 70 3d be 8e a6 3d c8 c6 ec be 34 05 cd 3d
       0.058754213 0.08132695 -0.46245408 0.10010758
000290 37 f8 37 3e c2 7a c4 bd 78 46 b4 bd 82 8f 0a be
       0.1796578 -0.09593727 -0.08802503 -0.13531306
0002a0 0e 4b 8c bd 9b 38 09 3f e0 26 1a bc 8d 1c 58 3e
       -0.06850253 0.53602 -0.009408683 0.21104641
0002b0 f8 57 81 bd 6a 97 b0 3e 24 1f 70 3e 52 25 fb 3d
       -0.06315607 0.3449052 0.23449379 0.12262978
0002c0 10 c3 3d bd 4b 3e 6b bd 17 fd 53 3d b5 ba 1e bf
       -0.046328604 -0.057432454 0.051755037 -0.6200364
0002d0 8a 00 d5 3d e2 a0 97 bd 49 73 5e 3d c5 c8 59 3f
       0.104004934 -0.07403733 0.054309163 0.85071975
0002e0 20 34 8c 3e 0a af b7 3e d9 e8 94 3e ed 9c 4c 3e
       0.27383518 0.35875732 0.290839 0.19981737
0002f0 f0 e8 89 be 80 6c b3 3a f9 74 d8 3e 98 01 33 bd
       -0.2693553 0.0013688952 0.42276743 -0.04370269
000300 70 47 df bd e9 52 ae be d0 29 43 3d a4 4f a7 bd
       -0.109022975 -0.3404763 0.047647297 -0.08169487
000310 cc 64 06 bf 9c 99 5e 3f 6e 1c 3c be b8 3a d2 3e
       -0.52497554 0.8695314 -0.1837022 0.41060424
000320 b4 da 41 bf dd da 17 be 12 d4 8b 3e 78 81 ae 3c
       -0.7572434 -0.14829583 0.27310234 0.02130197
000330 f0 38 0b 3d 4a 1a 83 bd 08 e2 f7 bd 8c d5 d8 bd
       0.033989847 -0.064014986 -0.12103659 -0.10587606
000340 5c b3 b3 be 1c a0 0b 3d ec 05 6d bf 48 31 9f be
       -0.35097778 0.03408824 -0.9258716 -0.31092286
000350 4a 80 7f 3e a0 29 95 bb d5 3f d4 bc fd fd dd 3c
       0.24951282 -0.004552081 -0.025909344 0.02709865
000360 d1 69 88 3f 9c 6d 2d 3e 56 9a ec bd 04 45 89 3d
       1.0657293 0.16936344 -0.11552875 0.06702617
000370 48 ed 66 bd eb 9b 3d 3e c3 ee 15 3f 66 ef fd bd
       -0.056378633 0.18516509 0.58567446 -0.12399177
000380 e5 06 88 3d f0 27 44 bc ae 7d ea 3e 32 35 eb 3d
       0.0664194 -0.0119724125 0.4579901 0.114847556
000390 46 05 e4 3e 74 75 a4 3d 61 e1 20 3d c0 fa 2b be
       0.44535273 0.08030215 0.039277438 -0.16794872
0003a0 30 a0 f0 3c d9 f3 6a 3f 24 73 a7 bd 31 66 8d 3b
       0.029373258 0.9177833 -0.08176258 0.0043151607
0003b0 da 95 fa 3d 64 12 03 3f ee 72 e7 3e f6 0b 9a 3d
       0.12235613 0.51199937 0.45204872 0.075218126
0003c0 a0 00 83 bc 2d cf b3 bd e1 a9 ec 3b 40 4f 1a 3f
       -0.015991509 -0.0877975 0.0072223996 0.60277176
0003d0 e3 40 ee bd 18 b5 96 bd 87 4d 22 3e 61 1a 01 bf
       -0.1163347 -0.0735876 0.15849887 -0.50430876
0003e0 23 42 d0 3e de ec 57 be eb a3 fd 3d 69 aa d1 3d
       0.40675458 -0.21086451 0.123847805 0.10237581
0003f0 29 d1 9e be d0 de ff bc cb 2d ae 3e e0 75 8e bd
       -0.31018952 -0.031234175 0.34019312 -0.069560766

mlr.2.bias f4 [208]
000000 2f 43 d3 3d 00 c2 c4 3d 10 73 c6 3a c1 8b 1d 3e
       0.10315549 0.09607315 0.0015140492 0.15385343
000010 4c d7 15 3e 30 8a 0e 3e e5 30 35 3e 56 37 87 3d
       0.1463291 0.13919902 0.17694433 0.06602351
000020 f3 12 a9 3d a3 06 37 3e 68 3d 13 3e f1 68 b7 3d
       0.082555674 0.17873625 0.14378893 0.08955563
000030 28 65 01 3e 42 8d 62 3b cd 89 87 3d e2 e3 84 3d
       0.12636244 0.003456906 0.0661808 0.06488778
000040 86 32 29 3e 42 52 d8 3d 9f bf e4 3c 32 ea ed 3c
       0.1652318 0.105625644 0.027923403 0.029042337
000050 4c c0 6a 3d 81 55 04 3d d0 1a f8 3d 54 1b a0 3d
       0.057312295 0.032308105 0.12114489 0.078177124
000060 73 c9 c0 3d 8b ee 96 3d 44 a9 c0 3d 58 2d 10 3e
       0.094134234 0.07369717 0.09407285 0.14079797
000070 c4 e4 9e 3d 33 cd 24 3e 8a 20 bf 3d 88 40 f3 3d
       0.07758477 0.16093902 0.09332378 0.11877543
000080 cb 7e 1d 3e 3a 2f 2b 3d c1 f3 b2 3d 62 ab b4 3d
       0.15380399 0.041793086 0.087378986 0.08821751
000090 08 62 dd 3d 85 33 c8 3d 50 b9 02 3e ad 77 e4 3c
       0.108097136 0.097754516 0.12766004 0.027889097
0000a0 a2 c4 9c 3d 74 c0 bf 3d 33 68 e1 3d a5 e6 ef 3d
       0.07654692 0.093628794 0.110062025 0.11713914
0000b0 9d 5c 00 3d f6 67 f3 3d fb 45 bd 3c 56 e1 56 3d
       0.031338323 0.11885063 0.023104658 0.05246099
0000c0 9f f0 9f 3d 79 ea 16 3e 8b d0 dd 3d b7 dc 34 3d
       0.07809567 0.14737882 0.10830792 0.044155803
0000d0 58 94 3c 3e b9 28 4a 3e 6d 97 b3 3d 2f bb 3b 3e
       0.18415964 0.19742097 0.087691166 0.18333124
0000e0 58 37 22 3e 4e 14 27 3e 96 67 22 3e 18 5e 20 3e
       0.15841424 0.1631634 0.15859827 0.15660894
0000f0 f2 15 05 3e 13 2f 2f 3e 73 aa 07 3e 75 ee 36 3e
       0.12996653 0.17107801 0.13248615 0.17864402
000100 10 43 cb 3d a0 d2 86 3d a2 99 e7 3d ed bd 7b 3c
       0.099249005 0.06583142 0.113086 0.015365106
000110 17 be 96 3d bd 2e 5c 3d 65 c9 f9 3d 41 c9 06 3e
       0.073604755 0.05375551 0.12196616 0.1316271
000120 ea b7 e6 3d c1 93 ab 3d de 8b e7 3c 4b 6c 16 3e
       0.112655476 0.08377791 0.028264936 0.14689748
000130 ea 1c cd 3d a9 99 fe 3d 61 45 4f 3e 3a 63 54 3e
       0.100152805 0.12431652 0.2024131 0.20740977
000140 54 85 38 3e b7 83 5e 3e 6d 43 56 3e ee 74 3b 3e
       0.1801961 0.21729933 0.20924158 0.18306324
000150 29 9b 36 3e 40 ff 07 3e a6 15 28 3e 7d 05 1c 3e
       0.17832626 0.13280964 0.16414508 0.15236469
000160 4d 33 54 3e e7 a6 24 3e 32 60 2d 3e c6 6c 2a 3e
       0.20722695 0.16079293 0.16931227 0.16643056
000170 e9 2a 30 3e 41 43 94 3d f8 1e 7a 3e 3a e2 53 3e
       0.17203869 0.0723939 0.24425876 0.20691767
000180 37 0d 00 3e 3f 16 2b 3e f6 70 12 3e a2 0d e8 3d
       0.12505041 0.16707705 0.14300904 0.11330725
000190 af b6 7f 3d da 0f e7 3d bb 2f 31 3e 89 9b c9 3d
       0.06243008 0.1128232 0.17303364 0.09844119
0001a0 05 36 6e 3e cc 19 40 3e 18 a8 08 3e ba a8 8e 3e
       0.23262794 0.1875984 0.13345373 0.27863103
0001b0 f7 ce 18 3e 4f 43 24 3e a0 53 8f 3e f9 5f 5a 3e
       0.14922701 0.16041301 0.27993488 0.21325673
0001c0 ad 53 93 3e 90 7d 52 3e 9d e9 3f 3e 2c 69 62 3e
       0.28774777 0.20555711 0.1874146 0.22110432
0001d0 2b a9 3d 3e 60 67 58 3e e3 20 dc 3d 2c 98 1f 3e
       0.18521564 0.21133184 0.1074846 0.15585393
0001e0 45 f3 4b 3e b7 24 39 3e b8 f5 1c 3e c8 ab 36 3e
       0.19917019 0.18080412 0.1532811 0.17838967
0001f0 3b 13 45 3e e3 dd 4e 3e cc cb 8c 3d c2 34 16 3e
       0.19245617 0.2020183 0.06874809 0.14668563
000200 43 19 3f 3e 0e 1a ad 3d 31 13 0f 3e 9c 0c 46 3e
       0.1866198 0.08452235 0.13972165 0.19340748
000210 7f 7a 4f 3e bf aa 3b 3e 71 b5 17 3e 06 ec 03 3e
       0.20261572 0.18326853 0.14815308 0.12883005
000220 64 ea 11 3e 40 5c 42 3e 11 07 c3 3d 6c ba 14 3e
       0.14249569 0.18980503 0.09522832 0.1452424
000230 74 ea 65 3e 29 78 22 3e 77 b9 36 3e 5b 36 1b 3e
       0.22452718 0.1586615 0.17844187 0.15157454
000240 f9 89 f9 3d 24 06 dc 3d 2a 23 c2 3d 9e bd 5d 3d
       0.12184519 0.10743359 0.09479363 0.05413591
000250 a8 91 04 3e 5c c0 86 3d 2f 9a a3 3d 1c ba 04 3e
       0.12946188 0.065796584 0.079883926 0.1296162
000260 f1 54 a5 3d df 93 68 3e 59 2a 2f 3e 19 0e 67 3d
       0.08072842 0.22712658 0.17105998 0.05640993
000270 bd 46 25 3e c6 3d f4 3d 2f d4 4e 3e 2f f1 43 3e
       0.16140266 0.11925845 0.20198129 0.19134973
000280 51 2e 09 3e f8 9e 2b 3e 3e 40 a6 3d 17 cc f5 3d
       0.13396575 0.1675986 0.08117722 0.12001818
000290 2d 77 31 3e bf 59 13 3e ac 56 08 3e 55 be 30 3e
       0.17330618 0.14389704 0.13314313 0.17260106
0002a0 94 90 a1 3d c9 4c a5 3d bc 8c ab 3d 84 0a 7e 3d
       0.07888904 0.08071286 0.08376452 0.062021747
0002b0 15 c3 28 3e 35 1b a6 3d 0d 3e ac 3d e5 91 d6 3d
       0.16480668 0.08110658 0.08410273 0.10477046
0002c0 b9 f0 04 3e 48 04 09 3e 69 c7 b2 3d 84 0b c7 3d
       0.12982453 0.1338054 0.08729441 0.09718993
0002d0 33 cc f6 3d 48 22 a7 3d 80 58 2f 3e a1 9e a1 3d
       0.12050667 0.081608355 0.17123604 0.07891584
0002e0 f4 b5 0b 3e b1 09 47 3e 42 50 b1 3d c1 07 26 3e
       0.13643628 0.1943729 0.08657886 0.16213895
0002f0 d6 8b cc 3d 99 1b 31 3e 79 e3 96 3d a3 1a 95 3d
       0.09987609 0.17295684 0.07367606 0.07280471
000300 40 fc bd 3d 18 f2 dd 3d 24 c4 d6 3d 9c 63 20 3e
       0.092766285 0.10837191 0.104866296 0.15662998
000310 9b fb 27 3d ca 14 43 3d 45 54 9b 3d 81 e0 31 3d
       0.041011434 0.047627248 0.075844325 0.043426994
000320 1f af 38 3d 02 4d 88 3c 92 cb ef 3d a6 f9 ef 3d
       0.045088883 0.016638283 0.1170875 0.117175385
000330 2a 1f d6 3c 91 94 09 3e 14 da 19 3e 78 84 c6 3d
       0.026137907 0.1343558 0.15024596 0.09693235
