pqc_reup_v1_output/best_model_epoch_44.pth (torch, 61285 bytes, 6 tensors)

reupload_weights f4 [12, 3, 4]
0.14914429 0.14158988 0.20019072 -0.167531 0.34869528 0.23500791 0.312817 0.89235824
0.012713222 0.33931538 0.027059382 -0.2864414 -0.17365378 -0.19752502 0.0067951265 0.04951425
-0.24556606 -0.54647994 -0.14668895 0.07463599 -0.023648208 0.07058437 0.04487388 0.24161185
0.056091722 0.08491205 0.20128474 0.061346848 0.61440253 0.09809581 0.20480414 -0.08945606
-0.10936023 0.0015834591 0.32531485 0.19408305 -0.0021786715 -0.18148449 0.0575065 -0.19916688
0.51633185 0.91242754 0.40692425 -0.35279393 0.78413445 1.1012129 0.6231371 -0.1231567
-0.05959469 -0.0013759978 0.13909142 0.20316653 0.33939707 0.5604558 -0.5418139 -0.6078175
0.17322174 0.40603313 -0.3166915 -0.2688189 -0.101459 0.11438145 -0.18857087 -0.020520963
0.40498984 0.06351394 0.07107248 0.10668728 0.072241224 -0.19141565 -0.40756598 0.059481736
-0.10237395 -0.07736597 -0.13947341 0.017911814 0.100396246 -0.11578079 -0.1731245 0.008595436
0.45285043 0.29410017 0.2973611 0.24293774 0.1161336 0.107248545 -0.004113153 -0.07762941
-0.33493507 -0.49567175 0.25303096 0.34351847 -0.45600426 -0.40231046 0.58208406 0.4385256
-0.2699658 0.17770374 0.046747725 0.041112754 -0.23468168 0.6035349 0.7515926 0.39027628
-0.60262275 0.18900615 0.37089357 -0.08552803 -0.06450559 0.039896138 0.035364505 0.098252624
0.22696479 0.17914857 0.072964385 -0.8912827 0.5772196 0.33601394 0.15722749 0.22053923
-0.06755861 -0.18871956 0.051083412 0.038670845 -0.003608535 -0.074970834 0.66508377 0.40610182
-0.5558942 -0.7470879 -0.18659925 -0.48554003 -0.04375071 0.23126964 0.08651229 0.097502254
-0.90444034 0.032646704 -0.357427 -0.13740689 -1.0227926 0.21551397 -0.19664657 -0.035736218
00000000: 48b9 183e f0fc 103e ccfe 4c3e 3f8d 2bbe
00000010: 3088 b23e eaa5 703e 8d29 a03e 9771 643f
00000020: 1e4b 503c bfba ad3e a3ab dd3c 72a8 92be
00000030: 4cd2 31be 0044 4abe a7a9 de3b 74cf 4a3d
00000040: ab75 7bbe 1ce6 0bbf a135 16be c1da 983d
00000050: e3b9 c1bc 8a8e 903d accd 373d 1969 773e
00000060: 6fc0 653d 5ee6 ad3d 961d 4e3e d546 7b3d
00000070: 7c49 1d3f 75e6 c83d 2db8 513e bd34 b7bd
00000080: 42f8 dfbd 128c cf3a ab8f a63e b5bd 463e
00000090: 0bc8 0ebb 12d7 39be f08b 6b3d 67f2 4bbe
000000a0: 532e 043f da94 693f 6058 d03e 68a1 b4be
000000b0: 09bd 483f 8bf4 8c3f ea85 1f3f 9439 fcbd
000000c0: 9019 74bd d35a b4ba fb6d 0e3e e30a 503e
000000d0: 74c5 ad3e 087a 0f3f 51b4 0abf ed99 1bbf
000000e0: 0a61 313e 93e3 cf3e 6325 a2be a2a2 89be
000000f0: bcc9 cfbd d240 ea3d b918 41be 941b a8bc
00000100: d45a cf3e 9913 823d 738e 913d dc7e da3d
00000110: 35f3 933d 7702 44be 7dac d0be 1fa3 733d
00000120: 6fa9 d1bd 0d72 9ebd 1ed2 0ebe ccbb 923c
00000130: 8c9c cd3d 7b1e edbd 8d47 31be dfd3 0c3c
00000140: 03dc e73e 4c94 963e b73f 983e acc4 783e
00000150: 74d7 ed3d 20a5 db3d a1c7 86bb 2bfc 9ebd
00000160: 9c7c abbe b0c8 fdbe 468d 813e a7e1 af3e
00000170: 6479 e9be a3fb cdbe 7603 153f 6d86 e03e
00000180: f538 8abe f8f7 353e 8b7a 3f3d d965 283d
00000190: 6550 70be 4381 1a3f 5f68 403f 4bd2 c73e
000001a0: 7c45 1abf d48a 413e c3e5 bd3e 5229 afbd
000001b0: 821b 84bd 226a 233d 5fda 103d ac38 c93d
000001c0: 7569 683e b972 373e 5a6e 953d 1a2b 64bf
000001d0: aac4 133f 050a ac3e 3e00 213e 09d5 613e
000001e0: 2b5c 8abd b33f 41be d73c 513d 5265 1e3d
000001f0: 2c7d 6cbb 4f8a 99bd ee42 2a3f 94ec cf3e
00000200: 154f 0ebf 2741 3fbf e013 3fbe b498 f8be
00000210: f233 33bd f3d1 6c3e 5b2d b13d 43af c73d
00000220: 6789 67bf 8db8 053d ac00 b7be 64b4 0cbe
00000230: deea 82bf b2af 5c3e b85d 49be 2460 12bd

reupload_bias f4 [12, 3]
-0.4349576 0.6967588 0.059447702 0.4042198 -0.29744053 0.22729082 -0.4321841 0.955407
0.093743056 0.3519167 0.40806553 1.105277 -0.39503804 -0.22030659 -0.06254861 0.3085999
-0.17188542 -0.25249696 -0.1718035 -0.21167445 -0.042347282 -0.64717746 -0.48020005 -0.14059806
0.48652256 0.5898617 -0.6348608 -0.43970063 -0.77560425 0.4439988 0.25335482 0.027718479
-1.1745273 -0.41700447 -0.48402238 -0.13629235
00000000: c3b2 debe c95e 323f 6f7f 733d e6f5 ce3e
00000010: 204a 98be edbe 683e 3c47 ddbe 8e95 743f
00000020: 5cfc bf3d 6d2e b43e f7ed d03e b779 8d3f
00000030: 6d42 cabe 0d98 61be 7c19 80bd ce00 9e3e
00000040: bb02 30be 4847 81be 42ed 2fbe 30c1 58be
00000050: 5874 2dbd 6cad 25bf c8dc f5be f0f8 0fbe
00000060: 7c19 f93e 2d01 173f 3d86 22bf 7120 e1be
00000070: 008e 46bf d053 e33e b9b7 813e dd11 e33c
00000080: e956 96bf 9c81 d5be c8d1 f7be 3990 0bbe

mlr.0.weight f4 [64, 12]
0.004212431 -0.017236283 0.06940076 0.080896474 -0.26219115 -0.10653202 0.24310184 0.11245483
-0.014358 -0.1740439 -0.17661291 -0.2585856 -0.13719383 -0.01600219 0.10539699 0.05688205
-0.30502847 -0.3074974 -0.13614489 0.37253925 0.031154813 -0.12020886 0.12545548 -0.06821994
-0.21844299 0.17971486 -0.16312611 -0.08859631 -0.31910634 0.16228515 0.18681487 0.074784316
-0.23265514 -0.3158014 -0.26633245 0.1848139 0.1385946 0.24292141 0.1512282 0.073061414
-0.0028269046 -0.21953918 -0.24732882 -0.27001187 0.118172616 -0.14173025 -0.058096614 -0.16613406
-0.05260341 -0.20317963 -0.18862486 0.095756665 -0.085793205 0.17821163 -0.09260951 -0.21176262
-0.05093353 -0.13993452 -0.08831772 -0.27481747 0.12334854 -0.22597404 0.15264206 0.087106846
0.19253191 -0.2321892 0.2323189 -0.2325488 0.05003888 0.26589945 -0.05939362 -0.10204956
-0.026160313 -0.2788293 0.22377206 -0.38334045 0.23207632 0.20692265 0.3834848 -0.21712454
-0.24029692 0.06688216 0.26795495 -0.42031372 -0.060998533 -0.16890128 -0.0057799337 -0.14218807
-0.10019208 -0.085199066 -0.2520107 0.21626171 0.24992038 -0.044192363 -0.009324914 -0.13519372
-0.26069176 -0.2809226 0.10728855 -0.15849598 -0.1855826 -0.022523357 -0.09613204 -0.0933924
0.009275476 -0.061231583 -0.09939443 -0.13821936 -0.31272924 0.27110833 -0.14253661 0.111418396
-0.13893567 0.06576777 0.26220974 0.14543818 -0.31611457 0.18479711 0.22827144 0.054289903
0.091390386 0.32533818 -0.08839255 0.1538023 -0.22148648 -0.041503254 0.15298586 0.18190612
-0.23097372 -0.32197124 -0.3478187 -0.22629833 -0.22275299 -0.07138861 0.19482026 0.04831909
-0.21956788 -0.23158209 0.14360873 -0.21472847 -0.035543837 0.1384792 -0.13360234 -0.03147711
-0.025127577 -0.06829573 -0.14636758 -0.25733608 -0.23335256 -0.15457447 0.27881333 -0.13943434
-0.19385342 0.06997318 0.079561844 0.15816791 0.24806952 0.16273896 -0.3002115 0.056386363
0.17513408 -0.044567864 -0.20767164 0.3888135 -0.07931343 -0.17584656 -0.2588469 0.12298462
0.015017311 0.07375066 -0.017885135 -0.16882369 -0.3284634 0.015443741 0.209775 0.21999516
-0.22265066 0.011793263 -0.30740228 -0.14891265 -0.014705264 0.038097147 0.13831696 -0.36700544
0.09901455 -0.33064416 0.004806637 0.24087249 -0.075017326 0.20882484 -0.2924955 -0.15237091
0.2155045 -0.08308073 0.021098439 -0.19783214 0.25179145 0.15033671 0.18940057 -0.3262582
-0.23297665 0.011796228 0.16518605 -0.25987604 -0.08077063 0.19496186 0.022995774 0.013024541
-0.071043104 -0.26142123 -0.27142894 -0.13799106 -0.14673975 0.08993778 -0.08403643 -0.112936094
0.3438635 0.09387006 0.21205127 -0.17741206 -0.1333819 0.111310706 -0.19574039 -0.2195053
-0.0062825615 -0.119148664 -0.1862476 0.17520627 0.2832879 -0.0031787765 -0.11609855 -0.3551613
-0.1890703 0.020117288 0.0741454 -0.027377216 -0.132265 0.19638549 -0.21206978 0.17986448
-0.035995845 0.13261303 0.05077895 0.18366057 0.025431098 0.35063404 0.090711035 0.35101917
0.36803573 -0.045405854 -0.14128622 0.36712882 0.22620985 -0.22041711 -0.022315538 -0.28467014
00000000: 6f08 8a3b 1b33 8dbc fc21 8e3d 0dad a53d
00000010: eb3d 86be 762d dabd b0ef 783e b84e e63d
00000020: d13d 6bbc 9038 32be 04da 34be 5565 84be
00000030: 8a7c 0cbe 0617 83bc 61da d73d 27fd 683d
00000040: b12c 9cbe 4d70 9dbe 9169 0bbe 77bd be3e
00000050: 6138 ff3c 1030 f6bd 6777 003e e5b6 8bbd
00000060: 85af 5fbe 2c07 383e 880a 27be fb71 b5bd
00000070: e861 a3be 142e 263e 664c 3f3e 8528 993d
00000080: 263d 6ebe b9b0 a1be ba5c 88be db3f 3d3e
00000090: beeb 0d3e 64c0 783e 91db 1a3e 39a1 953d
000000a0: 9743 39bb e1ce 60be c443 7dbe ff3e 8abe
000000b0: 7c04 f23d bc21 11be b7f6 6dbd 0c1f 2abe
000000c0: ac76 57bd 520e 50be e026 41be 121c c43d
000000d0: 59b4 afbd 1c7d 363e 0eaa bdbd 4dd8 58be
000000e0: ad9f 50bd ff4a 0fbe ecdf b4bd e0b4 8cbe
000000f0: 299e fc3d bd65 67be 334e 1c3e 1365 b23d
00000100: 1627 453e 01c3 6dbe 01e5 6d3e 4621 6ebe
00000110: 92f5 4c3d f923 883e b946 73bd 5cff d0bd
00000120: 274e d6bc b7c2 8ebe 8124 653e 3345 c4be
00000130: 6aa5 6d3e 88e3 533e 1f58 c43e e555 5ebe
00000140: 6510 76be 84f9 883d 6431 893e 5c33 d7be
00000150: 99d9 79bd 75f4 2cbe 9965 bdbb c099 11be
00000160: 8131 cdbd d97c aebd 8c07 81be b673 5d3e
00000170: 21eb 7f3e 0d03 35bd 86c7 18bc 3970 0abe
00000180: 6479 85be 16d5 8fbe 19ba db3d c54c 22be
00000190: 5d09 3ebe e782 b8bc e0e0 c4bd 8444 bfbd
000001a0: 2bf8 173c f8cd 7abd 4f8f cbbd 6089 0dbe
000001b0: 0c1e a0be b6ce 8a3e 1ef5 11be 542f e43d
000001c0: 2745 0ebe 41b1 863d 5b40 863e bfed 143e
000001d0: c5d9 a1be 743b 3d3e fdbf 693e 175f 5e3d
000001e0: e22a bb3d ba92 a63e 2707 b5bd 5a7e 1d3e
000001f0: 5acd 62be 51ff 29bd 53a8 1c3e 9945 3a3e
00000200: 6084 6cbe 6ad9 a4be 4b15 b2be c0ba 67be
00000210: 5c19 64be 3134 92bd f67e 473e 3dea 453d
00000220: 67d6 60be db23 6dbe 2b0e 133e c8e1 5bbe
00000230: 6a96 11bd 7ecd 0d3e 0dcf 08be 24ee 00bd
00000240: 59d8 cdbc a2de 8bbd 62e1 15be 8ec1 83be
00000250: f9f3 6ebe c548 1ebe 9fc0 8e3e e0c7 0ebe
00000260: 8381 46be 194e 8f3d 52f1 a23d c5f6 213e
00000270: f005 7e3e 0ba5 263e 52b5 99be 63f5 663d
00000280: 5956 333e cb8c 36bd e0a7 54be 9012 c73e
00000290: 146f a2bd 1f11 34be 9587 84be 5cdf fb3d
000002a0: 2b0b 763c 960a 973d d983 92bc 1ee0 2cbe
000002b0: 5b2c a8be bf07 7d3c 42cf 563e 6946 613e
000002c0: 89fe 63be 8838 413c d563 9dbe 8f7c 18be
000002d0: 59ee 70bc c10b 1c3d f6a2 0d3e 23e8 bbbe
000002e0: 24c8 ca3d 314a a9be fe80 9d3b 47a7 763e
000002f0: afa2 99bd 2ed6 553e f8c1 95be 1f07 1cbe
00000300: 36ad 5c3e 3b26 aabd a2d6 ac3c 8294 4abe
00000310: cfea 803e def1 193e 39f2 413e 510b a7be
00000320: 6e91 6ebe f744 413c 8826 293e 790e 85be
00000330: 126b a5bd 15a4 473e a261 bc3c e264 553c
00000340: 0c7f 91bd 01d9 85be bcf8 8abe 874d 0dbe
00000350: f242 16be 4c31 b83d 4b1b acbd 0a4b e7bd
00000360: e00e b03e f23e c03d f823 593e 82ab 35be
00000370: 4495 08be def6 e33d 2b70 48be ffc5 60be
00000380: f2dd cdbb 3704 f4bd b1b7 3ebe 4669 333e
00000390: 1d0b 913e 0553 50bb 14c5 edbd b4d7 b5be
000003a0: a59b 41be 03cd a43c 8bd9 973d 2f46 e0bc
000003b0: 7a70 07be 4719 493e d228 59be 652e 383e
000003c0: 6170 13bd b6cb 073e 97fd 4f3d 8411 3c3e
000003d0: e154 d03c 4e86 b33e b5c6 b93d c9b8 b33e
000003e0: 2e6f bc3e 7dfb 39bd 56ad 10be 4ff8 bb3e
000003f0: 8ea3 673e 06b5 61be 13cf b6bc 49c0 91be

mlr.0.bias f4 [64]
-0.07937846 0.18907619 0.058000643 -0.050336607 0.048765525 -0.08356482 0.08804085 0.1494252
0.07752258 -0.10086507 0.17797992 -0.04167602 -0.11238604 0.17342846 0.2887971 0.16029036
0.063196875 -0.09840758 0.09491419 0.16660346 -0.21513459 -0.035763077 -0.14809966 0.05512712
0.011881753 -0.076711796 -0.024149736 -0.007038464 -0.069673 -0.23003162 0.101915635 -0.14529438
-0.052235957 0.02722968 -0.059564054 -0.27155265 0.17597157 -0.13112533 -0.15892498 -0.004619413
-0.1506486 -0.17574203 -0.097269066 -0.11336482 -0.12056155 -0.10191387 -0.03659897 -0.2336011
-0.17472936 0.0042121904 0.04014551 0.04553023 -0.1680841 0.09214422 0.06224511 0.014420257
-0.21409854 -0.18209209 -0.19798215 -0.12741365 0.12458318 -0.043104697 0.1226036 -0.16945413
00000000: 2d91 a2bd 309d 413e 1592 6d3d c22d 4ebd
00000010: 5cbe 473d 0824 abbd c34e b43d eb02 193e
00000020: 29c4 9e3d 5992 cebd 5e40 363e 79b4 2abd
00000030: a72a e6bd 3b97 313e 37dd 933e 2823 243e
00000040: 5d6d 813d ea89 c9bd 5f62 c23d 199a 2a3e
00000050: 3e4c 5cbe 4e7c 12bd 70a7 17be facc 613d
00000060: afab 423c 131b 9dbd abd5 c5bc eaa2 e6bb
00000070: b8b0 8ebd 698d 6bbe 25b9 d03d 0dc8 14be
00000080: 5ff5 55bd c710 df3c 70f9 73bd f308 8bbe
00000090: e431 343e b845 06be 3bbd 22be 725e 97bb
000000a0: a043 1abe b8f5 33be 0135 c7bd d12b e8bd
000000b0: f9e8 f6bd 38b8 d0bd cde8 15bd 2035 6fbe
000000c0: 41ec 32be 6a06 8a3b 9e6f 243d e87d 3a3d
000000d0: 3d1e 2cbe 1cb6 bc3d baf4 7e3d f142 6c3c
000000e0: a63c 5bbe 5976 3abe d5bb 4abe b978 02be
000000f0: 7725 ff3d 8d8e 30bd 9917 fb3d 6285 2dbe

mlr.2.weight f4 [208, 64]
0.018994987 -0.017460704 0.04639929 -0.054672375 -0.03134489 -0.050140273 -0.2145535 0.038758237
0.06067227 0.033118438 0.29648647 -0.013706058 -0.10063428 0.1627072 -0.02170207 0.10124817
-0.17046307 -0.05848989 0.007509753 0.018439112 0.13623706 -0.06024313 0.13759209 -0.026064498
-0.017625071 0.0052992064 0.1230526 0.06274175 -0.017339434 0.03353528 0.14322127 -0.10527857
-0.045018002 0.073161185 0.14904185 0.11928755 -0.092320815 0.06760791 -0.06894484 0.13406931
0.090194285 0.22158682 0.09000641 0.14798054 0.0024329573 0.17601264 0.038597748 0.054429352
-0.040175244 -0.002098918 -0.10879736 -0.06339503 -0.04405254 -0.0421651 -0.06620682 -0.026740212
0.16663805 0.17585284 0.1649103 0.1242649 -0.06355841 -0.12362622 0.04741423 0.07003924
-0.107314005 0.152473 0.09829958 0.0075720698 -0.075307354 0.15309913 -0.24039036 0.0054197763
-0.08453569 0.22769181 0.051385693 0.12368679 -0.052962467 0.20307682 0.0499896 0.14544359
-0.2106949 0.05134192 -0.011053968 -0.03291979 0.120831765 0.09794232 0.017937195 0.05834328
0.059338145 0.20214608 0.07481128 0.13891533 -0.061217885 0.0030493203 0.1399201 -0.07333222
0.18979314 -0.12012197 0.1850675 0.12461425 -0.01253277 0.042622343 -0.11173847 0.20961742
-0.021380946 0.09487266 0.12339535 0.02925524 -0.008843452 0.25589886 0.04157248 -0.088436246
0.020327166 -0.016731739 0.028792724 -0.012905622 0.05296538 -0.055594966 -0.047842234 -0.02773768
0.23122655 0.15007327 -0.024544127 0.21120761 0.13849947 0.0231954 -0.07339205 0.018850565
0.120442525 0.1508221 -0.10873039 0.11410265 0.00968872 0.12604238 -0.15444396 0.02696069
-0.09744185 0.20727278 0.24741675 0.009370759 -0.08734545 0.09416169 0.111708134 0.088087216
-0.18340178 0.009858817 0.15486555 0.07286795 0.22630723 0.05003093 0.14265591 -0.011258083
0.118410945 0.1276072 -0.109016314 -0.007069843 0.017377008 0.068731114 0.27681038 -0.028682351
0.08856944 0.08132695 0.040292326 0.10010758 0.041460622 -0.09593727 -0.08802503 -0.0019196667
-0.06850253 0.1343577 -0.009408683 0.06430811 -0.06315607 0.11774549 0.046195574 0.12262978
-0.046328604 -0.089500114 0.051962197 -0.0026040655 0.14150731 0.07810408 0.13370425 -0.012993054
0.2023153 0.2319838 0.009587347 0.20305318 0.14878699 0.0013688952 0.060269058 -0.04370269
-0.109022975 0.010642813 0.04808302 -0.08169487 0.060624957 -0.07056822 -0.3068884 0.07212812
0.0340323 0.011864971 0.18096925 0.02130197 0.033989847 0.13149726 -0.064588346 -0.06165926
-0.22186251 0.03408824 0.052306764 0.08513186 0.099012166 -0.004552081 0.03828018 -0.025739506
0.1834699 0.069153786 -0.11552875 0.06832308 -0.056378633 0.098569 0.34186882 -0.12399177
0.05037418 -0.0119724125 0.047444988 0.114847556 -0.015524777 0.08030215 0.039277438 -0.043951288
0.029373258 0.30643895 -0.08176258 -0.020371966 0.12235613 0.22864914 0.06875355 0.075218126
-0.015991509 -0.12324117 0.00939168 0.08040853 0.0008552123 0.043485433 -0.10607313 0.14019427
0.30838022 0.21667336 0.08648871 0.09139894 -0.031046338 -0.031234175 -0.011933446 -0.069560766
00000000: 609b 9b3c c009 8fbc 2f0d 3e3d 24f0 5fbd
00000010: 8063 00bd e35f 4dbd eab3 5bbe f5c0 1e3d
00000020: 7c83 783d 33a7 073d 13cd 973e 608f 60bc
00000030: 5819 cebd b79c 263e 8ac8 b1bc 335b cf3d
00000040: df8d 2ebe 1893 6fbd 6014 f63b 9f0d 973c
00000050: ba81 0b3e 80c1 76bd f1e4 0c3e 3785 d5bc
00000060: 7462 90bc f7a4 ad3b 0003 fc3d bf7e 803d
00000070: 6e0b 8ebc 4a5c 093d 99a8 123e 4a9c d7bd
00000080: cc64 38bd 88d5 953d 6d9e 183e 084d f43d
00000090: b212 bdbd 0476 8a3d f432 8dbd 7749 093e
000000a0: c8b7 b83d a8e7 623e 4855 b83d 3688 173e
000000b0: 4072 1f3b a83c 343e ac18 1e3d 50f1 5e3d
000000c0: cc8e 24bd 008e 09bb 26d1 debd 41d5 81bd
000000d0: 7070 34bd 50b5 2cbd 7197 87bd 4a0e dbbc
000000e0: 2aa3 2a3e c412 343e 3fde 283e 997e fe3d
000000f0: e92a 82bd be2f fdbd 6c35 423d bc70 8f3d
00000100: 72c7 dbbd e221 1c3e 4a51 c93d 201f f83b
00000110: be3a 9abd 05c6 1c3e e428 76be 6198 b13b
00000120: 0c21 adbd 0b28 693e ce79 523d 804f fd3d
00000130: 2cef 58bd 5ff3 4f3e e5c1 4c3d 2aef 143e
00000140: 67c0 57be e84b 523d b41b 35bc e7d6 06bd
00000150: a576 f73d fc95 c83d 06f1 923c 5df9 6e3d
00000160: 8e0c 733d 62ff 4e3e a836 993d d23f 0e3e
00000170: 9bbf 7abd 1bd7 473b 3747 0f3e 342f 96bd
00000180: 2259 423e 8202 f6bd 5682 3d3e c235 ff3d
00000190: 3f56 4dbc c494 2e3d 24d7 e4bd f3a5 563e
000001a0: 1827 afbc 994c c23d b4b6 fc3d afa8 ef3c
000001b0: 20e4 10bc 2d05 833e e847 2a3d 101e b5bd
000001c0: 2885 a63c 0011 89bc b8de eb3c 1a72 53bc
000001d0: 3af2 583d 8cb7 63bd 38f6 43bd 223a e3bc
000001e0: a7c6 6c3e cfac 193e c410 c9bc cf46 583e
000001f0: ced2 0d3e 4804 be3c 924e 96bd 806c 9a3c
00000200: 92aa f63d 1c71 1a3e 0aae debd a6ae e93d
00000210: 70bd 1e3c 4111 013e 8f26 1ebe aadc dc3c
00000220: 988f c7bd 513f 543e d15a 7d3e d087 193c
00000230: 2ce2 b2bd d8d7 c03d 3cc7 e43d 1267 b43d
00000240: adcd 3bbe e086 213c 1395 1e3e cb3b 953d
00000250: 15bd 673e 3ced 4c3d 6414 123e d373 38bc
00000260: 7081 f23d 76ab 023e f243 dfbd 24aa e7bb
00000270: 3a5a 8e3c e6c2 8c3d 17ba 8d3e 40f7 eabc
00000280: e563 b53d be8e a63d 9109 253d 3405 cd3d
00000290: 9dd2 293d c27a c4bd 7846 b4bd 539d fbba
000002a0: 0e4b 8cbd 1195 093e e026 1abc f8b3 833d
000002b0: f857 81bd 8c24 f13d 9237 3d3d 5225 fb3d
000002c0: 10c3 3dbd d64b b7bd 50d6 543d f8a8 2abb
000002d0: 4be7 103e 08f5 9f3d c4e9 083e d2e0 54bc
000002e0: be2b 4f3e 298d 6d3e 3f14 1d3c 2ced 4f3e
000002f0: 9e5b 183e 806c b33a b0dc 763d 9801 33bd
00000300: 7047 dfbd 315f 2e3c b3f2 443d a44f a7bd
00000310: e051 783d 1286 90bd 7a20 9dbe e8b7 933d
00000320: 7465 0b3d 4c65 423c 0150 393e 7881 ae3c
00000330: f038 0b3d 38a7 063e e546 84bd 6c8e 7cbd
00000340: ed2f 63be 1ca0 0b3d 9e3f 563d 9d59 ae3d
00000350: e4c6 ca3d a029 95bb aecb 1c3d a8db d2bc
00000360: 89df 3b3e 80a0 8d3d 569a ecbd f9ec 8b3d
00000370: 48ed 66bd 8bde c93d 6e09 af3e 66ef fdbd
00000380: 2855 4e3d f027 44bc ad55 423d 3235 eb3d
00000390: a25b 7ebc 7475 a43d 61e1 203d 4406 34bd
000003a0: 30a0 f03c 91e5 9c3e 2473 a7bd 1ce3 a6bc
000003b0: da95 fa3d 0023 6a3e a9ce 8c3d f60b 9a3d
000003c0: a000 83bc de65 fcbd 90df 193c 3aad a43d
000003d0: 5330 603a c81d 323d df3c d9bd 168f 0f3e
000003e0: 03e4 9d3e 9fdf 5d3e fe20 b13d 5e2f bb3d
000003f0: e454 febc d0de ffbc 8084 43bc e075 8ebd

mlr.2.bias f4 [208]
0.089620836 0.07309748 -0.022374095 0.10138114 0.12852775 0.12123916 0.14992201 0.029054418
0.0965506 0.12024417 0.10460998 0.042649623 0.1008623 -0.04002777 -0.010797139 0.05647859
0.096021295 0.057069976 -0.03137019 0.012225788 0.07333286 0.026582766 0.097842075 0.040197637
0.091671884 0.067543566 0.056160267 0.09600615 0.050624646 0.07225082 0.02106312 0.067530125
0.11610204 -0.0118534 0.06253154 0.017864892 0.06269378 0.0557699 0.107102014 -0.031242913
0.020029612 0.10560292 0.026152274 0.07834823 -0.023711221 0.1130175 -0.013791315 0.032245073
-0.0042249667 0.12936684 0.06963443 0.017081073 0.109884396 0.13051322 0.024702748 0.0492371
0.07139934 0.10085998 0.118200384 0.15358792 0.10149957 0.122264706 0.07967093 0.15665448
0.06493045 0.013390239 0.09431103 0.0035827118 -0.014505712 -0.034251776 0.09955243 0.07821865
0.07795794 0.01844003 -0.030239984 0.06550299 0.0063378084 0.05766092 0.108439356 0.12245566
0.15164782 0.05964036 0.11080904 0.06326949 0.09436202 0.047372423 0.08510391 0.10672977
0.12177696 0.034733556 0.08998305 0.082447655 0.10332778 0.024663547 0.13926846 0.12460535
-0.0017280516 0.108558826 0.08817389 0.044747327 -0.0011724503 0.008751634 0.08545127 0.02252654
0.14417014 0.09403774 0.05511705 0.15769681 0.019717272 0.047343608 0.19227889 0.13183461
0.18664078 0.14710763 0.051255878 0.1453566 0.09561987 0.13676101 0.014284072 0.09170946
0.05309467 0.07681127 0.031489763 0.11496257 0.117710344 0.124456815 0.008598771 0.0119303195
0.11032807 -0.011900999 0.037706528 0.10086206 0.1461602 0.034867305 0.033083413 0.023427093
0.048958067 0.1323441 0.014850469 0.12866296 0.123256214 0.08221402 0.11510926 0.081019945
0.07397286 0.049506314 -0.0068035135 -0.04580521 0.060988195 -0.0002587633 -0.004718608 0.04526694
0.01933693 0.14177175 0.11033211 -0.037002444 0.110516496 0.04343467 0.15926702 0.09477422
0.050655246 0.11340794 0.008951141 0.03932878 0.11210969 0.10374334 0.040054712 0.08685857
-0.021062367 -0.0273715 -0.000808642 -0.05530514 0.083880715 -0.02316203 -0.023497583 0.03224249
0.07731356 0.10517033 0.08058143 0.016832136 0.080702275 0.032377806 0.1334636 0.0063189254
0.09553454 0.10999214 -0.003734818 0.1121758 0.045011874 0.10644509 0.026556918 0.050025776
-0.0036257028 0.038254585 0.06832381 0.07305137 -0.014736253 -0.04547491 0.051954433 -0.037699044
-0.042327445 -0.056528047 0.090374984 0.095462434 0.016835054 0.092567824 0.1197673 0.091362156
00000000: 218b b73d 22b4 953d e149 b7bc eaa0 cf3d
00000010: c79c 033e 3d4c f83d 2885 193e 8803 ee3c
00000020: 52bc c53d 9342 f63d c23d d63d 5fb1 2e3d
00000030: e590 ce3d 29f4 23bd 7ce6 30bc 1856 673d
00000040: d0a6 c43d 35c2 693d 077e 00bd ac4e 483c
00000050: 8a2f 963d 1ac4 d93c 6d61 c83d 47a6 243d
00000060: 78be bb3d 4854 8a3d 4f08 663d df9e c43d
00000070: ca5b 4f3d 3df8 933d 908c ac3c 3c4d 8a3d
00000080: e8c6 ed3d c334 42bc 8910 803d 6559 923c
00000090: 9965 803d fb6e 643d 4d58 db3d 23f1 ffbc
000000a0: 2415 a43c 5846 d83d 4b3d d63c 0975 a03d
000000b0: 093e c2bc b875 e73d f8f4 61bc 6913 043d
000000c0: 9771 8abb be78 043e 7f9c 8e3d 9bed 8b3c
000000d0: 120b e13d 42a5 053e 6b5d ca3c d7ac 493d
000000e0: d139 923d ad8f ce3d 0b13 f23d 2746 1d3e
000000f0: 02df cf3d eb65 fa3d 832a a33d 086a 203e
00000100: 41fa 843d bc62 5b3c 2426 c13d eecb 6a3b
00000110: 5ea9 6dbc 974b 0cbd 25e2 cb3d 1931 a03d
00000120: 6aa8 9f3d 8c0f 973c d8b9 f7bc 6e26 863d
00000130: 64ad cf3b db2d 6c3d 7415 de3d 08ca fa3d
00000140: 9149 1b3e 7349 743d daef e23d 6f93 813d
00000150: e040 c13d 9609 423d f54a ae3d 2395 da3d
00000160: 3366 f93d c644 0e3d 0949 b83d 51da a83d
00000170: 849d d33d 350b ca3c 649c 0e3e 1731 ff3d
00000180: ca7f e2ba 1754 de3d 8394 b43d f948 373d
00000190: e7ac 99ba 0363 0f3c 1301 af3d 9489 b83c
000001a0: 56a1 133e dc96 c03d 6ac2 613d 467b 213e
000001b0: 1e86 a13c 5feb 413d c2e4 443e a7ff 063e
000001c0: c31e 3f3e 62a3 163e aff1 513d 5cd8 143e
000001d0: 5ad4 c33d 140b 0c3e be07 6a3c 2bd2 bb3d
000001e0: cc79 593d 3a4f 9d3d 69fb 003d 7f71 eb3d
000001f0: 1f12 f13d 37e3 fe3d dce1 0c3c 6377 433c
00000200: aff3 e13d 68fc 42bc 2972 1a3d c590 ce3d
00000210: 05ab 153e 05d1 0e3d 7982 073d 2dea bf3c
00000220: 4188 483d 3685 073e 624f 733c 39c0 033e
00000230: c16d fc3d d35f a83d 67be eb3d c9ed a53d
00000240: 157f 973d 22c7 4a3d 02f0 debb 3e9e 3bbd
00000250: c2ce 793d 9faa 87b9 8e9e 9abb d469 393d
00000260: 7b68 9e3c 9d2c 113e cdf5 e13d e08f 17bd
00000270: 7956 e23d 8de8 313d e516 233e fc18 c23d
00000280: e07b 4f3d 6c42 e83d cea7 123c 3717 213d
00000290: c499 e53d 6377 d43d 6910 243d e8e2 b13d
000002a0: fc8a acbc 323a e0bc 0cfb 53ba a487 62bd
000002b0: a7c9 ab3d 4cbe bdbc 017e c0bc b410 043d
000002c0: 9256 9e3d 8b63 d73d e007 a53d 8ce3 893c
000002d0: 3c47 a53d 979e 043d afaa 083e fd0e cf3b
000002e0: 9da7 c33d 8f43 e13d d9c3 74bb 6dbc e53d
000002f0: 5f5e 383d e2ff d93d e58d d93c d4e7 4c3d
00000300: 339d 6dbb d7b0 1c3d 5bed 8b3d f59b 953d
00000310: 5370 71bc e643 3abd 2cce 543d 506a 1abd
00000320: 8b5f 2dbd f489 67bd 8516 b93d cf81 c33d
00000330: abe9 893c 3394 bd3d 8f48 f53d 151c bb3d
