pqc_reup_v1_output/best_model_epoch_15.pth (torch, 61285 bytes, 6 tensors)

reupload_weights f4 [12, 3, 4]
0	0x3e55fb44	0.20896631
1	0x3e14ca00	0.14530182
2	0x3e4fc38a	0.20289436
3	0xbe64d1a7	-0.22345601
4	0x3ec4a486	0.3840677
5	0x3e1ef56c	0.15523309
6	0x3ec30fcb	0.38097987
7	0x3f459457	0.77179474
8	0x3c781376	0.015141359
9	0x3e836f5e	0.25670904
10	0x3d8842c2	0.06653358
11	0xbeaf6d05	-0.34262863
12	0xbe36094c	-0.17776984
13	0xbe1bc1da	-0.15210667
14	0xbb975f34	-0.0046195034
15	0x3e142ad4	0.14469463
16	0xbe933f63	-0.28759298
17	0xbee89721	-0.45427802
18	0xbdf8a8cb	-0.1214157
19	0xbd61ec78	-0.055157155
20	0x3ced2e1b	0.028952649
21	0x3e40194d	0.18759651
22	0x3e07e12b	0.13269489
23	0x3e3e18d9	0.18564166
24	0x3d000b9e	0.03126108
25	0x3dbab10a	0.09115799
26	0x3d8eebfe	0.06978606
27	0x3d708419	0.05871973
28	0x3f4ef1e2	0.80837834
29	0x3f00a356	0.5024923
30	0x3ee18d2b	0.44053015
31	0x3f1da844	0.6158488
32	0xbe44e572	-0.19228151
33	0xbcb73786	-0.022365343
34	0x3df0d8fe	0.11760138
35	0x3e36f094	0.17865211
36	0x3d0b63ff	0.03403091
37	0xbe1210ef	-0.14264272
38	0x3d890791	0.06690896
39	0xbe71cdf2	-0.23613718
40	0x3e91a3cf	0.2844529
41	0x3f243a63	0.6415159
42	0x3e967239	0.2938402
43	0xbe4731f3	-0.19452648
44	0x3f07da37	0.53067344
45	0x3f581c18	0.8441787
46	0x3f03cf2e	0.51488006
47	0xbca82d6f	-0.020529477
48	0xbd38bf9b	-0.045104604
49	0x3cb6b161	0.022301378
50	0x3e0cd80e	0.13754293
51	0x3e4a6f44	0.19769007
52	0x3e408379	0.18800153
53	0x3e9b58dd	0.30341235
54	0xbe97dbd0	-0.2965989
55	0xbe97ee8b	-0.2967418
56	0xbcc93077	-0.024559243
57	0x3dfccb2d	0.1234344
58	0xbe9131de	-0.28358358
59	0xbe43f6cc	-0.19137114
60	0xbd42342d	-0.04741304
61	0x3dd30aa5	0.10304765
62	0xbe4f1e8b	-0.20226495
63	0xbc1ce085	-0.009575014
64	0x3e78ceb7	0.24297605
65	0xbc9aaa3d	-0.018880004
66	0x3de6104c	0.11233577
67	0x3d49c84a	0.049263276
68	0x3d238962	0.03992594
69	0xbe20f230	-0.15717387
70	0xbe78ae92	-0.24285343
71	0x3ddb64b8	0.1071257
72	0xbd14c95c	-0.036324844
73	0xbc0f0b76	-0.00873076
74	0xbd4c3b33	-0.049861144
75	0x3df0aa62	0.11751248
76	0xbc1fc057	-0.009750447
77	0xbe3a2974	-0.18179876
78	0xbea4d05e	-0.32190222
79	0xbd9f8f5a	-0.07791014
80	0x3e8d0db5	0.2754952
81	0x3e232bf2	0.15934733
82	0x3d8f4df3	0.069972895
83	0x3e06b172	0.13153628
84	0x3e22b6c2	0.15890029
85	0x3ddf85cb	0.10914191
86	0x3dcc96a1	0.09989668
87	0xbbd3fef2	-0.006469601
88	0xbe8864b0	-0.26639318
89	0xbeb91a8e	-0.36153072
90	0x3e1ff17d	0.15619464
91	0x3e825ec5	0.25462928
92	0xbedd5991	-0.43232396
93	0xbe9c6077	-0.30542347
94	0x3ee5897b	0.44831452
95	0x3e966f90	0.2938199
96	0xbe8c3947	-0.2738745
97	0x3e0db94d	0.13840218
98	0xbbc6a717	-0.006062399
99	0x3d67c991	0.056588713
100	0xbe30c0ab	-0.17260997
101	0x3f0fdace	0.56193244
102	0x3f2e3101	0.68043524
103	0x3edcaba5	0.43099704
104	0xbf0182e6	-0.5059036
105	0x3df9d8bc	0.12199542
106	0x3e758fa3	0.23980574
107	0x3d30c933	0.04316063
108	0xbd570618	-0.052496046
109	0x3dddcd1a	0.10830136
110	0x3c9c6239	0.019089805
111	0x3e205e99	0.15661086
112	0xbe17a70e	-0.1480982
113	0xbd8bbc4f	-0.068230264
114	0xbd720fb1	-0.059096996
115	0xbf5688ab	-0.8380229
116	0x3e9229e3	0.28547582
117	0x3e582f30	0.2111175
118	0x3df3cc73	0.1190423
119	0x3e4235df	0.18965863
120	0xbdbfbd0b	-0.09362229
121	0xbe132743	-0.14370446
122	0x3d42417c	0.047425732
123	0x3d710ddc	0.058851108
124	0xbd9aa08b	-0.075501524
125	0xbdf3456a	-0.11878474
126	0x3eb7d1e5	0.35902324
127	0x3e8fda45	0.28096214
128	0xbf1063b3	-0.5640213
129	0xbf3335f1	-0.70004183
130	0xbef0534d	-0.46938553
131	0xbf076ccc	-0.52900386
132	0xbda0ac49	-0.07845361
133	0x3e886734	0.26641238
134	0x3dd9868d	0.10621367
135	0x3dc446fb	0.09583851
136	0xbf330863	-0.6993467
137	0xbe483c65	-0.19554289
138	0xbefd6eb4	-0.49498522
139	0xbe44a0f6	-0.19202027
140	0xbf3b492c	-0.73158526
141	0x3db09940	0.0862298
142	0xbe2bf2e3	-0.16791873
143	0xbc388c8d	-0.011263979

reupload_bias f4 [12, 3]
0	0xbeed0a36	-0.46296853
1	0x3f29cc6c	0.6632755
2	0xbdba5025	-0.090973176
3	0x3edb49ec	0.42829835
4	0xbf01520d	-0.50515825
5	0x3ce8c9cb	0.028416535
6	0xbea0b07c	-0.31384647
7	0x3f6c749d	0.9236544
8	0x3d2b889c	0.041878328
9	0x3eb051da	0.34437448
10	0x3e2c3a9d	0.16819234
11	0x3f3feca9	0.7497049
12	0xbebec263	-0.3725768
13	0x3db0ecd1	0.08638919
14	0xbe67b2a8	-0.22626746
15	0x3e36dcfa	0.17857733
16	0xbe996ee1	-0.29967406
17	0xbe800914	-0.25006926
18	0xbe031c18	-0.12803686
19	0xbe919c49	-0.2843955
20	0xbe0b013c	-0.1357469
21	0xbf093295	-0.5359281
22	0xbe96cf35	-0.2945496
23	0x39b1631f	0.00033833922
24	0x3ee5049c	0.4473008
25	0x3f14c350	0.58110523
26	0xbf09a5d6	-0.5376867
27	0xbecf2126	-0.40454978
28	0xbf0486ad	-0.51768
29	0x3df6dbec	0.120536655
30	0x3e5f01b0	0.21777987
31	0x3e132bb5	0.14372142
32	0xbf7f103b	-0.9963414
33	0xbedba232	-0.42897183
34	0xbf0f987c	-0.5609205
35	0xbe139a56	-0.14414343

mlr.0.weight f4 [64, 12]
0	0x3b8a086f	0.004212431
1	0xbc8d331b	-0.017236283
2	0x3d8e21fc	0.06940076
3	0x3da5ad0d	0.080896474
4	0xbe863deb	-0.26219115
5	0xbdda2d76	-0.10653202
6	0x3e78efb0	0.24310184
7	0x3de64eb8	0.11245483
8	0xbc6b3dd1	-0.014358
9	0xbe323890	-0.1740439
10	0xbe34da04	-0.17661291
11	0xbe846555	-0.2585856
12	0xbdf85c10	-0.121269345
13	0x3dc25d20	0.094904184
14	0x3e220f32	0.15826109
15	0x3e16436d	0.14674158
16	0xbe89b85d	-0.2689847
17	0xbe33a761	-0.17544319
18	0xbd905a72	-0.07048501
19	0x3e9b6900	0.30353546
20	0x3cfe644b	0.031053683
21	0xbda002a4	-0.07813004
22	0x3dbd66d1	0.09248126
23	0xbdb59af1	-0.08867443
24	0xbe4973e1	-0.1967311
25	0x3e4e9bcc	0.2017662
26	0xbe1083d7	-0.14112793
27	0xbd88630f	-0.06659519
28	0xbe9824f3	-0.2971569
29	0x3e3cb045	0.18426616
30	0x3e55d15c	0.20880646
31	0x3dc5716a	0.09640773
32	0xbe57f0b7	-0.21087919
33	0xbe966b50	-0.29378748
34	0xbe7ad965	-0.24496992
35	0x3e534d5e	0.20634982
36	0x3e0debbe	0.1385946
37	0x3e78c064	0.24292141
38	0x3e1adb91	0.1512282
39	0x3d95a139	0.073061414
40	0xbb394397	-0.0028269046
41	0xbe60cee1	-0.21953918
42	0xbe7d43c4	-0.24732882
43	0xbe8a3eff	-0.27001187
44	0x3df2047c	0.118172616
45	0xbe1121bc	-0.14173025
46	0xbd6df6b7	-0.058096614
47	0xbe2a1f0c	-0.16613406
48	0xbd5776ac	-0.05260341
49	0xbe500e52	-0.20317963
50	0xbe4126e0	-0.18862486
51	0x3dc41c12	0.095756665
52	0xbdafb459	-0.085793205
53	0x3e367d1c	0.17821163
54	0xbdbdaa0e	-0.09260951
55	0xbe58d84d	-0.21176262
56	0xbd509fad	-0.05093353
57	0xbe0f4aff	-0.13993452
58	0xbdb4dfec	-0.08831772
59	0xbe8cb4e0	-0.27481747
60	0x3e2edd1c	0.17076534
61	0xbe67de43	-0.2264338
62	0x3e22adaf	0.15886568
63	0x3db8e520	0.09028077
64	0x3e59bd9c	0.21263736
65	0xbe755802	-0.23959354
66	0x3e68820c	0.22705859
67	0xbe322138	-0.17395484
68	0x3dd24920	0.10267854
69	0x3e844339	0.25832537
70	0xbc1bcdfe	-0.009509562
71	0xbd15e281	-0.036592964
72	0xbb3661ad	-0.0027829215
73	0xbe930ea9	-0.28722122
74	0x3e5a5229	0.21320404
75	0xbec6693d	-0.38752165
76	0x3e62ef9f	0.2216172
77	0x3e3d1ca3	0.18467955
78	0x3eb77538	0.35831618
79	0xbe33d923	-0.175633
80	0xbe64a30e	-0.22327825
81	0x3d21a434	0.039463237
82	0x3e8df218	0.27723765
83	0xbebfd276	-0.37465256
84	0xbd8631bb	-0.06552454
85	0xbe313377	-0.17304789
86	0xbcced62a	-0.025248606
87	0xbe117ffd	-0.1420898
88	0xbdf1aa87	-0.11800104
89	0xbdbbaf0d	-0.09164248
90	0xbe8c74de	-0.27432913
91	0x3e728b75	0.23686011
92	0x3e77d042	0.24200538
93	0xbd397beb	-0.045284193
94	0xbd06a7da	-0.03287492
95	0xbdf14881	-0.11781407
96	0xbe857964	-0.26069176
97	0xbe8fd516	-0.2809226
98	0x3ddbba19	0.10728855
99	0xbe224cc5	-0.15849598
100	0xbe3e095d	-0.1855826
101	0xbcb882e7	-0.022523357
102	0xbdc4e0e0	-0.09613204
103	0xbdbf4484	-0.0933924
104	0x3c17f82b	0.009275476
105	0xbd7acdf8	-0.061231583
106	0xbdcb8f4f	-0.09939443
107	0xbe0d8960	-0.13821936
108	0xbe7ade19	-0.24498786
109	0x3e808906	0.2510454
110	0xbe07dfd9	-0.13268985
111	0x3dc9af13	0.09847846
112	0xbde03f99	-0.1094963
113	0x3d0741c6	0.03302171
114	0x3e8114da	0.2521122
115	0x3e287757	0.16451775
116	0xbe810942	-0.25202376
117	0x3e033909	0.12814726
118	0x3e8215b1	0.25407174
119	0x3dd68581	0.104746826
120	0x3e3aeb18	0.18253744
121	0x3e9fe060	0.31225872
122	0xbd8e3b74	-0.069449335
123	0x3dead782	0.11466886
124	0xbe56cf92	-0.2097762
125	0xbd128718	-0.035773367
126	0x3e3ee6f4	0.18642789
127	0x3e5cc3b6	0.21559033
128	0xbe339d73	-0.17540531
129	0xbe59390d	-0.2121317
130	0xbe6e3dbe	-0.2326574
131	0xbe5f2e52	-0.21795014
132	0xbe64195c	-0.22275299
133	0xbd923431	-0.07138861
134	0x3e477ef6	0.19482026
135	0x3d45ea3d	0.04831909
136	0xbe60d667	-0.21956788
137	0xbe6d23db	-0.23158209
138	0x3e130e2b	0.14360873
139	0xbe5be1c8	-0.21472847
140	0xbd11966a	-0.035543837
141	0x3e0dcd7e	0.1384792
142	0xbe08cf0d	-0.13360234
143	0xbd00ee24	-0.03147711
144	0xbccdd859	-0.025127577
145	0xbd8bdea2	-0.06829573
146	0xbe15e162	-0.14636758
147	0xbe83c18e	-0.25733608
148	0xbe6ef3f9	-0.23335256
149	0xbe1e48c5	-0.15457447
150	0x3e8ec09f	0.27881333
151	0xbe0ec7e0	-0.13943434
152	0xbe468183	-0.19385342
153	0x3d8f4e19	0.06997318
154	0x3da2f152	0.079561844
155	0x3e21f6c5	0.15816791
156	0x3e8240a6	0.25439948
157	0x3e5c2cc1	0.21501447
158	0xbe8ad461	-0.27115157
159	0x3dcc946d	0.099892475
160	0x3e4e3806	0.20138559
161	0x3cbda908	0.02315189
162	0xbe222da8	-0.15837729
163	0x3ebbf842	0.36712843
164	0xbd858dca	-0.06521185
165	0xbde5cff2	-0.11221303
166	0xbe7bff56	-0.24609122
167	0x3dd79381	0.10526181
168	0x3d26f2ff	0.040759083
169	0x3dc3f825	0.09568814
170	0x3c4abe20	0.012374431
171	0xbe21f230	-0.15815043
172	0xbe986e63	-0.29771718
173	0x3cd18e0a	0.025580425
174	0x3e5a40ce	0.21313784
175	0x3e435dc4	0.19078737
176	0xbe4df787	-0.20113955
177	0xbd1e0d95	-0.03858717
178	0xbea3cdad	-0.31992856
179	0xbe0f2d85	-0.13982208
180	0x3d197585	0.03746559
181	0x3e0d3f4e	0.1379368
182	0x3e5141b7	0.20435224
183	0xbe8c5c1a	-0.27414018
184	0x3e29c17d	0.16577716
185	0xbe644143	-0.2229052
186	0x3d9459ef	0.07243716
187	0x3e7fe9ef	0.24991582
188	0xbc4b468d	-0.012406957
189	0x3e7c0c41	0.2461405
190	0xbe8be432	-0.27322537
191	0xbdcd2a24	-0.10017803
192	0x3e5fe340	0.21864033
193	0xbddb026a	-0.1069382
194	0x3aa55258	0.0012613041
195	0xbe59b8ef	-0.21261953
196	0x3e70941a	0.23493996
197	0x3ddb616d	0.10711942
198	0x3e246338	0.16053474
199	0xbe859f85	-0.26098266
200	0xbe65b7ef	-0.22433446
201	0x3b8a10cc	0.004213428
202	0x3e38dab6	0.18052182
203	0xbe63aa88	-0.22233021
204	0xbda56b12	-0.08077063
205	0x3e47a415	0.19496186
206	0x3cbc61a2	0.022995774
207	0x3c5564e2	0.013024541
208	0xbd917f0c	-0.071043104
209	0xbe85d901	-0.26142123
210	0xbe8af8bc	-0.27142894
211	0xbe0d4d87	-0.13799106
212	0xbe1642f2	-0.14673975
213	0x3db8314c	0.08993778
214	0xbdac1b4b	-0.08403643
215	0xbde74b0a	-0.112936094
216	0x3ea87455	0.32901254
217	0x3dfbb72b	0.12290796
218	0x3e7c13e0	0.24616957
219	0xbdfdad93	-0.12386622
220	0xbda4f8b9	-0.080552526
221	0x3e061002	0.13092044
222	0xbe19f98f	-0.15036605
223	0xbe224537	-0.15846716
224	0x3cd2f446	0.025751244
225	0xbd96625d	-0.0734298
226	0xbe211164	-0.1572929
227	0x3e5273d3	0.20551996
228	0x3e826e88	0.25474954
229	0x3d6afbc5	0.057369012
230	0xbd44aa11	-0.04801375
231	0xbe81d948	-0.25361085
232	0xbdc533c9	-0.09629018
233	0x3dac742f	0.08420598
234	0x3e0d6e36	0.13811573
235	0xbbf79fdd	-0.007556899
236	0xbdc3d260	-0.0956161
237	0x3e3630e8	0.17792094
238	0xbe5f79c5	-0.21823795
239	0x3e5c6be6	0.21525535
240	0xbd2d866d	-0.042364527
241	0x3dadfe18	0.0849573
242	0xbaee1760	-0.0018164925
243	0x3e05629b	0.13025896
244	0xbcb92336	-0.022599798
245	0x3e95174c	0.29119337
246	0x3d409223	0.047014367
247	0x3eacf424	0.33780015
248	0x3eb4c7d3	0.35308704
249	0xbd6739f2	-0.056451745
250	0xbe1bb309	-0.15205015
251	0x3eb0aa15	0.34504762
252	0x3e67a38e	0.22620985
253	0xbe61b506	-0.22041711
254	0xbcb6cf13	-0.022315538
255	0xbe91c049	-0.28467014

mlr.0.bias f4 [64]
0	0xbda2912d	-0.07937846
1	0x3e4447a0	0.19167948
2	0x3da50b81	0.08058835
3	0xbd4e2dc2	-0.050336607
4	0x3d47be5c	0.048765525
5	0xbe0d9f35	-0.13830264
6	0x3dbef56f	0.093241565
7	0x3de9dc28	0.114189446
8	0x3d9ec429	0.07752258
9	0xbe1b01d2	-0.15137413
10	0x3e639cd4	0.22227794
11	0xbd2ab479	-0.04167602
12	0xbde62aa7	-0.11238604
13	0x3e456120	0.19275331
14	0x3eb5875b	0.3545483
15	0x3e5751d6	0.21027312
16	0x3da4ef76	0.08053486
17	0xbdc989ea	-0.09840758
18	0x3e091716	0.13387713
19	0x3e5067b5	0.20352061
20	0xbe891b49	-0.2677863
21	0xbd127c4e	-0.035763077
22	0xbe683e6c	-0.22680062
23	0x3d5c5ab1	0.053797428
24	0x3d8ee541	0.069773205
25	0xbd84dde3	-0.06487634
26	0xbcc5d5ab	-0.024149736
27	0x3d257691	0.040396277
28	0xbd8eb0b8	-0.069673
29	0xbe87aec9	-0.26500538
30	0x3e1e788c	0.15475672
31	0xbe14c80d	-0.14529438
32	0xbdc703f9	-0.097175546
33	0x3cdf10c7	0.02722968
34	0xbce95122	-0.02848107
35	0xbe8b08f3	-0.27155265
36	0x3e079f70	0.13244414
37	0xbe0645b8	-0.13112533
38	0xbe22bd3b	-0.15892498
39	0x3d0a40ae	0.03375309
40	0xbe1a43a0	-0.1506486
41	0xbe500b26	-0.20316753
42	0xbdc73501	-0.097269066
43	0xbe0687e1	-0.13137771
44	0xbdf6e8f9	-0.12056155
45	0xbdbc6bb6	-0.09200232
46	0xbc2979b2	-0.010343956
47	0xbe6f3520	-0.2336011
48	0xbe32ec41	-0.17472936
49	0x3b8a066a	0.0042121904
50	0x3d246f9e	0.04014551
51	0x3d951004	0.07278445
52	0xbe4b0005	-0.19824226
53	0x3dbcb61c	0.09214422
54	0x3db236e9	0.087018795
55	0x3d98badd	0.07457516
56	0xbe9d079e	-0.30669874
57	0xbe27ef79	-0.16399945
58	0xbe8f6c56	-0.2801234
59	0xbe3bde04	-0.18346411
60	0x3e0b18b5	0.13583644
61	0xbd308e8d	-0.043104697
62	0x3dfb1799	0.1226036
63	0xbe2d8562	-0.16945413

mlr.2.weight f4 [208, 64]
0	0x3c9b9b60	0.018994987
1	0xbd38125e	-0.04493939
2	0x3d4763a2	0.048679
3	0xbd5ff024	-0.054672375
4	0xbd006380	-0.03134489
5	0xbde50971	-0.111834414
6	0xbeb34976	-0.35016984
7	0x3df31122	0.11868502
8	0x3d78837c	0.06067227
9	0xbb716373	-0.0036832958
10	0x3cf6d380	0.030130148
11	0xbc608f60	-0.013706058
12	0xbdce1958	-0.10063428
13	0x3e30dd89	0.17272009
14	0xbcb82881	-0.022480251
15	0x3d71b13e	0.059006922
16	0xbe821b01	-0.25411227
17	0xbd6f9318	-0.05848989
18	0x3d2cd084	0.042191043
19	0x3d9556b5	0.07291929
20	0x3e057053	0.1303113
21	0xbd76c180	-0.06024313
22	0x3e072811	0.13198878
23	0xbc96bcc0	-0.01840055
24	0xbd26c3e3	-0.040714156
25	0xbb9aa614	-0.004719505
26	0x3dfc0300	0.1230526
27	0x3d07dff6	0.03317257
28	0xbc8e0b6e	-0.017339434
29	0xbb9720b4	-0.004612053
30	0xbbac8167	-0.0052644494
31	0xbdd79c4a	-0.10527857
32	0xbd36f1e7	-0.04466429
33	0x3d95d588	0.073161185
34	0x3e09dcbf	0.13463114
35	0x3df44d08	0.11928755
36	0xbdb8d136	-0.09024279
37	0x3d8a7604	0.06760791
38	0xbd8d32f4	-0.06894484
39	0x3dfa6d38	0.12227863
40	0x3db8b7c8	0.090194285
41	0x3e4e6753	0.20156603
42	0x3db85548	0.09000641
43	0x3de7fd77	0.113276415
44	0x3b1f7240	0.0024329573
45	0x3dd5fb7e	0.10448359
46	0x3ca8951a	0.02057891
47	0x3d5ef150	0.054429352
48	0xbd248ecc	-0.040175244
49	0xbb098e00	-0.002098918
50	0xbdded126	-0.10879736
51	0x3b888699	0.004166436
52	0xbd64f131	-0.05589408
53	0xbd2cb550	-0.0421651
54	0xbd85d7d4	-0.065353066
55	0xbda6fc8b	-0.081536375
56	0x3e079dfa	0.13243857
57	0x3df63f90	0.12023842
58	0x3e0cf5db	0.13765661
59	0x3e088881	0.13333322
60	0xbc0a2c68	-0.008433439
61	0xbdfd2fbe	-0.12362622
62	0x3d42356c	0.04741423
63	0x3d8f70bc	0.07003924
64	0xbddbc772	-0.107314005
65	0x3dd08f00	0.10183525
66	0x3dce0081	0.1005869
67	0x3bf81f20	0.0075720698
68	0xbd9a3abe	-0.075307354
69	0x3dcd29ab	0.10017713
70	0xbec090e6	-0.3761055
71	0x3da98604	0.082775146
72	0xbdad210c	-0.08453569
73	0x3e20ea28	0.15714324
74	0xbcb26fce	-0.021781828
75	0x3dfd4f80	0.12368679
76	0xbd58ef2c	-0.052962467
77	0x3e3fc7e6	0.18728599
78	0x3ceddbd9	0.029035496
79	0x3dac01ff	0.08398818
80	0xbe967ee6	-0.2939369
81	0x3d524be8	0.05134192
82	0xb9cb15a0	-0.0003873529
83	0xbd85d788	-0.0653525
84	0x3dbb7a10	0.09154141
85	0x3dc895fc	0.09794232
86	0xbb9db280	-0.0048125386
87	0x3d20ee58	0.039289802
88	0x3c278353	0.010224181
89	0x3e32a619	0.17446174
90	0x3d9936a8	0.07481128
91	0x3dba5484	0.09098151
92	0xbd7abf9b	-0.061217885
93	0xbd1ac176	-0.037782155
94	0x3d68773f	0.056754347
95	0xbd962f34	-0.07333222
96	0x3e338a9a	0.17533341
97	0xbdf60282	-0.12012197
98	0x3dd92997	0.10603636
99	0x3dff35c2	0.12461425
100	0x3d80364a	0.06260355
101	0x3d2e94c4	0.042622343
102	0xbde4d724	-0.11173847
103	0x3e41b70e	0.18917486
104	0xbcaf2718	-0.021380946
105	0x3ca3d2b1	0.019997926
106	0x3dfcb6b4	0.12339535
107	0x3adba0e5	0.0016756324
108	0xbc10e420	-0.008843452
109	0x3e3dd837	0.1853951
110	0x3bc2b92d	0.005942485
111	0xbdb51e10	-0.088436246
112	0x3ca68528	0.020327166
113	0xbc891100	-0.016731739
114	0x3cebdeb8	0.028792724
115	0xbd4d125a	-0.05006633
116	0x3d06c1c9	0.03289965
117	0xbd63b78c	-0.055594966
118	0xbd3812e2	-0.044939883
119	0xbd9378b4	-0.07200757
120	0x3e30dad1	0.17270972
121	0x3da5bc9e	0.080926165
122	0xbd8a5448	-0.067543566
123	0x3e40b460	0.18818808
124	0x3e05d51e	0.13069579
125	0x3cbe0448	0.0231954
126	0xbd964e92	-0.07339205
127	0x3c9a6c80	0.018850565
128	0x3df6aa92	0.120442525
129	0x3e158909	0.14603056
130	0xbdd9fadc	-0.10643551
131	0x3de9aea6	0.11410265
132	0x3c1ebd70	0.00968872
133	0x3d73b860	0.059502006
134	0xbe93bf8e	-0.28857082
135	0x3dda3e0a	0.10656364
136	0xbdc78f98	-0.09744185
137	0x3e3aab30	0.18229365
138	0xbc489b19	-0.012244009
139	0x3c1987d0	0.009370759
140	0xbdb2e22c	-0.08734545
141	0x3db41e4d	0.08794842
142	0x3e108d92	0.14116505
143	0x3d277e4d	0.040891934
144	0xbe863532	-0.2621246
145	0x3c2186e0	0.009858817
146	0x3e3887e1	0.18020584
147	0x3e03f651	0.12886931
148	0x3e4668aa	0.19375864
149	0x3d4ced3c	0.05003093
150	0x3deb8d24	0.1150153
151	0xbbbd06c0	-0.005768627
152	0x3d8c3f55	0.06848017
153	0x3dd5d668	0.10441285
154	0xbddf43f2	-0.109016314
155	0xbd4c8289	-0.049929176
156	0x3c8e5a3a	0.017377008
157	0x3c408323	0.011750015
158	0x3d8f8d39	0.07009358
159	0xbceaf740	-0.028682351
160	0x3db31bf9	0.0874557
161	0x3da68ebe	0.08132695
162	0x3c161768	0.009160854
163	0x3dcd0534	0.10010758
164	0x3dca20b8	0.09869522
165	0xbdc47ac2	-0.09593727
166	0xbdb44678	-0.08802503
167	0xbd02ef0f	-0.031966265
168	0xbd8c4b0e	-0.06850253
169	0x3d9abd98	0.075556934
170	0xbc1a26e0	-0.009408683
171	0x3c9d58b3	0.019207334
172	0xbd8157f8	-0.06315607
173	0x3ce70f97	0.028205676
174	0x3d35e4b9	0.04440758
175	0x3dfb2552	0.12262978
176	0xbd3dc310	-0.046328604
177	0xbdb74bd6	-0.089500114
178	0x3d54d650	0.051962197
179	0x3d49c61c	0.049261197
180	0x3df0c927	0.11757117
181	0x3d9ff508	0.07810408
182	0x3e0b06cd	0.13576813
183	0xbd3a27ff	-0.0454483
184	0x3e16e9c3	0.1473761
185	0x3e241635	0.16024096
186	0xbd11f783	-0.035636436
187	0x3e44ac0f	0.1920626
188	0x3e412fd0	0.18865895
189	0x3ab36c80	0.0013688952
190	0x3d76dcb0	0.060269058
191	0xbd330198	-0.04370269
192	0xbddf4770	-0.109022975
193	0x3d831d29	0.06402046
194	0x3d4a08f2	0.049324937
195	0xbda74fa4	-0.08169487
196	0x3d7851e0	0.060624957
197	0xbdee94b8	-0.116494596
198	0xbeded9d7	-0.43525574
199	0x3df7e86e	0.12104879
200	0x3d0b6574	0.0340323
201	0xbbb3b57a	-0.00548428
202	0x3da532e2	0.08066346
203	0x3cae8178	0.02130197
204	0x3d0b38f0	0.033989847
205	0x3e027e8c	0.12743586
206	0xbd2088b5	-0.039192874
207	0xbcb67213	-0.022271192
208	0xbea40338	-0.32033706
209	0x3d0ba01c	0.03408824
210	0x3d1c9876	0.038231336
211	0x3e016582	0.12636378
212	0x3d82f6a8	0.06394702
213	0xbb9529a0	-0.004552081
214	0x3d385746	0.045005105
215	0xbd07fb48	-0.033198625
216	0x3dfcb86f	0.123398654
217	0x3d999e82	0.07500936
218	0xbdec9a56	-0.11552875
219	0x3cae2e99	0.021262454
220	0xbd66ed48	-0.056378633
221	0x3d85b5b2	0.06528796
222	0x3b830802	0.0039987573
223	0xbdfdef66	-0.12399177
224	0x3d3e2e93	0.046431135
225	0xbc4427f0	-0.0119724125
226	0xbc4162ae	-0.011803312
227	0x3deb3532	0.114847556
228	0xbcdf6f98	-0.027274892
229	0x3da47574	0.08030215
230	0x3d20e161	0.039277438
231	0xbd4abcbb	-0.049496394
232	0x3cf0a030	0.029373258
233	0x3e6d1e89	0.2315618
234	0xbda77324	-0.08176258
235	0xbd229ca3	-0.03970016
236	0x3dfa95da	0.12235613
237	0x3e1a4285	0.15064438
238	0x3bd1106a	0.0063801305
239	0x3d9a0bf6	0.075218126
240	0xbc8300a0	-0.015991509
241	0xbdfc65de	-0.12324117
242	0x3c19df90	0.00939168
243	0x3daa321e	0.0831034
244	0xbcab5018	-0.020912215
245	0x3d321dc8	0.043485433
246	0xbdd2ec75	-0.10299007
247	0x3df2d168	0.11856347
248	0x3e81e3f4	0.25369227
249	0x3de781a9	0.113040276
250	0x3d653567	0.05595913
251	0x3df2babf	0.11852025
252	0xbca15cbe	-0.019697543
253	0xbcffded0	-0.031234175
254	0xbc438480	-0.011933446
255	0xbd8e75e0	-0.069560766

mlr.2.bias f4 [208]
0	0x3d88ce38	0.06679958
1	0x3c83a6d3	0.016070759
2	0xbd7157ec	-0.05892174
3	0x3d815710	0.06315434
4	0x3ddb9226	0.10721235
5	0x3df4e3e7	0.119575314
6	0x3e07d535	0.13264926
7	0xbcc347d6	-0.023837965
8	0x3dad4538	0.08460468
9	0x3dd87215	0.105686344
10	0x3da468f8	0.08027834
11	0xbce7cc49	-0.028295653
12	0x3de4172e	0.11137234
13	0xbd7c644b	-0.061619084
14	0xbd49c0cd	-0.049256135
15	0x3da812b2	0.08206691
16	0x3da8fd6b	0.08251461
17	0x3d518cdd	0.05115973
18	0xba1eb299	-0.0006053835
19	0xbd5d7ce4	-0.054074183
20	0x3d9a3e18	0.07531375
21	0xbcd5be7a	-0.026091803
22	0x3d78474e	0.060614876
23	0x3c491ae4	0.012274478
24	0x3d73a342	0.059481867
25	0x3d573d0f	0.052548464
26	0xbb88d15b	-0.0041753477
27	0x3c1d3648	0.009595461
28	0x3c13a013	0.009010333
29	0xba060430	-0.00051123183
30	0xbcce7e49	-0.025206702
31	0x3d898bbe	0.06716107
32	0x3da20efc	0.07913014
33	0xbd8e446f	-0.069466464
34	0xbc1a1d4b	-0.009406398
35	0xbd73189c	-0.05934964
36	0x3c89066e	0.016726699
37	0xbc42667c	-0.0118652545
38	0x3dd9696e	0.10615812
39	0xbd919b32	-0.07109679
40	0xbcc8fb11	-0.02453378
41	0x3e018cc1	0.1265135
42	0x3c89f41a	0.01684003
43	0x3dcda8e8	0.10041982
44	0xbcccfb47	-0.025022162
45	0x3dbb58ff	0.09147834
46	0xbd5c9e6f	-0.05386203
47	0xbcc1ab5f	-0.023641286
48	0xbd76d619	-0.060262773
49	0x3de301e0	0.11084342
50	0x3d7e0868	0.062019736
51	0xbab412e1	-0.0013738537
52	0x3d28c7a8	0.041206032
53	0x3d5aa75b	0.05338226
54	0xbd2b1d8c	-0.041776225
55	0xbcdb8ae4	-0.026799627
56	0x3d230c72	0.03980679
57	0x3db60793	0.088881634
58	0x3d73bef7	0.05950829
59	0x3ddb026b	0.106938206
60	0x3d03c539	0.032170508
61	0x3db3bb92	0.087760106
62	0x3d268afd	0.040659893
63	0x3df5c9f1	0.12001408
64	0x3d49a2da	0.049227573
65	0xbd207b14	-0.039179876
66	0x3d8e18f5	0.06938354
67	0xbc99e3f4	-0.018785454
68	0xbd5195fc	-0.051168427
69	0xbd518b34	-0.051158145
70	0x3de1fcd7	0.110345535
71	0x3d1ee5b2	0.038793273
72	0x3d8eb2af	0.06967675
73	0xbcc5bd96	-0.024138253
74	0xbd995152	-0.07486214
75	0x3d008993	0.0313812
76	0xbd518566	-0.05115261
77	0x3d5fefe7	0.054672148
78	0x3cb3b8e4	0.021938749
79	0x3d757deb	0.059934538
80	0x3dddf4c4	0.10837701
81	0xbd290bb6	-0.041270934
82	0x3db2ebce	0.087363824
83	0x3be59892	0.007006713
84	0x3bf9d8d5	0.0076247253
85	0xbd0d73ac	-0.03453414
86	0x3b7d7392	0.0038673622
87	0x3d913227	0.07089644
88	0x3d96b396	0.07358472
89	0xbd4b2fe8	-0.049606234
90	0x3d54a3bf	0.051913973
91	0x3d47300f	0.048629817
92	0x3db66930	0.08906782
93	0x3ca6ffde	0.020385679
94	0x3e06f890	0.13180757
95	0x3dfb84f1	0.12281216
96	0xbd64f94e	-0.055901818
97	0x3da4e399	0.08051223
98	0x3d92c4c5	0.07166437
99	0xba4e2fde	-0.0007865409
100	0xbd0ffab1	-0.035151187
101	0xbd69b6db	-0.05705915
102	0x3d81bfd9	0.0633542
103	0xbc3a3f93	-0.011367696
104	0x3d8d75da	0.06907244
105	0x3d1bf17b	0.03807209
106	0x3c1f5302	0.00972438
107	0x3df0c1f8	0.117557466
108	0xbcdc8079	-0.02691673
109	0x3c43ea94	0.011957783
110	0x3e07ecb9	0.13273896
111	0x3dd1b267	0.10239106
112	0x3e1d9970	0.15390563
113	0x3ddc5562	0.10758473
114	0xbd175a1f	-0.03695118
115	0x3dc78e01	0.09743882
116	0x3d492f7c	0.04911755
117	0x3ddedd49	0.108820505
118	0xbb2ea26b	-0.0026647102
119	0x3dbbd17d	0.09170816
120	0xbc90da22	-0.017682139
121	0x3d796943	0.0608914
122	0xbd37cb1a	-0.044871427
123	0x3d813103	0.06308176
124	0x3daf7f1b	0.08569165
125	0x3dca92ee	0.09891306
126	0xbcd09794	-0.025462903
127	0xbd7d4005	-0.061828632
128	0x3d91052d	0.07081065
129	0xbcf21972	-0.029553149
130	0xbd3f20a5	-0.04666199
131	0x3d960906	0.0732594
132	0x3dec8aef	0.11549937
133	0xbd46d92a	-0.048546948
134	0x3bcaa406	0.006184104
135	0xbcbc5174	-0.022988059
136	0x3c71b512	0.014752643
137	0x3dc9e169	0.09857447
138	0xbd4cc92d	-0.049996544
139	0x3df715a2	0.12064673
140	0x3dada976	0.08479588
141	0x3d41dab5	0.047327716
142	0x3dd8f8f6	0.105943605
143	0x3d98464d	0.07435284
144	0x3d7d37bd	0.061820734
145	0x3b71b0fe	0.0036879177
146	0xbd06be29	-0.032896195
147	0xbd948a61	-0.07252956
148	0x3d8fde23	0.07024791
149	0x3b36db68	0.0027901772
150	0xbd87e6af	-0.06635796
151	0xbc2a88a3	-0.010408553
152	0xbd277685	-0.040884513
153	0x3dcc236c	0.09967694
154	0x3dbffefa	0.09374805
155	0xbd9c65de	-0.07636617
156	0x3d854b01	0.065084465
157	0xbbb596e9	-0.0055416715
158	0x3de0108d	0.10940657
159	0x3d2158cc	0.039391324
160	0x3c4d332e	0.012524409
161	0x3d9aa88d	0.0755168
162	0xbd2ae990	-0.04172665
163	0x3b948354	0.004532257
164	0x3dd7a0c6	0.10528712
165	0x3dd2fd7f	0.10302257
166	0x3cbb4f7d	0.022865051
167	0x3db6775a	0.08909483
168	0xbd8222d2	-0.06354298
169	0xbd8a23f2	-0.06745137
170	0x3bd02390	0.0063518956
171	0xbdb26967	-0.0871151
172	0x3dbe035e	0.09277986
173	0xbd222cbe	-0.03959345
174	0xbd37320c	-0.044725463
175	0x3d9ce724	0.07661274
176	0x3c28b538	0.010297112
177	0x3d6c0e6f	0.057630952
178	0x3d84c606	0.064830825
179	0xbd503ef7	-0.050841298
180	0x3d423edf	0.04742324
181	0x3befaf77	0.007314618
182	0x3da6c481	0.08142949
183	0xbccfd6d8	-0.025371
184	0x3d2f03fc	0.04272841
185	0x3d806887	0.06269937
186	0xbd69c317	-0.057070818
187	0x3d8390fe	0.064241394
188	0x3b9eda87	0.004847828
189	0x3dd27aa8	0.10277301
190	0xbc25ba33	-0.010115194
191	0x3c3b91d2	0.0114483405
192	0xbd8fc0ef	-0.07019221
193	0x3c8712cf	0.01648846
194	0x3daca8fb	0.08430668
195	0x3d857f0f	0.06518375
196	0xbd293725	-0.041312356
197	0xbd9ba26c	-0.07599339
198	0x3da7c20a	0.08191307
199	0xbd334d42	-0.04377485
200	0xbd9592f1	-0.073034175
201	0xbd2632e7	-0.040575888
202	0x3d48e1fb	0.049043637
203	0x3cc1f653	0.023677027
204	0xbd0b9e4a	-0.034086503
205	0x3d8bdf55	0.068297066
206	0x3df1784b	0.11790522
207	0x3d3d632b	0.046237152
