pqc_reup_v1_output/best_model_epoch_11.pth (torch, 61285 bytes, 6 tensors)

reupload_weights f4 [12, 3, 4]
00000000: 0234 3a3e 3c4e 0e3e 9fca 233e b722 12be
00000010: 4f2d b83e ccf1 063e a231 ad3e 6880 0b3f
00000020: 249e 7abd c15f 493e 42c8 15bc 512f 73be
00000030: 539e 3ebe 8800 1bbe eddb 40bd f15b d03d
00000040: 0074 12be b24b a6be 6a40 84be 5020 31be
00000050: af5c 693d c3e0 4c3e 5c69 3f3d 84c7 de3d
00000060: b9d6 153d 57d1 9c3d 3a08 2b3d ef1a 883d
00000070: ab68 103f f429 e73e 1fd1 c83e 06fc 0c3f
00000080: ce26 e0bd 7b62 453c 2e2f 043e f022 773e
00000090: 08dc 5c3c cefc 07be 51f7 213d 6ebe 40be
000000a0: 1858 eb3d e573 ea3e f9f4 173e 112c b4bd
000000b0: 48d3 c93e 7dc0 383f a1b9 ca3e fc5c f73d
000000c0: 83ab 7bbc 2d37 fa3c ca52 d63d e836 253e
000000d0: bc0c fc3c 32a3 213e b1cc 2cbe 32f6 2fbe
000000e0: 98a8 f2bd b09b d33c 537d e2bd 4204 05bd
000000f0: 4af0 93bd b6b4 d53d 276d 4abe 567a 033d
00000100: 97b1 093e c42b 6b3c dae6 193e c1f2 e43c
00000110: ea89 bd3c 7505 c3bd fa45 39be 95f2 eb3d
00000120: 89c6 e3bc 308c 9b3c e5b5 c5bc 202b 933d
00000130: 0e72 a5bc 9c6b 2abe 9792 a2be 9364 a4bd
00000140: d16a 193e a46e 7c3d e85d 0dbd d28c c23d
00000150: d199 1e3e 3d48 d83d 186d f53d 1163 8a3c
00000160: 3af0 53be 20fa 96be de91 20bd 5f28 d83d
00000170: f33b babe 40cc 6abe ec76 883e c266 1d3e
00000180: cbba 87be ac21 363d dbfe 02bd a30a 43bc
00000190: f9e1 173a 141e f83e fea2 133f 8ac0 b43e
000001a0: 79c7 d8be 3663 6f3c 3239 d23d 07c7 8abd
000001b0: 5330 d83b f9b9 123e eade 423d 35af f43d
000001c0: a948 92be 287b 2cbe 1d2b 57be 1c97 18bf
000001d0: ec08 7f3e 30f2 313e a342 ac3d f42d 883d
000001e0: 21a3 b7bd 8db1 ddbd 5a27 e63b 1493 2d3d
000001f0: a7ad 023d 31e4 2cbd 8df6 753e 0a70 343e
00000200: 4b19 cabe 7d53 02bf 2c09 0abf 73fc 0cbf
00000210: 747d 1abd ccbd 663e 56bf ab3d 5da7 963d
00000220: 0bbd 02bf 1180 81be a63d 06bf c3e6 6fbe
00000230: 123b 06bf ce8f 503d 0225 33be 2402 f9bc
0.18183902 0.13897032 0.15995263 -0.14271055 0.35972068 0.13178176 0.3382693 0.5449281
-0.06118597 0.19665433 -0.009141983 -0.23748519 -0.18615083 -0.15136921 -0.047084738 0.101737864
-0.14302063 -0.32479626 -0.25830394 -0.17297482 0.056973156 0.20007615 0.046731338 0.10877898
0.03658173 0.07657116 0.041755892 0.06645762 0.5640971 0.45149195 0.39222047 0.5507206
-0.109449014 0.012047405 0.12908623 0.24134421 0.013480194 -0.13280031 0.0395425 -0.18822643
0.11491412 0.45791546 0.14839543 -0.087974675 0.39419007 0.72168714 0.3959475 0.12078282
-0.015360716 0.030543888 0.104650095 0.16134226 0.030767791 0.1578491 -0.16874959 -0.1718376
-0.11848563 0.025831074 -0.1105906 -0.032474764 -0.07223566 0.104348585 -0.19768201 0.03209909
0.13446651 0.014353696 0.15029469 0.027947785 0.023137052 -0.09522525 -0.180931 0.11520878
-0.02780463 0.018987745 -0.024134586 0.0718596 -0.020195987 -0.16642612 -0.31752464 -0.080269955
0.14982153 0.061628953 -0.034513384 0.094995156 0.15488364 0.10560653 0.119836986 0.016892942
-0.20697108 -0.29487705 -0.03920161 0.10554575 -0.36373863 -0.22929478 0.2665323 0.1537123
-0.265097 0.044465706 -0.03198133 -0.011904391 0.00057938654 0.48460448 0.5767058 0.35303146
-0.42339686 0.014611056 0.102648154 -0.06776243 0.0065975576 0.14328755 0.04757587 0.119474806
-0.2857106 -0.16843855 -0.2101254 -0.59605575 0.24905747 0.17377543 0.084111474 0.0664939
-0.08966661 -0.10824881 0.007023734 0.042376593 0.03190389 -0.042209808 0.24019833 0.17620865
-0.39472422 -0.50908643 -0.53920245 -0.55072707 -0.037717298 0.2253334 0.08386104 0.07356141
-0.51069707 -0.2529302 -0.5243782 -0.23427872 -0.52433884 0.050918393 -0.17494586 -0.030396529

reupload_bias f4 [12, 3]
00000000: 9ff5 dfbe 9da5 f43e 4389 1dbd 20a7 d23e
00000010: 647e ffbe 50f3 79bd 0e03 92be 417d 343f
00000020: 8c78 d13d a270 b63e 0a8a fe3d 723e 3a3f
00000030: 5ce2 b0be d041 cf3d cc65 26be 9d1e 0c3e
00000040: abe5 91be e34e 39be 0656 d8bd 6253 6bbe
00000050: b913 14be 700e 03bf a7a3 9cbe 1d9b ddbb
00000060: 3d1b d53e 308d 193f 3629 15bf 24b6 cdbe
00000070: da5a d0be bcbd 5a3d 009a 553e 7b35 443e
00000080: c4ab 5bbf ffd1 d1be bc05 02bf 3bc6 95bd
-0.43742082 0.47782603 -0.03846098 0.4114313 -0.49901116 -0.061023057 -0.28517956 0.7050362
0.102280706 0.35632807 0.124286726 0.72751534 -0.34547698 0.101199746 -0.1624977 0.13683553
-0.28495535 -0.18096499 -0.10563283 -0.22981027 -0.14460649 -0.51193905 -0.30593607 -0.0067628757
0.41622344 0.5998106 -0.5826601 -0.40178025 -0.40694314 0.0534036 0.20859528 0.19161026
-0.8580897 -0.40980527 -0.5079 -0.073132

mlr.0.weight f4 [64, 12]
00000000: 6f08 8a3b 1b33 8dbc fc21 8e3d 0dad a53d
00000010: eb3d 86be 762d dabd b0ef 783e b84e e63d
00000020: d13d 6bbc 9038 32be 04da 34be 5565 84be
00000030: 71cf cabd bbaa c53d aa1a 353e 9667 0d3e
00000040: 0f57 82be 4524 31be cf54 52bd 0ead 953e
00000050: f2da 2f3d f164 98bd 3a9f ed3d c323 c7bd
00000060: b854 3fbe d1c1 573e 4f69 06be d908 6dbd
00000070: a208 93be b0d6 453e 96f5 5f3e d676 d73d
00000080: d81d 4ebe 12df 91be 3315 70be 756e 5c3e
00000090: beeb 0d3e 64c0 783e 91db 1a3e 39a1 953d
000000a0: 9743 39bb e1ce 60be c443 7dbe ff3e 8abe
000000b0: 7c04 f23d bc21 11be b7f6 6dbd 0c1f 2abe
000000c0: ac76 57bd 520e 50be e026 41be 121c c43d
000000d0: 59b4 afbd 1c7d 363e 0eaa bdbd 4dd8 58be
000000e0: ad9f 50bd ff4a 0fbe ecdf b4bd e0b4 8cbe
000000f0: 48a5 263e af44 58be d1b0 113e e069 f43d
00000100: 3636 523e 73ac 69be 5d29 543e 5351 10be
00000110: fe93 d73d 0f47 883e a054 0dbd 5e28 69bb
00000120: 19de dfbc bb54 85be 8101 353e 788f aabe
00000130: 716f 4b3e eb72 523e 4642 a23e 63b5 ecbd
00000140: 63cf 68be ebb4 603d afdc 643e d6c5 a1be
00000150: bb31 86bd 7733 31be 2ad6 cebc fd7f 11be
00000160: 87aa f1bd 0daf bbbd de74 8cbe 758b 723e
00000170: 42d0 773e eb7b 39bd daa7 06bd 8148 f1bd
00000180: 6479 85be 16d5 8fbe 19ba db3d c54c 22be
00000190: 5d09 3ebe e782 b8bc e0e0 c4bd 8444 bfbd
000001a0: 2bf8 173c f8cd 7abd 4f8f cbbd 6089 0dbe
000001b0: 7ae2 70be c435 763e b3f7 fbbd 0203 a23d
000001c0: 7aad d2bd d19e c03c 605d 863e 0744 123e
000001d0: 9ecb 7fbe 2f65 f33d 76cc 893e 04fb af3d
000001e0: 428f 553e 583e 9d3e 0de7 17bd 5aa9 bc3d
000001f0: 52c0 3cbe 8c39 1bbd c121 623e 3f38 413e
00000200: d617 25be cc07 56be 562e 43be 4a9d 7abe
00000210: 5c19 64be 3134 92bd f67e 473e 3dea 453d
00000220: 67d6 60be db23 6dbe 2b0e 133e c8e1 5bbe
00000230: 6a96 11bd 7ecd 0d3e 0dcf 08be 24ee 00bd
00000240: 59d8 cdbc a2de 8bbd 62e1 15be 8ec1 83be
00000250: f9f3 6ebe c548 1ebe 9fc0 8e3e e0c7 0ebe
00000260: 8381 46be 194e 8f3d 52f1 a23d c5f6 213e
00000270: ed3c 853e 1664 4c3e f135 83be 66c2 903d
00000280: ae9f 573e f91a 393c 0b2f 10be 3e14 a93e
00000290: 14b9 88bd 9b9e fbbd 6842 68be 4cd6 8d3d
000002a0: ac2b 713d 0912 b33d 935c 143d 8b72 3cbe
000002b0: ef8a 91be 5633 a43c b44f 743e 6d33 273e
000002c0: 241f 49be d223 2abd 73b4 92be 2758 2abe
000002d0: dd3a 5d3d a143 153e 0a14 663e bb3c 8bbe
000002e0: 56e0 3d3e 2fd7 5bbe 0127 c03d 9a13 803e
000002f0: b086 2c3b 2741 833e c3c6 80be 1373 cdbd
00000300: a585 3c3e d836 9fbd cc75 33bd 5452 1abe
00000310: a652 523e f4d5 043e cb80 e13d 8415 47be
00000320: 2d16 6fbe a8c4 a83c 9f28 e73d 8444 22be
00000330: 126b a5bd 15a4 473e a261 bc3c e264 553c
00000340: 0c7f 91bd 01d9 85be bcf8 8abe 874d 0dbe
00000350: f242 16be 4c31 b83d 4b1b acbd 0a4b e7bd
00000360: 0fa2 a43e 964f 043e 0619 783e 1672 e6bd
00000370: ab58 a4bd c3cb 0b3e ce56 1ebe bb4d 1bbe
00000380: 399f d43c 8f32 91bd 1116 2dbe 0652 593e
00000390: ce56 863e 9ebc 813d 18e7 08bd d057 7fbe
000003a0: 7d04 aabd 3968 ba3d d174 1d3e 079f fbbb
000003b0: d1fc b2bd 3a20 3c3e 2788 51be 8753 5c3e
000003c0: 9b9d 4bbd 79e5 713d 351e f9bb b531 c23d
000003d0: f695 febc 5378 883e 9732 2e3d 04ee 983e
000003e0: e9a0 ad3e 464a a3bd 900b 1dbe c97c 9d3e
000003f0: 8ea3 673e 06b5 61be 13cf b6bc 49c0 91be
0.004212431 -0.017236283 0.06940076 0.080896474 -0.26219115 -0.10653202 0.24310184 0.11245483
-0.014358 -0.1740439 -0.17661291 -0.2585856 -0.099028476 0.09651705 0.17685953 0.13809046
-0.25457045 -0.17298992 -0.05135041 0.29233593 0.042933412 -0.07441128 0.11602636 -0.09723618
-0.18684661 0.21070029 -0.1312611 -0.057869766 -0.28717524 0.19320178 0.21871027 0.10520713
-0.20128572 -0.28490502 -0.23445587 0.21526511 0.1385946 0.24292141 0.1512282 0.073061414
-0.0028269046 -0.21953918 -0.24732882 -0.27001187 0.118172616 -0.14173025 -0.058096614 -0.16613406
-0.05260341 -0.20317963 -0.18862486 0.095756665 -0.085793205 0.17821163 -0.09260951 -0.21176262
-0.05093353 -0.13993452 -0.08831772 -0.27481747 0.16273987 -0.2111995 0.14227606 0.119342566
0.20528492 -0.2281969 0.20718904 -0.14093523 0.10526274 0.26616713 -0.034504533 -0.003557704
-0.027327584 -0.26041207 0.17676355 -0.33312583 0.1986673 0.2055165 0.31691188 -0.11558034
-0.22735362 0.054860037 0.22349809 -0.3159625 -0.06552454 -0.17304789 -0.025248606 -0.1420898
-0.11800104 -0.09164248 -0.27432913 0.23686011 0.24200538 -0.045284193 -0.03287492 -0.11781407
-0.26069176 -0.2809226 0.10728855 -0.15849598 -0.1855826 -0.022523357 -0.09613204 -0.0933924
0.009275476 -0.061231583 -0.09939443 -0.13821936 -0.23523894 0.24043947 -0.12303104 0.0791073
-0.10286994 0.02351323 0.26243114 0.14283763 -0.24980018 0.118845336 0.26913804 0.08592799
0.2085543 0.30711627 -0.03708558 0.09211989 -0.1843274 -0.037896678 0.22083189 0.18869112
-0.16122374 -0.20901412 -0.19060645 -0.24474064 -0.22275299 -0.07138861 0.19482026 0.04831909
-0.21956788 -0.23158209 0.14360873 -0.21472847 -0.035543837 0.1384792 -0.13360234 -0.03147711
-0.025127577 -0.06829573 -0.14636758 -0.25733608 -0.23335256 -0.15457447 0.27881333 -0.13943434
-0.19385342 0.06997318 0.079561844 0.15816791 0.26023045 0.19960055 -0.25627092 0.070683286
0.21057007 0.011297935 -0.14080445 0.33023256 -0.06675926 -0.12286111 -0.22681582 0.069256395
0.05887954 0.08743674 0.0362211 -0.1840307 -0.2842631 0.02004401 0.2385853 0.16328211
-0.19640785 -0.041538067 -0.28653297 -0.1663519 0.054011215 0.1457658 0.22468582 -0.2719477
0.18542609 -0.21468805 0.093824394 0.25014955 0.0026325397 0.25635645 -0.25151643 -0.10031714
0.18410356 -0.077741325 -0.04381351 -0.15070468 0.2053934 0.12972242 0.110108934 -0.19441801
-0.23348303 0.020601586 0.11287045 -0.15846449 -0.08077063 0.19496186 0.022995774 0.013024541
-0.071043104 -0.26142123 -0.27142894 -0.13799106 -0.14673975 0.08993778 -0.08403643 -0.112936094
0.3215489 0.12920985 0.24228296 -0.11252229 -0.080247246 0.13651948 -0.15462801 -0.1516637
0.02595483 -0.070897214 -0.16902949 0.21222696 0.26238102 0.06334804 -0.033423513 -0.24935842
-0.08301637 0.0910191 0.15376593 -0.0076788696 -0.08739627 0.18371668 -0.20462094 0.21516238
-0.04971085 0.059056733 -0.007602478 0.09482137 -0.031077366 0.266543 0.042528715 0.29869092
0.33911827 -0.07973151 -0.15336442 0.30759266 0.22620985 -0.22041711 -0.022315538 -0.28467014

mlr.0.bias f4 [64]
00000000: 2d91 a2bd 0b20 4e3e 511e b73d c22d 4ebd
00000010: 5cbe 473d 0152 0dbe 0b9b c13d 28dc e93d
00000020: 29c4 9e3d 506e 1dbe b394 703e 79b4 2abd
00000030: a72a e6bd 3975 433e b708 bd3e 4428 673e
00000040: 7780 a53d ea89 c9bd 869a 0f3e c79c 5e3e
00000050: 3762 91be 4e7c 12bd 18ae 72be b15a 5c3d
00000060: fd72 9b3d c1b8 88bd abd5 c5bc 54dd 3f3d
00000070: 56ba 46bd 2d20 89be e7d9 2c3e 0dc8 14be
00000080: 6561 c5bd c710 df3c 73bd cbbc f308 8bbe
00000090: 709f 073e b845 06be 3bbd 22be e31c 123d
000000a0: a043 1abe f8a5 56be 0135 c7bd 01f2 07be
000000b0: f9e8 f6bd e37a bebd 311b 84bb 2035 6fbe
000000c0: 41ec 32be 6a06 8a3b 9e6f 243d c528 a53d
000000d0: 13e5 51be 1cb6 bc3d af58 d43d 0668 ac3d
000000e0: 127d a8be 1a67 25be b6d1 95be bd8f 44be
000000f0: 4a47 0f3e 8d8e 30bd 9917 fb3d 6285 2dbe
-0.07937846 0.20129411 0.08941329 -0.050336607 0.048765525 -0.13800813 0.094534 0.114189446
0.07752258 -0.15374112 0.23494224 -0.04167602 -0.11238604 0.19087686 0.3692071 0.22573954
0.08081143 -0.09840758 0.1402379 0.21739493 -0.28395244 -0.035763077 -0.23699224 0.053797428
0.07590292 -0.06675864 -0.024149736 0.046841934 -0.048517548 -0.2678236 0.16879998 -0.14529438
-0.09637717 0.02722968 -0.02487061 -0.27155265 0.13244414 -0.13112533 -0.15892498 0.03567208
-0.1506486 -0.2096175 -0.097269066 -0.13275911 -0.12056155 -0.093007825 -0.004031562 -0.2336011
-0.17472936 0.0042121904 0.04014551 0.08064417 -0.20497541 0.09214422 0.103684776 0.084182784
-0.3290792 -0.16152611 -0.2926156 -0.19195457 0.13992038 -0.043104697 0.1226036 -0.16945413

mlr.2.weight f4 [208, 64]
00000000: 609b 9b3c ee31 5abd d8f1 7f3d 24f0 5fbd
00000010: 8063 00bd 5735 c1bd 5ca4 5ebe 2211 f33d
00000020: 7c83 783d f9ff b5bc 4989 ac3c 608f 60bc
00000030: 5819 cebd 381a 193e d482 fbbc a7ea 5c3d
00000040: 003a 06be 1893 6fbd fba8 283d ad40 8e3d
00000050: 443b d23d 80c1 76bd 3002 113e c0bc 96bc
00000060: c174 3bbd cca2 76bc 0003 fc3d f865 f13c
00000070: 8800 8bbc af1f 36bc d05e 97bc 4a9c d7bd
00000080: a356 78bd 88d5 953d 20ae 0b3e 084d f43d
00000090: 36d1 b8bd 0476 8a3d f432 8dbd 8db1 e33d
000000a0: c8b7 b83d 8da1 243e 4855 b83d 72da df3d
000000b0: 4072 1f3b 193d c53d 5a08 4bba 50f1 5e3d
000000c0: cc8e 24bd 008e 09bb 26d1 debd 47d7 3abb
000000d0: 4fa8 3bbd 50b5 2cbd 5d78 86bd ebf4 abbd
000000e0: ec81 ff3d f342 ee3d 717e 113e d1f7 f83d
000000f0: 3404 c8bc be2f fdbd 6c35 423d bc70 8f3d
00000100: 72c7 dbbd 93aa b13d 3271 d83d 201f f83b
00000110: be3a 9abd a174 033e 6b0d 3abe 0486 a93d
00000120: 0c21 adbd 6562 053e fd9c 18bd 804f fd3d
00000130: 2cef 58bd a004 1c3e 7d11 223c c7de 9c3d
00000140: 4ec2 e1bd e84b 523d be6e 93bb 09ed 94bd
00000150: 6b77 543d fc95 c83d ec77 333c 58ee 203d
00000160: 37b0 f93a 58f3 223e a836 993d 3f6b b23d
00000170: 7edb 82bd d267 36bd e68e e43c 342f 96bd
00000180: 4074 1d3e 8202 f6bd d3b7 dd3d c235 ff3d
00000190: 4a36 803d c494 2e3d 24d7 e4bd ba7d 313e
000001a0: 1827 afbc ace2 26bd b4b6 fc3d 9004 bfba
000001b0: 20e4 10bc 1c9d 333e 50e5 debc 101e b5bd
000001c0: 2885 a63c 0011 89bc b8de eb3c 0446 7abd
000001d0: c3f0 443d 8cb7 63bd 5cb1 12bd d194 96bd
000001e0: 85a7 293e bf90 9a3d 2555 6bbd 8087 2f3e
000001f0: 7285 d53d 4804 be3c 924e 96bd 806c 9a3c
00000200: 92aa f63d 4a8b 083e 0a64 c7bd a6ae e93d
00000210: 70bd 1e3c 349d aa3d ff30 d6bd 0a3e da3d
00000220: 988f c7bd a2a2 233e 2965 d4bc d087 193c
00000230: 2ce2 b2bd c177 613d ec37 013e 0314 093d
00000240: 0e2f bbbd e086 213c b9d4 333e fe4a fa3d
00000250: cca2 1f3e 3ced 4c3d 39ba 013e c006 bdbb
00000260: e2b2 763d ec17 b73d f243 dfbd cda9 60bd
00000270: 7016 7b3c 0317 713b 434b 2a3d 40f7 eabc
00000280: c85a 883d be8e a63d 542d 2f3c 3405 cd3d
00000290: b820 ca3d c27a c4bd 7846 b4bd f131 43bd
000002a0: 0e4b 8cbd 58e8 ac3c e026 1abc 3e36 733c
000002b0: f857 81bd b5b4 963c bd07 7c3c 5225 fb3d
000002c0: 10c3 3dbd d64b b7bd 50d6 543d 9472 1d3d
000002d0: afc8 043e 08f5 9f3d bcf5 0b3e 77cc 43bd
000002e0: cacc 0d3e 3b6b 1e3e 7689 ebbc 77ca 333e
000002f0: a105 283e 806c b33a b0dc 763d 9801 33bd
00000300: 7047 dfbd ce69 493d e0a3 183d a44f a7bd
00000310: e051 783d 2ee3 b9bd 523a 79be 6ee8 f73d
00000320: 7465 0b3d 8a8e e3bc 4674 873d 7881 ae3c
00000330: f038 0b3d a33e bf3d 8ecf 68bd 490b e9bc
00000340: 4dcf 13be 1ca0 0b3d 574d 063d 7004 f73d
00000350: 2a36 d13c a029 95bb b414 6d3d 48fb 07bd
00000360: 1e37 ed3d 6f38 7a3d 569a ecbd c72b 803c
00000370: 9c38 68bd 7f99 713d 7330 a8bc 66ef fdbd
00000380: 0404 ce3c f027 44bc cab0 0fbc 3235 eb3d
00000390: 986f dfbc 7475 a43d 61e1 203d 5bcf 84bd
000003a0: 30a0 f03c 8a68 363e 2473 a7bd 91cc 35bd
000003b0: da95 fa3d 3e83 0f3e 4dce c5bc f60b 9a3d
000003c0: a000 83bc de65 fcbd 90df 193c bb5d 943d
000003d0: eb66 17bc c81d 323d 6b45 bebd 2a16 ed3d
000003e0: a55c 7a3e d55a db3d 8a23 823d d945 d33d
000003f0: c598 43bd d0de ffbc 8084 43bc e075 8ebd
0.018994987 -0.053270273 0.0624865 -0.054672375 -0.03134489 -0.09434002 -0.21742386 0.11868502
0.06067227 -0.022216784 0.021061556 -0.013706058 -0.10063428 0.14951408 -0.030702032 0.05393472
-0.13108063 -0.05848989 0.041176777 0.0694593 0.1026521 -0.06024313 0.1416099 -0.01840055
-0.045765642 -0.015053462 0.1230526 0.029467568 -0.016968027 -0.011115952 -0.018477827 -0.10527857
-0.0606295 0.073161185 0.13640642 0.11928755 -0.09024279 0.06760791 -0.06894484 0.111178495
0.090194285 0.16077252 0.09000641 0.10930337 0.0024329573 0.09630794 -0.000774508 0.054429352
-0.040175244 -0.002098918 -0.10879736 -0.0028509663 -0.04581481 -0.0421651 -0.06565926 -0.08396324
0.124759525 0.11633863 0.1420839 0.12156642 -0.024416067 -0.12362622 0.04741423 0.07003924
-0.107314005 0.086751126 0.10568465 0.0075720698 -0.075307354 0.12837459 -0.18169181 0.082775146
-0.08453569 0.13025816 -0.03725909 0.12368679 -0.052962467 0.1523614 0.009891865 0.07659679
-0.11023389 0.05134192 -0.0044992855 -0.07271773 0.0518717 0.09794232 0.010953885 0.039289802
0.0019049708 0.15913141 0.07481128 0.08711862 -0.06389521 -0.044532605 0.02790017 -0.07333222
0.15376377 -0.12012197 0.10826077 0.12461425 0.06260355 0.042622343 -0.11173847 0.17333117
-0.021380946 -0.040743515 0.12339535 -0.0014573503 -0.008843452 0.17540401 -0.027208954 -0.088436246
0.020327166 -0.016731739 0.028792724 -0.06110193 0.04808117 -0.055594966 -0.035813674 -0.07352603
0.1656781 0.075471394 -0.057454247 0.17141533 0.10425843 0.0231954 -0.07339205 0.018850565
0.120442525 0.13334385 -0.09735878 0.11410265 0.00968872 0.08330765 -0.10458564 0.10656364
-0.09744185 0.15980008 -0.025927143 0.009370759 -0.08734545 0.055045847 0.12618989 0.03346635
-0.09139834 0.009858817 0.17561616 0.12221335 0.15589446 0.05003093 0.12668695 -0.005768627
0.06022919 0.089401096 -0.109016314 -0.054849435 0.015325174 0.0036787398 0.04157568 -0.028682351
0.0665794 0.08132695 0.010691959 0.10010758 0.09869522 -0.09593727 -0.08802503 -0.04765505
-0.06850253 0.021106884 -0.009408683 0.014844475 -0.06315607 0.018396715 0.015382704 0.12262978
-0.046328604 -0.089500114 0.051962197 0.03843935 0.1296718 0.07810408 0.13667959 -0.047802415
0.13847652 0.15470593 -0.02875207 0.17557703 0.16408397 0.0013688952 0.060269058 -0.04370269
-0.109022975 0.04917317 0.03726566 -0.08169487 0.060624957 -0.09076534 -0.24338654 0.12104879
0.0340323 -0.027777929 0.06613974 0.02130197 0.033989847 0.09338119 -0.056838565 -0.028447764
-0.14434548 0.03408824 0.0327886 0.12061393 0.025538523 -0.004552081 0.057881072 -0.033198625
0.115827784 0.061088976 -0.11552875 0.015645875 -0.056694612 0.058984276 -0.020530915 -0.12399177
0.0251484 -0.0119724125 -0.008770177 0.114847556 -0.027274892 0.08030215 0.039277438 -0.064848624
0.029373258 0.17813316 -0.08176258 -0.044384543 0.12235613 0.14014909 -0.024146223 0.075218126
-0.015991509 -0.12324117 0.00939168 0.0724444 -0.009240846 0.043485433 -0.09290584 0.11576493
0.24449404 0.10710684 0.06354435 0.10316057 -0.047753114 -0.031234175 -0.011933446 -0.069560766

mlr.2.bias f4 [208]
00000000: 2616 7c3d 23a5 c83b 6b7a 8bbd 086f 593d
00000010: e579 c23d c35e de3d 20d9 fd3d 94b9 0cbd
00000020: 8cd8 a23d e2f3 d03d 5e9d 963d 7d5f 1ebd
00000030: bdca dd3d 217f 89bd f036 65bd 92bf ad3d
00000040: 7c90 a43d 1c85 443d 3715 36bb de32 78bd
00000050: 3bdc 943d 589c f7bc 8f59 663d e104 703c
00000060: 138d 623d d0d3 4b3d cf6c 6dbc 5df9 5cbb
00000070: f382 eeba ef82 54bc 42d3 23bd 4ed3 703d
00000080: 9978 8f3d 8051 a3bd 9806 98bc e536 8fbd
00000090: b600 3f3c c6bb b1bc be03 ce3d 6112 97bd
000000a0: 36da ecbc 946e 043e 3d4c 813c ec97 c93d
000000b0: f514 e8bc f76e b53d 53ae 71bd 81a5 00bd
000000c0: 9285 84bd c0a7 db3d 6d1e 7c3d b78c d1bb
000000d0: ce46 003d aa6a 323d df25 65bd c95a 1cbd
000000e0: 50b6 f53c a14d a03d 58fd 5a3d 2e4e c43d
000000f0: ebe6 c73c 672d a93d f05c 0e3d 2236 e73d
00000100: bd58 313d 1ced 3cbd c0ec 863d 9a29 c1bc
00000110: b90b 72bd d0fa 6bbd bdff d83d f163 123d
00000120: 9861 8d3d 20f6 dfbc 3d22 aabd 1fdc f33c
00000130: 81b3 66bd 548c 4c3d 8069 303c 7d5f 513d
00000140: a854 c73d b079 67bd 67c5 a03d c035 d0bb
00000150: 1b42 c8b9 a497 34bd c488 b8bb ed91 843d
00000160: f831 7e3d 854f 74bd 4a52 363d f639 383d
00000170: 5e1d b43d cc95 9f3c dc73 063e 42ac f43d
00000180: c247 7cbd c0b7 9f3d 7944 883d f032 debb
00000190: f96f 25bd 09b5 83bd f1bc 773d cb53 92bc
000001a0: f6b9 6c3d 96e8 003d 3e87 38b8 96a5 db3d
000001b0: 38f4 20bd d894 9aba b62e fa3d 3f96 c13d
000001c0: f899 173e c2d6 c43d 0f33 46bd 8519 b33d
000001d0: f8d1 233d 8d57 dd3d 867b dabb eb0a be3d
000001e0: 1caf 9dbc 2325 743d b28d 45bd f40c 643d
000001f0: 7e14 a73d 9ebd c33d 0a83 eabc 1551 8abd
00000200: bd43 853d 9eba 03bd 3f90 5dbd d71f 863d
00000210: f5f8 e03d 1447 77bd 4c81 9fbb b4c6 08bd
00000220: f073 a03b b1b3 b93d 9cab 76bd e004 f23d
00000230: 210c a13d bb73 163d 989f cb3d ca21 963d
00000240: 14d0 6c3d 90d9 7ab8 67f4 17bd 1496 a1bd
00000250: f0db 913d 7c53 61b9 ed87 9cbd 23f6 74bc
00000260: cce7 44bd bc63 be3d 7195 b43d 2802 adbd
00000270: 4afd 6b3d 93a0 80bc d7f3 cf3d 9a39 063d
00000280: 4284 8b3b d9f0 8d3d 9b40 63bd 00be a3bb
00000290: cbeb cb3d d5fe d23d a7c8 9d3c 2735 ab3d
000002a0: 84e2 90bd 955a 97bd d0c5 a73b e16f babd
000002b0: 9f97 bc3d b07a 3abd 3f48 3dbd 3115 993d
000002c0: eae9 be3b 2c7f 5d3d 6ca5 853d 340d 68bd
000002d0: d245 403d d61f 343b 6126 9b3d fc44 04bd
000002e0: 81e8 0d3d 7898 683d 09b6 87bd b22c 673d
000002f0: fcf5 acbb abdc c23d 819d 92bc 23b2 143b
00000300: 112b a0bd 230e 0d3c 6a1e a63d e156 863d
00000310: aac1 41bd fa14 a1bd dab2 a73d 5d99 44bd
00000320: 1ab4 97bd 66f1 2fbd 748f 423d 8923 a13c
00000330: b984 12bd 5b34 913d 300f f43d 6025 273d
0.06154456 0.0061232015 -0.06810459 0.053084403 0.09495906 0.10857918 0.12394929 -0.03435667
0.07951459 0.10202767 0.07354234 -0.038665283 0.10829685 -0.06713701 -0.055960596 0.08483805
0.08035371 0.047978505 -0.002778364 -0.060595386 0.07268568 -0.030225918 0.056237753 0.014649601
0.05531032 0.049762547 -0.014491274 -0.0033717968 -0.0018196985 -0.01297067 -0.039996393 0.058795266
0.07005424 -0.07974529 -0.018557832 -0.06992892 0.011657884 -0.021695983 0.100593075 -0.073765524
-0.028912645 0.12932807 0.015783424 0.0984343 -0.028330306 0.088590555 -0.05900414 -0.031407837
-0.06470789 0.10725355 0.061552454 -0.0063949483 0.031317525 0.043558754 -0.05594432 -0.038172517
0.02999416 0.078273065 0.053464264 0.09585224 0.024402102 0.08260613 0.0347566 0.11289622
0.043297518 -0.046124563 0.06588125 -0.023579407 -0.05909321 -0.05761224 0.10595653 0.035739843
0.0690338 -0.027339041 -0.08307312 0.029768048 -0.056323532 0.049938515 0.010767341 0.051116455
0.09732944 -0.056512535 0.078501515 -0.0063540637 -0.00038196225 -0.04408993 -0.005631538 0.06473146
0.062059373 -0.05964615 0.04451207 0.04497715 0.08794664 0.019480608 0.13130134 0.11946918
-0.06159187 0.077987194 0.06653685 -0.0067809746 -0.04038999 -0.06431014 0.060482923 -0.017862221
0.057794534 0.03147181 -4.3994973e-05 0.107249424 -0.039295405 -0.0011793626 0.12215941 0.09452485
0.14804828 0.09611274 -0.048388537 0.08745102 0.039995164 0.108077146 -0.006667557 0.09279426
-0.019248538 0.05960573 -0.048230834 0.055676416 0.081582054 0.09557651 -0.028626937 -0.067537464
0.06507061 -0.032160394 -0.054092642 0.06549042 0.10984985 -0.06037052 -0.0048677083 -0.033392623
0.0048966333 0.090674765 -0.060222253 0.11817336 0.078636415 0.036731463 0.099425495 0.073306635
0.057815626 -5.9807266e-05 -0.037098315 -0.07889953 0.07122028 -0.00021488772 -0.07643113 -0.014951262
-0.04807262 0.092963666 0.08817566 -0.08447677 0.057614602 -0.015701568 0.10153931 0.032769777
0.0042577097 0.06930704 -0.055481534 -0.004997015 0.09957083 0.103025116 0.019260718 0.083597474
-0.070744544 -0.07390324 0.0051200166 -0.091033705 0.09208607 -0.04552716 -0.046211477 0.07474745
0.0058262246 0.05407636 0.06525692 -0.056653216 0.046941586 0.0027484796 0.075756796 -0.03229235
0.03464556 0.05678603 -0.06626517 0.05643911 -0.005278347 0.09514745 -0.01789737 0.0022689186
-0.07820714 0.0086093275 0.0811127 0.065595396 -0.047303833 -0.07865329 0.0818841 -0.04799782
-0.074073985 -0.042954825 0.04750009 0.019670265 -0.035771105 0.07090064 0.11916959 0.040807128
