pqc_reup_v1_output/best_model_epoch_47.pth (torch, 61285 bytes, 6 tensors)

reupload_weights f4 [12, 3, 4]
0	0x3e1d9c86	0.1539174
1	0x3e1d3eaf	0.15355943
2	0x3e4d2f9f	0.20037697
3	0xbe298d89	-0.16557898
4	0x3eac0cbf	0.33603474
5	0x3e6b4f77	0.22979532
6	0x3e9399c3	0.28828248
7	0x3f5f7920	0.872942
8	0x3c81ce33	0.015845394
9	0x3eb62824	0.355775
10	0xb987f56e	-0.00025932066
11	0xbea001f5	-0.31251493
12	0xbe38a18f	-0.1803038
13	0xbe4f0b0f	-0.20219062
14	0x3bf66334	0.00751915
15	0x3d367ea1	0.044554356
16	0xbe79bb15	-0.24387772
17	0xbf0d428d	-0.55179673
18	0xbe212198	-0.15735471
19	0x3db6e1df	0.089298
20	0xbcbbca1b	-0.02292352
21	0x3d885f45	0.06658796
22	0x3d16a928	0.036782414
23	0x3e81c60d	0.25346413
24	0x3d6f32fe	0.05839824
25	0x3db73b56	0.08946864
26	0x3e634c1c	0.22197002
27	0x3d72a5ad	0.059240032
28	0x3f1b2a53	0.60611457
29	0x3d99232d	0.074774124
30	0x3e4c9c88	0.19981587
31	0xbe01ff02	-0.12694934
32	0xbd9c37d9	-0.076278396
33	0x3cbfce6d	0.023413861
34	0x3eb9a587	0.362591
35	0x3e4bd2b2	0.19904593
36	0xbb4daed4	-0.0031384723
37	0xbe347469	-0.17622532
38	0x3d73d43c	0.059528574
39	0xbe473494	-0.1945365
40	0x3f0b773f	0.5447883
41	0x3f6e42d4	0.9307072
42	0x3ecd8f8e	0.40148586
43	0xbebbc34a	-0.3667243
44	0x3f58892c	0.8458431
45	0x3f9372c3	1.1519397
46	0x3f24b5b2	0.64339745
47	0xbddb18d7	-0.10698097
48	0xbd7daffe	-0.061935417
49	0xbb4cb2d5	-0.0031234522
50	0x3e0e1b46	0.13877591
51	0x3e5016b0	0.20321155
52	0x3ebeb5c1	0.37248042
53	0x3f128cfb	0.5724637
54	0xbf14737e	-0.5798873
55	0xbf25b48f	-0.64728636
56	0x3e3f2ed7	0.18670212
57	0x3ed9724f	0.42470023
58	0xbea2f26e	-0.31825584
59	0xbe8ebaa9	-0.27876785
60	0xbddf812b	-0.10913309
61	0x3de93f5a	0.113890365
62	0xbe43beae	-0.19115707
63	0xbc9ac6ac	-0.018893562
64	0x3ece262b	0.40263495
65	0x3d8ff796	0.07029645
66	0x3d7352da	0.059405185
67	0x3dd82591	0.1055404
68	0x3d7431d7	0.059617843
69	0xbe433854	-0.19064456
70	0xbedc6196	-0.43043202
71	0x3d50c109	0.050965343
72	0xbdd87a95	-0.10570256
73	0xbda36e1b	-0.07979985
74	0xbe1cd17a	-0.15314284
75	0x3c03ce77	0.0080448305
76	0x3dc7c040	0.09753466
77	0xbdfb8428	-0.12281066
78	0xbe271834	-0.16317827
79	0x3ca69ef5	0.020339468
80	0x3ee621eb	0.44947752
81	0x3e93c88e	0.2886395
82	0x3e9e8e20	0.30967808
83	0x3e7e8a0f	0.24857353
84	0x3df59afe	0.11992453
85	0x3de3691a	0.11104031
86	0xbc99a637	-0.018756015
87	0xbdb46a73	-0.08809366
88	0xbeb0d04f	-0.34533927
89	0xbf03cdac	-0.51485705
90	0x3e75908a	0.23980919
91	0x3eb2ed84	0.34946835
92	0xbee5b536	-0.44864815
93	0xbecfcb0f	-0.4058461
94	0x3f16299a	0.5865723
95	0x3eeb0e4d	0.45909348
96	0xbe880b0f	-0.26570937
97	0x3e400f03	0.18755727
98	0x3d743d0f	0.059628543
99	0x3d1cbc99	0.0382658
100	0xbe6c0f62	-0.23052743
101	0x3f1dc4c5	0.6162837
102	0x3f4388f8	0.7638087
103	0x3ec688b9	0.38776186
104	0xbf16f944	-0.589741
105	0x3e600bb4	0.21879464
106	0x3ecb5780	0.39715195
107	0xbdb7c15a	-0.08972426
108	0xbd83f7d7	-0.06443756
109	0x3d204997	0.03913268
110	0x3d0ff5d2	0.035146542
111	0x3db8025e	0.089848265
112	0x3e85eb62	0.26156145
113	0x3e66e418	0.22547948
114	0x3dd68556	0.104746506
115	0xbf58796c	-0.84560275
116	0x3f18d375	0.5969766
117	0x3eaf1550	0.34195948
118	0x3e1099ba	0.14121142
119	0x3e60e6ec	0.2196309
120	0xbd9c4b71	-0.07631577
121	0xbe513487	-0.20430194
122	0x3d27a1a2	0.04092563
123	0x3d05a6e4	0.032629862
124	0xbc99e60b	-0.01878645
125	0xbdab4bfd	-0.08364103
126	0x3f2887db	0.658323
127	0x3ec473ec	0.3836969
128	0xbf0cdaee	-0.5502156
129	0xbf3ea0e7	-0.7446427
130	0xbe31c1a8	-0.1735903
131	0xbf015ea7	-0.50535053
132	0xbd2296d3	-0.03969462
133	0x3e69413e	0.22778794
134	0x3db86cc4	0.090051204
135	0x3dd33354	0.103125244
136	0xbf6f307d	-0.9343336
137	0x3d1ba6c0	0.038000822
138	0xbea0a6dd	-0.31377307
139	0xbe07c88f	-0.13260101
140	0xbf864106	-1.0488594
141	0x3e57b8c6	0.21066579
142	0xbe592064	-0.21203762
143	0xbd5331d7	-0.051561203

reupload_bias f4 [12, 3]
0	0xbee0316b	-0.43787703
1	0x3f2b75ea	0.669768
2	0x3d25ba9c	0.040461168
3	0x3ece741e	0.40322965
4	0xbe950a45	-0.29109398
5	0x3e819a0e	0.25312847
6	0xbee93c21	-0.45553687
7	0x3f717d90	0.9433222
8	0x3de953bf	0.113929264
9	0x3eb5a74f	0.3547921
10	0x3ee4ad87	0.4466364
11	0x3f95764d	1.1676728
12	0xbec9ee8e	-0.39439815
13	0xbe788da6	-0.24272785
14	0xbcf597a4	-0.029979534
15	0x3ea4f99c	0.32221687
16	0xbe1c8f12	-0.15288952
17	0xbe78f2b9	-0.24311341
18	0xbe2f5a73	-0.17124347
19	0xbe57524a	-0.21027485
20	0xbd458b1c	-0.04822837
21	0xbf2af168	-0.66774607
22	0xbf01d5ca	-0.5071684
23	0xbe1daa76	-0.15397057
24	0x3ef95bad	0.48702756
25	0x3f149717	0.58043045
26	0xbf27692d	-0.6539486
27	0xbee91349	-0.45522526
28	0xbf45c78a	-0.772576
29	0x3ee66be1	0.4500418
30	0x3e81c4ce	0.25345463
31	0x3c32c48c	0.010911118
32	0xbf9a20a8	-1.2041216
33	0xbed416b1	-0.41423562
34	0xbef4b346	-0.47793025
35	0xbe07b48a	-0.13252464

mlr.0.weight f4 [64, 12]
0	0x3b8a086f	0.004212431
1	0xbc8d331b	-0.017236283
2	0x3d8e21fc	0.06940076
3	0x3da5ad0d	0.080896474
4	0xbe863deb	-0.26219115
5	0xbdda2d76	-0.10653202
6	0x3e78efb0	0.24310184
7	0x3de64eb8	0.11245483
8	0xbc6b3dd1	-0.014358
9	0xbe323890	-0.1740439
10	0xbe34da04	-0.17661291
11	0xbe846555	-0.2585856
12	0xbe025c80	-0.12730598
13	0xbcf99c72	-0.030470107
14	0x3dd54b28	0.104147255
15	0x3d34c802	0.044136055
16	0xbe9baa47	-0.3040335
17	0xbea731db	-0.32655224
18	0xbe1014a8	-0.1407038
19	0x3ec55b0c	0.38546026
20	0x3d1e9d0a	0.038723983
21	0xbe010a29	-0.12601532
22	0x3e09fca3	0.1347528
23	0xbd78f303	-0.06077863
24	0xbe5faf85	-0.21844299
25	0x3e38072c	0.17971486
26	0xbe270a88	-0.16312611
27	0xbdb571fb	-0.08859631
28	0xbea361e8	-0.31910634
29	0x3e262e14	0.16228515
30	0x3e3f4c66	0.18681487
31	0x3d992885	0.074784316
32	0xbe6e3d26	-0.23265514
33	0xbea1b0b9	-0.3158014
34	0xbe885cba	-0.26633245
35	0x3e3d3fdb	0.1848139
36	0x3e0debbe	0.1385946
37	0x3e78c064	0.24292141
38	0x3e1adb91	0.1512282
39	0x3d95a139	0.073061414
40	0xbb394397	-0.0028269046
41	0xbe60cee1	-0.21953918
42	0xbe7d43c4	-0.24732882
43	0xbe8a3eff	-0.27001187
44	0x3df2047c	0.118172616
45	0xbe1121bc	-0.14173025
46	0xbd6df6b7	-0.058096614
47	0xbe2a1f0c	-0.16613406
48	0xbd5776ac	-0.05260341
49	0xbe500e52	-0.20317963
50	0xbe4126e0	-0.18862486
51	0x3dc41c12	0.095756665
52	0xbdafb459	-0.085793205
53	0x3e367d1c	0.17821163
54	0xbdbdaa0e	-0.09260951
55	0xbe58d84d	-0.21176262
56	0xbd509fad	-0.05093353
57	0xbe0f4aff	-0.13993452
58	0xbdb4dfec	-0.08831772
59	0xbe8cb4e0	-0.27481747
60	0x3dfb074b	0.122572504
61	0xbe69b6b3	-0.228236
62	0x3e1b1919	0.15146293
63	0x3dae4a88	0.085103095
64	0x3e44566f	0.19173597
65	0xbe71675d	-0.23574586
66	0x3e6d121f	0.23151444
67	0xbe6f82ed	-0.23389788
68	0x3d438d18	0.04774198
69	0x3e8807f2	0.26568562
70	0xbd80c68b	-0.06287869
71	0xbdd7ddb8	-0.10540336
72	0xbccdc959	-0.025120424
73	0xbe8ed0c3	-0.27893648
74	0x3e61c738	0.22048652
75	0xbec463b6	-0.38357323
76	0x3e6b897d	0.23001666
77	0x3e54bc94	0.20775062
78	0x3ec3d6c4	0.3824979
79	0xbe5f1ab7	-0.21787535
80	0xbe75f483	-0.24019055
81	0x3d94453d	0.07239769
82	0x3e8798a6	0.2648365
83	0xbed7bbc9	-0.42135456
84	0xbd40b64f	-0.047048863
85	0xbe3f6b96	-0.18693385
86	0x3bb0cc01	0.005395413
87	0xbe243d50	-0.16039014
88	0xbdb2e11c	-0.087343425
89	0xbdd3fbae	-0.103507385
90	0xbe79f6f3	-0.2441061
91	0x3e57af82	0.21063045
92	0x3e8594b6	0.2609002
93	0xbd5d283e	-0.053993456
94	0x3cd3d4df	0.02585834
95	0xbe0fcdac	-0.14043301
96	0xbe857964	-0.26069176
97	0xbe8fd516	-0.2809226
98	0x3ddbba19	0.10728855
99	0xbe224cc5	-0.15849598
100	0xbe3e095d	-0.1855826
101	0xbcb882e7	-0.022523357
102	0xbdc4e0e0	-0.09613204
103	0xbdbf4484	-0.0933924
104	0x3c17f82b	0.009275476
105	0xbd7acdf8	-0.061231583
106	0xbdcb8f4f	-0.09939443
107	0xbe0d8960	-0.13821936
108	0xbea4b63a	-0.32170278
109	0x3e8ee7e9	0.27911308
110	0xbe114269	-0.1418549
111	0x3def99d9	0.11699266
112	0xbe116dd7	-0.14202057
113	0x3d9ec436	0.07752268
114	0x3e897fa7	0.26855204
115	0x3e1118ef	0.14169668
116	0xbea69e16	-0.32542485
117	0x3e4f9f3d	0.20275588
118	0x3e69d5e3	0.22835498
119	0x3d3b02bf	0.045656916
120	0x3d949680	0.07255268
121	0x3eae3d67	0.3403122
122	0xbdadcc4b	-0.084862314
123	0x3e3109ec	0.17288941
124	0xbe5e4598	-0.21706235
125	0xbd001abd	-0.0312755
126	0x3e1e5abb	0.15464298
127	0x3e38a859	0.1803297
128	0xbe73ab3f	-0.23795794
129	0xbeaa4388	-0.33254647
130	0xbebbdb52	-0.36690766
131	0xbe651b09	-0.22373594
132	0xbe64195c	-0.22275299
133	0xbd923431	-0.07138861
134	0x3e477ef6	0.19482026
135	0x3d45ea3d	0.04831909
136	0xbe60d667	-0.21956788
137	0xbe6d23db	-0.23158209
138	0x3e130e2b	0.14360873
139	0xbe5be1c8	-0.21472847
140	0xbd11966a	-0.035543837
141	0x3e0dcd7e	0.1384792
142	0xbe08cf0d	-0.13360234
143	0xbd00ee24	-0.03147711
144	0xbccdd859	-0.025127577
145	0xbd8bdea2	-0.06829573
146	0xbe15e162	-0.14636758
147	0xbe83c18e	-0.25733608
148	0xbe6ef3f9	-0.23335256
149	0xbe1e48c5	-0.15457447
150	0x3e8ec09f	0.27881333
151	0xbe0ec7e0	-0.13943434
152	0xbe468183	-0.19385342
153	0x3d8f4e19	0.06997318
154	0x3da2f152	0.079561844
155	0x3e21f6c5	0.15816791
156	0x3e814282	0.25246054
157	0x3e1c3700	0.15255356
158	0xbe9945d6	-0.29936093
159	0x3d451084	0.048111454
160	0x3e35db8f	0.17759536
161	0xbd6bafa7	-0.057540562
162	0xbe59a01c	-0.21252483
163	0x3ec909e2	0.39265352
164	0xbd9b0488	-0.07569224
165	0xbe44fee9	-0.19237866
166	0xbe8412e1	-0.25795653
167	0x3e02fde3	0.12792163
168	0x3c81418f	0.015778331
169	0x3d8ba75d	0.068190314
170	0xbcbcd5e0	-0.023051202
171	0xbe345e21	-0.17614032
172	0xbeac0af2	-0.336021
173	0x3c497e2e	0.01229815
174	0x3e56705a	0.20941296
175	0x3e670a55	0.22562535
176	0xbe66f64a	-0.2255489
177	0x3cd5ec2a	0.026113588
178	0xbe994696	-0.29936665
179	0xbe1bd1c6	-0.15216741
180	0xbbfc4a97	-0.0076993215
181	0x3cb99ef1	0.022658797
182	0x3e08b4be	0.13350198
183	0xbec40ef8	-0.3829267
184	0x3dc1462d	0.09437213
185	0xbeb37ea5	-0.3505756
186	0xba67b456	-0.0008838823
187	0x3e80bdbc	0.25144756
188	0xbd960c89	-0.0732661
189	0x3e5820e9	0.21106304
190	0xbe9187fd	-0.28424063
191	0xbe1abc0b	-0.15110795
192	0x3e5e830b	0.21729676
193	0xbda08dcf	-0.07839548
194	0x3c976766	0.018481921
195	0xbe473119	-0.19452323
196	0x3e7fcd41	0.24980642
197	0x3e21baae	0.15793869
198	0x3e4150b0	0.18878436
199	0xbeaa840b	-0.33303866
200	0xbe6eef14	-0.23333389
201	0x3c78fcf0	0.015197024
202	0x3e224237	0.15845571
203	0xbe86091f	-0.26178834
204	0xbda56b12	-0.08077063
205	0x3e47a415	0.19496186
206	0x3cbc61a2	0.022995774
207	0x3c5564e2	0.013024541
208	0xbd917f0c	-0.071043104
209	0xbe85d901	-0.26142123
210	0xbe8af8bc	-0.27142894
211	0xbe0d4d87	-0.13799106
212	0xbe1642f2	-0.14673975
213	0x3db8314c	0.08993778
214	0xbdac1b4b	-0.08403643
215	0xbde74b0a	-0.112936094
216	0x3eb53b10	0.35396624
217	0x3dc06ea8	0.09396106
218	0x3e5ab060	0.21356344
219	0xbe390309	-0.18067564
220	0xbe07a3ed	-0.13246126
221	0x3de7e3aa	0.1132272
222	0xbe4b99e1	-0.19882919
223	0xbe6718ea	-0.22568098
224	0xbae9ea40	-0.0017846301
225	0xbe067445	-0.13130291
226	0xbe401e7c	-0.18761629
227	0x3e35a5a5	0.1773897
228	0x3e97c1f6	0.29640168
229	0xbc2da7dc	-0.010599103
230	0xbdfd24c3	-0.12360527
231	0xbebd48e1	-0.36969665
232	0xbe4d2017	-0.20031773
233	0x3c5e3b17	0.013563893
234	0x3d8f2748	0.06989914
235	0xbcc1e776	-0.02366994
236	0xbe074cfc	-0.13212961
237	0x3e592d1a	0.21208611
238	0xbe4f7056	-0.20257697
239	0x3e34905e	0.17633197
240	0xbd0f300b	-0.034957927
241	0x3e0eb35f	0.13935612
242	0x3d752cd2	0.059857197
243	0x3e44569d	0.19173665
244	0x3d0f225a	0.03494487
245	0x3eb7d21a	0.35902482
246	0x3dc68ca7	0.09694796
247	0x3eb3a7e6	0.35089034
248	0x3ebe4adf	0.37166497
249	0xbd4bcce2	-0.04975594
250	0xbe104e8e	-0.14092466
251	0x3ebe009c	0.3710984
252	0x3e67a38e	0.22620985
253	0xbe61b506	-0.22041711
254	0xbcb6cf13	-0.022315538
255	0xbe91c049	-0.28467014

mlr.0.bias f4 [64]
0	0xbda2912d	-0.07937846
1	0x3e45c86f	0.1931474
2	0x3d6d9215	0.058000643
3	0xbd4e2dc2	-0.050336607
4	0x3d47be5c	0.048765525
5	0xbda3235f	-0.07965731
6	0x3dba1fdc	0.09088108
7	0x3e221cdb	0.1583132
8	0x3d9ec429	0.07752258
9	0xbdc5f516	-0.09665887
10	0x3e33fbb8	0.17576492
11	0xbd2ab479	-0.04167602
12	0xbde62aa7	-0.11238604
13	0x3e307402	0.17231753
14	0x3e91f9f3	0.2851101
15	0x3e26573a	0.16244212
16	0x3d8199d4	0.063281685
17	0xbdc989ea	-0.09840758
18	0x3dbdb37d	0.0926275
19	0x3e2c186e	0.16806194
20	0xbe571aa7	-0.21006261
21	0xbd127c4e	-0.035763077
22	0xbe0d8e51	-0.1382382
23	0x3d3b0e15	0.045667727
24	0x3c0b7df9	0.008513921
25	0xbd9593f0	-0.073036075
26	0xbcc5d5ab	-0.024149736
27	0xbbe6a2ea	-0.007038464
28	0xbd8eb0b8	-0.069673
29	0xbe643ec2	-0.22289565
30	0x3dc67747	0.09690719
31	0xbe14c80d	-0.14529438
32	0xbd543198	-0.05180511
33	0x3cdf10c7	0.02722968
34	0xbd749bf8	-0.059719056
35	0xbe8b08f3	-0.27155265
36	0x3e3a3f90	0.1818831
37	0xbe0645b8	-0.13112533
38	0xbe22bd3b	-0.15892498
39	0xbb883c6f	-0.004157595
40	0xbe1a43a0	-0.1506486
41	0xbe3115e7	-0.17293511
42	0xbdc73501	-0.097269066
43	0xbddaf8b8	-0.106919706
44	0xbdf6e8f9	-0.12056155
45	0xbdc9769f	-0.09837078
46	0xbd1ddd61	-0.0385412
47	0xbe6f3520	-0.2336011
48	0xbe32ec41	-0.17472936
49	0x3b8a066a	0.0042121904
50	0x3c93a041	0.018020751
51	0x3d4b09ba	0.049569823
52	0xbe273506	-0.1632882
53	0x3dbcb61c	0.09214422
54	0x3d7ef4ba	0.06224511
55	0x3c8f663e	0.017504808
56	0xbe51c025	-0.20483454
57	0xbe38f38d	-0.18061657
58	0xbe40a57b	-0.18813126
59	0xbdf31739	-0.11869664
60	0x3e0199a5	0.12656267
61	0xbd308e8d	-0.043104697
62	0x3dfb1799	0.1226036
63	0xbe2d8562	-0.16945413

mlr.2.weight f4 [208, 64]
0	0x3c9b9b60	0.018994987
1	0xbcaf9b59	-0.02143638
2	0x3d3e0d2f	0.04639929
3	0xbd5ff024	-0.054672375
4	0xbd006380	-0.03134489
5	0xbd33e7c0	-0.043922186
6	0xbe576050	-0.21032834
7	0x3c7fa5da	0.015603507
8	0x3d78837c	0.06067227
9	0x3d4ca8da	0.049965717
10	0x3eb05c2b	0.3444532
11	0xbc608f60	-0.013706058
12	0xbdce1958	-0.10063428
13	0x3e22c80c	0.15896624
14	0xbd0183f5	-0.031619985
15	0x3dcba087	0.099427275
16	0xbe2ba6d6	-0.16762862
17	0xbd6f9318	-0.05848989
18	0xbb858a89	-0.0040753526
19	0xbbedb642	-0.007254393
20	0x3e109605	0.14119728
21	0xbd76c180	-0.06024313
22	0x3e0dccbb	0.1384763
23	0x3bdb2d40	0.006688744
24	0xbc48e0de	-0.012260644
25	0x3badd061	0.0053043817
26	0x3dfc0300	0.1230526
27	0x3d807ebf	0.06274175
28	0xbc8e0b6e	-0.017339434
29	0x3d29fad3	0.04149897
30	0x3e2688ad	0.16263075
31	0xbdd79c4a	-0.10527857
32	0xbd51a886	-0.051186107
33	0x3d95d588	0.073161185
34	0x3e195ef8	0.14977634
35	0x3df44d08	0.11928755
36	0xbd76ecec	-0.06028454
37	0x3d8a7604	0.06760791
38	0xbd8d32f4	-0.06894484
39	0x3e09aa79	0.13443936
40	0x3db8b7c8	0.090194285
41	0x3e72393e	0.23654649
42	0x3db85548	0.09000641
43	0x3e1d2084	0.15344435
44	0x3b1f7240	0.0024329573
45	0x3e44ded0	0.19225621
46	0x3d872c7e	0.06600283
47	0x3d5ef150	0.054429352
48	0xbd248ecc	-0.040175244
49	0xbb098e00	-0.002098918
50	0xbddd9292	-0.10818972
51	0xbdbcf677	-0.09226697
52	0xbd257878	-0.04039809
53	0xbd2cb550	-0.0421651
54	0xbd879771	-0.06620682
55	0xbc101aa9	-0.008795419
56	0x3e2ee4ea	0.17079511
57	0x3e4604b5	0.19337733
58	0x3e2d633f	0.1693239
59	0x3dfd922f	0.12381398
60	0xbda25b73	-0.07927599
61	0xbdfd2fbe	-0.12362622
62	0x3d42356c	0.04741423
63	0x3d8f70bc	0.07003924
64	0xbddbc772	-0.107314005
65	0x3e01cc60	0.12675619
66	0x3dc9514a	0.09829958
67	0x3bf81f20	0.0075720698
68	0xbd9a3abe	-0.075307354
69	0x3e2015e6	0.15633354
70	0xbe6f9278	-0.23395717
71	0x3bb0dc5a	0.0053973617
72	0xbdad210c	-0.08453569
73	0x3e7c23ca	0.24623027
74	0x3da0777a	0.07835288
75	0x3dfd4f80	0.12368679
76	0xbd58ef2c	-0.052962467
77	0x3e4bd5a1	0.19905712
78	0x3d344b34	0.04401703
79	0x3e05bd1d	0.13060422
80	0xbe4d3390	-0.20039201
81	0x3d524be8	0.05134192
82	0xbc50f45e	-0.012753574
83	0xbd327aa7	-0.043574
84	0x3e00e877	0.12588678
85	0x3dc895fc	0.09794232
86	0x3c93c073	0.018036103
87	0x3cbf48f7	0.023350222
88	0x3d87018a	0.065920904
89	0x3e4fcdc3	0.20293336
90	0x3d9936a8	0.07481128
91	0x3e0e3fd2	0.13891533
92	0xbd7abf9b	-0.061217885
93	0x3c128345	0.00894243
94	0x3e2b2918	0.16714895
95	0xbd962f34	-0.07333222
96	0x3e4639af	0.19357942
97	0xbdf60282	-0.12012197
98	0x3e4fc8c3	0.20291428
99	0x3dff35c2	0.12461425
100	0xbc313cc8	-0.010817714
101	0x3d2e94c4	0.042622343
102	0xbde4d724	-0.11173847
103	0x3e51ff1b	0.20507471
104	0xbcaf2718	-0.021380946
105	0x3decd4b6	0.11564009
106	0x3dfcb6b4	0.12339535
107	0x3ceff641	0.029292228
108	0xbc10e420	-0.008843452
109	0x3e86bac9	0.2631438
110	0x3da213d7	0.079139404
111	0xbdb51e10	-0.088436246
112	0x3ca68528	0.020327166
113	0xbc891100	-0.016731739
114	0x3cf3f6ef	0.029780833
115	0xbc8460bc	-0.016159408
116	0x3d6b2354	0.05740674
117	0xbd63b78c	-0.055594966
118	0xbd43f638	-0.047842234
119	0xbcd9b712	-0.026576553
120	0x3e716d95	0.23576958
121	0x3e2f2ea1	0.17107631
122	0xbcad34b5	-0.021143297
123	0x3e580bed	0.210983
124	0x3e071bb2	0.13194159
125	0x3cbe0448	0.0231954
126	0xbd964e92	-0.07339205
127	0x3c9a6c80	0.018850565
128	0x3df6aa92	0.120442525
129	0x3e102274	0.14075643
130	0xbddeae0a	-0.10873039
131	0x3de9aea6	0.11410265
132	0x3c1ebd70	0.00968872
133	0x3e066c54	0.13127261
134	0xbe1892c7	-0.14899741
135	0xb97e36d2	-0.0002424375
136	0xbdc78f98	-0.09744185
137	0x3e5e1413	0.21687345
138	0x3e98dbd3	0.29855213
139	0x3c1987d0	0.009370759
140	0xbdb2e22c	-0.08734545
141	0x3dbadc06	0.091239974
142	0x3dca2d5b	0.09871932
143	0x3dab4e91	0.08364595
144	0xbe36b4b1	-0.17842366
145	0x3c2186e0	0.009858817
146	0x3e1660b7	0.14685331
147	0x3d32b733	0.043631744
148	0x3e6dcb09	0.23221983
149	0x3d4ced3c	0.05003093
150	0x3e142686	0.1446782
151	0x3b63da5c	0.0034767604
152	0x3e028a6b	0.12748115
153	0x3e022e81	0.12713052
154	0xbddf43f2	-0.109016314
155	0xbbe7aa24	-0.007069843
156	0x3c8e5a3a	0.017377008
157	0x3d9e341e	0.07724784
158	0x3e9b47a0	0.30328083
159	0xbceaf740	-0.028682351
160	0x3d8ff710	0.07029545
161	0x3da68ebe	0.08132695
162	0x3d2a7ee2	0.04162491
163	0x3dcd0534	0.10010758
164	0x3d57f72d	0.05272596
165	0xbdc47ac2	-0.09593727
166	0xbdb44678	-0.08802503
167	0xba16a5fc	-0.00057467795
168	0xbd8c4b0e	-0.06850253
169	0x3e19a587	0.1500455
170	0xbc1a26e0	-0.009408683
171	0x3d8ee58d	0.06977377
172	0xbd8157f8	-0.06315607
173	0x3e099d1f	0.13438843
174	0x3d9161b4	0.070987135
175	0x3dfb2552	0.12262978
176	0xbd3dc310	-0.046328604
177	0xbdb74bd6	-0.089500114
178	0x3d59ed0c	0.05320458
179	0xbd06fb59	-0.032954548
180	0x3e151e01	0.14562227
181	0x3d9ff508	0.07810408
182	0x3e08e9c4	0.13370425
183	0xbc02a101	-0.007972957
184	0x3e54433b	0.20728771
185	0x3e802e09	0.25035122
186	0x3c6db121	0.014507563
187	0x3e4f75cf	0.20259784
188	0x3e0a37a0	0.13497782
189	0x3ab36c80	0.0013688952
190	0x3d76dcb0	0.060269058
191	0xbd330198	-0.04370269
192	0xbddf4770	-0.109022975
193	0xbc9d5b6d	-0.019208634
194	0x3d44f2b3	0.04808302
195	0xbda74fa4	-0.08169487
196	0x3d7851e0	0.060624957
197	0xbd81748d	-0.063210584
198	0xbe98e593	-0.2986265
199	0x3cecbdd4	0.02889911
200	0x3d0b6574	0.0340323
201	0x3ca620fc	0.0202794
202	0x3e552999	0.2081665
203	0x3cae8178	0.02130197
204	0x3d0b38f0	0.033989847
205	0x3e042a7b	0.1290683
206	0xbd9c976d	-0.0764607
207	0xbdb11d0f	-0.086481206
208	0xbe585adf	-0.21128415
209	0x3d0ba01c	0.03408824
210	0x3d50a829	0.05094162
211	0x3d8155b5	0.063151754
212	0x3dd8d3c1	0.10587264
213	0xbb9529a0	-0.004552081
214	0x3d1a7e3b	0.03771804
215	0xbc41f30b	-0.011837731
216	0x3e48e21e	0.19617507
217	0x3d895e83	0.0670748
218	0xbdec9a56	-0.11552875
219	0x3d8becf9	0.06832308
220	0xbd66ed48	-0.056378633
221	0x3dd7cd23	0.105371736
222	0x3ec5238a	0.38503677
223	0xbdfdef66	-0.12399177
224	0x3d474a9d	0.04865514
225	0xbc4427f0	-0.0119724125
226	0x3d76bc11	0.060237948
227	0x3deb3532	0.114847556
228	0x3c4721a1	0.012154014
229	0x3da47574	0.08030215
230	0x3d20e161	0.039277438
231	0xbd3d285e	-0.046181075
232	0x3cf0a030	0.029373258
233	0x3ea72b2d	0.32650128
234	0xbda77324	-0.08176258
235	0xbc94deee	-0.018172707
236	0x3dfa95da	0.12235613
237	0x3e7876eb	0.24264114
238	0x3dced1ca	0.10098608
239	0x3d9a0bf6	0.075218126
240	0xbc8300a0	-0.015991509
241	0xbdfc65de	-0.12324117
242	0x3c0f54c2	0.008748235
243	0x3d8f1e9b	0.069882594
244	0x3bc16304	0.005901696
245	0x3d321dc8	0.043485433
246	0xbdd93cdf	-0.10607313
247	0x3e08e7d8	0.13369691
248	0x3ea078dc	0.31342208
249	0x3e791d8b	0.24327676
250	0x3db8f9e4	0.09032038
251	0x3db4d222	0.08829142
252	0xbd1cc5ee	-0.038274698
253	0xbcffded0	-0.031234175
254	0xbc438480	-0.011933446
255	0xbd8e75e0	-0.069560766

mlr.2.bias f4 [208]
0	0x3db8c3bd	0.09021709
1	0x3d9bbd50	0.07604468
2	0xbcac9576	-0.021067362
3	0x3dd07ccc	0.10180053
4	0x3e0379ec	0.12839478
5	0x3df51825	0.11967496
6	0x3e1ad03d	0.15118499
7	0x3d008c4b	0.031383794
8	0x3dc7086b	0.097184025
9	0x3df98221	0.12183023
10	0x3dd5946c	0.104287
11	0x3d36035a	0.04443679
12	0x3dc9b5fa	0.098491624
13	0xbd1f8b83	-0.038951408
14	0xbc1704e8	-0.009217478
15	0x3d62afd8	0.05534348
16	0x3dc49c0f	0.09600078
17	0x3d655cb0	0.055996597
18	0xbd0d2482	-0.034458645
19	0x3c81c048	0.015838757
20	0x3d97e2fd	0.074163415
21	0x3cf72721	0.030170025
22	0x3dcaf86e	0.099106655
23	0x3d25e6d5	0.04050334
24	0x3dbccfa7	0.09219294
25	0x3d8bf1ed	0.06833253
26	0x3d6dcc42	0.058056124
27	0x3dcae437	0.0990681
28	0x3d583a61	0.05279005
29	0x3d9956bb	0.07487246
30	0x3cb1f032	0.02172098
31	0x3d8895ae	0.06669174
32	0x3df2d6e9	0.11857397
33	0xbc1b97e8	-0.0094966665
34	0x3d85072d	0.06495509
35	0x3ca47cd7	0.02007906
36	0x3d805d96	0.0626785
37	0x3d6b60e9	0.057465468
38	0x3dd97102	0.10617258
39	0xbcf319d6	-0.029675405
40	0x3cae5d59	0.021284746
41	0x3dd704a7	0.10498934
42	0x3cd7c548	0.026339188
43	0x3d9c8079	0.07641692
44	0xbccf1032	-0.025276277
45	0x3dedf74a	0.11619432
46	0xbc2f1879	-0.010686987
47	0x3d14dbbe	0.036342375
48	0xbad9add0	-0.0016607586
49	0x3e047151	0.12933852
50	0x3d91dc62	0.07122113
51	0x3c8f2922	0.017475668
52	0x3de95f9b	0.113951884
53	0x3e0a7afc	0.13523477
54	0x3ce24553	0.027620947
55	0x3d568ccc	0.052380368
56	0x3d9311f9	0.071811624
57	0x3dcca9b2	0.09993304
58	0x3df8dfd2	0.12152065
59	0x3e1ddde9	0.15416683
60	0x3dd56d04	0.10421184
61	0x3dfdc0bb	0.12390276
62	0x3da3703e	0.07980393
63	0x3e206159	0.15662135
64	0x3d8350ac	0.06411871
65	0x3c7b114c	0.015323948
66	0x3dc2aabc	0.09505221
67	0x3b41d214	0.002957468
68	0xbc684752	-0.01417716
69	0xbd0d4a4d	-0.034494687
70	0x3dc800e4	0.09765795
71	0x3da7b040	0.08187914
72	0x3da3e6e7	0.080030255
73	0x3cbafecb	0.022826573
74	0xbcda89c8	-0.026677027
75	0x3d8a5b91	0.06755746
76	0x3c17e693	0.009271282
77	0x3d6a75bd	0.05724119
78	0x3dea27d6	0.11433379
79	0x3e032924	0.12808663
80	0x3e1fa49c	0.15590137
81	0x3d85bab8	0.065297544
82	0x3de69ba9	0.112601586
83	0x3d89c329	0.06726677
84	0x3dcdcaf3	0.10048475
85	0x3d55b36c	0.052173063
86	0x3db96d6b	0.09054073
87	0x3de34352	0.11096825
88	0x3dfc56e9	0.12321264
89	0x3d20b110	0.03923136
90	0x3dbaeef9	0.09127612
91	0x3db13e7c	0.08654496
92	0x3ddb647e	0.10712527
93	0x3ce04b5f	0.02737969
94	0x3e0f9165	0.14020307
95	0x3dfe4d66	0.12417106
96	0x3a9de5cd	0.0012046635
97	0x3de9dda9	0.114192314
98	0x3dbebc50	0.093132615
99	0x3d4e82a5	0.05041756
100	0x3ba0bc6e	0.004905275
101	0x3c4360ed	0.011924964
102	0x3db7722f	0.08957326
103	0x3ccfaf78	0.025352225
104	0x3e1a0552	0.15041092
105	0x3dce5c1a	0.10076161
106	0x3d786730	0.060645282
107	0x3e251196	0.1611999
108	0x3cbe04d5	0.023195663
109	0x3d54e5e9	0.051977072
110	0x3e4d7845	0.2006541
111	0x3e0e25b0	0.13881564
112	0x3e471254	0.19440585
113	0x3e1d98f5	0.1539038
114	0x3d6b6963	0.05747355
115	0x3e1a3dc6	0.15062627
116	0x3dcd6093	0.10028186
117	0x3e124b8a	0.14286628
118	0x3ca53c9b	0.0201705
119	0x3dc7d449	0.09757287
120	0x3d70af5d	0.05876099
121	0x3da5ba77	0.08092206
122	0x3d15a53a	0.036534525
123	0x3df8358d	0.12119589
124	0x3dfdd7db	0.12394687
125	0x3e06cccd	0.13164063
126	0x3c79f543	0.015256229
127	0x3c94c78b	0.018161556
128	0x3de8f431	0.11374701
129	0xbc178cf3	-0.0092499135
130	0x3d39dbbe	0.045375578
131	0x3ddad3a5	0.10684899
132	0x3e1ac077	0.15112482
133	0x3d283396	0.04106482
134	0x3d165305	0.036700267
135	0x3cebd526	0.02878816
136	0x3d5563dd	0.05209719
137	0x3e0c148c	0.13679713
138	0x3ca89a2a	0.020581324
139	0x3e071c83	0.1319447
140	0x3e01ec86	0.12687883
141	0x3dafc716	0.085828945
142	0x3defd900	0.11711311
143	0x3dac0804	0.08399966
144	0x3d9edaa8	0.07756549
145	0x3d5ddcf9	0.054165814
146	0xbb90a7c2	-0.0044145295
147	0xbd348b79	-0.044078324
148	0x3d81285c	0.06306526
149	0x3ac1ff8a	0.0014800888
150	0x3b1949c2	0.002338991
151	0x3d59a8a8	0.05313936
152	0x3cd8140e	0.02637675
153	0x3e174ef9	0.1477622
154	0x3deca7ec	0.11555466
155	0xbd035ebb	-0.032072764
156	0x3ded5b24	0.11589649
157	0x3d4672d5	0.048449356
158	0x3e291551	0.16512038
159	0x3dc8bb33	0.098013304
160	0x3d5b3385	0.05351593
161	0x3defd4e2	0.11710526
162	0x3c43d17f	0.011951803
163	0x3d2ec4db	0.042668205
164	0x3deaca8a	0.114644125
165	0x3dd887c3	0.105727695
166	0x3d2be84e	0.04196959
167	0x3db34d27	0.0875495
168	0xbc9c677e	-0.019092318
169	0xbcc4c330	-0.024018854
170	0x3aa2bfec	0.0012416816
171	0xbd537535	-0.05162545
172	0x3dad14e4	0.0845125
173	0xbcb8eaed	-0.022572959
174	0xbcaf6a4d	-0.021412993
175	0x3cff1970	0.03114006
176	0x3dabf66d	0.08396611
177	0x3de4ca35	0.111713804
178	0x3db0635f	0.086127035
179	0x3cb5254d	0.022112513
180	0x3daba052	0.08380188
181	0x3d12bf8b	0.0358272
182	0x3e0e2879	0.13882627
183	0x3c2ddf7a	0.010612363
184	0x3dcfd13b	0.101473294
185	0x3de95245	0.11392645
186	0xba443ae3	-0.00074855814
187	0x3dede325	0.1161559
188	0x3d42c6fc	0.047553048
189	0x3de162fd	0.11005209
190	0x3cf6624a	0.030076165
191	0x3d5685d5	0.052373726
192	0xba44a6f2	-0.00075016834
193	0x3d1e9dc2	0.03872467
194	0x3d8957a4	0.06706169
195	0x3d9ab7e6	0.07554607
196	0xbc4b0c68	-0.012393095
197	0xbd2e6ffb	-0.04258726
198	0x3d583756	0.052787147
199	0xbd1adf7f	-0.0378108
200	0xbd2980ba	-0.04138253
201	0xbd6ad87a	-0.057335354
202	0x3dc4cfae	0.09609924
203	0x3dd0f086	0.10202126
204	0x3cbbe6fa	0.022937287
205	0x3dc5e2ec	0.096624225
206	0x3dfa3234	0.12216607
207	0x3dc36d20	0.09542298
