pqc_reup_v1_output/best_model_epoch_120.pth (torch, 61297 bytes, 6 tensors)

reupload_weights f4 [12, 3, 4]
00000000: 3872 923e 9f97 233e 6d96 153e 6d10 46be
00000010: 6be4 823e 2ffd 88be ea5f 283e 6c0d 373f
00000020: 8bb3 d23e 791e 933e 1b96 31be 9962 3bbf
00000030: f04b 24be 4c06 11be 56c6 9f3d 3b21 583d
00000040: b4df 043e 5c82 6dbf 657a 27bf 50e0 be3d
00000050: a2a7 ffbd 4c92 7b3d 3808 75bd 1380 913e
00000060: b1d3 5a3e 49f7 203e f036 da3d 48e1 32bc
00000070: 3307 523f a89d 46be 0b14 823e 1551 5bbf
00000080: 16d7 673e 282a 293e f697 2c3f cb71 1dbd
00000090: 327c e1bd 92da 61bd fc64 b93c 1c00 ccbd
000000a0: a64e df3e a5b7 6e3f 1799 e73d bf8b 20bf
000000b0: ff50 313f a8d0 903f 2352 0c3e 72a8 bdbe
000000c0: 8953 a0bd 7464 57bd 35af 3b3e c6f3 8d3d
000000d0: 8997 843f 6424 723f 21fc 81bf 13ff 27bf
000000e0: 2ba8 f33e 2949 0c3f 809c 8cbf 69d3 f3be
000000f0: 751f 30bd 697b b83d ac74 f9bd 05af ccbd
00000100: 551c a83e a894 413e f4ff c0bd 2546 ae3d
00000110: 44bb 94be 639e 8fbe 70e7 58bf 2ce3 1bbe
00000120: 58cb a83b 80df eebd 23c8 59be eed7 c13d
00000130: 3d66 35be 2234 00be ee57 05be 5b90 003e
00000140: 31cb 923e 9551 b73e 68ac e03e 11b9 b73e
00000150: b11e 183e d109 0a3e 4cf4 b13d bec8 9dbd
00000160: 9968 bdbe 8424 11bf bc5c 82bd 070b cd3e
00000170: d00d aabe f1ba a1be 8fd8 0b3f 0c3f 083f
00000180: e3e7 6abe 269b 543e 6037 093e fefb a43d
00000190: 57d2 08be 8c72 203f 276d 3e3f 7cee 8f3e
000001a0: 9dca fbbd 5fc8 0c3f 39b4 893e 2955 0bbe
000001b0: a544 09bd ade4 0e3e 2e01 0f3e 3c1e 913d
000001c0: 288b 343e 0031 c23e 04e7 a53d ba94 26bf
000001d0: e0c5 073f cff0 f23e d612 653e 628a f03e
000001e0: eb91 123e 2b32 14bf 3d0d 4abe 110b 493e
000001f0: e5b7 603e 5c25 2b3e b67c 443f 7a75 113f
00000200: 3a8e 43bf 3f53 7ebf f497 02bf 85b6 32bf
00000210: 2b6d 69bc 15d4 053e 1a5c b63d 63ba 643e
00000220: 74c0 b8bf 190c 0a3d acb2 b63d c5b4 ccbe
00000230: 33cc 9dbf 5c11 cc3e 803d ce3e 1e5d e03d
0.28602767 0.15975808 0.14608164 -0.19342203 0.25564894 -0.26755664 0.16442838 0.71504855
0.41152605 0.28734186 -0.17342417 -0.73197323 -0.16044593 -0.14162558 0.078015015 0.052766066
0.12975961 -0.9277704 -0.65421134 0.09320128 -0.12483145 0.061418816 -0.05982229 0.28418025
0.21369816 0.15719332 0.1065501 -0.010917969 0.82042235 -0.19396079 0.25405917 -0.85670596
0.22640643 0.16519988 0.67419374 -0.0384386 -0.110100165 -0.055140086 0.02263116 -0.09960958
0.43614691 0.9324897 0.113084964 -0.62713236 0.69264215 1.1313677 0.13703208 -0.37042576
-0.07828433 -0.052586034 0.18328555 0.06931262 1.0358745 0.9458678 -1.0155069 -0.6562359
0.4758924 0.54799134 -1.098526 -0.4762223 -0.04299875 0.090079136 -0.121804565 -0.0999432
0.32834116 0.18904364 -0.09423819 0.08509473 -0.29049122 -0.28050527 -0.84728146 -0.15223378
0.0051511936 -0.11663723 -0.21267752 0.094650134 -0.17714782 -0.12519887 -0.13021824 0.12555067
0.28670648 0.3580443 0.43881536 0.35883382 0.14855458 0.13480307 0.08689174 -0.07704304
-0.36993864 -0.56696343 -0.06365344 0.40047476 -0.33213663 -0.31587937 0.5462732 0.532212
-0.2294002 0.2076231 0.1340003 0.08055876 -0.13361488 0.62674785 0.74385303 0.28111637
-0.12294505 0.5499324 0.2689531 -0.13606705 -0.03351273 0.1395442 0.13965294 0.07085845
0.17631209 0.3792801 0.08100703 -0.6507069 0.5303631 0.47449347 0.22370467 0.46980578
0.14313476 -0.5788905 -0.19731613 0.19633128 0.2194515 0.1671347 0.76752794 0.5681988
-0.76388896 -0.99345773 -0.5101311 -0.6980975 -0.014247219 0.13069184 0.08904286 0.22336726
-1.4433732 0.033702943 0.08920798 -0.39981666 -1.2327942 0.39856994 0.40281296 0.10955261

reupload_bias f4 [12, 3]
00000000: cd88 0cbf 59d1 5b3e a33a 86be 3f19 fe3e
00000010: a97a 95be 22a1 c93e d48e 10bf 4d20 863f
00000020: 4708 2d3d 9f24 0d3f 94b8 483f 3a13 cd3f
00000030: d662 d6be d02d 92be 248c 923e fb76 ee3e
00000040: 2ab6 473e 16cb 67be 4c45 e4bd 7596 e9bd
00000050: 560c c53d d52a 34bf 6e63 1ebf eac7 0dbe
00000060: 6bd0 ed3e af4c 2a3f 7111 3fbf 1ba7 0dbf
00000070: 2b1c 68bf 2356 2b3f 8734 433e b790 033e
00000080: 6eb7 d9bf 4aea 08bf cbdc f3be da14 463f
-0.5489624 0.21466579 -0.2621661 0.49628636 -0.29195145 0.39380747 -0.5646794 1.0478607
0.042244222 0.55134004 0.78406644 1.6021492 -0.4187228 -0.28550577 0.28622544 0.4657515
0.19503084 -0.22636065 -0.1114603 -0.114056505 0.096214935 -0.70377856 -0.6187047 -0.13845792
0.46448073 0.6652326 -0.7463599 -0.5533311 -0.9066798 0.6692831 0.19063006 0.12848173
-1.7009103 -0.53482497 -0.4762939 0.77375567

mlr.0.weight f4 [64, 12]
00000000: 6f08 8a3b 1b33 8dbc fc21 8e3d 0dad a53d
00000010: eb3d 86be 762d dabd b0ef 783e b84e e63d
00000020: d13d 6bbc 9038 32be 04da 34be 5565 84be
00000030: 186f 6fbe dd31 dfbd be0b 423e 5c3b 5abd
00000040: 635f c6be 2ffa 11bf a15a bebd 39a0 033f
00000050: 5f71 253d d0ae 55be a926 893e 946a 07bd
00000060: fbae 77be a49c 1c3e 33d9 3dbe feb5 edbd
00000070: 025e b1be 10e1 0c3e d72d 263e 32f0 463d
00000080: 146c 84be df29 aebe 7d2c 92be cc5f 233e
00000090: beeb 0d3e 64c0 783e 91db 1a3e 39a1 953d
000000a0: 9743 39bb e1ce 60be c443 7dbe ff3e 8abe
000000b0: 7c04 f23d bc21 11be b7f6 6dbd 0c1f 2abe
000000c0: d5b2 9c3b 7109 69be 04d6 93be 4793 3a3d
000000d0: 5edc 0cbd a6f1 313e 7c76 01be 0ffb c1be
000000e0: ceb3 02bd 36a8 37be 850f 90bd e33e d6be
000000f0: 7261 a53c 6d9e 91be f633 8d3e 0e48 4e3d
00000100: 0a71 6d3e b8ed 0dbf ac35 a03e 5305 37be
00000110: 88e9 073c 712f 2a3e c8f1 26bd 9c2a 41be
00000120: 26d9 17bd 77fc cabe ce69 7a3e 41db cebe
00000130: 1019 913e 918d 353e 308d e03e 7107 a7be
00000140: 35b4 74be da02 963d c5c5 483e 03e8 f5be
00000150: 5c8b c93c 17b2 a6be 33da 893c 7551 8fbe
00000160: 2b6b ebbd 79ca 4dbe 4fac 70be c06a a33e
00000170: 249a e33e 9bc8 0cbe bab8 2d3e b5c4 e0ba
00000180: 25fa 6ebe 8d3e aebe b97a f43c dbba 7abe
00000190: 4abc 13be e7d2 9dbd 14d4 c3bd 0eb8 a2be
000001a0: 3489 603c cba1 00be 5ec9 92bc 4af1 b3be
000001b0: 0e3a efbe 3955 ce3e 3dab bcbd d35e da3d
000001c0: 9a86 4bbe 7630 8a3d 02d8 9d3e e4bf 613e
000001d0: 9104 f4be 69d6 f23e f137 9b3e e87e edbd
000001e0: b83a 0abe 33c2 ec3e fc7b c2bd 86e4 803e
000001f0: 2225 8abe 904c 64bd 0ce1 123e 9618 4b3e
00000200: 2aee bcbe 8488 70be b7a4 d8be 1ae8 a6be
00000210: 5c19 64be 3134 92bd f67e 473e 3dea 453d
00000220: 67d6 60be db23 6dbe 2b0e 133e c8e1 5bbe
00000230: 6a96 11bd 7ecd 0d3e 0dcf 08be 24ee 00bd
00000240: 59d8 cdbc a2de 8bbd 62e1 15be 8ec1 83be
00000250: f9f3 6ebe c548 1ebe 9fc0 8e3e e0c7 0ebe
00000260: 8381 46be 194e 8f3d 52f1 a23d c5f6 213e
00000270: 4d71 ea3e f7fe e93d e728 a8be 6926 34bb
00000280: f22c 2b3e 9c29 d3bd e6b0 81be 19b5 a63e
00000290: 9da5 8fbd 4192 d1be 5d32 95be b9ba 7e3e
000002a0: 4959 8c3d 3c84 153e 0090 7fbd e55d 94be
000002b0: 6551 e4be b466 f8bc 67a0 303e 96c5 a43e
000002c0: 5d72 90be e56a 723e 0a70 13be 21f6 6abe
000002d0: 132f 11bd e359 ce3d 411c 603e 7dbb 04bf
000002e0: 4a5d 503b 2316 15bf de8d b23b 749f c13e
000002f0: 9273 0abe fb2f b43e f2e0 1bbe 2f1c 7cbe
00000300: 32dc b93e c5b8 d8bd 3603 96bb 88cf 5dbe
00000310: de36 9e3e 24b7 653e e175 3a3e a2a3 04bf
00000320: a40d 6fbe b6a2 82bb 3517 273d c9b7 99be
00000330: 126b a5bd 15a4 473e a261 bc3c e264 553c
00000340: 0c7f 91bd 01d9 85be bcf8 8abe 874d 0dbe
00000350: f242 16be 4c31 b83d 4b1b acbd 0a4b e7bd
00000360: cad5 2a3f 3253 683e 0777 423e f057 8dbe
00000370: f42d 01be 8842 703e 0e33 98be 86e3 ccbe
00000380: 18ab 023d 55bb a1be 0e0a 7fbe b2dd 803e
00000390: 9727 053f dca6 853d c51c 3fbe 1eba 04bf
000003a0: d5a8 8cbe 290b 6f3d 7184 71bc e458 67bd
000003b0: fa46 2ebe a36c c63e f489 31be 911a 173e
000003c0: 3880 e7bc 998b 103e 5403 223e 671d 3f3e
000003d0: c064 153d 75fc e33e 6557 2b3e 7f3d af3e
000003e0: 6434 cb3e 5225 edbd e61d febd 27d2 d93e
000003f0: 8ea3 673e 06b5 61be 13cf b6bc 49c0 91be
0.004212431 -0.017236283 0.06940076 0.080896474 -0.26219115 -0.10653202 0.24310184 0.11245483
-0.014358 -0.1740439 -0.17661291 -0.2585856 -0.23382223 -0.108981825 0.18949792 -0.053279266
-0.3874465 -0.57022375 -0.0929463 0.51416355 0.040391322 -0.20867467 0.26787308 -0.033060625
-0.24187844 0.15294129 -0.18539886 -0.11606978 -0.34642035 0.1375773 0.16228424 0.04856891
-0.25863707 -0.3401632 -0.28549567 0.15954512 0.1385946 0.24292141 0.1512282 0.073061414
-0.0028269046 -0.21953918 -0.24732882 -0.27001187 0.118172616 -0.14173025 -0.058096614 -0.16613406
0.0047820606 -0.22757508 -0.28874218 0.04555061 -0.034389846 0.17377338 -0.12642854 -0.37886855
-0.031909756 -0.17935261 -0.0703421 -0.41844854 0.020188067 -0.28441182 0.27578706 0.050361685
0.23187652 -0.55440855 0.31290948 -0.17873125 0.008295424 0.1661966 -0.040757924 -0.1886391
-0.037072323 -0.3964574 0.24454424 -0.40401652 0.28339434 0.17729785 0.43857718 -0.32622865
-0.23896869 0.07324763 0.19606693 -0.48028573 0.024602585 -0.32557747 0.016827678 -0.27991834
-0.1149505 -0.20096768 -0.2350323 0.3191738 0.44453537 -0.137484 0.16964999 -0.0017148467
-0.2333761 -0.34032097 0.029843675 -0.24485342 -0.14427295 -0.07706242 -0.09561935 -0.31781048
0.013704587 -0.12561719 -0.017918285 -0.35145026 -0.4672398 0.40299395 -0.092123486 0.106626175
-0.19875565 0.067475244 0.30828863 0.22045857 -0.47659734 0.47429207 0.30316117 -0.11596471
-0.13498962 0.46241912 -0.094963044 0.2517435 -0.26981455 -0.05573708 0.14343661 0.19833598
-0.36900455 -0.23489577 -0.42313167 -0.32598954 -0.22275299 -0.07138861 0.19482026 0.04831909
-0.21956788 -0.23158209 0.14360873 -0.21472847 -0.035543837 0.1384792 -0.13360234 -0.03147711
-0.025127577 -0.06829573 -0.14636758 -0.25733608 -0.23335256 -0.15457447 0.27881333 -0.13943434
-0.19385342 0.06997318 0.079561844 0.15816791 0.45789567 0.11425584 -0.32843706 -0.0027488715
0.16716364 -0.10310671 -0.25330275 0.32560042 -0.0701401 -0.40931895 -0.29139987 0.24875917
0.06852967 0.14601225 -0.06239319 -0.28977886 -0.4459335 -0.03032241 0.17248689 0.32181996
-0.28212252 0.2367359 -0.14398208 -0.22945453 -0.035445284 0.10075738 0.21885778 -0.51848584
0.0031793886 -0.582369 0.005449041 0.37816966 -0.13520649 0.35192856 -0.15222529 -0.24620126
0.36300808 -0.10582117 -0.0045780195 -0.21661198 0.30901235 0.22433144 0.1820903 -0.51812184
-0.23345047 -0.003986682 0.040793616 -0.3002303 -0.08077063 0.19496186 0.022995774 0.013024541
-0.071043104 -0.26142123 -0.27142894 -0.13799106 -0.14673975 0.08993778 -0.08403643 -0.112936094
0.66732466 0.22687986 0.18990718 -0.27606153 -0.12615186 0.2346288 -0.29726452 -0.40017337
0.03190145 -0.31588235 -0.2490618 0.2516914 0.52013534 0.065259665 -0.18663318 -0.5184649
-0.2747256 0.058360253 -0.014741049 -0.056481257 -0.17019263 0.38754758 -0.17337781 0.14756228
-0.028259382 0.14115752 0.15821582 0.1866356 0.036473036 0.44528547 0.16732557 0.34226605
0.39688408 -0.11579384 -0.124080464 0.42543146 0.22620985 -0.22041711 -0.022315538 -0.28467014

mlr.0.bias f4 [64]
00000000: 2d91 a2bd 2338 413e aa3e e33c c22d 4ebd
00000010: 9491 0f3e 1dcd 97bd d33d 053e 9f8f c33d
00000020: c097 223e 5518 a43a bb85 133e 79b4 2abd
00000030: a72a e6bd a44d 003e c8d6 463e 4675 183e
00000040: 38e2 a43d ea89 c9bd c377 9f3d 607e 163e
00000050: 1748 0bbe 4e7c 12bd 4ae8 76bd cc85 303e
00000060: 04bf 423c 86a9 ccbc abd5 c5bc eaa2 e6bb
00000070: b8b0 8ebd 1f31 dfbd 727e 873d 0dc8 14be
00000080: 1dc9 81bd c710 df3c 03a8 1fbc f308 8bbe
00000090: 595e 4b3e b845 06be 3bbd 22be dd9d 9b3c
000000a0: a043 1abe 058f 98bd 0135 c7bd 4db8 e9bc
000000b0: f9e8 f6bd f255 4dbd 476c b53b 2035 6fbe
000000c0: 41ec 32be 6a06 8a3b c1a0 43bc 0141 723d
000000d0: be95 b2bd defe 523e 5ec6 403d 6255 513d
000000e0: 7c78 10be cfc6 3fbe 3c56 9dbd 7c9b 68bd
000000f0: 46b1 c13d 8d8e 30bd 5cc6 173e 6285 2dbe
-0.07937846 0.1886907 0.027739841 -0.050336607 0.14020377 -0.07412169 0.13011865 0.09548878
0.158782 0.0012519459 0.14406483 -0.04167602 -0.11238604 0.12529618 0.1941787 0.14888486
0.0805096 -0.09840758 0.077865146 0.14696646 -0.13601719 -0.035763077 -0.060280122 0.1723854
0.011886362 -0.024983179 -0.024149736 -0.007038464 -0.069673 -0.10898041 0.066159144 -0.14529438
-0.063371874 0.02722968 -0.009744647 -0.27155265 0.1986021 -0.13112533 -0.15892498 0.018996174
-0.1506486 -0.07449154 -0.097269066 -0.028530264 -0.12056155 -0.050130792 0.0055365893 -0.2336011
-0.17472936 0.0042121904 -0.011940182 0.059144024 -0.08719967 0.20605037 0.047064178 0.051106818
-0.14108461 -0.18728183 -0.076824635 -0.056788906 0.0945764 -0.043104697 0.14821762 -0.16945413

mlr.2.weight f4 [208, 64]
00000000: 609b 9b3c c29b cd3e 1ae5 3b3d 24f0 5fbd
00000010: ebcf 63be 2b86 f03e 2662 1cbe 038b 07be
00000020: 49fb 6abe 78f5 f83e 0d0b fd3e 608f 60bc
00000030: 5819 cebd f56b 8bbd bd55 3f3e b259 f23e
00000040: 73b0 a0be 1893 6fbd aa45 16bf aea7 7abe
00000050: 79a0 1d3e 80c1 76bd 642e 163e 2d51 80bd
00000060: 34ba 94bd 71ef 903d 0003 fc3d bf7e 803d
00000070: 6e0b 8ebc 4b3f d63d 1493 d13c 4a9c d7bd
00000080: 206c 35bd 88d5 953d 302e a13c 084d f43d
00000090: 2a9e 143e 0476 8a3d f432 8dbd aad6 283e
000000a0: c8b7 b83d 8747 8f3e 4855 b83d 15d1 7b3e
000000b0: 4072 1f3b 85a4 e63e 3176 7f3f 50f1 5e3d
000000c0: cc8e 24bd 008e 09bb 6c73 e1bd 51dc 1cbf
000000d0: 9814 6abd 0305 80be 25de 93bd de76 4b3f
000000e0: e812 493e e7d6 f73d 495f 7b3e a0cd fd3d
000000f0: e94e d8be be2f fdbd a4a6 24bd bc70 8f3d
00000100: 72c7 dbbd 7a30 5c3e d352 c93d 201f f83b
00000110: 838a 9ebe deb4 cb3e 704e bbbd 6d7c 673d
00000120: e77f d3be 0137 093f b950 ed3d 804f fd3d
00000130: 2cef 58bd 255e f4bd 3f23 1e3e b4d5 5c3e
00000140: 9e41 98be e84b 523d ab55 32bf cd18 58be
00000150: 7235 3b3e fc95 c83d 7ab3 d53b 11c0 973c
00000160: 2928 fa3e 19b3 e93d a836 993d d23f 0e3e
00000170: 9bbf 7abd e8b5 063c 316d af3d 342f 96bd
00000180: 840f 583e 8202 f6bd 3fbb ff3e c235 ff3d
00000190: f031 5b3e c494 2e3d 24d7 e4bd 455d 653e
000001a0: 1827 afbc 2e50 ec3e b4b6 fc3d f04a d63d
000001b0: 20e4 10bc 0ecf 043f fe93 373f 101e b5bd
000001c0: 2885 a63c 0011 89bc 59fc f33c 67d8 883d
000001d0: cfe9 cdbc ff84 51be 4092 53bd 1315 273e
000001e0: 7610 8f3e 4b94 b5bd ef76 0e3d 8e68 3b3e
000001f0: 9637 b4bd 4804 be3c 23d0 14be 806c 9a3c
00000200: 92aa f63d 9b8a 0c3f cf7f dfbd a6ae e93d
00000210: 6915 37be e98c 123f 661d 87bd 8f32 b5bd
00000220: 22ec b5be 4b08 193f b2a5 f93e d087 193c
00000230: 2ce2 b2bd f084 34be c376 a03e 0fe3 f93e
00000240: bf18 b3be e086 213c a051 eabe bffb 77be
00000250: 2185 8d3e 3ced 4c3d b013 283e 6b60 45bd
00000260: 062c 983e e82b 3a3e f243 dfbd 24aa e7bb
00000270: 3a5a 8e3c 0d16 0d3e ee73 833e 40f7 eabc
00000280: 42a8 703d be8e a63d 7c66 d5bc 3405 cd3d
00000290: 9068 4f3e c27a c4bd 7846 b4bd 3c16 783d
000002a0: 0e4b 8cbd 28cd ab3e e026 1abc fb63 213e
000002b0: f857 81bd 12a8 da3e aec5 673f 5225 fb3d
000002c0: 10c3 3dbd d64b b7bd 17fd 533d ad6d 0dbf
000002d0: 5ac9 cf3d 96a9 4fbe b01e 033e 87f6 133f
000002e0: dfe6 793e cd87 3a3e 6096 d73d 42f4 403e
000002f0: 252e 20be 806c b33a ef2c a6bc 9801 33bd
00000300: 7047 dfbd f1b1 6fbe d029 433d a44f a7bd
00000310: bde0 63be 6be0 853e ba41 4cbe 0492 173e
00000320: 467f 9ebe 479b b1bc 9507 f23d 7881 ae3c
00000330: f038 0b3d 07a3 423d ef0f f0bd 7eff 86be
00000340: 23ac 44be 1ca0 0b3d e44d 9ebe d3bf 19be
00000350: c92d 373e a029 95bb 4a5f 2d3b 0b7b b5bc
00000360: 3c7a 3d3f b0e2 89bd 569a ecbd f9ec 8b3d
00000370: 48ed 66bd 6b7f f03d a32f 143f 66ef fdbd
00000380: e506 883d f027 44bc fd7c c83e 3235 eb3d
00000390: 06bf 743e 7475 a43d 61e1 203d 9e0b 9a3b
000003a0: 30a0 f03c 6dae 233f 2473 a7bd a6cc 4f3d
000003b0: da95 fa3d df0a e63e b3ea 0e3f f60b 9a3d
000003c0: a000 83bc de65 fcbd e1a9 ec3b 8161 bb3e
000003d0: fbba 7fbd b249 00be bba5 debd b701 54be
000003e0: b605 be3e cd64 733d b5f1 c93d 7628 5f3d
000003f0: 6b9f c1bd d0de ffbc 3469 ddbd e075 8ebd
0.018994987 0.40157896 0.045872785 -0.054672375 -0.22247283 0.46977362 -0.15271816 -0.13236623
-0.2294742 0.48624778 0.49422494 -0.013706058 -0.10063428 -0.068077005 0.1868505 0.47334057
-0.3138462 -0.05848989 -0.5870005 -0.24478027 0.15393247 -0.06024313 0.14666134 -0.06265483
-0.07262078 0.0707692 0.1230526 0.06274175 -0.017339434 0.10461291 0.025582828 -0.10527857
-0.04429257 0.073161185 0.019675344 0.11928755 0.1451346 0.06760791 -0.06894484 0.16488138
0.090194285 0.2798426 0.09000641 0.24591477 0.0024329573 0.45047393 0.9978972 0.054429352
-0.040175244 -0.002098918 -0.11008343 -0.61273676 -0.057148546 -0.25003824 -0.07220105 0.7947825
0.19636118 0.12101536 0.24548067 0.123927355 -0.42247704 -0.12362622 -0.040197983 0.07003924
-0.107314005 0.21502867 0.098302506 0.0075720698 -0.3096505 0.39786428 -0.0914582 0.056515146
-0.4130852 0.53599554 0.11587662 0.12368679 -0.052962467 -0.11932019 0.15443133 0.21565896
-0.29737562 0.05134192 -0.6966197 -0.21103211 0.18282107 0.09794232 0.0065216394 0.018524202
0.48858765 0.11411113 0.07481128 0.13891533 -0.061217885 0.008222081 0.085657485 -0.07333222
0.21099669 -0.12012197 0.49947545 0.12461425 0.21405768 0.042622343 -0.11173847 0.22398861
-0.021380946 0.46154922 0.12339535 0.10463512 -0.008843452 0.5187844 0.71710193 -0.088436246
0.020327166 -0.016731739 0.029783415 0.066819005 -0.025135903 -0.2046089 -0.051653147 0.16316633
0.27942246 -0.08866175 0.034781393 0.18301603 -0.08799665 0.0231954 -0.14532523 0.018850565
0.120442525 0.54898995 -0.109130494 0.11410265 -0.17879261 0.5724626 -0.06597404 -0.08847534
-0.35531718 0.5977828 0.48759228 0.009370759 -0.08734545 -0.17628837 0.31340608 0.48806044
-0.34979817 0.009858817 -0.457654 -0.24217127 0.27640632 0.05003093 0.1641376 -0.048187654
0.29721087 0.18180811 -0.109016314 -0.007069843 0.017377008 0.13777943 0.25674385 -0.028682351
0.058754213 0.08132695 -0.026049845 0.10010758 0.20254731 -0.09593727 -0.08802503 0.06056808
-0.06850253 0.3355496 -0.009408683 0.15760796 -0.06315607 0.42706352 0.9053601 0.12262978
-0.046328604 -0.089500114 0.051755037 -0.55245477 0.10145827 -0.20279536 0.12804675 0.57798046
0.24404477 0.18215866 0.10526729 0.18843177 -0.15642603 0.0013688952 -0.020285098 -0.04370269
-0.109022975 -0.23407723 0.047647297 -0.08169487 -0.222537 0.2614778 -0.19946948 0.14801794
-0.30956477 -0.021680487 0.118178524 0.02130197 0.033989847 0.047518756 -0.11721789 -0.263668
-0.1920629 0.03408824 -0.309188 -0.15014581 0.1788856 -0.004552081 0.0026454502 -0.022153398
0.7401464 -0.0673269 -0.11552875 0.06832308 -0.056378633 0.11743053 0.5788519 -0.12399177
0.0664194 -0.0119724125 0.39157858 0.114847556 0.23900995 0.08030215 0.039277438 0.004701092
0.029373258 0.6393803 -0.08176258 0.050732277 0.12235613 0.4493017 0.5582687 0.075218126
-0.015991509 -0.12324117 0.0072223996 0.36597827 -0.062434178 -0.12528113 -0.10871454 -0.20703779
0.37113732 0.059422303 0.09860555 0.054481946 -0.09454235 -0.031234175 -0.108110815 -0.069560766

mlr.2.bias f4 [208]
00000000: fa0a c53d 2e62 c73d dce7 083c 87fe 0a3e
00000010: 1f00 223e c5b6 093e 9da1 1c3e e616 053d
00000020: 3dc4 983d bc89 073e b9be ab3d f7cf 483d
00000030: 5dc5 b43d 2cd6 f3bc 1961 2a3c 32bd 503d
00000040: 5d1a cc3d 9070 753d 077b 82bc a705 4b3d
00000050: 35dd b13d 481c 6f3d 1c5d f03d d557 543d
00000060: 3feb ef3d 5c6e b63d 0809 903d 88b2 023e
00000070: 7c7c a93d 93d7 fd3d d2fe a83d 11fe cc3d
00000080: f827 eb3d 1fea 33bc 1050 643d 2869 a23c
00000090: 8543 213d 8b2b 523d 828e c53d dbc4 fbbc
000000a0: 15b4 333c 7798 913d 2a72 3c3d a16f 9a3d
000000b0: 57e2 9dbc e203 173e 4355 f83c c961 a23d
000000c0: c969 563d 59be 0c3e c319 003e 3d35 6a3d
000000d0: cf44 173e 3e9a 343e c94c 793d 9210 ec3d
000000e0: 40ff c13d b859 003e bfe8 053e fd20 123e
000000f0: b5c4 d53d 0e91 083e da9e 933d c55c 203e
00000100: 8bfb a13d 5b98 ed3c 7cbe bf3d be18 dd3b
00000110: 6f3d b93c 7548 863b 47be ef3d 464b 053e
00000120: 9582 e03d a5c3 a23d 411f bc3c b7f5 cc3d
00000130: 7f3c 993d 5223 cb3d 12e0 203e 5398 303e
00000140: 7afb 293e b0b5 0c3e 06a5 103e 1fb0 0e3e
00000150: 5493 073e ee0f ba3d 01f6 063e b979 093e
00000160: 2ff2 173e 14a3 d83d d018 003e 20ca 1b3e
00000170: 0414 1e3e 1044 813d e52b 3d3e 591d 1e3e
00000180: 2a40 893d 4997 2e3e 98e0 113e d81e d13d
00000190: bbf0 873d 7220 583d 9837 1d3e 902e 8f3d
000001a0: ece5 383e 8b7c fd3d cb1d d53d d271 5f3e
000001b0: 7731 823d a4b6 033e b003 833e 50fb 363e
000001c0: caa7 853e de08 503e b48a f43d fd31 4a3e
000001d0: fae7 193e 5809 433e 2d24 a63d 208f 223e
000001e0: f664 f33d e059 033e bc6d a93d b382 2c3e
000001f0: 51d3 343e 75d4 483e 4dfa 9c3d e694 a03d
00000200: 6a50 1c3e 8bcb 283d 63f6 c83d 880f 223e
00000210: 36cb 3c3e f828 eb3d 2ba6 be3d 90c2 c93d
00000220: 400e d23d baa5 323e 69eb 8f3d 282e 0c3e
00000230: e195 2b3e 154f 0d3e 1bd9 113e 8380 f63d
00000240: f318 e63d 2092 a53d c92d 313d 384c 193b
00000250: c26a e03d 1f8b 323d fbaa 823d a7a9 093e
00000260: dd2b b13d 01bb 4d3e 0745 363e 15b5 353d
00000270: db8c 183e b773 c23d c830 4c3e f422 133e
00000280: 19c5 b43d f76d 1e3e 5d23 5d3d cd01 b03d
00000290: 00eb 0e3e 737b f73d bf8c 8d3d 1f59 cd3d
000002a0: 33c2 7e3b 8d51 9b3c ddc8 143d 8e15 ee3b
000002b0: 5984 ee3d 05b1 483c 8b70 963c 63f7 823d
000002c0: 7f1d 0a3e 87f1 1e3e 6152 f63d fe51 983d
000002d0: e561 e43d 3647 c13d 1640 283e 3c25 713d
000002e0: f957 0f3e 641f 1a3e d2a5 293d 56b1 183e
000002f0: b35b 9d3d 496f 1d3e 8cd4 693d e9f8 8c3d
00000300: c592 be3c f531 6e3d 2f02 873d b100 ca3d
00000310: 01ae 213c 1c84 1b3b 72d3 953d 25ac 5dbc
00000320: befd 0abc 2c67 acbc a890 083e 4cc4 073e
00000330: 3ef0 783d 12d7 043e 4567 193e be7d 033e
0.09621234 0.09735523 0.008356061 0.13573657 0.15820359 0.13448627 0.15296026 0.03249254
0.074593045 0.13236135 0.08385987 0.049026456 0.088267066 -0.029765211 0.010399126 0.05096168
0.09965966 0.0599218 -0.015927805 0.049565937 0.0868477 0.05837658 0.11736509 0.051841576
0.117147915 0.08907768 0.070329726 0.12763417 0.08275697 0.12394633 0.08251728 0.10009397
0.11482233 -0.010981112 0.055740416 0.019825533 0.039371032 0.051311057 0.09646322 -0.030733516
0.010968228 0.071091585 0.046007313 0.07540823 -0.019272966 0.14747575 0.030314093 0.07928807
0.05234698 0.13744487 0.12509827 0.05717968 0.14772342 0.17636964 0.060864244 0.11526598
0.09472513 0.12534225 0.13077067 0.14270397 0.104379095 0.13336584 0.07208033 0.15660389
0.07909306 0.029003313 0.09362504 0.0067473343 0.022612302 0.004097993 0.117062144 0.13016996
0.109624065 0.079474725 0.022964122 0.10007804 0.07482242 0.09918846 0.15710476 0.17245607
0.16599837 0.13741183 0.14125451 0.13934372 0.13239795 0.090850696 0.1317978 0.1342534
0.1483848 0.1057798 0.12509465 0.15213823 0.15437323 0.0631181 0.18473776 0.15440883
0.067016914 0.17049898 0.14245832 0.10210961 0.066377126 0.052765317 0.15353239 0.06991303
0.18056458 0.1237727 0.10406073 0.21820763 0.06357091 0.1286264 0.2558875 0.17869306
0.26104575 0.20315883 0.11940518 0.19745632 0.15029898 0.19046533 0.08112369 0.1587491
0.11884491 0.12827253 0.08272883 0.16846733 0.17658736 0.19612296 0.076649286 0.078409
0.1526505 0.04120974 0.098126195 0.15826237 0.18436894 0.114824235 0.09309038 0.09851563
0.10256624 0.17446032 0.07027323 0.13689482 0.16756393 0.13799699 0.14242975 0.120362304
0.112352274 0.08084512 0.043256555 0.0023391377 0.109578624 0.043589707 0.06380268 0.13443623
0.086509444 0.20090868 0.1779977 0.044362146 0.14897482 0.09494727 0.19940484 0.14368802
0.08826656 0.15471636 0.053988803 0.085940935 0.13956833 0.12084093 0.06911611 0.10026764
0.0038873076 0.018959785 0.03632437 0.007265753 0.11646337 0.012249236 0.018364212 0.063948415
0.13487814 0.15521823 0.12027431 0.07437514 0.111514844 0.094374105 0.16430697 0.0588734
0.13998403 0.15051037 0.041417904 0.14911398 0.07683506 0.15374483 0.057087466 0.06883413
0.023263345 0.05815311 0.06592213 0.09863413 0.009868146 0.0023729866 0.073157206 -0.013529812
-0.008483348 -0.02104529 0.13336432 0.13258475 0.060775988 0.12972668 0.149808 0.12840936
