pqc_reup_v1_output/best_model_epoch_14.pth (torch, 61285 bytes, 6 tensors)

reupload_weights f4 [12, 3, 4]
0	0x3e52e153	0.20593767
1	0x3e160fc7	0.14654456
2	0x3e4806c4	0.19533831
3	0xbe5bb804	-0.21456915
4	0x3ec5ad20	0.38608646
5	0x3e21ea9a	0.1581215
6	0x3ec2f141	0.38074687
7	0x3f3f20ba	0.7465931
8	0xbbd1c6d1	-0.0064018746
9	0x3e768de5	0.24077566
10	0x3d28bd87	0.041196372
11	0xbeb09d41	-0.34494975
12	0xbe38625e	-0.18006274
13	0xbe1aa785	-0.15102966
14	0xbc07ba13	-0.00828411
15	0x3e11913d	0.1421556
16	0xbe8915e2	-0.26774508
17	0xbede0090	-0.43359804
18	0xbe14f92a	-0.14548174
19	0xbd9cc315	-0.076543964
20	0x3d2bd5b1	0.04195184
21	0x3e4ad417	0.19807468
22	0x3deebba7	0.116568856
23	0x3e2eccb5	0.17070277
24	0x3cf93a3d	0.030423278
25	0x3db186e7	0.08668309
26	0x3d7f0996	0.062265
27	0x3d726b68	0.05918446
28	0x3f46b319	0.7761703
29	0x3f02cc1c	0.51092696
30	0x3ee6edb8	0.4510324
31	0x3f21472a	0.6299921
32	0xbe3b38f1	-0.1828344
33	0xbca21b5f	-0.019788442
34	0x3deb494d	0.114885904
35	0x3e3f8b48	0.18705475
36	0x3cfc0980	0.030766249
37	0xbe0ed961	-0.13950111
38	0x3d7daad2	0.061930485
39	0xbe6c4490	-0.2307303
40	0x3e85ffaa	0.2617162
41	0x3f1d3c08	0.61419725
42	0x3e8d871c	0.27642143
43	0xbe336abb	-0.17521183
44	0x3f027be5	0.509703
45	0x3f5389a0	0.82631874
46	0x3efea9a7	0.4973881
47	0xba155968	-0.00056972215
48	0xbd240b47	-0.040049817
49	0x3cc785be	0.024355765
50	0x3e081e29	0.13292755
51	0x3e4517a6	0.19247302
52	0x3e17458c	0.14772624
53	0x3e852cf3	0.26010856
54	0xbe93ad56	-0.28843182
55	0xbe944c3b	-0.2896441
56	0xbd0dc7df	-0.03461444
57	0x3ddfb9f0	0.10924137
58	0xbe7b2272	-0.24524859
59	0xbe20861b	-0.15676157
60	0xbd4ffa1e	-0.05077564
61	0x3dce19ea	0.100635365
62	0xbe512f74	-0.20428258
63	0xbb00b939	-0.0019641651
64	0x3e63b919	0.22238578
65	0xbc1cc5ce	-0.009568645
66	0x3dfdc476	0.123909876
67	0x3d4404df	0.047856208
68	0x3d1f4401	0.038883213
69	0xbe0e1370	-0.13874602
70	0xbe64c88c	-0.22342128
71	0x3de9ec7f	0.11422061
72	0xbd14013a	-0.036133982
73	0xbb9a544a	-0.004709755
74	0xbd3e9971	-0.046533052
75	0x3de0ab73	0.10970201
76	0xbc919687	-0.017771972
77	0xbe3d9413	-0.18513517
78	0xbea7b9aa	-0.32758838
79	0xbda0fd84	-0.07860854
80	0x3e7dcc62	0.24784997
81	0x3e0bbf7a	0.13647261
82	0x3d3a0621	0.045416
83	0x3df7205d	0.1206672
84	0x3e255aea	0.16147962
85	0x3de4796e	0.111559734
86	0x3dd55105	0.10415844
87	0xbad2b5fd	-0.0016075965
88	0xbe80e4b3	-0.25174484
89	0xbeaf6245	-0.3425466
90	0x3e0036b7	0.12520872
91	0x3e6da6c8	0.23208153
92	0xbed5477c	-0.416561
93	0xbe92144d	-0.28531113
94	0x3ed6f786	0.4198572
95	0x3e8ba2d4	0.27272666
96	0xbe8af736	-0.27141732
97	0x3dfea634	0.124340445
98	0xbbd7a1b4	-0.006580556
99	0x3d4124dd	0.047154296
100	0xbe0e73b4	-0.13911325
101	0x3f0e48de	0.55579937
102	0x3f2b060d	0.6680611
103	0x3ed8cb40	0.42342567
104	0xbef5e606	-0.48027056
105	0x3dec2585	0.11530594
106	0x3e68be1c	0.22728771
107	0x3d10f056	0.035385452
108	0xbd29829e	-0.041384332
109	0x3deb284a	0.11482294
110	0x3cbc6856	0.02299897
111	0x3e1d82ae	0.15381882
112	0xbe35ef78	-0.17767131
113	0xbdb657ab	-0.0890344
114	0xbdb47322	-0.08811022
115	0xbf4bca56	-0.79605615
116	0x3e9615eb	0.29313597
117	0x3e5d8d59	0.21635951
118	0x3e001d7d	0.12511249
119	0x3e2fb12d	0.17157431
120	0xbdc3d950	-0.095629334
121	0xbe0ea476	-0.13929924
122	0x3d20f520	0.03929627
123	0x3d64fe43	0.055906545
124	0xbd74c15b	-0.05975471
125	0xbddae999	-0.106890865
126	0x3eadd8fd	0.3395461
127	0x3e86acaa	0.26303607
128	0xbf0b353e	-0.54378116
129	0xbf2c0646	-0.6719707
130	0xbefb9b4d	-0.49141923
131	0xbf0ac196	-0.5420164
132	0xbd91f1a7	-0.0712617
133	0x3e8616d8	0.26189303
134	0x3dd79a3d	0.105274655
135	0x3dc25192	0.094882146
136	0xbf2ad3da	-0.6672951
137	0xbe5bb7e3	-0.21456866
138	0xbf01a897	-0.5064787
139	0xbe54bac5	-0.20774372
140	0xbf32ac1e	-0.6979388
141	0x3d95f5a9	0.073222466
142	0xbe327572	-0.17427614
143	0xbcb0892e	-0.021549787

reupload_bias f4 [12, 3]
0	0xbeeb776a	-0.45989543
1	0x3f2332df	0.637495
2	0xbdbd6ba5	-0.09249047
3	0x3edb071e	0.42778867
4	0xbf031762	-0.51207554
5	0x3c436fad	0.011928481
6	0xbe9e4ea0	-0.3091936
7	0x3f65ed54	0.8981526
8	0x3d3c88ff	0.046029087
9	0x3eb1476f	0.34624812
10	0x3e28ddf8	0.16490924
11	0x3f3f1f10	0.7465677
12	0xbebb7f09	-0.36620358
13	0x3d9bb1b1	0.07602251
14	0xbe573c66	-0.21019134
15	0x3e2dad3e	0.16960618
16	0xbe97d234	-0.2965256
17	0xbe6f82de	-0.23389766
18	0xbdfebb6c	-0.12438092
19	0xbe8dbc8d	-0.27682915
20	0xbe0f6fa6	-0.14007434
21	0xbf07baf1	-0.53019625
22	0xbe93390c	-0.2875446
23	0x3bfcf104	0.007719161
24	0x3ee260e1	0.44214538
25	0x3f157c7f	0.5839309
26	0xbf09f047	-0.5388226
27	0xbecee3b9	-0.40408114
28	0xbefb08fd	-0.49030295
29	0x3dddeede	0.10836576
30	0x3e5cfa6c	0.21579903
31	0x3e1f183f	0.15536593
32	0xbf7ab59d	-0.9793337
33	0xbeda074d	-0.42583695
34	0xbf0f3d7a	-0.5595318
35	0xbe0cbd50	-0.13744092

mlr.0.weight f4 [64, 12]
0	0x3b8a086f	0.004212431
1	0xbc8d331b	-0.017236283
2	0x3d8e21fc	0.06940076
3	0x3da5ad0d	0.080896474
4	0xbe863deb	-0.26219115
5	0xbdda2d76	-0.10653202
6	0x3e78efb0	0.24310184
7	0x3de64eb8	0.11245483
8	0xbc6b3dd1	-0.014358
9	0xbe323890	-0.1740439
10	0xbe34da04	-0.17661291
11	0xbe846555	-0.2585856
12	0xbdeec23d	-0.11658142
13	0x3dc3fd53	0.09569802
14	0x3e2615f2	0.16219309
15	0x3e14f6ba	0.14547244
16	0xbe881436	-0.2657792
17	0xbe32b38d	-0.17451306
18	0xbd884323	-0.0665343
19	0x3e9a4e17	0.30137703
20	0x3d09fa6e	0.033686094
21	0xbd9de89a	-0.07710381
22	0x3dc67d05	0.09691814
23	0xbdb8c000	-0.09020996
24	0xbe4973e1	-0.1967311
25	0x3e4e9bcc	0.2017662
26	0xbe1083d7	-0.14112793
27	0xbd88630f	-0.06659519
28	0xbe9824f3	-0.2971569
29	0x3e3cb045	0.18426616
30	0x3e55d15c	0.20880646
31	0x3dc5716a	0.09640773
32	0xbe57f0b7	-0.21087919
33	0xbe966b50	-0.29378748
34	0xbe7ad965	-0.24496992
35	0x3e534d5e	0.20634982
36	0x3e0debbe	0.1385946
37	0x3e78c064	0.24292141
38	0x3e1adb91	0.1512282
39	0x3d95a139	0.073061414
40	0xbb394397	-0.0028269046
41	0xbe60cee1	-0.21953918
42	0xbe7d43c4	-0.24732882
43	0xbe8a3eff	-0.27001187
44	0x3df2047c	0.118172616
45	0xbe1121bc	-0.14173025
46	0xbd6df6b7	-0.058096614
47	0xbe2a1f0c	-0.16613406
48	0xbd5776ac	-0.05260341
49	0xbe500e52	-0.20317963
50	0xbe4126e0	-0.18862486
51	0x3dc41c12	0.095756665
52	0xbdafb459	-0.085793205
53	0x3e367d1c	0.17821163
54	0xbdbdaa0e	-0.09260951
55	0xbe58d84d	-0.21176262
56	0xbd509fad	-0.05093353
57	0xbe0f4aff	-0.13993452
58	0xbdb4dfec	-0.08831772
59	0xbe8cb4e0	-0.27481747
60	0x3e2d6ce9	0.16936077
61	0xbe64fc78	-0.22361934
62	0x3e1eeda1	0.15520336
63	0x3dc43d2d	0.09581981
64	0x3e58115a	0.21100369
65	0xbe735960	-0.23764563
66	0x3e640d42	0.22270682
67	0xbe2b14aa	-0.16707101
68	0x3dd3a8c1	0.10334922
69	0x3e84d2ce	0.2594208
70	0xbc69115f	-0.014225333
71	0xbcf2e8da	-0.029652048
72	0xbbd8edeb	-0.006620159
73	0xbe908be8	-0.2823174
74	0x3e52ea9d	0.2059731
75	0xbec17ea0	-0.3779192
76	0x3e5de1bc	0.21668142
77	0x3e40e5fa	0.18837729
78	0x3eb3506b	0.35022292
79	0xbe2835d7	-0.16426788
80	0xbe6530a8	-0.22381842
81	0x3d2bcb72	0.041942067
82	0x3e89201e	0.26782316
83	0xbeba01ca	-0.3632949
84	0xbd8631bb	-0.06552454
85	0xbe313377	-0.17304789
86	0xbcced62a	-0.025248606
87	0xbe117ffd	-0.1420898
88	0xbdf1aa87	-0.11800104
89	0xbdbbaf0d	-0.09164248
90	0xbe8c74de	-0.27432913
91	0x3e728b75	0.23686011
92	0x3e77d042	0.24200538
93	0xbd397beb	-0.045284193
94	0xbd06a7da	-0.03287492
95	0xbdf14881	-0.11781407
96	0xbe857964	-0.26069176
97	0xbe8fd516	-0.2809226
98	0x3ddbba19	0.10728855
99	0xbe224cc5	-0.15849598
100	0xbe3e095d	-0.1855826
101	0xbcb882e7	-0.022523357
102	0xbdc4e0e0	-0.09613204
103	0xbdbf4484	-0.0933924
104	0x3c17f82b	0.009275476
105	0xbd7acdf8	-0.061231583
106	0xbdcb8f4f	-0.09939443
107	0xbe0d8960	-0.13821936
108	0xbe78f6d9	-0.24312915
109	0x3e7e9933	0.24863128
110	0xbe05e46f	-0.13075422
111	0x3dc157db	0.09440585
112	0xbddd310c	-0.108003706
113	0x3cfcc0e6	0.0308537
114	0x3e82182c	0.25409067
115	0x3e238502	0.15968707
116	0xbe80da35	-0.2516648
117	0x3e00e565	0.12587507
118	0x3e837c73	0.25680885
119	0x3dce0a37	0.10060542
120	0x3e3fa33e	0.18714616
121	0x3e9fa35f	0.3117933
122	0xbd810a8c	-0.0630084
123	0x3de3f055	0.11129824
124	0xbe5121f2	-0.20423105
125	0xbd124adb	-0.03571592
126	0x3e45c4b4	0.19313318
127	0x3e581ae2	0.21104005
128	0xbe30990b	-0.17245881
129	0xbe57cc83	-0.21074109
130	0xbe667fca	-0.22509685
131	0xbe642ad3	-0.22281961
132	0xbe64195c	-0.22275299
133	0xbd923431	-0.07138861
134	0x3e477ef6	0.19482026
135	0x3d45ea3d	0.04831909
136	0xbe60d667	-0.21956788
137	0xbe6d23db	-0.23158209
138	0x3e130e2b	0.14360873
139	0xbe5be1c8	-0.21472847
140	0xbd11966a	-0.035543837
141	0x3e0dcd7e	0.1384792
142	0xbe08cf0d	-0.13360234
143	0xbd00ee24	-0.03147711
144	0xbccdd859	-0.025127577
145	0xbd8bdea2	-0.06829573
146	0xbe15e162	-0.14636758
147	0xbe83c18e	-0.25733608
148	0xbe6ef3f9	-0.23335256
149	0xbe1e48c5	-0.15457447
150	0x3e8ec09f	0.27881333
151	0xbe0ec7e0	-0.13943434
152	0xbe468183	-0.19385342
153	0x3d8f4e19	0.06997318
154	0x3da2f152	0.079561844
155	0x3e21f6c5	0.15816791
156	0x3e82956d	0.25504628
157	0x3e59c03d	0.2126474
158	0xbe894f78	-0.26818442
159	0x3dc341ac	0.0953401
160	0x3e507103	0.2035561
161	0x3cb013d0	0.021493822
162	0xbe1eb4bf	-0.15498637
163	0x3eb88aa3	0.3604327
164	0xbd860ead	-0.06545768
165	0xbde8f12b	-0.11374124
166	0xbe790760	-0.2431922
167	0x3dca0fdf	0.098663084
168	0x3d33b526	0.04387393
169	0x3dc114dc	0.09427807
170	0x3c8ac85a	0.016941238
171	0xbe26bc4e	-0.1628277
172	0xbe971d3a	-0.29514486
173	0x3cca1a11	0.024670633
174	0x3e5f226f	0.21790479
175	0x3e3e1b01	0.18564989
176	0xbe4d3bd0	-0.20042348
177	0xbd1f99c1	-0.03896499
178	0xbea0cb96	-0.31405324
179	0xbe1445cf	-0.14479755
180	0x3d2845ca	0.04108218
181	0x3e0f51dd	0.13996072
182	0x3e55ce0c	0.20879382
183	0xbe8bd018	-0.273072
184	0x3e2e6e6e	0.17034313
185	0xbe6236c8	-0.2209121
186	0x3d9dbb7b	0.07701775
187	0x3e805049	0.25061253
188	0xbc117294	-0.008877415
189	0x3e7eb70c	0.24874514
190	0xbe8999ab	-0.26875052
191	0xbdcc27b1	-0.09968508
192	0x3e5963f0	0.2122953
193	0xbdcf6224	-0.10126141
194	0xbc08d182	-0.008350732
195	0xbe4db70c	-0.20089358
196	0x3e69a5a6	0.22817096
197	0x3de421f4	0.111392885
198	0x3e199440	0.14997959
199	0xbe7d9f7e	-0.24767873
200	0xbe678f33	-0.2261322
201	0x3be7b8af	0.0070715765
202	0x3e2b7112	0.16742352
203	0xbe566526	-0.20937023
204	0xbda56b12	-0.08077063
205	0x3e47a415	0.19496186
206	0x3cbc61a2	0.022995774
207	0x3c5564e2	0.013024541
208	0xbd917f0c	-0.071043104
209	0xbe85d901	-0.26142123
210	0xbe8af8bc	-0.27142894
211	0xbe0d4d87	-0.13799106
212	0xbe1642f2	-0.14673975
213	0x3db8314c	0.08993778
214	0xbdac1b4b	-0.08403643
215	0xbde74b0a	-0.112936094
216	0x3ea7d343	0.32778367
217	0x3dff4c71	0.12465752
218	0x3e7bee8a	0.24602714
219	0xbdf7d5d9	-0.12101335
220	0xbda3558d	-0.07975302
221	0x3e07c08b	0.13257043
222	0xbe1a2b46	-0.1505557
223	0xbe2093da	-0.15681401
224	0x3cd702f9	0.026246535
225	0xbd949b24	-0.07256153
226	0xbe22fd61	-0.15916969
227	0x3e54264c	0.20717734
228	0x3e831933	0.25605163
229	0x3d7157e3	0.058921706
230	0xbd371e71	-0.044706766
231	0xbe810ec0	-0.25206566
232	0xbdbeadea	-0.09310515
233	0x3db01e1b	0.08599492
234	0x3e110c3c	0.14164823
235	0xbbf16813	-0.007367143
236	0xbdc034e4	-0.09385088
237	0x3e37aba9	0.17936577
238	0xbe5cba31	-0.21555401
239	0x3e5c9d82	0.2154446
240	0xbd34bdab	-0.044126194
241	0x3da439c3	0.0801883
242	0xbb53845b	-0.0032274935
243	0x3dfdfaf3	0.124013804
244	0xbcc5f6dc	-0.024165563
245	0x3e92bbb9	0.28658846
246	0x3d3b57bb	0.045737963
247	0x3ea94936	0.33063668
248	0x3eb366be	0.35039324
249	0xbd7919bd	-0.06081556
250	0xbe1cc066	-0.15307769
251	0x3ead231f	0.33815858
252	0x3e67a38e	0.22620985
253	0xbe61b506	-0.22041711
254	0xbcb6cf13	-0.022315538
255	0xbe91c049	-0.28467014

mlr.0.bias f4 [64]
0	0xbda2912d	-0.07937846
1	0x3e46ad33	0.19402008
2	0x3da50b81	0.08058835
3	0xbd4e2dc2	-0.050336607
4	0x3d47be5c	0.048765525
5	0xbe0ff467	-0.14058076
6	0x3dbbfc3e	0.09178971
7	0x3de9dc28	0.114189446
8	0x3d9ec429	0.07752258
9	0xbe1c6292	-0.15271977
10	0x3e6748bc	0.2258634
11	0xbd2ab479	-0.04167602
12	0xbde62aa7	-0.11238604
13	0x3e458b22	0.19291356
14	0x3eb7e1af	0.3591437
15	0x3e5aa4fa	0.21351996
16	0x3da0df77	0.078551225
17	0xbdc989ea	-0.09840758
18	0x3e09bfa9	0.13452019
19	0x3e52eabd	0.20597358
20	0xbe8ae435	-0.27127233
21	0xbd127c4e	-0.035763077
22	0xbe6c5b4f	-0.23081706
23	0x3d5c5ab1	0.053797428
24	0x3d91baa3	0.07115676
25	0xbd8633bc	-0.06552836
26	0xbcc5d5ab	-0.024149736
27	0x3d2a12e3	0.041521918
28	0xbd8c9652	-0.06864609
29	0xbe8861fd	-0.2663726
30	0x3e236821	0.15957691
31	0xbe14c80d	-0.14529438
32	0xbdc86924	-0.09785679
33	0x3cdf10c7	0.02722968
34	0xbce96cf1	-0.02849433
35	0xbe8b08f3	-0.27155265
36	0x3e079f70	0.13244414
37	0xbe0645b8	-0.13112533
38	0xbe22bd3b	-0.15892498
39	0x3d0bf56b	0.034169596
40	0xbe1a43a0	-0.1506486
41	0xbe51811c	-0.20459408
42	0xbdc73501	-0.097269066
43	0xbe078835	-0.13235553
44	0xbdf6e8f9	-0.12056155
45	0xbdbd246e	-0.09235464
46	0xbc0d0591	-0.008607284
47	0xbe6f3520	-0.2336011
48	0xbe32ec41	-0.17472936
49	0x3b8a066a	0.0042121904
50	0x3d246f9e	0.04014551
51	0x3d98204e	0.07428037
52	0xbe4d736c	-0.20063561
53	0x3dbcb61c	0.09214422
54	0x3dd458af	0.103684776
55	0x3d9bf145	0.07614378
56	0xbe9feacc	-0.31233823
57	0xbe27bd78	-0.1638087
58	0xbe918c42	-0.2842732
59	0xbe3ea800	-0.18618774
60	0x3e0c3122	0.13690618
61	0xbd308e8d	-0.043104697
62	0x3dfb1799	0.1226036
63	0xbe2d8562	-0.16945413

mlr.2.weight f4 [208, 64]
0	0x3c9b9b60	0.018994987
1	0xbd3d450f	-0.046208438
2	0x3d4763a2	0.048679
3	0xbd5ff024	-0.054672375
4	0xbd006380	-0.03134489
5	0xbde1b00a	-0.11019905
6	0xbead54a3	-0.33853635
7	0x3df31122	0.11868502
8	0x3d78837c	0.06067227
9	0xbbdc22c8	-0.0067180134
10	0x3cea537f	0.028604267
11	0xbc608f60	-0.013706058
12	0xbdce1958	-0.10063428
13	0x3e2d89cd	0.16947098
14	0xbcc52540	-0.024065614
15	0x3d6c37d3	0.057670426
16	0xbe76d730	-0.24105525
17	0xbd6f9318	-0.05848989
18	0x3d2d02e5	0.04223909
19	0x3d94329f	0.07236218
20	0x3e01bb14	0.12669021
21	0xbd76c180	-0.06024313
22	0x3e07f4ed	0.13277026
23	0xbc96bcc0	-0.01840055
24	0xbd2b81cf	-0.041871842
25	0xbbcfed47	-0.0063454243
26	0x3dfc0300	0.1230526
27	0x3d03cc70	0.03217739
28	0xbc8de6bd	-0.017321939
29	0xbbc8465b	-0.0061119027
30	0xbbf96e4f	-0.0076120268
31	0xbdd79c4a	-0.10527857
32	0xbd42d627	-0.047567513
33	0x3d95d588	0.073161185
34	0x3e099a40	0.13437748
35	0x3df44d08	0.11928755
36	0xbdb8d136	-0.09024279
37	0x3d8a7604	0.06760791
38	0xbd8d32f4	-0.06894484
39	0x3df65ac3	0.1202903
40	0x3db8b7c8	0.090194285
41	0x3e48a108	0.19592679
42	0x3db85548	0.09000641
43	0x3de55478	0.11197752
44	0x3b1f7240	0.0024329573
45	0x3dd1ca62	0.102436796
46	0x3c913ec9	0.017730134
47	0x3d5ef150	0.054429352
48	0xbd248ecc	-0.040175244
49	0xbb098e00	-0.002098918
50	0xbdded126	-0.10879736
51	0x3b3c447b	0.002872734
52	0xbd6090d3	-0.054825615
53	0xbd2cb550	-0.0421651
54	0xbd86785d	-0.06565926
55	0xbda963a0	-0.08270955
56	0x3e0574c5	0.13032825
57	0x3df47cc3	0.11937859
58	0x3e0ca76d	0.13735743
59	0x3e06a4ab	0.13148753
60	0xbc27a808	-0.010232933
61	0xbdfd2fbe	-0.12362622
62	0x3d42356c	0.04741423
63	0x3d8f70bc	0.07003924
64	0xbddbc772	-0.107314005
65	0x3dca3018	0.098724544
66	0x3dce0081	0.1005869
67	0x3bf81f20	0.0075720698
68	0xbd9a3abe	-0.075307354
69	0x3dd7af2b	0.105314575
70	0xbeb186ac	-0.3467306
71	0x3da98604	0.082775146
72	0xbdad210c	-0.08453569
73	0x3e1adc7a	0.15123168
74	0xbcce1e2c	-0.025160871
75	0x3dfd4f80	0.12368679
76	0xbd58ef2c	-0.052962467
77	0x3e392702	0.18081287
78	0x3cc91cfc	0.024549954
79	0x3da86938	0.08223194
80	0xbe8676eb	-0.26262602
81	0x3d524be8	0.05134192
82	0xba72518f	-0.00092437206
83	0xbd88cb17	-0.06679361
84	0x3daca9ee	0.08430849
85	0x3dc895fc	0.09794232
86	0xbb0daa1b	-0.0021616283
87	0x3d20ee58	0.039289802
88	0x3c07f405	0.008297925
89	0x3e2f8cd3	0.17143564
90	0x3d9936a8	0.07481128
91	0x3db87f2e	0.090086326
92	0xbd7b4452	-0.061344452
93	0xbd211af4	-0.039332345
94	0x3d4ec14f	0.050477322
95	0xbd962f34	-0.07333222
96	0x3e2ed8ff	0.17074965
97	0xbdf60282	-0.12012197
98	0x3dd95263	0.10611417
99	0x3dff35c2	0.12461425
100	0x3d80364a	0.06260355
101	0x3d2e94c4	0.042622343
102	0xbde4d724	-0.11173847
103	0x3e3e6e9b	0.1859688
104	0xbcaf2718	-0.021380946
105	0x3c069f57	0.0082167005
106	0x3dfcb6b4	0.12339535
107	0x3a3da3fa	0.0007234212
108	0xbc10e420	-0.008843452
109	0x3e3b4428	0.18287718
110	0xba07f748	-0.0005186689
111	0xbdb51e10	-0.088436246
112	0x3ca68528	0.020327166
113	0xbc891100	-0.016731739
114	0x3cebdeb8	0.028792724
115	0xbd56ab52	-0.052409478
116	0x3d1104d7	0.035405006
117	0xbd63b78c	-0.055594966
118	0xbd12b15c	-0.035813674
119	0xbd94eb41	-0.072714336
120	0x3e2ec7c4	0.17068392
121	0x3da32a23	0.07967021
122	0xbd879a93	-0.066212796
123	0x3e3d41d0	0.18482137
124	0x3e00f2bb	0.12592594
125	0x3cbe0448	0.0231954
126	0xbd964e92	-0.07339205
127	0x3c9a6c80	0.018850565
128	0x3df6aa92	0.120442525
129	0x3e12e37e	0.14344594
130	0xbdd9fadc	-0.10643551
131	0x3de9aea6	0.11410265
132	0x3c1ebd70	0.00968872
133	0x3d81f3b4	0.06345311
134	0xbe8648b0	-0.2622733
135	0x3dda3e0a	0.10656364
136	0xbdc78f98	-0.09744185
137	0x3e360c2b	0.17778079
138	0xbc797b19	-0.015227103
139	0x3c1987d0	0.009370759
140	0xbdb2e22c	-0.08734545
141	0x3da7a8f9	0.08186526
142	0x3e0cc79d	0.13748021
143	0x3d1fd3d3	0.03902037
144	0xbe7031b7	-0.23456465
145	0x3c2186e0	0.009858817
146	0x3e37c843	0.17947488
147	0x3e029eb4	0.12755853
148	0x3e3f93c3	0.1870871
149	0x3d4ced3c	0.05003093
150	0x3def50b0	0.11685312
151	0xbbbd06c0	-0.005768627
152	0x3d88341b	0.06650563
153	0x3dcfe4c6	0.10151057
154	0xbddf43f2	-0.109016314
155	0xbd5186b9	-0.051153872
156	0x3c8d8ef9	0.017280089
157	0x3c2320a3	0.009956512
158	0x3d807ff1	0.06274403
159	0xbceaf740	-0.028682351
160	0x3daa428e	0.083134755
161	0x3da68ebe	0.08132695
162	0x3c14ea19	0.009089016
163	0x3dcd0534	0.10010758
164	0x3dca20b8	0.09869522
165	0xbdc47ac2	-0.09593727
166	0xbdb44678	-0.08802503
167	0xbd101646	-0.03517749
168	0xbd8c4b0e	-0.06850253
169	0x3d85df8d	0.065367796
170	0xbc1a26e0	-0.009408683
171	0x3c93891b	0.018009713
172	0xbd8157f8	-0.06315607
173	0x3cd2d3c0	0.025735736
174	0x3d1fbac5	0.038996477
175	0x3dfb2552	0.12262978
176	0xbd3dc310	-0.046328604
177	0xbdb74bd6	-0.089500114
178	0x3d54d650	0.051962197
179	0x3d406885	0.046974678
180	0x3df4be00	0.11950302
181	0x3d9ff508	0.07810408
182	0x3e0bf5bc	0.13667959
183	0xbd3dd417	-0.046344843
184	0x3e148d6f	0.14507078
185	0x3e22d0d6	0.15899977
186	0xbd0eb1c5	-0.034837503
187	0x3e417b80	0.18894768
188	0x3e3cc193	0.18433218
189	0x3ab36c80	0.0013688952
190	0x3d76dcb0	0.060269058
191	0xbd330198	-0.04370269
192	0xbddf4770	-0.109022975
193	0x3d7a3056	0.061081253
194	0x3d4a08f2	0.049324937
195	0xbda74fa4	-0.08169487
196	0x3d7851e0	0.060624957
197	0xbde5868c	-0.112073034
198	0xbed127ca	-0.4085067
199	0x3df7e86e	0.12104879
200	0x3d0b6574	0.0340323
201	0xbc242704	-0.010019068
202	0x3d9f0037	0.07763713
203	0x3cae8178	0.02130197
204	0x3d0b38f0	0.033989847
205	0x3df88ade	0.12135862
206	0xbd300092	-0.042969294
207	0xbcc1a7dc	-0.023639612
208	0xbe961cfa	-0.29318982
209	0x3d0ba01c	0.03408824
210	0x3d1859d5	0.037195046
211	0x3e0044a9	0.12526192
212	0x3d6a0f4a	0.057143487
213	0xbb9529a0	-0.004552081
214	0x3d401181	0.046891693
215	0xbd07fb48	-0.033198625
216	0x3df9134c	0.12161884
217	0x3d945ea1	0.072446115
218	0xbdec9a56	-0.11552875
219	0x3ca42ae0	0.020039976
220	0xbd66fce1	-0.056393508
221	0x3d82c3a1	0.063849695
222	0xbae857f6	-0.001772641
223	0xbdfdef66	-0.12399177
224	0x3d2b78ab	0.041863125
225	0xbc4427f0	-0.0119724125
226	0xbc3e5a90	-0.0116182715
227	0x3deb3532	0.114847556
228	0xbcdf6f98	-0.027274892
229	0x3da47574	0.08030215
230	0x3d20e161	0.039277438
231	0xbd573881	-0.05254412
232	0x3cf0a030	0.029373258
233	0x3e632fd7	0.22186218
234	0xbda77324	-0.08176258
235	0xbd282366	-0.041049384
236	0x3dfa95da	0.12235613
237	0x3e178d22	0.14799932
238	0x3a1fc42d	0.0006094601
239	0x3d9a0bf6	0.075218126
240	0xbc8300a0	-0.015991509
241	0xbdfc65de	-0.12324117
242	0x3c19df90	0.00939168
243	0x3da59f79	0.080870576
244	0xbc9f1526	-0.019419264
245	0x3d321dc8	0.043485433
246	0xbdbe456b	-0.09290584
247	0x3df083db	0.117438994
248	0x3e80929f	0.25111863
249	0x3de486c4	0.11158517
250	0x3d6773df	0.056506988
251	0x3ded06b7	0.115735464
252	0xbcca0f91	-0.024665626
253	0xbcffded0	-0.031234175
254	0xbc438480	-0.011933446
255	0xbd8e75e0	-0.069560766

mlr.2.bias f4 [208]
0	0x3d8673aa	0.0656503
1	0x3c6434e4	0.013928626
2	0xbd79fffb	-0.061035138
3	0x3d79a25d	0.060945857
4	0x3dd61a49	0.10454232
5	0x3df0bdf6	0.11754982
6	0x3e066b55	0.13126881
7	0xbcd3c634	-0.025851347
8	0x3dab1c6d	0.08355031
9	0x3dd6edcb	0.10494574
10	0x3da1c225	0.07898358
11	0xbcfb18a2	-0.030651394
12	0x3de2cc42	0.11074115
13	0xbd81e815	-0.06343094
14	0xbd519ab1	-0.051172916
15	0x3da820b6	0.08209364
16	0x3da75ad8	0.08171624
17	0x3d4e025a	0.05029521
18	0xba9c2672	-0.0011913313
19	0xbd64efef	-0.05589288
20	0x3d9827ef	0.07429492
21	0xbce16df7	-0.027518256
22	0x3d73177f	0.05934858
23	0x3c46d800	0.012136459
24	0x3d6eb250	0.05827552
25	0x3d53527a	0.051592328
26	0xbbcf9da8	-0.0063359328
27	0x3bdf68d8	0.0068179183
28	0x3bd716ef	0.006564013
29	0xbb574f37	-0.0032853612
30	0xbce88a9f	-0.028386412
31	0x3d8641d8	0.065555274
32	0x3d9e9a63	0.07744291
33	0xbd92f887	-0.07176309
34	0xbc39e5d7	-0.011346302
35	0xbd7c72e5	-0.06163301
36	0x3c7cc1e8	0.01542709
37	0xbc680e7f	-0.014163612
38	0x3dd7699f	0.105181925
39	0xbd93f585	-0.072245635
40	0xbcd32c25	-0.025777886
41	0x3e01c71c	0.1267361
42	0x3c84b322	0.016198698
43	0x3dcc74e5	0.09983233
44	0xbcd5b240	-0.026085973
45	0x3db8fd7b	0.090327226
46	0xbd62e574	-0.055394605
47	0xbcd2ddc1	-0.025740506
48	0xbd7ce76f	-0.06174415
49	0x3de055bf	0.10953855
50	0x3d7bdea3	0.06149162
51	0xbb2ebc67	-0.002666259
52	0x3d208dac	0.03919761
53	0x3d5195b2	0.05116815
54	0xbd37af3d	-0.044844855
55	0xbcef549a	-0.029215146
56	0x3d1b590d	0.037926722
57	0x3db23619	0.087017246
58	0x3d6ea851	0.058265988
59	0x3dd66aba	0.10469575
60	0x3cf82c82	0.03029466
61	0x3db194d2	0.08670963
62	0x3d20cf2a	0.039260067
63	0x3df2c995	0.11854855
64	0x3d442b9e	0.04789316
65	0xbd284ad4	-0.041086987
66	0x3d8b9caa	0.06816991
67	0xbca5e62f	-0.020251362
68	0xbd59f1ce	-0.05320912
69	0xbd57d1bd	-0.052690256
70	0x3ddf8c6a	0.10915454
71	0x3d19e006	0.03756716
72	0x3d8d5431	0.06900824
73	0xbccf258c	-0.025286458
74	0xbd9db739	-0.077009626
75	0x3cf94525	0.030428478
76	0xbd576a3e	-0.052591555
77	0x3d5b06d6	0.053473316
78	0x3ca17370	0.019708365
79	0x3d6e5229	0.058183823
80	0x3dd9ac19	0.10628528
81	0xbd36ded7	-0.04464611
82	0x3daf60a3	0.08563354
83	0x3b8d1188	0.0043050684
84	0x3bbccbb2	0.005761587
85	0xbd15d9e6	-0.036584757
86	0x3b01049e	0.001968659
87	0x3d8eca0b	0.069721304
88	0x3d925435	0.071449675
89	0xbd54478a	-0.051826037
90	0x3d4ec0fb	0.05047701
91	0x3d423d39	0.047421668
92	0x3db4d7f2	0.08830251
93	0x3ca26567	0.019823743
94	0x3e06ab85	0.13151367
95	0x3df9aced	0.12191186
96	0xbd6bdc2f	-0.05758303
97	0x3da25bc0	0.07927656
98	0x3d8ff148	0.070284426
99	0xbb1d5c65	-0.002401137
100	0xbd167d91	-0.036740843
101	0xbd724cc0	-0.059155226
102	0x3d7f165c	0.062277183
103	0xbc596a33	-0.013269949
104	0x3d887c36	0.06664316
105	0x3d16f8f3	0.03685851
106	0x3bfe0470	0.007751994
107	0x3dec7625	0.11545972
108	0xbcf143c0	-0.029451251
109	0x3c1861b0	0.009300634
110	0x3e05cd45	0.13066585
111	0x3dcee7ce	0.10102807
112	0x3e1c4f96	0.15264735
113	0x3dd77753	0.10520806
114	0xbd211e03	-0.039335262
115	0x3dc379c1	0.09544707
116	0x3d40d18e	0.047074847
117	0x3ddd7265	0.10812835
118	0xbb817658	-0.0039508753
119	0x3dbb0d50	0.091333985
120	0xbc9b0f6f	-0.018928258
121	0x3d74bfc8	0.05975321
122	0xbd3ec8a1	-0.046578053
123	0x3d79e552	0.061009713
124	0x3dac48d9	0.08412332
125	0x3dc7fa61	0.09764553
126	0xbcdd7579	-0.027033554
127	0xbd8271ac	-0.063693374
128	0x3d8d8c4e	0.069115266
129	0xbcfce6f4	-0.030871846
130	0xbd46ca9e	-0.048533075
131	0x3d92e043	0.07171681
132	0x3de9f3fe	0.11423491
133	0xbd5228e5	-0.05130853
134	0x3b880921	0.004151479
135	0xbcccb1c5	-0.02498711
136	0x3c515f97	0.012779138
137	0x3dc6acf1	0.09700955
138	0xbd55aedf	-0.052168723
139	0x3df63bca	0.120231226
140	0x3daaf53f	0.08347558
141	0x3d39e908	0.04538825
142	0x3dd6cbc3	0.10488083
143	0x3d971d70	0.07378662
144	0x3d77d4df	0.060505744
145	0x3b307077	0.0026922503
146	0xbd0b2b52	-0.03397686
147	0xbd97ac52	-0.07405914
148	0x3d8fda00	0.07024002
149	0x3b0507ca	0.0020298832
150	0xbd8d519c	-0.069003314
151	0xbc47d655	-0.012197097
152	0xbd2ff41f	-0.04295742
153	0x3dc8838f	0.09790718
154	0x3dbcdd83	0.092219375
155	0xbda17231	-0.078831084
156	0x3d8249d2	0.06361736
157	0xbc000d10	-0.007815614
158	0x3ddcbc07	0.10778051
159	0x3d1b75d0	0.03795415
160	0x3c34f740	0.011045277
161	0x3d98534b	0.07437762
162	0xbd35d605	-0.044393558
163	0x3b2191f5	0.0024653648
164	0x3dd59556	0.10428874
165	0x3dd31c97	0.103081875
166	0x3cb86dfd	0.022513384
167	0x3db454e4	0.08805254
168	0xbd84dfa3	-0.06487968
169	0xbd8da852	-0.0691687
170	0x3bbea9e4	0.0058185924
171	0xbdb4fff8	-0.08837885
172	0x3dbd5b88	0.09245974
173	0xbd28cce3	-0.04121102
174	0xbd39b417	-0.045337763
175	0x3d9c63ac	0.076361984
176	0x3c0d8f79	0.008640164
177	0x3d66bcc7	0.056332376
178	0x3d8398d5	0.06425635
179	0xbd584e5d	-0.052809108
180	0x3d3f156a	0.04665128
181	0x3bbd10a2	0.005769805
182	0x3da42d3f	0.080164425
183	0xbcdd2ba8	-0.026998356
184	0x3d2777d0	0.040885746
185	0x3d7bbaf2	0.06145758
186	0xbd71e3ee	-0.05905526
187	0x3d801c23	0.06255367
188	0x3b3092f0	0.002694305
189	0x3dd01ebf	0.10162114
190	0xbc3caf88	-0.011516459
191	0x3c1c34c6	0.009534067
192	0xbd933c6b	-0.07189258
193	0x3c758349	0.014984914
194	0x3dac0953	0.08400216
195	0x3d849b1c	0.06474897
196	0xbd30bc44	-0.043148294
197	0xbd9dc515	-0.07703606
198	0x3da6d51c	0.08146116
199	0xbd38013c	-0.044923052
200	0xbd9788c7	-0.07399135
201	0xbd2a122b	-0.041521233
202	0x3d450441	0.04809976
203	0x3cb48b4e	0.022039082
204	0xbd0f8765	-0.03504123
205	0x3d8bc178	0.068240106
206	0x3df11d5d	0.11773179
207	0x3d36b33d	0.04460453
