pqc_reup_v1_output/best_model_epoch_100.pth (torch, 61297 bytes, 6 tensors)

reupload_weights f4 [12, 3, 4]
00000000: 11e4 8c3e e11a 303e 90c3 ff3d 5512 35be
00000010: 6678 893e 1e18 28be 2d9e 083e 1330 3b3f
00000020: 566c bf3e 13ff d13e 98cd 6cbe d044 2abf
00000030: c4c3 d1bd a19d 2abe 321f 833d 85cb d93d
00000040: d88b 90bc 4ff2 5ebf 8228 1cbf 0d1f cc3d
00000050: 9f9a 2a3d 4c9f df3c 2f3b 37be eef1 993e
00000060: 05a7 2a3e cfb9 2c3e 4cf0 ef3d f53f 343d
00000070: 0953 3f3f 075b 1dbe 361f 853e 4ecf 4bbf
00000080: 6029 9e3e cba8 553e 012e 253f 32d4 70bc
00000090: 4854 eebd 094f 50bd 8b7e 4f3d 4c80 15be
000000a0: 433e f63e f95b 713f bcc3 b03d 4320 19bf
000000b0: ac17 4c3f f039 983f 3b63 433e 9a1c 9cbe
000000c0: 918e 6ebd 06aa 43bd 8fee 333e 5afe b73d
000000d0: 26d5 733f 75b9 643f 8920 70bf 178b 3fbf
000000e0: b075 073f 70fc 203f 4f19 62bf 0392 cebe
000000f0: 6573 69bd d23e e23d acc8 0fbe 6a5e 8abd
00000100: af08 983e 82bd e33d 17bc abbd 0e00 5c3d
00000110: bed4 64be b1ed 89be 7867 40bf 14e8 07be
00000120: 7bec 18bc 1fa3 05be 9b54 6fbe 8d81 e53d
00000130: 0875 08be cb97 2ebe a9fe 12be 8428 953d
00000140: cd72 973e d3c5 963e 125e cb3e 1f49 973e
00000150: 6a32 1b3e 1af2 153e 7611 4c3d a89b aebd
00000160: 1a72 c4be c01b 18bf 8170 683b 3f7d df3e
00000170: 96c4 a5be e130 b0be bc1d 0e3f 6c54 1a3f
00000180: 2312 4dbe 03f7 6e3e 84e0 dd3d aef2 893d
00000190: 0d58 efbd 2a7a 303f 4d53 393f 6416 9a3e
000001a0: 1fb7 35be 4335 083f ce3c b33e e09d c0bd
000001b0: b7e9 a4bc c7fe fe3d ba2a ec3d fcb0 5e3d
000001c0: 09b9 253e c93c b63e 89e1 b03d 0a6e 34bf
000001d0: df81 193f c1bd 013f c47e 6f3e 839a cc3e
000001e0: 5c9d dd3d 9563 13bf 67a0 1abe 315e 533e
000001f0: a10c 633e 0e1d 4a3e 5ab2 553f fda3 183f
00000200: 22df 4bbf 052b 78bf 5772 febe 561f 43bf
00000210: 3b6b 883c ba2a 2f3e 2dee bb3d 52b5 423e
00000220: e4bd a8bf 8a9e 1c3d 69f5 3dbc 43e2 90be
00000230: 30f6 96bf 5471 d93e 1e9b b63e 7a8e 373e
0.2751775 0.17197753 0.124884725 -0.17682774 0.2684967 -0.1641545 0.1334159 0.7312023
0.3738734 0.4101492 -0.23125303 -0.6651125 -0.102424175 -0.16661693 0.064024344 0.106345214
-0.017644808 -0.87088484 -0.6099931 0.0996686 0.041651364 0.027297638 -0.1789367 0.3006739
0.16665275 0.16867755 0.11715755 0.044006307 0.74736077 -0.15366755 0.26000375 -0.79613197
0.30890942 0.2086517 0.6452332 -0.014699029 -0.11637169 -0.050856624 0.05065779 -0.14599723
0.48094377 0.94280964 0.08631083 -0.5981485 0.7972362 1.1892681 0.19080822 -0.3049057
-0.05824143 -0.04776957 0.17571472 0.089840606 0.95247114 0.89345485 -0.93799645 -0.7482161
0.5291395 0.6288519 -0.8831987 -0.40345773 -0.056994814 0.11047138 -0.14041394 -0.06756289
0.29694125 0.1112013 -0.08385485 0.05371099 -0.2234678 -0.26939157 -0.7515788 -0.13272125
-0.009333725 -0.13050507 -0.23372118 0.112063505 -0.13325894 -0.17050092 -0.14354958 0.07283118
0.29579774 0.29447803 0.39720207 0.29547974 0.1515595 0.14643136 0.04982134 -0.08525783
-0.38368303 -0.59417343 0.0035467448 0.43650243 -0.32376546 -0.34412292 0.5551412 0.6028507
-0.2002645 0.23336415 0.108338386 0.067357406 -0.11686716 0.6893641 0.7239273 0.30095208
-0.17745636 0.5320627 0.35007328 -0.09405112 -0.020130975 0.12450939 0.11531587 0.054368004
0.16183867 0.3559325 0.086367674 -0.70480406 0.5996379 0.50680166 0.23388201 0.39961633
0.108210295 -0.57573825 -0.15100251 0.206414 0.22172786 0.19737646 0.8347527 0.59625226
-0.7963735 -0.9694064 -0.4969661 -0.7621969 0.016652694 0.17106143 0.09176288 0.1901448
-1.318295 0.038237132 -0.011594155 -0.28297624 -1.179388 0.42469275 0.3566522 0.17925444

reupload_bias f4 [12, 3]
00000000: 792b 06bf e16d 743e 1932 51be 2562 f13e
00000010: b312 81be 1ae4 c93e 7890 14bf 8463 7e3f
00000020: 2b32 8e3c 384b 083f b8b4 2f3f 5ad0 be3f
00000030: 9ceb cebe cc82 9bbe fbf7 9d3e b9e1 e43e
00000040: 2ef3 e03d 5cae 51be 3ae8 c9bd bc25 3ebe
00000050: 8e1b 1c3c a0e6 30bf 37a2 1dbf 1ccf 03be
00000060: 1019 f73e b42a 233f 3a5a 3dbf 2d70 08bf
00000070: 884d 65bf b47f 1e3f 6af4 3e3e 0845 ee3d
00000080: 4295 dcbf 4ca9 01bf 2185 05bf c2e3 253f
-0.52410084 0.2387004 -0.20429267 0.4714519 -0.2520958 0.3943184 -0.5803294 0.993706
0.017357906 0.53239775 0.6863513 1.4907334 -0.4041413 -0.30373228 0.30853257 0.44703463
0.10983883 -0.20476669 -0.09858747 -0.18569082 0.009528054 -0.69101906 -0.61575645 -0.12871975
0.4826131 0.63737035 -0.739658 -0.53296167 -0.8957143 0.6191361 0.18647924 0.116342604
-1.723305 -0.5064895 -0.52156264 0.64800656

mlr.0.weight f4 [64, 12]
00000000: 6f08 8a3b 1b33 8dbc fc21 8e3d 0dad a53d
00000010: eb3d 86be 762d dabd b0ef 783e b84e e63d
00000020: d13d 6bbc 9038 32be 04da 34be 5565 84be
00000030: 7881 4abe 82cf bfbd 8500 313e 0699 96bc
00000040: 0e8a b1be 7564 0cbf 69d8 ddbd 8449 fc3e
00000050: ea79 e33c 7ae0 49be 8e63 6f3e a018 52bd
00000060: fbae 77be a49c 1c3e 33d9 3dbe feb5 edbd
00000070: 025e b1be 10e1 0c3e d72d 263e 32f0 463d
00000080: 146c 84be df29 aebe 7d2c 92be cc5f 233e
00000090: beeb 0d3e 64c0 783e 91db 1a3e 39a1 953d
000000a0: 9743 39bb e1ce 60be c443 7dbe ff3e 8abe
000000b0: 7c04 f23d bc21 11be b7f6 6dbd 0c1f 2abe
000000c0: 02d1 2abd 9939 44be c83d 35be 68fc db3d
000000d0: 13fb 96bd 833c 423e 25f8 a5bd 3140 51be
000000e0: 4170 20bd 612a 04be 76c3 9dbd c5c9 8abe
000000f0: e36b 7c3d 7247 8abe 8d07 713e ca1f c03c
00000100: 6f0a 4f3e c85b e8be 88f9 8e3e 386c 24be
00000110: db91 393b e9c8 853e 734f c9bc 56c8 35be
00000120: d059 11bd f3dd b1be f880 6c3e 250c c6be
00000130: 1bd6 863e b05c 2b3e 8f59 db3e 79f8 98be
00000140: b179 7cbe 62b9 883d 1bc4 5c3e 131a edbe
00000150: eae7 093d 090e 8cbe d275 1c3b fa2a 6fbe
00000160: 6607 c1bd cc2a 63be e66a 84be be8f 8b3e
00000170: d3eb bd3e f3f0 1fbe dca9 fa3d 6e28 50bd
00000180: 7ae9 6fbe 8278 82be e1b5 093e a106 07be
00000190: 5163 22be 2bd7 603b d6d5 8cbd a7d2 91bd
000001a0: c864 133d 3f2b 11bd 33ce 93bd 3bc3 f9bd
000001b0: 38a3 e5be cc12 ba3e 041a d6bd d6ff d93d
000001c0: 42bc 43be 46bf ac3d af67 a23e 4d1e 523e
000001d0: 6d90 e5be 2300 eb3e 5a3e 943e 1ad0 b3bd
000001e0: c3c8 f5bd b03a d33e 201a b9bd 4a5e 853e
000001f0: 29c0 8abe f961 96bd 5d55 153e 0f97 6f3e
00000200: 8575 b4be e5b4 8bbe 889c e1be 1c0e 8cbe
00000210: 5c19 64be 3134 92bd f67e 473e 3dea 453d
00000220: 67d6 60be db23 6dbe 2b0e 133e c8e1 5bbe
00000230: 6a96 11bd 7ecd 0d3e 0dcf 08be 24ee 00bd
00000240: 59d8 cdbc a2de 8bbd 62e1 15be 8ec1 83be
00000250: f9f3 6ebe c548 1ebe 9fc0 8e3e e0c7 0ebe
00000260: 8381 46be 194e 8f3d 52f1 a23d c5f6 213e
00000270: d1a8 ce3e 27b3 c63d d99e a3be c16f 91bc
00000280: 846c 2d3e ef05 adbd b07b 86be f9b1 ae3e
00000290: 40c6 16bd 07b0 c5be 5017 97be eae2 683e
000002a0: fa76 513d 8554 cf3d 9776 95bd a089 8dbe
000002b0: 4fa0 dfbe 312f 84bc 155c 323e c46e 993e
000002c0: fb9c 90be 17d6 613e 334e 43be ac01 60be
000002d0: 78e2 29bd c864 373d 5b00 453e aa85 fabe
000002e0: 0a2f 823c 7845 0ebf 9f1d 343c dbc2 bd3e
000002f0: 9faa 16be 45e2 a83e 9eed 30be 7fab 60be
00000300: 8172 a83e e21e cdbd 1129 40bc deee 5bbe
00000310: 2477 903e 272e 613e 8799 3d3e 5a65 f4be
00000320: 404e 64be 440f e4ba 8034 913d 6bb4 8dbe
00000330: 126b a5bd 15a4 473e a261 bc3c e264 553c
00000340: 0c7f 91bd 01d9 85be bcf8 8abe 874d 0dbe
00000350: f242 16be 4c31 b83d 4b1b acbd 0a4b e7bd
00000360: f251 1c3f 4406 163e 2d2d 323e fa55 89be
00000370: b405 00be 4ed0 703e 5b3d 92be 30f3 b7be
00000380: 2e3d 6c3d 71d2 8ebe 628b 73be f755 843e
00000390: 5706 f23e fcf0 1f3d 532e 46be aa3c 01bf
000003a0: 83f7 8fbe 84ba 693d fe03 09bc 3bb1 4abd
000003b0: 4f46 25be d923 bc3e badb 36be 5ad3 1f3e
000003c0: c8f7 fa39 6e73 1a3e 9e3a 0f3e dedd 473e
000003d0: 658e 883d e307 e43e 2c37 183e 5404 ad3e
000003e0: 4fa0 d13e 16a2 c3bd 442c 0bbe b998 d13e
000003f0: 8ea3 673e 06b5 61be 13cf b6bc 49c0 91be
0.004212431 -0.017236283 0.06940076 0.080896474 -0.26219115 -0.10653202 0.24310184 0.11245483
-0.014358 -0.1740439 -0.17661291 -0.2585856 -0.19775951 -0.09365751 0.17285354 -0.018383514
-0.3467564 -0.54840785 -0.108322926 0.49274838 0.027768094 -0.19714537 0.23377821 -0.051293015
-0.24187844 0.15294129 -0.18539886 -0.11606978 -0.34642035 0.1375773 0.16228424 0.04856891
-0.25863707 -0.3401632 -0.28549567 0.15954512 0.1385946 0.24292141 0.1512282 0.073061414
-0.0028269046 -0.21953918 -0.24732882 -0.27001187 0.118172616 -0.14173025 -0.058096614 -0.16613406
-0.04170323 -0.19162597 -0.17699349 0.10741502 -0.07372107 0.18968396 -0.081039704 -0.20434643
-0.039169554 -0.12906791 -0.07703297 -0.27107063 0.061626326 -0.27007633 0.23538037 0.023452658
0.20218824 -0.45382524 0.27924752 -0.16056907 0.0028315696 0.26129845 -0.024574017 -0.17752203
-0.035486042 -0.34739646 0.23096073 -0.3868114 0.26335225 0.16734576 0.42841765 -0.2987707
-0.24655797 0.06675984 0.21559183 -0.46308956 0.033668436 -0.27354458 0.0023873937 -0.23356238
-0.09425239 -0.22184294 -0.25862807 0.27258104 0.37093982 -0.15619259 0.12239429 -0.050819807
-0.23428908 -0.25482565 0.13448288 -0.13186122 -0.15858199 0.0034307938 -0.068767235 -0.07120257
0.035984784 -0.035441633 -0.07217064 -0.121954404 -0.4485109 0.36342466 -0.10454181 0.106445
-0.19114783 0.0843492 0.3171973 0.20519371 -0.4483675 0.45898542 0.2895382 -0.087799266
-0.12001183 0.41255713 -0.09038186 0.260485 -0.27099732 -0.073429056 0.14583345 0.23397468
-0.3524591 -0.2728645 -0.44064736 -0.27354515 -0.22275299 -0.07138861 0.19482026 0.04831909
-0.21956788 -0.23158209 0.14360873 -0.21472847 -0.035543837 0.1384792 -0.13360234 -0.03147711
-0.025127577 -0.06829573 -0.14636758 -0.25733608 -0.23335256 -0.15457447 0.27881333 -0.13943434
-0.19385342 0.06997318 0.079561844 0.15816791 0.40363172 0.09702139 -0.3195713 -0.017753484
0.16935927 -0.08448397 -0.2626624 0.34120157 -0.03681016 -0.3861086 -0.29509974 0.22742811
0.051138856 0.10123543 -0.0729801 -0.27644062 -0.43676993 -0.016135784 0.17417939 0.2996732
-0.28244767 0.22054325 -0.190728 -0.21875638 -0.041475743 0.044773847 0.19238417 -0.48930103
0.01589157 -0.5557475 0.01099339 0.37062725 -0.14713524 0.3298513 -0.17278144 -0.2194042
0.3289986 -0.10015656 -0.011728541 -0.2147784 0.28215897 0.21990262 0.18515597 -0.47733575
-0.22295475 -0.0017399569 0.07090092 -0.2767671 -0.08077063 0.19496186 0.022995774 0.013024541
-0.071043104 -0.26142123 -0.27142894 -0.13799106 -0.14673975 0.08993778 -0.08403643 -0.112936094
0.6106254 0.14650828 0.17400046 -0.26823407 -0.12502176 0.23516962 -0.28562436 -0.35927725
0.057675533 -0.2789493 -0.23783639 0.25846836 0.47270462 0.03904818 -0.19353609 -0.5048319
-0.28118524 0.05706264 -0.008362768 -0.049485426 -0.16140102 0.367461 -0.17857257 0.15607968
0.00047868327 0.15083095 0.13987204 0.1951823 0.066677846 0.44537267 0.14864796 0.33792365
0.40942618 -0.095524 -0.13591105 0.4093683 0.22620985 -0.22041711 -0.022315538 -0.28467014

mlr.0.bias f4 [64]
00000000: 2d91 a2bd 6955 463e aa3e e33c c22d 4ebd
00000010: 7cf3 7a3d e675 aabd 45aa f53d 725d ef3d
00000020: 7df8 d53d c1e7 81bc 0018 1b3e 79b4 2abd
00000030: a72a e6bd e1f1 033e 9240 5a3e 85bb 1a3e
00000040: 42c9 9b3d ea89 c9bd 4d8f 9d3d 976b 193e
00000050: b540 15be 4e7c 12bd 7e64 93bd 943f 3d3e
00000060: 1cda 293c ad0e eebc abd5 c5bc eaa2 e6bb
00000070: b8b0 8ebd 6752 01be c7bb 903d 0dc8 14be
00000080: 1dc9 81bd c710 df3c 9197 c4bc f308 8bbe
00000090: c49c 5a3e b845 06be 3bbd 22be 630f 553c
000000a0: a043 1abe d896 c4bd 0135 c7bd e280 0ebd
000000b0: f9e8 f6bd 184b 62bd 3567 763b 2035 6fbe
000000c0: 41ec 32be 6a06 8a3b c1a0 43bc 3758 813d
000000d0: 9b27 cfbd 3245 543e 5ec6 403d 157f 2f3d
000000e0: b264 1bbe 8ebd 3cbe b9f7 b8bd ba1c 85bd
000000f0: cb7a d83d 8d8e 30bd 4acf d33d 6285 2dbe
-0.07937846 0.19368519 0.027739841 -0.050336607 0.06126736 -0.083232686 0.11995367 0.11687745
0.10447786 -0.01585758 0.15145874 -0.04167602 -0.11238604 0.12885238 0.21313694 0.15110596
0.07606746 -0.09840758 0.07693348 0.14982449 -0.14575465 -0.035763077 -0.07196902 0.18481284
0.010366943 -0.029059732 -0.024149736 -0.007038464 -0.069673 -0.1262909 0.07067066 -0.14529438
-0.063371874 0.02722968 -0.023998054 -0.27155265 0.21348864 -0.13112533 -0.15892498 0.013004157
-0.1506486 -0.09599084 -0.097269066 -0.03479088 -0.12056155 -0.055247396 0.0037598137 -0.2336011
-0.17472936 0.0042121904 -0.011940182 0.06315654 -0.10114976 0.20729521 0.047064178 0.042845804
-0.15175131 -0.18431684 -0.09031624 -0.0649962 0.10570296 -0.043104697 0.103422716 -0.16945413

mlr.2.weight f4 [208, 64]
00000000: 609b 9b3c f067 cb3e 1ae5 3b3d 24f0 5fbd
00000010: 1d3e 19bd 5baa af3e a390 03be fdf1 dcbd
00000020: c432 253d d606 e93e d049 163f 608f 60bc
00000030: 5819 cebd d88d 79bd db50 1b3e 3fa3 e83e
00000040: 3ac4 94be 1893 6fbd 0929 1dbf fc52 8fbe
00000050: 3ec1 193e 80c1 76bd 1f60 163e 2ff4 9abc
00000060: 64a5 a43b c0ca 203d 0003 fc3d bf7e 803d
00000070: 6e0b 8ebc afaa cf3d 5b86 383d 4a9c d7bd
00000080: 206c 35bd 88d5 953d feae 783d 084d f43d
00000090: 8c50 273e 0476 8a3d f432 8dbd d869 243e
000000a0: c8b7 b83d 837a 923e 4855 b83d 1a2c 793e
000000b0: 4072 1f3b 35bb ed3e 6be4 553f 50f1 5e3d
000000c0: cc8e 24bd 008e 09bb 6c73 e1bd 94a5 1abf
000000d0: b510 87bd 28d4 80be 25de 93bd 9605 3c3f
000000e0: db4f 463e bdbb a3bc 78af 743e 16f6 003e
000000f0: d9f2 e6be be2f fdbd 93b9 db3c bc70 8f3d
00000100: 72c7 dbbd 41fb 323e d352 c93d 201f f83b
00000110: 8519 acbd a75e b13e 2b73 fabd b202 c8bd
00000120: 6588 cdbd ce26 093f b7f3 843e 804f fd3d
00000130: 2cef 58bd 3096 41bd 91be d43d a238 473e
00000140: a968 7ebe e84b 523d 3120 0dbf 310a 77be
00000150: 3030 303e fc95 c83d ba31 dc3c e3be 34bd
00000160: f70e 9e3e 2b28 4d3e a836 993d d23f 0e3e
00000170: 9bbf 7abd b3a9 3d3d 9473 1d3e 342f 96bd
00000180: 840f 583e 8202 f6bd 62ce ca3e c235 ff3d
00000190: 9482 8f3e c494 2e3d 24d7 e4bd 2145 4a3e
000001a0: 1827 afbc cfff b73e b4b6 fc3d cd51 a03d
000001b0: 20e4 10bc 5de3 f03e e076 3c3f 101e b5bd
000001c0: 2885 a63c 0011 89bc 59fc f33c 4b8d f5bd
000001d0: d69c 0c3d d655 18be 4092 53bd 0499 483e
000001e0: 7d2d 8d3e c22e 243c 7879 373d 134c 523e
000001f0: f799 c7bd 4804 be3c d36e bebd 806c 9a3c
00000200: 92aa f63d 4fb9 003f cf7f dfbd a6ae e93d
00000210: fae2 b33a c167 d83e c573 62bd c411 d4bd
00000220: 76c9 eabd 634e 0d3f 13d3 0d3f d087 193c
00000230: 2ce2 b2bd 8622 0bbe 0ed6 733e e455 d83e
00000240: 982e 9abe e086 213c a880 e7be d57a 8cbe
00000250: cebc 853e 3ced 4c3d ecc9 243e fa8b 8cbd
00000260: ad94 943e cde5 1d3e f243 dfbd 24aa e7bb
00000270: 3a5a 8e3c d832 0e3e 6e18 893e 40f7 eabc
00000280: 42a8 703d be8e a63d 2e07 6dbc 3405 cd3d
00000290: 4198 383e c27a c4bd 7846 b4bd 71bc 603d
000002a0: 0e4b 8cbd ab22 923e e026 1abc 98dc 1d3e
000002b0: f857 81bd 1028 d73e 6f51 3f3f 5225 fb3d
000002c0: 10c3 3dbd d64b b7bd 17fd 533d 108e 0bbf
000002d0: 7c3d e33d 3db6 2bbe b01e 033e a00a 063f
000002e0: f0e8 723e 18f3 5b3d dabb b63d 645d 493e
000002f0: 4a0c 4dbe 806c b33a 840e 023d 9801 33bd
00000300: 7047 dfbd ceb0 7ebe d029 433d a44f a7bd
00000310: fba5 573d 693a aa3d 9fb6 6abe 46cb 45bc
00000320: 49a5 893c 8c56 21bd 66a1 a83e 7881 ae3c
00000330: f038 0b3d bf03 a53d efb5 2cbe d015 99be
00000340: 43e4 22be 1ca0 0b3d c929 cfbd 3150 3bbe
00000350: cc71 323e a029 95bb 6bdf cb3c 062e 49bd
00000360: 5851 133f 1437 2f3b 569a ecbd f9ec 8b3d
00000370: 48ed 66bd 423f 143e 0184 223f 66ef fdbd
00000380: e506 883d f027 44bc be42 663e 3235 eb3d
00000390: de6a 823e 7475 a43d 61e1 203d 5686 d5bb
000003a0: 30a0 f03c 988b 093f 2473 a7bd c0a1 073d
000003b0: da95 fa3d 7eb4 cc3e 244c 123f f60b 9a3d
000003c0: a000 83bc de65 fcbd e1a9 ec3b 6b95 fc3d
000003d0: 2e82 873a 0004 03be bba5 debd d085 33be
000003e0: 5a96 ba3e 6c6c 3a3e 78e4 eb3d a89a 693d
000003f0: d6c9 89bd d0de ffbc e72e 1abd e075 8ebd
0.018994987 0.39727736 0.045872785 -0.054672375 -0.03741275 0.34309658 -0.12848143 -0.10788343
0.040331617 0.45513028 0.5870638 -0.013706058 -0.10063428 -0.06092629 0.15167563 0.45437047
-0.2905596 -0.05848989 -0.6139074 -0.27993 0.15015122 -0.06024313 0.14685105 -0.018915264
0.005024599 0.039255857 0.1230526 0.06274175 -0.017339434 0.10139977 0.045050006 -0.10527857
-0.04429257 0.073161185 0.06071376 0.11928755 0.1633932 0.06760791 -0.06894484 0.16056001
0.090194285 0.28609094 0.09000641 0.2433323 0.0024329573 0.4643189 0.83551663 0.054429352
-0.040175244 -0.002098918 -0.11008343 -0.604089 -0.065949835 -0.25161862 -0.07220105 0.73446023
0.193664 -0.019986982 0.23895061 0.12593874 -0.45107153 -0.12362622 0.026821887 0.07003924
-0.107314005 0.17478658 0.098302506 0.0075720698 -0.08403305 0.34642527 -0.12228998 -0.09766139
-0.10035781 0.53574836 0.2596719 0.12368679 -0.052962467 -0.04726237 0.1038791 0.19455197
-0.24844612 0.05134192 -0.55127245 -0.24124981 0.17205882 0.09794232 0.02687918 -0.044127356
0.30870792 0.20034854 0.07481128 0.13891533 -0.061217885 0.046304416 0.15376121 -0.07333222
0.21099669 -0.12012197 0.39610583 0.12461425 0.2802931 0.042622343 -0.11173847 0.19752933
-0.021380946 0.35937354 0.12339535 0.07828102 -0.008843452 0.47048464 0.7361889 -0.088436246
0.020327166 -0.016731739 0.029783415 -0.1198984 0.034329258 -0.14876494 -0.051653147 0.19589621
0.27573767 0.010020914 0.044793576 0.20536833 -0.09746163 0.0231954 -0.09298482 0.018850565
0.120442525 0.5028276 -0.109130494 0.11410265 0.001372426 0.42266658 -0.055286188 -0.10354951
-0.11464207 0.55197734 0.554002 0.009370759 -0.08734545 -0.13587388 0.23812124 0.4225303
-0.30113673 0.009858817 -0.45215344 -0.27437463 0.2612061 0.05003093 0.16092652 -0.06862636
0.2901968 0.15419693 -0.109016314 -0.007069843 0.017377008 0.13886583 0.2677645 -0.028682351
0.058754213 0.08132695 -0.014467044 0.10010758 0.1802683 -0.09593727 -0.08802503 0.05486721
-0.06850253 0.28542075 -0.009408683 0.15416181 -0.06315607 0.42022753 0.7473363 0.12262978
-0.046328604 -0.089500114 0.051755037 -0.54513645 0.110957116 -0.16768737 0.12804675 0.5235996
0.23721671 0.05369863 0.089225486 0.19664532 -0.20024219 0.0013688952 0.031752124 -0.04370269
-0.109022975 -0.24872133 0.047647297 -0.08169487 0.052648526 0.08311922 -0.22921227 -0.01207239
0.016802447 -0.03938918 0.32935637 0.02130197 0.033989847 0.08057355 -0.16866277 -0.29899454
-0.15907387 0.03408824 -0.10115392 -0.1829231 0.17426223 -0.004552081 0.024886807 -0.049116157
0.57545996 0.002673571 -0.11552875 0.06832308 -0.056378633 0.14477256 0.6348267 -0.12399177
0.0664194 -0.0119724125 0.22486398 0.114847556 0.25472158 0.08030215 0.039277438 -0.006516258
0.029373258 0.5372863 -0.08176258 0.03311324 0.12235613 0.39981455 0.5714743 0.075218126
-0.015991509 -0.12324117 0.0072223996 0.12333187 0.0010338479 -0.12794495 -0.10871454 -0.17531514
0.36442834 0.18205422 0.11518186 0.057032257 -0.0672795 -0.031234175 -0.037642386 -0.069560766

mlr.2.bias f4 [208]
00000000: 9fa9 c93d 5123 bd3d 397d 25bb 89a7 ff3d
00000010: 3983 103e 72ad f83d 2c74 153e caf8 003d
00000020: 2ee5 a93d 3985 053e 9da0 c23d d1ac 443d
00000030: c3f6 bd3d ab99 0bbd 40b3 023c 2928 4e3d
00000040: 23f5 d83d fcea 7a3d 51e3 c7bc f700 383d
00000050: 3f2d b43d 8dba 593d 72e3 f83d fe1c 823d
00000060: 33f8 dd3d 193b b03d 000e 973d 9729 f63d
00000070: 3c27 923d ac00 ec3d 8536 723d 60cc b63d
00000080: 7abc d33d ef69 32bc a8a1 5b3d 48c8 983c
00000090: 34c6 3d3d 7018 463d 36d3 b33d b8ef e5bc
000000a0: e58b d83c f398 a73d 48b5 263d 1f4d 843d
000000b0: 214c e7bc 9406 123e 1d4b af3c 9f94 883d
000000c0: db2b 343d 5036 113e b9a5 d93d ef1d 2f3d
000000d0: 06c5 143e 80ac 2d3e 0364 653d cd01 d63d
000000e0: 5618 c13d 8ad6 ee3d c52d f73d 72f5 0f3e
000000f0: 0488 d93d 2048 003e 2ffc 953d 69ed 183e
00000100: dd1a 873d 7661 de3c 340d c73d a2c6 4e3b
00000110: 45a7 593c 6cf7 87bc 533e c03d 2423 ef3d
00000120: 3ba2 d23d eab7 883d b0eb 533c 5c4c d43d
00000130: 47d9 703d 3595 bc3d feeb 1a3e abe9 2b3e
00000140: f16d 293e c502 003e 369d 0e3e 29a3 f03d
00000150: 046f 083e 5151 ba3d 1629 f63d aa27 073e
00000160: 4b5e 173e eb3a b83d 13f6 ef3d 133c 083e
00000170: 4114 133e fd10 563d 6c79 383e a3bb 1b3e
00000180: e36a 623d d421 1f3e f91c fb3d f7c4 b73d
00000190: e569 393d e220 5c3d 52a3 0f3e 8d8c 7b3d
000001a0: 86fd 3d3e cf38 053e 4226 be3d f990 513e
000001b0: bb51 633d d237 d73d 6e1e 6c3e c4f9 2b3e
000001c0: b1d8 6d3e c322 373e ccdd d73d 8c19 353e
000001d0: 5de0 053e 5e35 403e c7ef 723d 89b6 0a3e
000001e0: b47c ff3d 9654 f73d d7d2 b63d 9216 283e
000001f0: 7fc5 283e 8c5d 383e 0986 6e3d 7969 a13d
00000200: 7381 1c3e c91e 033d b0c3 c73d 66e1 103e
00000210: bef0 373e 2e64 d23d e616 9c3d 28b4 983d
00000220: d9a5 b03d e8a4 243e d61f 773d 4714 163e
00000230: e5f2 2b3e c434 fd3d 56ab 0e3e 5398 e83d
00000240: 55a0 c93d 0735 b23d 6ad3 213d a11e 16bb
00000250: 1606 c73d c8a6 173d 9246 373d 6439 e73d
00000260: 5c19 8c3d bfc4 483e e06e 223e 06d6 6a3c
00000270: 5bb2 193e 078a 973d 5093 4f3e a1d3 1a3e
00000280: da6f b33d 16a5 1f3e 6bff 3d3d 3c2c 7d3d
00000290: 39a5 073e 349d e73d 1961 8a3d cae8 d43d
000002a0: fb1e dd3b 982f e33b 19f1 9b3c d0b5 2cbc
000002b0: ee38 d63d 0673 7a3b 56c5 4f3c 6f88 3d3d
000002c0: a6e9 053e 6b3b 1d3e 5b8b f93d 5599 973d
000002d0: 751c f53d 12ec 9b3d d4dc 313e 8984 3a3d
000002e0: ad6f 123e b5db 263e cb78 363d b611 1b3e
000002f0: 510f 9f3d 73c2 003e a033 343d 77f8 753d
00000300: b1cb e33c 2a3a 5a3d 24be 983d 7d86 c73d
00000310: 74d3 46b8 f2a4 07bc 272a 7c3d e86c 99bc
00000320: fb6a 3dbc 95c6 f5bc 5723 0f3e c507 123e
00000330: 9a13 893d 2d02 0e3e 5464 243e 22a5 043e
0.09846806 0.09235252 -0.002525164 0.12483127 0.14112557 0.12142457 0.14595097 0.031487264
0.08295666 0.13039102 0.09503291 0.048016373 0.09275582 -0.034082096 0.007977307 0.05033127
0.10593631 0.061259255 -0.024400385 0.044922795 0.087976925 0.053156424 0.12152757 0.06353186
0.10838356 0.08605022 0.07375717 0.120196514 0.071363896 0.11523566 0.059134025 0.089257
0.103386834 -0.010889514 0.053620964 0.018650189 0.0463316 0.04836315 0.0878052 -0.028068408
0.026433894 0.081834696 0.040700227 0.06460022 -0.028234543 0.14260322 0.021398121 0.06668972
0.043987136 0.14180875 0.10627312 0.042753156 0.14528283 0.16960335 0.05600358 0.10449562
0.0942847 0.11662014 0.12069277 0.14058474 0.10621646 0.12527514 0.07323491 0.14934315
0.06596921 0.027146082 0.09719315 0.00315515 0.013284509 -0.016597472 0.093868874 0.116766244
0.10284849 0.06675704 0.01293461 0.10366127 0.05880096 0.092081465 0.15129086 0.16788356
0.16545846 0.12501056 0.13927159 0.1174987 0.13323599 0.09097541 0.12019555 0.13198724
0.14782064 0.08995613 0.11716857 0.13304166 0.14363195 0.052262295 0.18015069 0.15208296
0.055277716 0.15540248 0.122613855 0.08973115 0.045267005 0.053742297 0.14027146 0.061413337
0.18553743 0.13009952 0.09284641 0.20465459 0.055497866 0.10508694 0.23058483 0.16794497
0.23227192 0.17884354 0.10540351 0.17685527 0.13073869 0.18770358 0.0593107 0.13546194
0.12474957 0.1207668 0.08926933 0.1641486 0.16481589 0.18004435 0.058233295 0.078814454
0.15283756 0.03201178 0.09754121 0.14148483 0.1796293 0.10273014 0.07621555 0.07456237
0.08625383 0.16078532 0.060333095 0.14656173 0.16791876 0.1236358 0.13932547 0.113571785
0.09845034 0.087015204 0.03950826 -0.002290644 0.09717958 0.03702429 0.044745035 0.11290243
0.068407744 0.19606303 0.15862608 0.014333254 0.15009443 0.073993735 0.20271039 0.15119793
0.08761568 0.15590319 0.046386164 0.061809763 0.13246621 0.11309281 0.06756801 0.103959635
0.006748078 0.006933164 0.019035863 -0.010541394 0.10460077 0.0038215532 0.012681326 0.04627269
0.13077411 0.15354697 0.12184783 0.07402293 0.119683184 0.07613386 0.17369395 0.04553655
0.14300413 0.16294749 0.04454879 0.15143475 0.07766593 0.12574176 0.043994546 0.060051408
0.027807089 0.053278126 0.074581414 0.097424485 -4.740381e-05 -0.008279072 0.061563637 -0.018728688
-0.011561151 -0.030001918 0.13978325 0.14260776 0.06693192 0.13868017 0.16053897 0.12953618
