pqc_reup_v1_output/best_model_epoch_40.pth (torch, 61285 bytes, 6 tensors)

reupload_weights f4 [12, 3, 4]
0	0x3e145797	0.14486538
1	0x3dfcbcf6	0.12340729
2	0x3e4ba173	0.19885807
3	0xbe31541d	-0.17317243
4	0x3eba339c	0.363675
5	0x3e6c3357	0.2306646
6	0x3eaefddc	0.34178054
7	0x3f697aa8	0.91202784
8	0x3c85942c	0.016306005
9	0x3ea3c904	0.319893
10	0x3d84fd64	0.06493643
11	0xbe8164c2	-0.25272185
12	0xbe26062e	-0.16213295
13	0xbe424e7d	-0.18975253
14	0x3bb2d3d7	0.005457382
15	0x3d801691	0.06254304
16	0xbe810026	-0.25195426
17	0xbf09cf00	-0.5383148
18	0xbe03f77a	-0.12887374
19	0x3d6e0b69	0.05811635
20	0xbcaa1c11	-0.020765336
21	0x3da67029	0.081268616
22	0x3d7d20cb	0.061798852
23	0x3e6ddc79	0.23228635
24	0x3d5c2117	0.053742494
25	0x3da9b010	0.082855344
26	0x3e2f6347	0.17127715
27	0x3d7de1db	0.06198297
28	0x3f224d97	0.6339964
29	0x3e0f362f	0.13985513
30	0x3e56bf17	0.20971332
31	0xbcf56fb9	-0.0299605
32	0xbe075f7d	-0.1322002
33	0xbc1a4c8b	-0.009417663
34	0x3e901c3f	0.2814655
35	0x3e446d7e	0.19182393
36	0x3a839e38	0.001004166
37	0xbe3e0f4e	-0.18560526
38	0x3d637243	0.05552889
39	0xbe53636e	-0.20643398
40	0x3eef6e23	0.46763715
41	0x3f5f95a2	0.87337697
42	0x3eca8caf	0.39560458
43	0xbeb0c6b7	-0.34526607
44	0x3f3508b7	0.7071642
45	0x3f84b29f	1.0367011
46	0x3f179188	0.5920644
47	0xbe10899b	-0.14114992
48	0xbd6f8ad7	-0.058482017
49	0xbaa86b2e	-0.0012849325
50	0x3e0b80a0	0.13623285
51	0x3e4c3c91	0.19944979
52	0x3ea2b4e0	0.31778622
53	0x3f0e0a1b	0.5548417
54	0xbefc3218	-0.49256968
55	0xbf0e162d	-0.5550259
56	0x3e20cb5c	0.15702575
57	0x3ec33f5b	0.38134274
58	0xbea5ff71	-0.3242145
59	0xbe86f005	-0.26354995
60	0xbdc09b4d	-0.09404621
61	0x3de7ec20	0.11324334
62	0xbe3cb760	-0.18429327
63	0xbccd9f19	-0.025100278
64	0x3eceb8e4	0.40375435
65	0x3d52a75b	0.051429134
66	0x3da7b8b9	0.0818953
67	0x3ddab64a	0.106793
68	0x3da15e07	0.078792624
69	0xbe4cf730	-0.2001617
70	0xbec625aa	-0.3870061
71	0x3d82f881	0.063950546
72	0xbdc2d570	-0.09513366
73	0xbd9f40c5	-0.07776026
74	0xbe031f6a	-0.12804952
75	0x3d0e9e0b	0.03481869
76	0x3dcf5fa6	0.10125665
77	0xbddb0e7b	-0.10696121
78	0xbe3ccaae	-0.18436691
79	0xbb239a71	-0.002496388
80	0x3ee7b673	0.45256385
81	0x3e9a89b2	0.30183178
82	0x3e90e911	0.28302816
83	0x3e71925f	0.23590992
84	0x3dec3594	0.11533657
85	0x3dd6c7fe	0.10487364
86	0x3c86c736	0.016452413
87	0xbd776e0f	-0.060407694
88	0xbea5fa70	-0.3241763
89	0xbef35b0f	-0.4753041
90	0x3e8494ea	0.25894862
91	0x3eab4164	0.33448327
92	0xbeeb6aaf	-0.4597983
93	0xbec9d68e	-0.39421505
94	0x3f12f69d	0.5740755
95	0x3ed50262	0.4160338
96	0xbe8bacbc	-0.27280223
97	0x3e2a92e5	0.16657598
98	0x3cddff59	0.027099298
99	0x3d40dc31	0.04708499
100	0xbe6e1ca1	-0.23253109
101	0x3f17fac0	0.5936699
102	0x3f3d31bd	0.7390402
103	0x3eccb31f	0.3998041
104	0xbf1ab7bb	-0.604366
105	0x3e21f960	0.15817785
106	0x3eaaf0b4	0.33386767
107	0xbd8d8ae7	-0.06911259
108	0xbd805fe1	-0.062682875
109	0x3d507a92	0.050898142
110	0x3d2e7c6d	0.04259913
111	0x3de4a06d	0.11163411
112	0x3e29e4c9	0.16591181
113	0x3de63604	0.112407714
114	0x3cf614b0	0.030039161
115	0xbf722a24	-0.9459555
116	0x3f0ab58f	0.54183286
117	0x3ea60a0b	0.32429537
118	0x3e37796d	0.17917414
119	0x3e65abc9	0.22428812
120	0xbd835916	-0.06413476
121	0xbe33842e	-0.17530891
122	0x3d64ac52	0.0558284
123	0x3d3965cf	0.045263108
124	0x3b77b885	0.0037799191
125	0xbd8b51b5	-0.06802694
126	0x3f283171	0.6570044
127	0x3edc1f46	0.4299261
128	0xbf1193d2	-0.5686618
129	0xbf40b5ab	-0.75277203
130	0xbe618b3b	-0.22025768
131	0xbeee785d	-0.46576205
132	0xbd470239	-0.048586104
133	0x3e70db62	0.23521188
134	0x3daa3e8c	0.08312711
135	0x3db69318	0.08914775
136	0xbf5f006a	-0.87110007
137	0x3c857b1b	0.016294053
138	0xbed5bf21	-0.41747382
139	0xbe1380a4	-0.14404541
140	0xbf7e3550	-0.993001
141	0x3e586f38	0.21136177
142	0xbe3f4333	-0.18677978
143	0xbcac6378	-0.021043524

reupload_bias f4 [12, 3]
0	0xbedf28af	-0.43585727
1	0x3f393b6a	0.72356284
2	0x3d9fe3f8	0.078071535
3	0x3ed100cf	0.4082093
4	0xbe9d71b2	-0.30750805
5	0x3e4bb6af	0.19893907
6	0xbed07fbe	-0.4072246
7	0x3f77bbbf	0.9677085
8	0x3da0ae19	0.078457065
9	0x3eb37d6b	0.35056624
10	0x3eb4fe02	0.35350043
11	0x3f832dc7	1.0248345
12	0xbecbfa36	-0.39839333
13	0xbe3c8884	-0.18411452
14	0xbdd55f28	-0.1041854
15	0x3e939453	0.288241
16	0xbe47927c	-0.19489473
17	0xbe89692f	-0.2683806
18	0xbe312e85	-0.17302902
19	0xbe5a75dd	-0.21334024
20	0xbd180832	-0.03711719
21	0xbf1ef1b1	-0.6208754
22	0xbee585bc	-0.44828594
23	0xbdf57307	-0.1198483
24	0x3ef7dfb7	0.48412868
25	0x3f1a3c1b	0.60247964
26	0xbf1b6005	-0.6069339
27	0xbed7879d	-0.42095652
28	0xbf45b33d	-0.7722662
29	0x3ed9dcde	0.4255132
30	0x3e804526	0.25052756
31	0x3d4d956e	0.050191335
32	0xbf9241f2	-1.1426375
33	0xbed88ff4	-0.42297328
34	0xbf01bb08	-0.5067601
35	0xbe16c789	-0.14724554

mlr.0.weight f4 [64, 12]
0	0x3b8a086f	0.004212431
1	0xbc8d331b	-0.017236283
2	0x3d8e21fc	0.06940076
3	0x3da5ad0d	0.080896474
4	0xbe863deb	-0.26219115
5	0xbdda2d76	-0.10653202
6	0x3e78efb0	0.24310184
7	0x3de64eb8	0.11245483
8	0xbc6b3dd1	-0.014358
9	0xbe323890	-0.1740439
10	0xbe34da04	-0.17661291
11	0xbe846555	-0.2585856
12	0xbe17565c	-0.14779037
13	0x3b995e51	0.004680433
14	0x3de19872	0.11015405
15	0x3d9aaaa4	0.07552078
16	0xbe9b2dfd	-0.30308524
17	0xbe8fcd13	-0.28086147
18	0xbe02a532	-0.1275833
19	0x3eb5cae2	0.3550635
20	0x3cbdc1a4	0.023163624
21	0xbde95f96	-0.11395185
22	0x3de6567d	0.11246965
23	0xbd9dc62a	-0.077038124
24	0xbe5faf85	-0.21844299
25	0x3e38072c	0.17971486
26	0xbe270a88	-0.16312611
27	0xbdb571fb	-0.08859631
28	0xbea361e8	-0.31910634
29	0x3e262e14	0.16228515
30	0x3e3f4c66	0.18681487
31	0x3d992885	0.074784316
32	0xbe6e3d26	-0.23265514
33	0xbea1b0b9	-0.3158014
34	0xbe885cba	-0.26633245
35	0x3e3d3fdb	0.1848139
36	0x3e0debbe	0.1385946
37	0x3e78c064	0.24292141
38	0x3e1adb91	0.1512282
39	0x3d95a139	0.073061414
40	0xbb394397	-0.0028269046
41	0xbe60cee1	-0.21953918
42	0xbe7d43c4	-0.24732882
43	0xbe8a3eff	-0.27001187
44	0x3df2047c	0.118172616
45	0xbe1121bc	-0.14173025
46	0xbd6df6b7	-0.058096614
47	0xbe2a1f0c	-0.16613406
48	0xbd5776ac	-0.05260341
49	0xbe500e52	-0.20317963
50	0xbe4126e0	-0.18862486
51	0x3dc41c12	0.095756665
52	0xbdafb459	-0.085793205
53	0x3e367d1c	0.17821163
54	0xbdbdaa0e	-0.09260951
55	0xbe58d84d	-0.21176262
56	0xbd509fad	-0.05093353
57	0xbe0f4aff	-0.13993452
58	0xbdb4dfec	-0.08831772
59	0xbe8cb4e0	-0.27481747
60	0x3e02a005	0.12756355
61	0xbe66cde7	-0.22539483
62	0x3e1e0319	0.15430869
63	0x3db1b747	0.086775355
64	0x3e468db5	0.19389994
65	0xbe6b9c9e	-0.23008963
66	0x3e6ef777	0.23336588
67	0xbe6b15aa	-0.22957483
68	0x3d60278d	0.05472522
69	0x3e884c50	0.26620722
70	0xbd558066	-0.052124403
71	0xbdc82b16	-0.09773843
72	0xbcc524ad	-0.02406534
73	0xbe90613a	-0.28199178
74	0x3e6926c5	0.22768696
75	0xbec6029a	-0.3867386
76	0x3e70993c	0.23495954
77	0x3e4f93d6	0.20271239
78	0x3ec4d5aa	0.38444263
79	0xbe5cef51	-0.21575667
80	0xbe740a9b	-0.2383217
81	0x3d709dd2	0.05874426
82	0x3e8c7778	0.27434897
83	0xbed6ac71	-0.41928437
84	0xbd8631bb	-0.06552454
85	0xbe313377	-0.17304789
86	0xbcced62a	-0.025248606
87	0xbe117ffd	-0.1420898
88	0xbdf1aa87	-0.11800104
89	0xbdbbaf0d	-0.09164248
90	0xbe8c74de	-0.27432913
91	0x3e728b75	0.23686011
92	0x3e77d042	0.24200538
93	0xbd397beb	-0.045284193
94	0xbd06a7da	-0.03287492
95	0xbdf14881	-0.11781407
96	0xbe857964	-0.26069176
97	0xbe8fd516	-0.2809226
98	0x3ddbba19	0.10728855
99	0xbe224cc5	-0.15849598
100	0xbe3e095d	-0.1855826
101	0xbcb882e7	-0.022523357
102	0xbdc4e0e0	-0.09613204
103	0xbdbf4484	-0.0933924
104	0x3c17f82b	0.009275476
105	0xbd7acdf8	-0.061231583
106	0xbdcb8f4f	-0.09939443
107	0xbe0d8960	-0.13821936
108	0xbe9a3be8	-0.3012383
109	0x3e8693b9	0.26284578
110	0xbe121e92	-0.14269474
111	0x3dd84b82	0.10561277
112	0xbe0a095f	-0.13480137
113	0x3d5a7dd7	0.053342666
114	0x3e82fcbb	0.25583443
115	0x3e1ac130	0.15112758
116	0xbe9bab50	-0.3040414
117	0x3e2ad028	0.16680968
118	0x3e6b88c7	0.23001395
119	0x3d84de2c	0.064876884
120	0x3dec4be9	0.11537916
121	0x3e9e1ea5	0.30882755
122	0xbdbabe50	-0.091183305
123	0x3e069937	0.13144384
124	0xbe6897e9	-0.22714199
125	0xbd552b65	-0.052043337
126	0x3e1ce495	0.15321572
127	0x3e3e71b9	0.18598069
128	0xbe63995b	-0.22226469
129	0xbe9b9960	-0.30390453
130	0xbea38285	-0.31935516
131	0xbe68d732	-0.2273834
132	0xbe64195c	-0.22275299
133	0xbd923431	-0.07138861
134	0x3e477ef6	0.19482026
135	0x3d45ea3d	0.04831909
136	0xbe60d667	-0.21956788
137	0xbe6d23db	-0.23158209
138	0x3e130e2b	0.14360873
139	0xbe5be1c8	-0.21472847
140	0xbd11966a	-0.035543837
141	0x3e0dcd7e	0.1384792
142	0xbe08cf0d	-0.13360234
143	0xbd00ee24	-0.03147711
144	0xbccdd859	-0.025127577
145	0xbd8bdea2	-0.06829573
146	0xbe15e162	-0.14636758
147	0xbe83c18e	-0.25733608
148	0xbe6ef3f9	-0.23335256
149	0xbe1e48c5	-0.15457447
150	0x3e8ec09f	0.27881333
151	0xbe0ec7e0	-0.13943434
152	0xbe468183	-0.19385342
153	0x3d8f4e19	0.06997318
154	0x3da2f152	0.079561844
155	0x3e21f6c5	0.15816791
156	0x3e7af03f	0.24505709
157	0x3e340dfd	0.17583461
158	0xbe997620	-0.29972935
159	0x3d89bfe2	0.06726052
160	0x3e3211c4	0.1738959
161	0xbce66543	-0.028124457
162	0xbe4da68d	-0.20083065
163	0x3ec4c96b	0.3843492
164	0xbda764df	-0.081735365
165	0xbe2179bb	-0.15769093
166	0xbe8536fd	-0.26018515
167	0x3df32286	0.11871819
168	0x3c82b09b	0.015953353
169	0x3da970a3	0.08273437
170	0xbc1b7c31	-0.009490059
171	0xbe221f3b	-0.15832226
172	0xbea2829e	-0.31740278
173	0x3cb310b0	0.021858543
174	0x3e58d50e	0.21175024
175	0x3e590692	0.21193913
176	0xbe5ee4d0	-0.21766973
177	0xbb9b4eda	-0.0047396244
178	0xbea2a060	-0.3176298
179	0xbe14cc91	-0.14531161
180	0xbcb7dfe3	-0.022445625
181	0x3d6bc74a	0.057563104
182	0x3e143260	0.14472342
183	0xbeb1d8f0	-0.34735823
184	0x3dd70bda	0.105003074
185	0xbe9c4fdf	-0.30529687
186	0x3c4c0657	0.012452683
187	0x3e66a380	0.22523308
188	0xbd9e47f2	-0.07728566
189	0x3e52531b	0.20539515
190	0xbe9c37df	-0.30511376
191	0xbe1f37de	-0.15548655
192	0x3e5ddabd	0.21665473
193	0xbdbdc2fa	-0.092657045
194	0x3cbfb19f	0.023400126
195	0xbe53814a	-0.20654789
196	0x3e81e3ff	0.2536926
197	0x3e0cdc7c	0.13755983
198	0x3e420084	0.18945509
199	0xbea22f54	-0.31676733
200	0xbe6c24f2	-0.23060969
201	0x3bf036cd	0.0073307515
202	0x3e354f3c	0.17706007
203	0xbe842d8a	-0.25815994
204	0xbda56b12	-0.08077063
205	0x3e47a415	0.19496186
206	0x3cbc61a2	0.022995774
207	0x3c5564e2	0.013024541
208	0xbd917f0c	-0.071043104
209	0xbe85d901	-0.26142123
210	0xbe8af8bc	-0.27142894
211	0xbe0d4d87	-0.13799106
212	0xbe1642f2	-0.14673975
213	0x3db8314c	0.08993778
214	0xbdac1b4b	-0.08403643
215	0xbde74b0a	-0.112936094
216	0x3eabf3b4	0.33584368
217	0x3dc04d50	0.09389746
218	0x3e595f8e	0.21227857
219	0xbe31ba0c	-0.17356128
220	0xbe06bc6f	-0.13157819
221	0x3ddee46a	0.1088341
222	0xbe43f3cc	-0.1913597
223	0xbe56704f	-0.2094128
224	0xbbf45d6c	-0.007457426
225	0xbddbb2b6	-0.10727446
226	0xbe3a9437	-0.18220602
227	0x3e33e323	0.17567115
228	0x3e892ad1	0.2679048
229	0x3bc754db	0.0060831136
230	0xbdda5cf5	-0.106622614
231	0xbeacb5d3	-0.3373247
232	0xbe3260c2	-0.17419723
233	0x3ceec391	0.029145988
234	0x3da3a6b8	0.079907835
235	0xbd04e2c2	-0.032442816
236	0xbe06d2ef	-0.13166402
237	0x3e36caa2	0.17850736
238	0xbe663741	-0.22482015
239	0x3e3af041	0.18255712
240	0xbd15c19e	-0.0365616
241	0x3dfcc8a3	0.12342956
242	0x3d207007	0.039169338
243	0x3e30e571	0.17275025
244	0x3c5a28e6	0.013315415
245	0x3eada129	0.33912018
246	0x3da86f26	0.08224325
247	0x3eb4307a	0.35193235
248	0x3eba775b	0.36419186
249	0xbd29a6a8	-0.0414187
250	0xbe10d508	-0.14143765
251	0x3eb9f5a0	0.3632021
252	0x3e67a38e	0.22620985
253	0xbe61b506	-0.22041711
254	0xbcb6cf13	-0.022315538
255	0xbe91c049	-0.28467014

mlr.0.bias f4 [64]
0	0xbda2912d	-0.07937846
1	0x3e3e4d82	0.18584254
2	0x3d6d9215	0.058000643
3	0xbd4e2dc2	-0.050336607
4	0x3d47be5c	0.048765525
5	0xbdb9989d	-0.09062312
6	0x3dac8de8	0.08425504
7	0x3de9dc28	0.114189446
8	0x3d9ec429	0.07752258
9	0xbddb13d4	-0.10697141
10	0x3e380402	0.17970279
11	0xbd2ab479	-0.04167602
12	0xbde62aa7	-0.11238604
13	0x3e34ceb4	0.17656976
14	0x3e976566	0.29569548
15	0x3e2203da	0.15821782
16	0x3d7ec520	0.06219971
17	0xbdc989ea	-0.09840758
18	0x3dcccdea	0.100002125
19	0x3e2a7363	0.16645579
20	0xbe629316	-0.22126421
21	0xbd127c4e	-0.035763077
22	0xbe244d36	-0.16045079
23	0x3d5c5ab1	0.053797428
24	0x3c94d276	0.018166762
25	0xbd9f24f0	-0.07770717
26	0xbcc5d5ab	-0.024149736
27	0x3c2b8d4b	0.010470699
28	0xbd8eb0b8	-0.069673
29	0xbe740dad	-0.23833342
30	0x3dde7f3e	0.10864113
31	0xbe14c80d	-0.14529438
32	0xbd47ce2b	-0.0487806
33	0x3cdf10c7	0.02722968
34	0xbd6dd1ab	-0.058061283
35	0xbe8b08f3	-0.27155265
36	0x3e1bf38e	0.15229627
37	0xbe0645b8	-0.13112533
38	0xbe22bd3b	-0.15892498
39	0xbb3544ec	-0.002765949
40	0xbe1a43a0	-0.1506486
41	0xbe374902	-0.17898944
42	0xbdc73501	-0.097269066
43	0xbdf66e65	-0.12032775
44	0xbdf6e8f9	-0.12056155
45	0xbdd833ca	-0.10556753
46	0xbd05206a	-0.032501616
47	0xbe6f3520	-0.2336011
48	0xbe32ec41	-0.17472936
49	0x3b8a066a	0.0042121904
50	0x3d246f9e	0.04014551
51	0x3d275ebe	0.040861838
52	0xbe313a2d	-0.17307349
53	0x3dbcb61c	0.09214422
54	0x3d7ef4ba	0.06224511
55	0x3c7d470a	0.015458832
56	0xbe68034e	-0.2265751
57	0xbe3d2ade	-0.18473384
58	0xbe564c2d	-0.20927496
59	0xbe0d5162	-0.13800576
60	0x3dfddfe2	0.12396218
61	0xbd308e8d	-0.043104697
62	0x3dfb1799	0.1226036
63	0xbe2d8562	-0.16945413

mlr.2.weight f4 [208, 64]
0	0x3c9b9b60	0.018994987
1	0xbcb3de96	-0.021956723
2	0x3d3e0d2f	0.04639929
3	0xbd5ff024	-0.054672375
4	0xbd006380	-0.03134489
5	0xbd6222fe	-0.055209152
6	0xbe655adc	-0.22397941
7	0x3df31122	0.11868502
8	0x3d78837c	0.06067227
9	0x3ccd2d50	0.02504602
10	0x3e68b2b4	0.2272442
11	0xbc608f60	-0.013706058
12	0xbdce1958	-0.10063428
13	0x3e29ca6b	0.16581123
14	0xbc06fff7	-0.008239738
15	0x3dc5ebf6	0.096641466
16	0xbe36a7e7	-0.17837487
17	0xbd6f9318	-0.05848989
18	0x3c65363d	0.013989982
19	0x3d3470de	0.04405295
20	0x3e074a7a	0.13212004
21	0xbd76c180	-0.06024313
22	0x3e0bf487	0.13667499
23	0xbc96bcc0	-0.01840055
24	0xbcb8f50a	-0.022577781
25	0x3bd42499	0.0064740893
26	0x3dfc0300	0.1230526
27	0x3d82774a	0.06370409
28	0xbc8e0b6e	-0.017339434
29	0x3cd158a5	0.025554964
30	0x3deff020	0.11715722
31	0xbdd79c4a	-0.10527857
32	0xbd41a6b1	-0.04727811
33	0x3d95d588	0.073161185
34	0x3e1c68d1	0.1527436
35	0x3df44d08	0.11928755
36	0xbde829a6	-0.11336069
37	0x3d8a7604	0.06760791
38	0xbd8d32f4	-0.06894484
39	0x3e081c95	0.13292153
40	0x3db8b7c8	0.090194285
41	0x3e574a88	0.21024525
42	0x3db85548	0.09000641
43	0x3e10eec2	0.14153579
44	0x3b1f7240	0.0024329573
45	0x3e236767	0.15957414
46	0x3c85debb	0.016341558
47	0x3d5ef150	0.054429352
48	0xbd248ecc	-0.040175244
49	0xbb098e00	-0.002098918
50	0xbdded126	-0.10879736
51	0xbd0311fb	-0.03199957
52	0xbd444f17	-0.04792699
53	0xbd2cb550	-0.0421651
54	0xbd879771	-0.06620682
55	0xbd1f952d	-0.038960624
56	0x3e25c67b	0.16188996
57	0x3e2275bb	0.15865223
58	0x3e24576e	0.16048977
59	0x3e00d1a8	0.12579978
60	0xbd53d376	-0.051715337
61	0xbdfd2fbe	-0.12362622
62	0x3d42356c	0.04741423
63	0x3d8f70bc	0.07003924
64	0xbddbc772	-0.107314005
65	0x3e2b9a20	0.16758013
66	0x3dc9514a	0.09829958
67	0x3bf81f20	0.0075720698
68	0xbd9a3abe	-0.075307354
69	0x3e1a5144	0.15070063
70	0xbe7f89ce	-0.24954912
71	0x3da98604	0.082775146
72	0xbdad210c	-0.08453569
73	0x3e5b6c9c	0.2142815
74	0x3d0ee8c7	0.034889963
75	0x3dfd4f80	0.12368679
76	0xbd58ef2c	-0.052962467
77	0x3e511f59	0.20422114
78	0x3d78d066	0.06074562
79	0x3e217d5d	0.15770479
80	0xbe64e7cd	-0.2235405
81	0x3d524be8	0.05134192
82	0xbc55c6ea	-0.013047913
83	0xbcda745f	-0.026666818
84	0x3de8753e	0.11350487
85	0x3dc895fc	0.09794232
86	0x3c68b110	0.014202371
87	0x3d20ee58	0.039289802
88	0x3d5a50d0	0.053299725
89	0x3e4bcae9	0.19901623
90	0x3d9936a8	0.07481128
91	0x3e11b69d	0.14229818
92	0xbd7abf9b	-0.061217885
93	0xbba4a0a8	-0.0050240345
94	0x3de58ad1	0.11208118
95	0xbd962f34	-0.07333222
96	0x3e340c6b	0.17582862
97	0xbdf60282	-0.12012197
98	0x3e2e5b6a	0.17027059
99	0x3dff35c2	0.12461425
100	0x3d2cd8e0	0.042199016
101	0x3d2e94c4	0.042622343
102	0xbde4d724	-0.11173847
103	0x3e57672a	0.21035448
104	0xbcaf2718	-0.021380946
105	0x3d94b3ba	0.072608426
106	0x3dfcb6b4	0.12339535
107	0x3cd2909a	0.025703717
108	0xbc10e420	-0.008843452
109	0x3e7de817	0.24795566
110	0x3c09694d	0.008386922
111	0xbdb51e10	-0.088436246
112	0x3ca68528	0.020327166
113	0xbc891100	-0.016731739
114	0x3cebdeb8	0.028792724
115	0xbcbdd6f4	-0.023173787
116	0x3d3b8d70	0.045789182
117	0xbd63b78c	-0.055594966
118	0xbd43f638	-0.047842234
119	0xbcca2cbe	-0.024679538
120	0x3e64ed2e	0.22356102
121	0x3e04227f	0.12903784
122	0xbcfd795e	-0.030941661
123	0x3e548d55	0.20757039
124	0x3e094cd3	0.13408212
125	0x3cbe0448	0.0231954
126	0xbd964e92	-0.07339205
127	0x3c9a6c80	0.018850565
128	0x3df6aa92	0.120442525
129	0x3e213017	0.15741001
130	0xbddeae0a	-0.10873039
131	0x3de9aea6	0.11410265
132	0x3c1ebd70	0.00968872
133	0x3df716ff	0.12064933
134	0xbe27c8d4	-0.16385204
135	0x3dda3e0a	0.10656364
136	0xbdc78f98	-0.09744185
137	0x3e517f05	0.2045861
138	0x3e3b8712	0.18313244
139	0x3c1987d0	0.009370759
140	0xbdb2e22c	-0.08734545
141	0x3dc52c5d	0.09627602
142	0x3e079446	0.13240156
143	0x3db8138a	0.08988102
144	0xbe44cb8f	-0.19218276
145	0x3c2186e0	0.009858817
146	0x3e23bf56	0.15990958
147	0x3dd47216	0.10373323
148	0x3e60009f	0.21875237
149	0x3d4ced3c	0.05003093
150	0x3e0d0892	0.137728
151	0xbbbd06c0	-0.005768627
152	0x3de0423d	0.10950134
153	0x3e01e858	0.12686288
154	0xbddf43f2	-0.109016314
155	0xbb945c18	-0.00452758
156	0x3c8e5a3a	0.017377008
157	0x3d6c4a9a	0.057688333
158	0x3e7c27f3	0.24624614
159	0xbceaf740	-0.028682351
160	0x3dc4e562	0.09614064
161	0x3da68ebe	0.08132695
162	0x3d2bd6c6	0.04195287
163	0x3dcd0534	0.10010758
164	0x3d9c7301	0.07639123
165	0xbdc47ac2	-0.09593727
166	0xbdb44678	-0.08802503
167	0xbbbc21fd	-0.0057413564
168	0xbd8c4b0e	-0.06850253
169	0x3df2d15e	0.1185634
170	0xbc1a26e0	-0.009408683
171	0x3d64b6bc	0.05583833
172	0xbd8157f8	-0.06315607
173	0x3dcbfbdb	0.09960147
174	0x3ce12187	0.027481807
175	0x3dfb2552	0.12262978
176	0xbd3dc310	-0.046328604
177	0xbdb74bd6	-0.089500114
178	0x3d54d650	0.051962197
179	0x3cd9ffaf	0.026611177
180	0x3e0a353d	0.13496871
181	0x3d9ff508	0.07810408
182	0x3e08e9c4	0.13370425
183	0xbc3c5bef	-0.011496528
184	0x3e478b4a	0.19486728
185	0x3e58daa8	0.2117716
186	0x3b0952fe	0.0020954008
187	0x3e4e803f	0.2016611
188	0x3e21e13d	0.15808578
189	0x3ab36c80	0.0013688952
190	0x3d76dcb0	0.060269058
191	0xbd330198	-0.04370269
192	0xbddf4770	-0.109022975
193	0x3d290e00	0.041273117
194	0x3d44f2b3	0.04808302
195	0xbda74fa4	-0.08169487
196	0x3d7851e0	0.060624957
197	0xbd9a98f0	-0.07548702
198	0xbea2c6ee	-0.31792396
199	0x3df7e86e	0.12104879
200	0x3d0b6574	0.0340323
201	0x3c235237	0.009968332
202	0x3e1b3f7b	0.15160935
203	0x3cae8178	0.02130197
204	0x3d0b38f0	0.033989847
205	0x3e082b7d	0.1329784
206	0xbd42ffd5	-0.04760726
207	0xbd085dd8	-0.03329262
208	0xbe723a46	-0.23655042
209	0x3d0ba01c	0.03408824
210	0x3d3df9fc	0.04638098
211	0x3dd7a7ac	0.10530028
212	0x3db9bf4a	0.090696886
213	0xbb9529a0	-0.004552081
214	0x3d1d87d1	0.038459603
215	0xbd07fb48	-0.033198625
216	0x3e2ecd40	0.17070484
217	0x3d93686e	0.07197653
218	0xbdec9a56	-0.11552875
219	0x3d92f471	0.0717553
220	0xbd66ed48	-0.056378633
221	0x3db9be0c	0.09069452
222	0x3e911dd7	0.28343078
223	0xbdfdef66	-0.12399177
224	0x3d3b0221	0.045656327
225	0xbc4427f0	-0.0119724125
226	0x3d16797e	0.036736958
227	0x3deb3532	0.114847556
228	0xbd2ebfc3	-0.042663347
229	0x3da47574	0.08030215
230	0x3d20e161	0.039277438
231	0xbd2d3e81	-0.042295936
232	0x3cf0a030	0.029373258
233	0x3e9195fd	0.28434744
234	0xbda77324	-0.08176258
235	0xbcbed96c	-0.023297034
236	0x3dfa95da	0.12235613
237	0x3e5c342d	0.21504278
238	0x3d0bb608	0.034109145
239	0x3d9a0bf6	0.075218126
240	0xbc8300a0	-0.015991509
241	0xbdfc65de	-0.12324117
242	0x3c19df90	0.00939168
243	0x3dab1c2e	0.08354984
244	0xbbc2af57	-0.0059413123
245	0x3d321dc8	0.043485433
246	0xbdd93cdf	-0.10607313
247	0x3e185ab8	0.14878356
248	0x3e9a4a99	0.30135038
249	0x3e3df8bb	0.18551914
250	0x3da734e3	0.08164384
251	0x3dc31f8b	0.09527501
252	0xbcf953ae	-0.03043541
253	0xbcffded0	-0.031234175
254	0xbc438480	-0.011933446
255	0xbd8e75e0	-0.069560766

mlr.2.bias f4 [208]
0	0x3db38ef8	0.087675035
1	0x3d8b0e2e	0.06789814
2	0xbccaecdb	-0.024771145
3	0x3dcb58e4	0.09929064
4	0x3e02d7c8	0.12777627
5	0x3dfbd941	0.12297297
6	0x3e16fb9b	0.14744417
7	0x3cc85da0	0.024458706
8	0x3dc406f6	0.0957164
9	0x3df12bb1	0.117759116
10	0x3dd69079	0.10476775
11	0x3d203048	0.039108545
12	0x3dd5de5e	0.10442804
13	0xbd2b042d	-0.04175203
14	0xbc57448c	-0.013138901
15	0x3d733d90	0.059384882
16	0x3dc54cd3	0.09633794
17	0x3d6d1819	0.05788431
18	0xbce011e6	-0.027352285
19	0x3bac5e73	0.0052602827
20	0x3d9601a9	0.073245354
21	0x3ca1c024	0.01974494
22	0x3dc3d4fc	0.09562108
23	0x3d1e2bf4	0.038616136
24	0x3db679b1	0.089099295
25	0x3d87e896	0.06636159
26	0x3d543086	0.051804088
27	0x3db71d6f	0.08941161
28	0x3d41847c	0.047245488
29	0x3d8a3c6c	0.06749806
30	0x3c9690ae	0.018379536
31	0x3d8c0a0c	0.06837854
32	0x3de4abef	0.11165606
33	0xbc872c05	-0.016500482
34	0x3d692403	0.05691911
35	0x3c5a628d	0.01332916
36	0x3d7f0e74	0.062269643
37	0x3d588ac7	0.052866723
38	0x3dddec9d	0.10836146
39	0xbd0d77f2	-0.034538217
40	0x3c99acbb	0.018759122
41	0x3dd9e530	0.10639417
42	0x3ccf0113	0.025269067
43	0x3da63771	0.08116043
44	0xbcb0eab7	-0.021596296
45	0x3de07927	0.10960608
46	0xbc9554f3	-0.018228984
47	0x3cd1e0ec	0.025619946
48	0xbc13bbf3	-0.009016979
49	0x3e02d547	0.12776671
50	0x3d8aaeb8	0.06771606
51	0x3c84e5c6	0.016222846
52	0x3dd56c41	0.104210384
53	0x3df988d9	0.12184305
54	0x3c9d64d2	0.019213114
55	0x3d317bff	0.043331143
56	0x3d8f1072	0.069855586
57	0x3dcda9dc	0.10042164
58	0x3de62df1	0.112392314
59	0x3e1c5e58	0.15270364
60	0x3dc71eaa	0.097226456
61	0x3df4c6a9	0.11951954
62	0x3da1d73d	0.079023816
63	0x3e1f8090	0.15576386
64	0x3d861415	0.06546799
65	0x3c10826a	0.008820156
66	0x3dbd95d2	0.092570916
67	0x3b16be40	0.0023001581
68	0xbc800024	-0.015625067
69	0xbd0bd2ad	-0.034136463
70	0x3dd10e86	0.10207848
71	0x3d94a91c	0.072588176
72	0x3d9a464b	0.075329386
73	0x3c496573	0.012292254
74	0xbd133db5	-0.03594752
75	0x3d7c5c68	0.061611563
76	0x3a4a97c2	0.0007728302
77	0x3d6cc4ac	0.05780475
78	0x3dcaaebb	0.098966084
79	0x3de8943f	0.11356401
80	0x3e147ac7	0.14499961
81	0x3d4d1608	0.05006984
82	0x3ddca6f8	0.10774034
83	0x3d64c554	0.05585225
84	0x3dafb2fc	0.085790604
85	0x3d21511c	0.039383993
86	0x3d9d9d83	0.076960586
87	0x3dceffc8	0.1010738
88	0x3df298ab	0.11845525
89	0x3cdb1d26	0.026747297
90	0x3db25508	0.08707625
91	0x3d9c2a4a	0.076252535
92	0x3dcb0066	0.09912185
93	0x3cb2e95c	0.02183979
94	0x3e0e4121	0.13892032
95	0x3dfef26d	0.12448583
96	0xbbc78ae0	-0.0060895532
97	0x3dd1869e	0.10230754
98	0x3da53d4e	0.080683336
99	0x3d18fed2	0.03735239
100	0xbc2376b2	-0.00997703
101	0x3b2b706a	0.0026159533
102	0x3da14481	0.07874394
103	0x3c8efb78	0.017453894
104	0x3e0a6598	0.13515317
105	0x3dab8e1a	0.08376713
106	0x3d430f08	0.047621757
107	0x3e1c4115	0.15259202
108	0x3c60e398	0.013726138
109	0x3d272b44	0.040812746
110	0x3e3a250d	0.18178196
111	0x3dfe518b	0.12417897
112	0x3e351ed4	0.17687541
113	0x3e0cf436	0.13765034
114	0x3d299da9	0.041410122
115	0x3e0d011e	0.13769957
116	0x3db55160	0.08853412
117	0x3e0471da	0.12934056
118	0x3bdbcb07	0.0067075524
119	0x3dad114d	0.084505655
120	0x3d366b72	0.04453606
121	0x3d90db4c	0.070730776
122	0x3cc2a327	0.023759438
123	0x3ddb40da	0.10705729
124	0x3ddec311	0.1087705
125	0x3deb4137	0.11487048
126	0xb99d0828	-0.0002995145
127	0x3b6fabbf	0.0036570875
128	0x3dd6a2d0	0.10480273
129	0xbc80e048	-0.015731946
130	0x3cd7ac80	0.026327372
131	0x3dbd2199	0.09234924
132	0x3e0eb15a	0.13934842
133	0x3cd06858	0.02544038
134	0x3ce52fd3	0.027976906
135	0x3c838092	0.016052518
136	0x3d331ffa	0.043731667
137	0x3e020669	0.12697758
138	0x3bdb91bb	0.006700722
139	0x3dfed655	0.12443224
140	0x3df2a4bc	0.11847827
141	0x3d9f0b48	0.077658236
142	0x3de71c39	0.1128468
143	0x3da05c1c	0.078300685
144	0x3d8d388f	0.06895553
145	0x3d30984a	0.043113984
146	0xbc302b30	-0.010752484
147	0xbd464098	-0.048401445
148	0x3d744f93	0.0596462
149	0xbaf1def6	-0.0018453288
150	0xbc6e5df5	-0.014548768
151	0x3d150ac7	0.03638723
152	0x3c1d2724	0.009591851
153	0x3e094007	0.1340333
154	0x3dd678c2	0.104722515
155	0xbd335bc2	-0.04378868
156	0x3dd49a10	0.103809476
157	0x3d13fe5d	0.03613125
158	0x3e1c1e5c	0.15245956
159	0x3db6c6e6	0.089246556
160	0x3d3bf84f	0.045891102
161	0x3de085c0	0.10963011
162	0x3b823a28	0.003974218
163	0x3d07c850	0.033150017
164	0x3de2275c	0.110426635
165	0x3dceacf6	0.100915834
166	0x3d1a63f1	0.037692968
167	0x3db29ec6	0.0872169
168	0xbcd0138f	-0.025399951
169	0xbd070f77	-0.032973733
170	0xbb83a176	-0.0040170504
171	0xbd79ba8c	-0.06096892
172	0x3daabcd3	0.083367966
173	0xbccc6e44	-0.024954922
174	0xbcdae8c6	-0.026722323
175	0x3d0b8623	0.03406347
176	0x3d8ad16d	0.06778226
177	0x3dc7a1cb	0.097476564
178	0x3d9a3a32	0.07530631
179	0x3c2472b0	0.010037109
180	0x3d9d9a85	0.07695488
181	0x3ce0d0a1	0.027443232
182	0x3e00fe52	0.12597016
183	0x3a556e52	0.0008141744
184	0x3db38a4b	0.08766612
185	0x3dd713f3	0.10501852
186	0xbc0c42d2	-0.008560853
187	0x3dda2948	0.10652405
188	0x3d2a7df2	0.041624017
189	0x3dd00605	0.10157398
190	0x3cac6dfd	0.02104854
191	0x3d3c9ed2	0.0460499
192	0xbc1e0979	-0.009645813
193	0x3d16aa1d	0.036783326
194	0x3d924b9e	0.07143329
195	0x3d9125c8	0.07087284
196	0xbc90132e	-0.01758727
197	0xbd487ded	-0.048948217
198	0x3d5ab163	0.053391825
199	0xbd1c601c	-0.038177595
200	0xbd372f7f	-0.04472303
201	0xbd60650a	-0.05478386
202	0x3dabf238	0.08395809
203	0x3db1b65a	0.08677359
204	0x3c06fa64	0.008238409
205	0x3db46e11	0.08810056
206	0x3df36400	0.11884308
207	0x3db1cdfc	0.086818665
