pqc_reup_v1_output/best_model_epoch_167.pth (torch, 61297 bytes, 6 tensors)

reupload_weights f4 [12, 3, 4]
00000000: 16e6 823e 7a44 b83d 21cc 393e 2b61 36be
00000010: 798a 3d3e 272a 10bf 0a5e 9c3e c0fb 243f
00000020: f663 0e3f 74a4 8b3d adc3 f73d b780 4cbf
00000030: 26dc 62be 12e7 adbd 09ec a53d 057a c5bc
00000040: 00ca cf3e 3b6f 6fbf 4069 1fbf d765 0d3e
00000050: 9275 a3be 8fc0 e23d 8ea5 8b3e 96c7 8d3e
00000060: 5777 923e b99c ee3d 7f55 513d 009b dfbc
00000070: 2eb7 503f d704 b1be 9a21 773d de90 67bf
00000080: e5bc f33b a6ed 0e3e 588c 393f c35f c1bd
00000090: 042a 01be 380b 9ebd e174 463c 3fd0 aabd
000000a0: a279 923e e5db 633f 6978 fe3d 62f3 34bf
000000b0: abce 0d3f feb4 8a3f 7dbf 32bd cfaf b9be
000000c0: f565 b7bc 8656 69bd 89a0 283e d78c 813d
000000d0: a6d9 893f b68c 793f 2550 8ebf f7db 10bf
000000e0: e4d7 d53e 04c1 f13e db60 98bf d554 efbe
000000f0: e647 56bd b143 253d 5f6c cbbd 6a0a 26be
00000100: 20fb 003f cff4 563e 2225 84be 8891 223e
00000110: fb07 8cbe 3c4b afbe 5451 85bf cbfb 1c3b
00000120: 46fe b2bb 50d9 a1bc 6baf 71be 7e4d 953d
00000130: 4531 1ebe 59b5 1abd 939c 41be b521 b83e
00000140: bd23 b73e 8d2f b63e 8a28 d93e f8e9 033f
00000150: 544e f43d b882 c23d 7462 e23d fb5f 82bd
00000160: 140b a7be 7883 0cbf 476f 92be 2703 b73e
00000170: 9ccc 9fbe 6d56 e6bd e284 2c3f d9b3 c73e
00000180: 1fe7 72be 5606 2b3e 54e8 183e 1b82 c83d
00000190: 5517 3fbe 3326 fe3e 4452 413f b6dc 5b3e
000001a0: e8fa e83b 53a1 2b3f 6359 693d 51bb 68be
000001b0: a54d cbbd 4ab6 2c3e 4660 583e d42d dc3d
000001c0: de18 803d daa7 043f 1e7f 163e 8161 27bf
000001d0: 7a1b b53e 366b fc3e bf97 383e 4adf 1c3f
000001e0: d23a 373e 2b9d 1cbf dd4d 50be ee32 843e
000001f0: 6fe4 ab3e 3ca5 b53e b5a5 383f 923d 0c3f
00000200: 3664 5fbf 4840 7dbf 3258 40bf 6582 39bf
00000210: ea9d 3bbc 86c5 973d 0373 d53d 94c0 943e
00000220: 6c4d b6bf 8423 d53d c6d0 e73d b89f 13bf
00000230: 148d a1bf cbc4 e73e 8a2a c73e 9890 72bd
0.25566167 0.08997436 0.18144275 -0.17810504 0.18509854 -0.5631432 0.30540496 0.6444664
0.5562128 0.06818476 0.12097869 -0.79883903 -0.22154292 -0.08491339 0.08101661 -0.024106035
0.405838 -0.935291 -0.62269974 0.1380838 -0.31925637 0.11071884 0.27274746 0.27691334
0.28606674 0.11650986 0.051106926 -0.02729559 0.8152951 -0.34574005 0.06033478 -0.90455425
0.0074382895 0.13957843 0.7247977 -0.09442093 -0.12613684 -0.077169836 0.012112827 -0.08340501
0.28608423 0.8900741 0.1242531 -0.7068387 0.55393475 1.0836484 -0.04363965 -0.36266944
-0.022387484 -0.05696728 0.1646749 0.06325691 1.0769546 0.9748033 -1.1118208 -0.5658564
0.41766274 0.47217572 -1.1904558 -0.4674441 -0.05231466 0.04034776 -0.099327795 -0.1621491
0.50383186 0.20991825 -0.2580958 0.15875828 -0.2734984 -0.34237087 -1.0415444 0.0023953791
-0.0054624407 -0.019756943 -0.23602073 0.07290171 -0.15448482 -0.037770603 -0.18907385 0.35963216
0.35769454 0.35583153 0.4241374 0.51528883 0.119290024 0.09497589 0.11053935 -0.06365963
-0.3262564 -0.54888105 -0.28600523 0.35744593 -0.31210792 -0.11246953 0.67390263 0.390044
-0.23720978 0.16701636 0.14932376 0.09790441 -0.18661244 0.4963852 0.7551615 0.21470913
0.0071099885 0.67043036 0.05697001 -0.22727706 -0.09926919 0.16866413 0.21130475 0.107509285
0.06254743 0.5181862 0.14696929 -0.65383154 0.35372525 0.49300545 0.18026637 0.6127821
0.17893532 -0.6117732 -0.20342202 0.25820106 0.33572719 0.35477626 0.7212785 0.5478145
-0.87262285 -0.9892621 -0.75134575 -0.7246459 -0.011451224 0.074107215 0.10422327 0.29053175
-1.4242377 0.10407165 0.11319117 -0.57665586 -1.2621179 0.4526733 0.38899642 -0.059219927

reupload_bias f4 [12, 3]
00000000: 789e 09bf 7d06 463e 97d2 bcbe 80d5 0e3f
00000010: 661f bbbe 3b41 dd3e 5b05 15bf 82ac 773f
00000020: 88e9 803c c890 103f 8c02 603f 4435 e53f
00000030: 353d e1be ab39 adbe f05a c63e adb9 043f
00000040: 3fd1 793e c5e1 d0be a01e 03be c381 4bbc
00000050: ae01 1f3e e1a9 3dbf ca9c 2dbf 96dd 44be
00000060: 55aa ef3e 552f 403f 38cf 29bf 4650 1abf
00000070: 7f8c 4fbf f798 223f bf5a 2b3e 8e29 713e
00000080: bae7 f2bf 68fd 11bf 3ec7 fdbe 6502 783f
-0.5375743 0.19338413 -0.36879417 0.55794525 -0.36547393 0.4321383 -0.58211297 0.967476
0.015736356 0.5647092 0.87503886 1.790688 -0.4399201 -0.3383306 0.38741255 0.5184582
0.24396227 -0.40797248 -0.12804651 -0.012421074 0.15527984 -0.7408734 -0.67817366 -0.19225153
0.4680964 0.7507222 -0.66331816 -0.6027874 -0.81073755 0.63514656 0.16733836 0.23551008
-1.8976967 -0.5702729 -0.49566072 0.96878654

mlr.0.weight f4 [64, 12]
00000000: 6f08 8a3b 1b33 8dbc fc21 8e3d 0dad a53d
00000010: eb3d 86be 762d dabd b0ef 783e b84e e63d
00000020: d13d 6bbc 9038 32be 04da 34be 5565 84be
00000030: 8b24 9bbe df77 c1bd 849d 593e 04ff a3bd
00000040: 8880 f1be 8aa9 10bf 3a38 43bd f3cc 0e3f
00000050: 8fb3 b13d 362c 85be c865 ae3e 03d1 a23c
00000060: fbae 77be a49c 1c3e 33d9 3dbe feb5 edbd
00000070: 025e b1be 10e1 0c3e d72d 263e 32f0 463d
00000080: 146c 84be df29 aebe 7d2c 92be cc5f 233e
00000090: beeb 0d3e 64c0 783e 91db 1a3e 39a1 953d
000000a0: 9743 39bb e1ce 60be c443 7dbe ff3e 8abe
000000b0: 7c04 f23d bc21 11be b7f6 6dbd 0c1f 2abe
000000c0: 2273 1e3e 4048 49be 41cd fcbe 54f3 fc3b
000000d0: 63de c93c 8a17 a93d 3322 69be 64e6 f3be
000000e0: 85ea 5cbd e86b 7ebe 694f a6bc fd76 ccbe
000000f0: f51a 87bd 9240 aebe f73f a53e ef22 383e
00000100: b4d4 ac3e 2648 47bf e2d4 b93e 005d 6abe
00000110: a825 913d 5e60 5dbd 47da e4bd aa3c 53be
00000120: 4efd b6bc b908 e2be eec4 903e 9e9a e3be
00000130: 7690 993e 450d 6a3e b1e6 df3e c958 a8be
00000140: b750 6cbe 8ccb f53d 4bed 273e 0461 ecbe
00000150: 71a5 a0bd 01b6 bdbe 1118 a83c 9f58 babe
00000160: 1ae1 35be 7c0d 04be f1bc 4abe 374e d53e
00000170: 1e18 143f fc81 68be 7ca6 5e3e eaa4 913d
00000180: 50ab 2dbe 2cad e8be b6aa 28be 234e 9dbe
00000190: 4a18 19be 366f 86be 2f78 0fbe 5968 03bf
000001a0: e9c8 183c f088 75be e93d 7a3d 56ea f9be
000001b0: ba7d f6be 100c d43e f622 88bd 40ab ca3d
000001c0: 04a6 73be 03bf 8a3c ff4a 9d3e b96f 833e
000001d0: 667a 04bf 4e93 f43e 9758 a83e 2cb1 e3bd
000001e0: 770d 63be 7b4f 063f 7263 5cbd e17c 9e3e
000001f0: e394 a2be b52f 23be be9a 473e 7f2f 523e
00000200: 8d60 c7be f49a 73be 3185 a6be 5c85 afbe
00000210: 5c19 64be 3134 92bd f67e 473e 3dea 453d
00000220: 67d6 60be db23 6dbe 2b0e 133e c8e1 5bbe
00000230: 6a96 11bd 7ecd 0d3e 0dcf 08be 24ee 00bd
00000240: 59d8 cdbc a2de 8bbd 62e1 15be 8ec1 83be
00000250: f9f3 6ebe c548 1ebe 9fc0 8e3e e0c7 0ebe
00000260: 8381 46be 194e 8f3d 52f1 a23d c5f6 213e
00000270: c0dc 133f a287 ee3d a5e0 bebe 08eb d63d
00000280: dab6 6d3e b0ac 5cbe 14fe 79be a5f1 8c3e
00000290: 6674 30be d9cc cebe 2667 91be 4411 8b3e
000002a0: 72bd 4c3d bc67 433e 2bc7 15bd 49f0 a8be
000002b0: c6aa 02bf bb18 dfbc 1998 413e 619c ba3e
000002c0: c3f8 89be 9cc7 553e bec7 69bd 1cb1 71be
000002d0: 7c01 42bd f7e9 7e3e 1f1f 893e ce39 00bf
000002e0: 92bb adbb e9c3 2cbf 666b d5bc 5878 bc3e
000002f0: 7bf5 22bd d784 c93e 2791 34be b994 b6be
00000300: 19b5 e13e 37ed d4bd 6f37 6a3c c84e 49be
00000310: f138 b93e 6f21 533e 7a10 1a3e 36a1 10bf
00000320: 13c4 8ebe 85fe 243d b36c 73bc ed65 9fbe
00000330: 126b a5bd 15a4 473e a261 bc3c e264 553c
00000340: 0c7f 91bd 01d9 85be bcf8 8abe 874d 0dbe
00000350: f242 16be 4c31 b83d 4b1b acbd 0a4b e7bd
00000360: ab92 3b3f 8d17 a23e c0ff 5e3e 6753 94be
00000370: 28ce 05be f6dc 6a3e 9480 abbe 4cb3 f5be
00000380: 1657 15bd 4e23 babe e137 87be b0a3 823e
00000390: 179e 173f 55c0 6d3d 8d67 26be 84ff 05bf
000003a0: e4ba 87be 4baa 453d 69dd e7bc 7127 a9bd
000003b0: f81a 60be f378 d83e dd99 3bbe 1f85 233e
000003c0: c088 ebbd aa75 d53d 5c95 303e 634e 163e
000003d0: 7560 71bd f68d e33e 261b 4d3e e665 b43e
000003e0: 160b be3e 6a8f 3abe 4d55 dbbd a076 f63e
000003f0: 8ea3 673e 06b5 61be 13cf b6bc 49c0 91be
0.004212431 -0.017236283 0.06940076 0.080896474 -0.26219115 -0.10653202 0.24310184 0.11245483
-0.014358 -0.1740439 -0.17661291 -0.2585856 -0.30301318 -0.09446692 0.21251494 -0.08007625
-0.47168374 -0.56508696 -0.047661044 0.5578148 0.08676826 -0.26010293 0.34062028 0.019875055
-0.24187844 0.15294129 -0.18539886 -0.11606978 -0.34642035 0.1375773 0.16228424 0.04856891
-0.25863707 -0.3401632 -0.28549567 0.15954512 0.1385946 0.24292141 0.1512282 0.073061414
-0.0028269046 -0.21953918 -0.24732882 -0.27001187 0.118172616 -0.14173025 -0.058096614 -0.16613406
0.15473607 -0.19656467 -0.49375346 0.0077194367 0.024642175 0.08256443 -0.22766952 -0.47636712
-0.053934593 -0.2484585 -0.020301538 -0.3993453 -0.065969385 -0.34033638 0.32275364 0.17982076
0.3375603 -0.77844465 0.3629523 -0.22887039 0.070872605 -0.05404698 -0.111744456 -0.2062861
-0.022337582 -0.4414728 0.28275245 -0.444539 0.29993027 0.22856624 0.4373069 -0.32880238
-0.23077665 0.12001714 0.16399114 -0.46167767 -0.078440554 -0.3705292 0.020519288 -0.36395738
-0.1776165 -0.12895769 -0.19798638 0.41661236 0.578493 -0.22705835 0.21743196 0.07111533
-0.16959882 -0.4544462 -0.16471371 -0.30723676 -0.14950672 -0.26256722 -0.1401069 -0.51331097
0.009325244 -0.23978019 0.0610942 -0.48811597 -0.48142797 0.41415453 -0.06647293 0.098959446
-0.23793799 0.016936785 0.3072128 0.25671175 -0.51749265 0.47768635 0.3288009 -0.11117777
-0.22173105 0.5246503 -0.053805776 0.3095465 -0.31754217 -0.15936168 0.19492623 0.20525931
-0.3894085 -0.23789579 -0.32523492 -0.34281433 -0.22275299 -0.07138861 0.19482026 0.04831909
-0.21956788 -0.23158209 0.14360873 -0.21472847 -0.035543837 0.1384792 -0.13360234 -0.03147711
-0.025127577 -0.06829573 -0.14636758 -0.25733608 -0.23335256 -0.15457447 0.27881333 -0.13943434
-0.19385342 0.06997318 0.079561844 0.15816791 0.5775871 0.11646964 -0.37280765 0.104940474
0.23214284 -0.2155025 -0.2441333 0.2752811 -0.17231902 -0.4039066 -0.2839901 0.2716161
0.049985357 0.1908254 -0.036566895 -0.32995823 -0.5104183 -0.027233472 0.18905677 0.36447433
-0.26947603 0.20876926 -0.057075255 -0.23602718 -0.047364697 0.24893938 0.26781556 -0.500882
-0.005301901 -0.67486435 -0.026052188 0.36810565 -0.03978489 0.3935916 -0.17633496 -0.3566034
0.4408348 -0.10396808 0.014295443 -0.19658959 0.36176255 0.20618223 0.15045348 -0.5649599
-0.27883968 0.04028179 -0.014857459 -0.3113245 -0.08077063 0.19496186 0.022995774 0.013024541
-0.071043104 -0.26142123 -0.27142894 -0.13799106 -0.14673975 0.08993778 -0.08403643 -0.112936094
0.7327067 0.31658593 0.21777248 -0.2896988 -0.13066924 0.22935852 -0.33496535 -0.47988355
-0.036460005 -0.3635506 -0.2640982 0.2551551 0.592256 0.05804475 -0.16250439 -0.5234301
-0.26509774 0.048258107 -0.028303819 -0.08259476 -0.21885288 0.42279777 -0.18320413 0.1596875
-0.11500692 0.10422833 0.17244476 0.1467834 -0.05892988 0.44444245 0.20029888 0.35233992
0.37117833 -0.1821877 -0.10709629 0.4813738 0.22620985 -0.22041711 -0.022315538 -0.28467014

mlr.0.bias f4 [64]
00000000: 2d91 a2bd 80b2 363e aa3e e33c c22d 4ebd
00000010: f625 253e fa6a 4abd 86f1 f13d d6ed ae3d
00000020: 94e3 373e 6a2c 553c 29f8 e03d 79b4 2abd
00000030: a72a e6bd 0484 f63d 3982 2f3e a1d8 123e
00000040: 88f8 953d ea89 c9bd ab4b 8d3d fec4 133e
00000050: 901d eebd 4e7c 12bd 5817 ebbc 7de2 003e
00000060: 458c 7c3c 7b5d 8fbc abd5 c5bc eaa2 e6bb
00000070: b8b0 8ebd 6109 a4bd 2290 653d 0dc8 14be
00000080: 1dc9 81bd c710 df3c 12dc 553c f308 8bbe
00000090: fcb1 153e b845 06be 3bbd 22be 2c0a f33c
000000a0: a043 1abe 20f1 5cbd 0135 c7bd 0918 8eba
000000b0: f9e8 f6bd 5949 11bd 0ef8 c9bb 2035 6fbe
000000c0: 41ec 32be 6a06 8a3b c1a0 43bc ca12 943d
000000d0: d2b4 76bd 5b01 413e adc2 413d 8869 353d
000000e0: ad47 ffbd cc08 0abe 6c3a 06bd 14c9 e1bc
000000f0: 70f7 cc3d 8d8e 30bd 0892 433e 6285 2dbe
-0.07937846 0.1784153 0.027739841 -0.050336607 0.16127762 -0.049418427 0.11813645 0.08541457
0.17957908 0.013011077 0.10984833 -0.04167602 -0.11238604 0.12036899 0.1713952 0.1434045
0.07322794 -0.09840758 0.06899198 0.14430615 -0.11626732 -0.035763077 -0.028697655 0.12586398
0.015414302 -0.01750063 -0.024149736 -0.007038464 -0.069673 -0.080096014 0.05604566 -0.14529438
-0.063371874 0.02722968 0.013052957 -0.27155265 0.14618677 -0.13112533 -0.15892498 0.029667936
-0.1506486 -0.053940892 -0.097269066 -0.0010840903 -0.12056155 -0.03547034 -0.0061636036 -0.2336011
-0.17472936 0.0042121904 -0.011940182 0.07230146 -0.060231037 0.18848173 0.047304798 0.044290096
-0.12464843 -0.13479918 -0.03277056 -0.027561702 0.100081325 -0.043104697 0.19098675 -0.16945413

mlr.2.weight f4 [208, 64]
00000000: 609b 9b3c dda6 083f 1ae5 3b3d 24f0 5fbd
00000010: 0bd4 8ebe 8cb8 243f efae 6dbe 7b2e d4be
00000020: 7ff8 9abe 0e2a 003f f71d 003f 608f 60bc
00000030: 5819 cebd a491 5a3c 531e 6d3e b725 1b3f
00000040: ae33 bebe 1893 6fbd e91f 12bf df31 85be
00000050: 0454 223e 80c1 76bd bcfe 2f3e 9241 34bd
00000060: 256e b1be 09ed 413e 0003 fc3d bf7e 803d
00000070: 6e0b 8ebc 21b6 453e 120e 5b3d 4a9c d7bd
00000080: 206c 35bd 88d5 953d 956c 20be 084d f43d
00000090: b82a 323e 0476 8a3d f432 8dbd 1e7c 8a3e
000000a0: c8b7 b83d f272 8d3e 4855 b83d 4b9a b53e
000000b0: 4072 1f3b b754 e83e ab3f 433f 50f1 5e3d
000000c0: cc8e 24bd 008e 09bb 6c73 e1bd 559a 21bf
000000d0: 5d25 38bd 2ec8 2abe 2c86 33bd 1356 983f
000000e0: 29a6 653e fc16 853e 3a00 993e e286 1e3e
000000f0: 0e58 10bf be2f fdbd 42af 7f3e bc70 8f3d
00000100: 72c7 dbbd 6e28 ab3e d352 c93d 201f f83b
00000110: 11b5 12bf 4e6a 103f 131c bebd e087 813e
00000120: ec49 60be 5e8a 0f3f 529c ea3d 804f fd3d
00000130: 2cef 58bd 2d97 7bbe 1a41 513e e283 493e
00000140: 50a9 e4be e84b 523d 3ecf 71bf 16ba 5fbe
00000150: d7f4 683e fc95 c83d d99a cfbc 890f 43be
00000160: 7f8b 333f 6041 443b a836 993d d23f 0e3e
00000170: 9bbf 7abd 678f 1bbd 2b47 7bbd 342f 96bd
00000180: 840f 583e 8202 f6bd 9c77 0d3f c235 ff3d
00000190: cca9 903e c494 2e3d 24d7 e4bd 251c a13e
000001a0: 1827 afbc 9308 223f b4b6 fc3d 31e7 1f3e
000001b0: 20e4 10bc ea2e 1a3f ed42 363f 101e b5bd
000001c0: 2885 a63c 0011 89bc 59fc f33c 316d 823e
000001d0: 6887 a7bd 060b 4dbe da94 42bc 1a96 0d3e
000001e0: 7c4a 943e 3f6f cbbe 82a9 0f3d 29be 1b3e
000001f0: 1260 a5bd 4804 be3c ca5b 763e 806c 9a3c
00000200: 92aa f63d 01b4 213f cf7f dfbd a6ae e93d
00000210: 6aaa 98be fb91 193f b028 fbbd 4e66 82be
00000220: 081c babe 29d7 163f 683b e93e d087 193c
00000230: 2ce2 b2bd f21b 50be 7273 b03e d782 133f
00000240: cf19 e5be e086 213c db0b d0be 8074 83be
00000250: 0a81 933e 3ced 4c3d 605c 2f3e 2a4f 48bd
00000260: 7aca 323e a092 903e f243 dfbd 24aa e7bb
00000270: 3a5a 8e3c 4437 303e e372 7e3e 40f7 eabc
00000280: 42a8 703d be8e a63d bd89 32be 3405 cd3d
00000290: a8fe 543e c27a c4bd 7846 b4bd be7d df3d
000002a0: 0e4b 8cbd 4259 c13e e026 1abc bc3e 4f3e
000002b0: f857 81bd aa51 d03e 0832 243f 5225 fb3d
000002c0: 10c3 3dbd d64b b7bd 17fd 533d 1a01 1dbf
000002d0: 9c23 c13d 09a6 15be 12b4 e63d 3104 4a3f
000002e0: 26c0 7e3e 08a6 0e3d ae72 143e fa0b 2f3e
000002f0: cc6e 55be 806c b33a 0fd3 673e 9801 33bd
00000300: 7047 dfbd 26bc a0be d029 433d a44f a7bd
00000310: 3f9c 0dbf 7a4d 313f 40f1 3bbe a6c8 373e
00000320: 2e21 ecbe 163c ccbc b8eb 973c 7881 ae3c
00000330: f038 0b3d 4b08 6d3b 28b5 0bbe f98c 93be
00000340: 9daa 7bbe 1ca0 0b3d 3930 13bf 72f0 5dbe
00000350: b58d 5a3e a029 95bb c862 8dbc 192f 23be
00000360: c362 713f 6833 dabd 569a ecbd f9ec 8b3d
00000370: 48ed 66bd 02d2 e73d 3fab 083f 66ef fdbd
00000380: e506 883d f027 44bc a70f fb3e 3235 eb3d
00000390: 844d da3e 7475 a43d 61e1 203d 281d ac3d
000003a0: 30a0 f03c cc05 473f 2473 a7bd 84dd 643d
000003b0: da95 fa3d b5de 043f bd6f 283f f60b 9a3d
000003c0: a000 83bc de65 fcbd e1a9 ec3b c79e 043f
000003d0: 29b2 c1bd b2ce 10be 8ae9 04bd a089 abbe
000003e0: fb99 c63e d387 96bd 9a9d b73d 2b9a 4b3d
000003f0: 18b0 38be d0de ffbc 383f 053e e075 8ebd
0.018994987 0.53379613 0.045872785 -0.054672375 -0.2789615 0.64344096 -0.23211263 -0.41441712
-0.30267712 0.5006417 0.5004572 -0.013706058 -0.10063428 0.0133403875 0.23156099 0.60604423
-0.37148803 -0.05848989 -0.5707994 -0.2601461 0.15852362 -0.06024313 0.17187017 -0.044007845
-0.34654346 0.18938078 0.1230526 0.06274175 -0.017339434 0.19307758 0.053480215 -0.10527857
-0.04429257 0.073161185 -0.15666421 0.11928755 0.17399108 0.06760791 -0.06894484 0.2704782
0.090194285 0.2762676 0.09000641 0.3546928 0.0024329573 0.45377132 0.76269025 0.054429352
-0.040175244 -0.002098918 -0.11008343 -0.63126117 -0.044957507 -0.16677925 -0.04382913 1.1901268
0.22426666 0.25994098 0.29882985 0.15481141 -0.5638436 -0.12362622 0.249692 0.07003924
-0.107314005 0.33429283 0.098302506 0.0075720698 -0.57307535 0.5641221 -0.092826985 0.25298977
-0.21903199 0.56070507 0.11455597 0.12368679 -0.052962467 -0.24569388 0.2043499 0.19679216
-0.44660425 0.05134192 -0.9445685 -0.2184833 0.22749649 0.09794232 -0.025342392 -0.19048895
0.7013473 0.0029946193 0.07481128 0.13891533 -0.061217885 -0.037978556 -0.061347168 -0.07333222
0.21099669 -0.12012197 0.55260634 0.12461425 0.28254545 0.042622343 -0.11173847 0.31466785
-0.021380946 0.63294333 0.12339535 0.15615536 -0.008843452 0.60227835 0.7119587 -0.088436246
0.020327166 -0.016731739 0.029783415 0.2547393 -0.081801236 -0.20023736 -0.011876309 0.1382679
0.28963077 -0.39733312 0.035073765 0.15209259 -0.080749646 0.0231954 0.24058452 0.018850565
0.120442525 0.6316529 -0.109130494 0.11410265 -0.29817516 0.59988374 -0.1226362 -0.25468677
-0.3634951 0.5892206 0.45553136 0.009370759 -0.08734545 -0.2032316 0.34463078 0.5762152
-0.44746253 0.009858817 -0.40634045 -0.2567482 0.28809386 0.05003093 0.17125082 -0.04890362
0.17460051 0.28236866 -0.109016314 -0.007069843 0.017377008 0.17208582 0.24848513 -0.028682351
0.058754213 0.08132695 -0.17435355 0.10010758 0.20800269 -0.09593727 -0.08802503 0.10912655
-0.06850253 0.3776341 -0.009408683 0.20238775 -0.06315607 0.40687305 0.6413884 0.12262978
-0.046328604 -0.089500114 0.051755037 -0.61329806 0.0943062 -0.14614119 0.112648144 0.78912646
0.24877986 0.03482631 0.14496872 0.17094412 -0.20843047 0.0013688952 0.22639106 -0.04370269
-0.109022975 -0.31393546 0.047647297 -0.08169487 -0.5531654 0.69258845 -0.18353748 0.17947635
-0.46119064 -0.024930995 0.018545017 0.02130197 0.033989847 0.0036168273 -0.13643324 -0.2881849
-0.24576803 0.03408824 -0.57495457 -0.21673754 0.2134312 -0.004552081 -0.017259017 -0.15935935
0.94291323 -0.10654336 -0.11552875 0.06832308 -0.056378633 0.11319353 0.533863 -0.12399177
0.0664194 -0.0119724125 0.4903538 0.114847556 0.42637265 0.08030215 0.039277438 0.084039986
0.029373258 0.7774322 -0.08176258 0.055875316 0.12235613 0.51902324 0.657955 0.075218126
-0.015991509 -0.12324117 0.0072223996 0.51804775 -0.094578095 -0.14141348 -0.032449283 -0.33503437
0.38789353 -0.07350125 0.08965607 0.049707573 -0.18035924 -0.031234175 0.13012397 -0.069560766

mlr.2.bias f4 [208]
00000000: 1437 f23d f762 af3d 024f 103c dec9 063e
00000010: a2ef 183e 9fc5 033e 1d4e 263e ec09 2f3d
00000020: 798a c53d 2183 153e 4bba dd3d d676 383d
00000030: a3e9 e33d 7eb4 debc 0114 3a3d 2385 6c3d
00000040: 7e6e 053e 4ce7 a63d bbcc 3a3c d901 383d
00000050: fc31 ae3d 82b0 333d 47fa f43d 6372 a13d
00000060: 4189 e23d 041b bb3d ada4 d23d a4ea ee3d
00000070: f90f ab3d 11e6 0f3e 5b5b bc3d e1a4 fb3d
00000080: a62a c83d e6f2 213c 76d0 8b3d 2502 083d
00000090: b39b 823d 88cd 3b3d d313 df3d 4ceb fcbb
000000a0: c269 733d d532 b63d a613 b53d 1363 b43d
000000b0: 43de 883b f7bb 0c3e aca6 0f3d e2a3 813d
000000c0: 1296 6b3d c2ec 0e3e df83 013e fea8 423d
000000d0: c5fe 353e 88a5 4a3e 3b9f b23d 1f46 163e
000000e0: 223a f43d 1cb1 233e 21f1 fa3d b482 1b3e
000000f0: 68ee f23d df37 0a3e df79 ce3d b80d 113e
00000100: 4ab5 b43d 33e8 323d db35 fc3d 3251 c83c
00000110: cc57 863d 0b68 8f3c 8122 eb3d 6608 133e
00000120: 64db fb3d d0e2 ad3d 5c9c 1d3d 3bca e63d
00000130: 5dbb aa3d d700 cf3d 83d9 263e fb04 493e
00000140: 119d 423e 5aef 203e 5051 223e 02a4 2c3e
00000150: 4428 183e 2e5a 063e 713a 0c3e 8bbc 1f3e
00000160: d2ef 2e3e b77c 023e 8f87 113e e4b5 323e
00000170: 73d5 463e 1c4e ad3d b2cb 5b3e 0cf3 303e
00000180: 2049 c13d 92e4 283e 06a9 093e 0c67 d33d
00000190: 4db8 7c3d 70d8 7d3d a357 283e c8e0 a43d
000001a0: d63f 503e 8ac0 253e f80b 013e 128d 813e
000001b0: 8371 c73d 3994 2a3e 5788 743e 8e51 393e
000001c0: 169a 863e d574 4e3e e7e3 143e eec2 573e
000001d0: f3f1 173e fccc 483e 3a65 a33d 92fa 233e
000001e0: 0973 1a3e c5ae 233e 38a2 e43d f59a 2e3e
000001f0: 0044 353e ee70 4c3e ca9e a03d c849 b13d
00000200: ca1c 153e c24b 2f3d b9ae 0c3e 6e05 2e3e
00000210: be45 4f3e 6095 1a3e 4d83 fc3d 9480 033e
00000220: ad12 0e3e 2f65 3b3e 60cf c83d 40b7 293e
00000230: 5c8e 5c3e 084d 2c3e 9ffd 273e 39b0 063e
00000240: f32f cd3d edee d23d ce79 873d 4bf5 063d
00000250: f518 e53d efb9 383d 686c 3c3d c085 013e
00000260: d32e 8e3d 1cde 463e 872d 1b3e 6f22 c53c
00000270: fe36 3a3e 24b7 bc3d cf37 6d3e 3576 463e
00000280: 9e2e 053e ff04 4f3e 884f b63d 8307 c03d
00000290: 7fd0 2a3e f43f 233e 095d eb3d 7336 043e
000002a0: 139c 083d 8cad 193d fc4f ee3c 1b91 cd3c
000002b0: c77b e93d f3aa c13c 8156 b13c 64fb 613d
000002c0: 9852 053e b300 263e 6809 fb3d 4787 843d
000002d0: e46b ea3d 52a3 853d 03d7 473e 57ce 873d
000002e0: 5a82 2d3e 5df0 423e 2b70 b13d 9ca3 393e
000002f0: be0c c33d 7d90 183e 13b6 873d f324 b23d
00000300: 48cf 673d 8eb2 983d 9074 ba3d 58b2 c73d
00000310: 6d88 a2bb 5cce c93b bec5 843d aa5a 01bc
00000320: d8be 5d3c 615a 4ebc ec33 043e 7a87 143e
00000330: 105d 5f3d bf0c fb3d 88f3 253e 2e9f ec3d
0.118269116 0.08563798 0.008807899 0.13162944 0.14935163 0.12868355 0.16240735 0.04273407
0.09645552 0.14600803 0.10826548 0.045035206 0.11128547 -0.027185675 0.045429233 0.057744157
0.1303043 0.08149585 0.011401351 0.044923637 0.085056275 0.043869503 0.11961799 0.07883146
0.11061335 0.09136012 0.10285316 0.11665848 0.08352656 0.14052607 0.09197112 0.122873075
0.097737595 0.009884572 0.0682687 0.03320517 0.063773535 0.045850307 0.10892453 -0.0077184793
0.05942703 0.08896414 0.08841638 0.088079594 0.0041768863 0.13743578 0.03507106 0.06330086
0.057516165 0.13957503 0.12647961 0.047524445 0.17772968 0.19789708 0.08721777 0.14675187
0.119251505 0.1598553 0.12253023 0.15186578 0.11861879 0.13497876 0.10081839 0.1416539
0.08823641 0.043678474 0.123149596 0.02445278 0.06559715 0.017505666 0.114811905 0.14358672
0.12297705 0.08490527 0.038479194 0.11269041 0.08336518 0.10107582 0.16293912 0.19630806
0.19005229 0.15716305 0.15851331 0.16859439 0.1485911 0.13120338 0.13694169 0.15599267
0.17083672 0.12742887 0.14211868 0.17452198 0.19417362 0.08462164 0.21464422 0.17280215
0.094377756 0.16493443 0.13443384 0.10322389 0.0616992 0.06197399 0.16439681 0.08050686
0.20336851 0.16186729 0.12602222 0.2530294 0.097384475 0.16658105 0.23880135 0.18097517
0.26289433 0.20161755 0.14540063 0.21070454 0.1483839 0.19609445 0.07978292 0.16013554
0.15082945 0.15984638 0.11163753 0.17051299 0.17701721 0.19964954 0.078427866 0.08656651
0.14561763 0.042796858 0.13738526 0.16994259 0.20241448 0.15096045 0.12329731 0.12842017
0.13874312 0.18300317 0.09805179 0.1657381 0.21538681 0.1682626 0.16405343 0.13153161
0.10018911 0.10299478 0.06615029 0.032948773 0.11186401 0.045099195 0.04600182 0.12648678
0.06942525 0.19420666 0.15154086 0.02406427 0.1818504 0.09214619 0.2316582 0.1938103
0.13006064 0.2021675 0.08901888 0.09376433 0.16681097 0.15942365 0.114923544 0.12911396
0.03335197 0.037519023 0.029090874 0.025093606 0.11400562 0.023641085 0.021647694 0.055171385
0.13019788 0.16211204 0.122576535 0.064711146 0.1144636 0.065252915 0.19515614 0.06631153
0.16944256 0.19037004 0.086639725 0.18128818 0.09523915 0.14898868 0.06626525 0.08698454
0.056594163 0.074559316 0.09104264 0.09750813 -0.004960111 0.006158633 0.06483029 -0.007895151
0.01353427 -0.01259479 0.12910432 0.14504805 0.05453211 0.122582905 0.16206181 0.115537986
