pqc_reup_v1_output/best_model_epoch_170.pth (torch, 61297 bytes, 6 tensors)

reupload_weights f4 [12, 3, 4]
0	0x3e80b5f9	0.25138834
1	0x3db6bc4e	0.08922635
2	0x3e3b534b	0.18293492
3	0xbe31e39f	-0.17371987
4	0x3e3b5998	0.18295896
5	0xbf1389f7	-0.5763239
6	0x3ea41ac6	0.32051677
7	0x3f25131d	0.6448229
8	0x3f10337f	0.56328577
9	0x3d6efbf7	0.05834576
10	0x3e0fe159	0.14050807
11	0xbf4bc64e	-0.79599464
12	0xbe64b7b1	-0.22335698
13	0xbda89afe	-0.082326874
14	0x3da17baa	0.07884915
15	0xbcefe447	-0.029283656
16	0x3ed92da8	0.42417645
17	0xbf6f5e1a	-0.9350296
18	0xbf1edf2f	-0.620593
19	0x3e104ae5	0.1409107
20	0xbea48da2	-0.32139307
21	0x3de19e7a	0.11016555
22	0x3e8eecc1	0.27915004
23	0x3e8d49d2	0.27595383
24	0x3e975f4f	0.29564902
25	0x3df20d26	0.11818914
26	0x3d51bf94	0.051208094
27	0xbcb68338	-0.022279367
28	0x3f516921	0.8180104
29	0xbeb01cac	-0.34396875
30	0x3d622dba	0.05521939
31	0xbf6605b3	-0.89852446
32	0x3bc77b20	0.0060876757
33	0x3e208bc6	0.1567832
34	0x3f3d0dd3	0.7384922
35	0xbda98a86	-0.082783744
36	0xbe06635f	-0.13123845
37	0xbda8c619	-0.08240909
38	0x3c303aea	0.010756234
39	0xbdab72d1	-0.08371509
40	0x3e919c00	0.2843933
41	0x3f63c48b	0.88971776
42	0x3e07597a	0.13217726
43	0xbf3528bb	-0.70765275
44	0x3f0fd0fd	0.56178266
45	0x3f8be723	1.0929912
46	0xbd3679cb	-0.044549745
47	0xbeb09867	-0.34491274
48	0xbc93ce18	-0.01804261
49	0xbd613711	-0.054984156
50	0x3e2b649b	0.16737597
51	0x3d86cf6d	0.06582532
52	0x3f891a71	1.0711194
53	0x3f793dcf	0.9735994
54	0xbf8e4ea6	-1.1117752
55	0xbf0f704f	-0.56030744
56	0x3ed5dd22	0.41770273
57	0x3ef04b92	0.46932656
58	0xbf9729c6	-1.1809623
59	0xbee8af3b	-0.4544619
60	0xbd569b0f	-0.05239397
61	0x3d273268	0.040819556
62	0xbdc5d5b7	-0.096599035
63	0xbe286625	-0.16445215
64	0x3f045fb5	0.5170854
65	0x3e5b8c08	0.21440136
66	0xbe87fb6c	-0.26559007
67	0x3e26ebb9	0.16300859
68	0xbe891572	-0.26774174
69	0xbeb13ab4	-0.346151
70	0xbf871157	-1.0552167
71	0x3c437aac	0.011931103
72	0xbc354c1a	-0.011065507
73	0xbcb99bac	-0.022657238
74	0xbe7e7215	-0.24848206
75	0x3d892a17	0.06697481
76	0xbe1ba232	-0.15198591
77	0xbd04c7b6	-0.03241702
78	0xbe4b5d2f	-0.19859765
79	0x3ebd33e9	0.36953667
80	0x3ebad66d	0.3649172
81	0x3eb75793	0.35809
82	0x3ed8fa1c	0.42378318
83	0x3f05180c	0.5198982
84	0x3def76c4	0.116925746
85	0x3dc4968c	0.09599027
86	0x3de3327d	0.11093614
87	0xbd799730	-0.0609352
88	0xbea5dbd9	-0.32394293
89	0xbf0e7ae0	-0.5565624
90	0xbe9ac357	-0.30227157
91	0x3eb4da7f	0.3532295
92	0xbe9f5d89	-0.3112605
93	0xbdc145f7	-0.09437173
94	0x3f30a07d	0.68994886
95	0x3ec1e031	0.37866357
96	0xbe7597bc	-0.23983663
97	0x3e21a7bb	0.1578664
98	0x3e1886b3	0.14895134
99	0x3dc17cbf	0.094476216
100	0xbe40a11f	-0.18811463
101	0x3ef667e7	0.48126146
102	0x3f3ff068	0.74976206
103	0x3e54f90a	0.20798126
104	0x3c779f8c	0.0151137225
105	0x3f2c73a7	0.6736397
106	0x3d2f8742	0.0428536
107	0xbe6de785	-0.23232849
108	0xbdce03b5	-0.10059301
109	0x3e32eff9	0.17474355
110	0x3e5e64cd	0.2171814
111	0x3ddd5331	0.10806883
112	0x3d6ba24b	0.05752782
113	0x3f08b456	0.5340017
114	0x3e25851b	0.16164057
115	0xbf27b2c5	-0.65507156
116	0x3eb5f2c2	0.35536772
117	0x3f025634	0.50912786
118	0x3e40820e	0.18799612
119	0x3f219de9	0.63131577
120	0x3e3ae085	0.1824971
121	0xbf1c0a2b	-0.60953015
122	0xbe4bcd03	-0.19902425
123	0x3e8567ce	0.2605576
124	0x3eadac71	0.33920625
125	0x3ebdd403	0.37075815
126	0x3f362c78	0.71161604
127	0x3f0b4399	0.5440002
128	0xbf5f5fb3	-0.872554
129	0xbf796f78	-0.9743571
130	0xbf43d9c4	-0.7650416
131	0xbf3890de	-0.7209605
132	0xbc4302c7	-0.011902518
133	0x3d9172ec	0.07101998
134	0x3dd5d2f9	0.104406305
135	0x3e95553c	0.2916659
136	0xbfb57141	-1.4175187
137	0x3dec84cf	0.11548769
138	0x3dd951e4	0.106113225
139	0xbf179a55	-0.59219867
140	0xbfa19882	-1.2624667
141	0x3eeebfec	0.466308
142	0x3ec6085c	0.38678253
143	0xbd8df8e1	-0.069322355

reupload_bias f4 [12, 3]
0	0xbf09410c	-0.5361488
1	0x3e463095	0.1935447
2	0xbebfd6e7	-0.37468645
3	0x3f0e9b03	0.5570528
4	0xbebb6498	-0.36600184
5	0x3edeb504	0.4349748
6	0xbf134453	-0.5752613
7	0x3f7986d2	0.97471344
8	0x3d029d7b	0.031888466
9	0x3f0fecf7	0.56220955
10	0x3f636a87	0.8883442
11	0x3fe8cea7	1.8188065
12	0xbeddbefb	-0.4330977
13	0xbeae242f	-0.3401198
14	0x3ece80ba	0.40332586
15	0x3f058955	0.5216268
16	0x3e7c9f98	0.24670255
17	0xbed54435	-0.416536
18	0xbe03932a	-0.12849107
19	0xbbf8f124	-0.0075971056
20	0x3e22f590	0.15913987
21	0xbf3e325b	-0.74295586
22	0xbf2ea790	-0.6822443
23	0xbe424fe6	-0.18975791
24	0x3eefd3a6	0.46841162
25	0x3f40c27d	0.75296766
26	0xbf2899c4	-0.6585963
27	0xbf1a254b	-0.60213155
28	0xbf4c7574	-0.7986672
29	0x3f24fad9	0.64445263
30	0x3e3447bb	0.17605488
31	0x3e7cee2c	0.2470023
32	0xbff3884f	-1.9025973
33	0xbf12e65e	-0.5738276
34	0xbf01d9a1	-0.507227
35	0x3f7b294c	0.9810989

mlr.0.weight f4 [64, 12]
0	0x3b8a086f	0.004212431
1	0xbc8d331b	-0.017236283
2	0x3d8e21fc	0.06940076
3	0x3da5ad0d	0.080896474
4	0xbe863deb	-0.26219115
5	0xbdda2d76	-0.10653202
6	0x3e78efb0	0.24310184
7	0x3de64eb8	0.11245483
8	0xbc6b3dd1	-0.014358
9	0xbe323890	-0.1740439
10	0xbe34da04	-0.17661291
11	0xbe846555	-0.2585856
12	0xbe9dbb77	-0.30807087
13	0xbdba4142	-0.09094478
14	0x3e5b55c8	0.21419442
15	0xbda325d4	-0.079661995
16	0xbef4fd2c	-0.47849405
17	0xbf107f3e	-0.56444156
18	0xbd38f847	-0.04515865
19	0x3f0fd2f9	0.56181294
20	0x3db8e0b9	0.090272374
21	0xbe8933ba	-0.26797277
22	0x3eb043c0	0.3442669
23	0x3cd31139	0.025765048
24	0xbe77aefb	-0.24187844
25	0x3e1c9ca4	0.15294129
26	0xbe3dd933	-0.18539886
27	0xbdedb5fe	-0.11606978
28	0xbeb15e02	-0.34642035
29	0x3e0ce110	0.1375773
30	0x3e262dd7	0.16228424
31	0x3d46f032	0.04856891
32	0xbe846c14	-0.25863707
33	0xbeae29df	-0.3401632
34	0xbe922c7d	-0.28549567
35	0x3e235fcc	0.15954512
36	0x3e0debbe	0.1385946
37	0x3e78c064	0.24292141
38	0x3e1adb91	0.1512282
39	0x3d95a139	0.073061414
40	0xbb394397	-0.0028269046
41	0xbe60cee1	-0.21953918
42	0xbe7d43c4	-0.24732882
43	0xbe8a3eff	-0.27001187
44	0x3df2047c	0.118172616
45	0xbe1121bc	-0.14173025
46	0xbd6df6b7	-0.058096614
47	0xbe2a1f0c	-0.16613406
48	0x3e1d01ae	0.15332672
49	0xbe4938e9	-0.19650616
50	0xbf01608e	-0.50537956
51	0x3b502ba7	0.00317643
52	0x3ccceae6	0.025014352
53	0x3da23840	0.07920885
54	0xbe72d17a	-0.23712721
55	0xbef839f2	-0.4848171
56	0xbd7ff9ea	-0.062494196
57	0xbe82373b	-0.25432763
58	0xbcb1b35e	-0.021691974
59	0xbecc52de	-0.39906973
60	0xbd8d6a75	-0.06905071
61	0xbead5bfc	-0.3385924
62	0x3ea639da	0.32466012
63	0x3e418927	0.18899976
64	0x3eafd291	0.34340337
65	0xbf481307	-0.78154033
66	0x3ebb3cec	0.36569917
67	0xbe6895b0	-0.22713351
68	0x3d97ce1f	0.07412361
69	0xbd72e63c	-0.0593016
70	0xbdec3f1c	-0.11535475
71	0xbe516def	-0.20452093
72	0xbcca7a26	-0.024716448
73	0xbee1cbff	-0.4410095
74	0x3e91dedb	0.28490338
75	0xbee4c133	-0.4467865
76	0x3e994534	0.2993561
77	0x3e6dd054	0.23224002
78	0x3ee01da4	0.43772614
79	0xbea8a1d7	-0.32935974
80	0xbe6de7cc	-0.23232955
81	0x3df7782e	0.12083469
82	0x3e26771a	0.16256371
83	0xbeeb9fcd	-0.46020356
84	0xbdb321f6	-0.08746712
85	0xbebb0b51	-0.3653207
86	0x3cb67f30	0.022277445
87	0xbebd5f45	-0.36986747
88	0xbe39ca68	-0.18143618
89	0xbdf4649e	-0.11933254
90	0xbe46c80d	-0.19412251
91	0x3ed87016	0.42273015
92	0x3f167732	0.5877563
93	0xbe71f9db	-0.23630469
94	0x3e61ed99	0.22063293
95	0x3d9655c8	0.0734058
96	0xbe29a507	-0.16566859
97	0xbeec30d4	-0.46131003
98	0xbe3c5eee	-0.18395588
99	0xbe9fedf5	-0.31236234
100	0xbe1b9999	-0.15195312
101	0xbe8a82ae	-0.27052826
102	0xbe1ea418	-0.15492284
103	0xbf033c15	-0.5126355
104	0x3c0cf807	0.008604056
105	0xbe79c543	-0.24391656
106	0x3d5390ef	0.05165189
107	0xbef76b75	-0.4832417
108	0xbef77351	-0.48330167
109	0x3ed45235	0.4146897
110	0xbd885b91	-0.0665809
111	0x3dd20448	0.10254723
112	0xbe762bc8	-0.24040139
113	0x3c7bda29	0.015371838
114	0x3e9ced2d	0.306497
115	0x3e8630c1	0.2620907
116	0xbf052338	-0.52006865
117	0x3ef453be	0.4772014
118	0x3ea82810	0.32843065
119	0xbdd946fe	-0.10609244
120	0xbe5ebd39	-0.2175187
121	0x3f06b337	0.5261721
122	0xbd4c1034	-0.04982014
123	0x3ea1ce05	0.31602493
124	0xbea509b3	-0.32233962
125	0xbe2cd348	-0.16877472
126	0x3e4c798a	0.19968238
127	0x3e5a16b2	0.2129772
128	0xbec72550	-0.38895655
129	0xbe6da0bf	-0.23205851
130	0xbea251d3	-0.31703052
131	0xbeabbacf	-0.3354096
132	0xbe64195c	-0.22275299
133	0xbd923431	-0.07138861
134	0x3e477ef6	0.19482026
135	0x3d45ea3d	0.04831909
136	0xbe60d667	-0.21956788
137	0xbe6d23db	-0.23158209
138	0x3e130e2b	0.14360873
139	0xbe5be1c8	-0.21472847
140	0xbd11966a	-0.035543837
141	0x3e0dcd7e	0.1384792
142	0xbe08cf0d	-0.13360234
143	0xbd00ee24	-0.03147711
144	0xbccdd859	-0.025127577
145	0xbd8bdea2	-0.06829573
146	0xbe15e162	-0.14636758
147	0xbe83c18e	-0.25733608
148	0xbe6ef3f9	-0.23335256
149	0xbe1e48c5	-0.15457447
150	0x3e8ec09f	0.27881333
151	0xbe0ec7e0	-0.13943434
152	0xbe468183	-0.19385342
153	0x3d8f4e19	0.06997318
154	0x3da2f152	0.079561844
155	0x3e21f6c5	0.15816791
156	0x3f146ae7	0.5797562
157	0x3ddd8dfc	0.10818097
158	0xbec2d7ac	-0.3805517
159	0x3dd82ec8	0.10555798
160	0x3e6e87a7	0.23293935
161	0xbe6b050d	-0.22951145
162	0xbe803090	-0.2503705
163	0x3e881ad6	0.26582974
164	0xbe3bb3a8	-0.18330252
165	0xbed0056d	-0.4062914
166	0xbe9333a2	-0.2875033
167	0x3e88ec73	0.26742896
168	0x3d2f89dd	0.042856086
169	0x3e4593f4	0.19294721
170	0xbd186e7a	-0.037214734
171	0xbea93b38	-0.33052993
172	0xbf0492b3	-0.51786345
173	0xbcc47d6f	-0.023985593
174	0x3e41d2a8	0.18928015
175	0x3ebd7939	0.37006548
176	0xbe89e63f	-0.26933476
177	0x3e4f33ef	0.20234655
178	0xbd5faf63	-0.05461062
179	0xbe6e9900	-0.23300552
180	0xbd547307	-0.05186751
181	0x3e80cd26	0.25156516
182	0x3e88bb83	0.2670556
183	0xbf00ee16	-0.5036329
184	0xbc088a1e	-0.008333711
185	0xbf2e8f00	-0.6818695
186	0xbcf036b1	-0.029322954
187	0x3ebb2816	0.3655402
188	0xbd0c1a2c	-0.034204647
189	0x3ec8e573	0.39237556
190	0xbe3a629f	-0.18201683
191	0xbebcf973	-0.36909065
192	0x3ee1f209	0.4412997
193	0xbddae0bf	-0.10687398
194	0x3c54446c	0.012955766
195	0xbe4adbe3	-0.19810443
196	0x3eb9b29b	0.36269078
197	0x3e502293	0.20325689
198	0x3e15d757	0.14632927
199	0xbf121f0f	-0.5707864
200	0xbe9293a5	-0.2862827
201	0x3d2de985	0.04245903
202	0xbca0e969	-0.019642549
203	0xbea092dd	-0.31362048
204	0xbda56b12	-0.08077063
205	0x3e47a415	0.19496186
206	0x3cbc61a2	0.022995774
207	0x3c5564e2	0.013024541
208	0xbd917f0c	-0.071043104
209	0xbe85d901	-0.26142123
210	0xbe8af8bc	-0.27142894
211	0xbe0d4d87	-0.13799106
212	0xbe1642f2	-0.14673975
213	0x3db8314c	0.08993778
214	0xbdac1b4b	-0.08403643
215	0xbde74b0a	-0.112936094
216	0x3f3c1ee9	0.73484665
217	0x3ea450ae	0.32092804
218	0x3e61ca08	0.22049725
219	0xbe93b16d	-0.28846303
220	0xbe059d92	-0.1304839
221	0x3e6c0f38	0.2305268
222	0xbeac31d2	-0.3363176
223	0xbef6c025	-0.4819347
224	0xbd2c684d	-0.042091656
225	0xbebad712	-0.3649221
226	0xbe86599f	-0.2624025
227	0x3e85adc4	0.26109135
228	0x3f180d9f	0.59395784
229	0x3d6cfe0f	0.057859477
230	0xbe25ef33	-0.16204529
231	0xbf04d195	-0.51882297
232	0xbe886317	-0.266381
233	0x3d45fe85	0.048338432
234	0xbcfbd494	-0.030741014
235	0xbda5c387	-0.080939345
236	0xbe66e813	-0.22549467
237	0x3edac3af	0.4272742
238	0xbe3e1fed	-0.18566866
239	0x3e29d129	0.16583695
240	0xbdf84d68	-0.12124139
241	0x3dd2d957	0.102953605
242	0x3e2f6fa5	0.17132433
243	0x3e146d0d	0.14494725
244	0xbd87b2c2	-0.06625892
245	0x3ee2f677	0.44328663
246	0x3e4cae61	0.19988395
247	0x3eb4d977	0.35322163
248	0x3ebce102	0.36890417
249	0xbe40a87e	-0.18814275
250	0xbddf7c98	-0.10912436
251	0x3ef8c8e2	0.4859076
252	0x3e67a38e	0.22620985
253	0xbe61b506	-0.22041711
254	0xbcb6cf13	-0.022315538
255	0xbe91c049	-0.28467014

mlr.0.bias f4 [64]
0	0xbda2912d	-0.07937846
1	0x3e379a7e	0.17930028
2	0x3ce33eaa	0.027739841
3	0xbd4e2dc2	-0.050336607
4	0x3e2117d9	0.15731753
5	0xbd52aa82	-0.05143214
6	0x3df0691b	0.11738797
7	0x3dae3601	0.08506394
8	0x3e3b09bd	0.18265434
9	0x3c85dfb8	0.016342029
10	0x3dda9c73	0.106743716
11	0xbd2ab479	-0.04167602
12	0xbde62aa7	-0.11238604
13	0x3deeb5f5	0.11655799
14	0x3e321eb0	0.17394519
15	0x3e0c6c69	0.1371323
16	0x3d8f867f	0.07008075
17	0xbdc989ea	-0.09840758
18	0x3d93bed3	0.07214131
19	0x3e16c005	0.14721687
20	0xbdeb9bc6	-0.11504321
21	0xbd127c4e	-0.035763077
22	0xbcd815e1	-0.02637762
23	0x3e065ef2	0.13122156
24	0x3c908310	0.01764062
25	0xbc8adc87	-0.016950859
26	0xbcc5d5ab	-0.024149736
27	0xbc647728	-0.013944425
28	0xbd8eb0b8	-0.069673
29	0xbdaaa48e	-0.083321676
30	0x3d61f25b	0.05516277
31	0xbe14c80d	-0.14529438
32	0xbd81c91d	-0.063371874
33	0x3cdf10c7	0.02722968
34	0x3c8d765e	0.017268356
35	0xbe8b08f3	-0.27155265
36	0x3e0f7807	0.1401063
37	0xbe0645b8	-0.13112533
38	0xbe22bd3b	-0.15892498
39	0x3cc03da2	0.023466889
40	0xbe1a43a0	-0.1506486
41	0xbd464f34	-0.048415378
42	0xbdc73501	-0.097269066
43	0x3a3556c4	0.0006917531
44	0xbdf6e8f9	-0.12056155
45	0xbd0e57e4	-0.034751788
46	0xbbe33b9a	-0.0069345953
47	0xbe6f3520	-0.2336011
48	0xbe32ec41	-0.17472936
49	0x3b8a066a	0.0042121904
50	0xbc43a0c1	-0.011940182
51	0x3d914d10	0.07094777
52	0xbd70b14e	-0.05876284
53	0x3e40593e	0.18784043
54	0x3daea132	0.08526839
55	0x3d2bddf7	0.04195973
56	0xbdfda228	-0.123844445
57	0xbe03ff89	-0.12890448
58	0xbcf562bd	-0.029954309
59	0xbcd745a5	-0.026278326
60	0x3dd9bdff	0.10631942
61	0xbd308e8d	-0.043104697
62	0x3e3e4400	0.18580627
63	0xbe2d8562	-0.16945413

mlr.2.weight f4 [208, 64]
0	0x3c9b9b60	0.018994987
1	0x3f05943f	0.5217933
2	0x3d3be51a	0.045872785
3	0xbd5ff024	-0.054672375
4	0xbe8318b5	-0.25604787
5	0x3f296b91	0.6617976
6	0xbe750cd0	-0.23930669
7	0xbedd20ca	-0.4318908
8	0xbe896e11	-0.26841787
9	0x3ef8153b	0.48453698
10	0x3ef82da3	0.48472318
11	0xbc608f60	-0.013706058
12	0xbdce1958	-0.10063428
13	0x3b94d654	0.0045421515
14	0x3e56b5c1	0.20967771
15	0x3f197b03	0.59953326
16	0xbec088b6	-0.37604302
17	0xbd6f9318	-0.05848989
18	0xbf13e355	-0.57768756
19	0xbe8bec7a	-0.27328855
20	0x3e1c7a4f	0.15281032
21	0xbd76c180	-0.06024313
22	0x3e2cd04c	0.16876334
23	0xbd73917c	-0.059464917
24	0xbeb9b725	-0.3627254
25	0x3e3d63ad	0.18495055
26	0x3dfc0300	0.1230526
27	0x3d7eb0f4	0.062180474
28	0xbc8e0b6e	-0.017339434
29	0x3e44f719	0.19234885
30	0x3d37b3bc	0.044849142
31	0xbdd79c4a	-0.10527857
32	0xbd356c20	-0.04429257
33	0x3d95d588	0.073161185
34	0xbe2f7f8b	-0.17138498
35	0x3df44d08	0.11928755
36	0x3e21197c	0.15732378
37	0x3d8a7604	0.06760791
38	0xbd8d32f4	-0.06894484
39	0x3e8f56e8	0.27995992
40	0x3db8b7c8	0.090194285
41	0x3e891607	0.26774618
42	0x3db85548	0.09000641
43	0x3eb71b37	0.3576295
44	0x3b1f7240	0.0024329573
45	0x3ee4fb73	0.4472309
46	0x3f3ba883	0.73304003
47	0x3d5ef150	0.054429352
48	0xbd248ecc	-0.040175244
49	0xbb098e00	-0.002098918
50	0xbde1736c	-0.11008343
51	0xbf227982	-0.63466656
52	0xbd4a3fee	-0.049377374
53	0xbe27dcf1	-0.16392876
54	0xbca6171e	-0.020274695
55	0x3f99c1f5	1.2012316
56	0x3e6140dc	0.21997398
57	0x3e8ae77b	0.2712973
58	0x3e97b0f7	0.296272
59	0x3e18f79a	0.14938203
60	0xbf1684ce	-0.58796394
61	0xbdfd2fbe	-0.12362622
62	0x3e75bd16	0.23997912
63	0x3d8f70bc	0.07003924
64	0xbddbc772	-0.107314005
65	0x3ebcedc4	0.3690015
66	0x3dc952d3	0.098302506
67	0x3bf81f20	0.0075720698
68	0xbf090e11	-0.5353709
69	0x3f17f95a	0.59364855
70	0xbd9d4da0	-0.076808214
71	0x3e98a949	0.29816654
72	0xbe395da5	-0.18102129
73	0x3f0ff4db	0.56232995
74	0x3e1f7509	0.15571989
75	0x3dfd4f80	0.12368679
76	0xbd58ef2c	-0.052962467
77	0xbe5e7793	-0.21725301
78	0x3e732c9b	0.23747484
79	0x3e6ac6ed	0.22927447
80	0xbedc7db4	-0.43064654
81	0x3d524be8	0.05134192
82	0xbf6b45dc	-0.9190347
83	0xbe3f77b5	-0.18698008
84	0x3e6fb137	0.23407446
85	0x3dc895fc	0.09794232
86	0xbc942e4f	-0.018088488
87	0xbe0da690	-0.1383307
88	0x3f3865df	0.7203044
89	0x3c83ca51	0.016087683
90	0x3d9936a8	0.07481128
91	0x3e0cdf23	0.13756995
92	0xbd7abf9b	-0.061217885
93	0xbcf30d2c	-0.029669367
94	0xbd1c1eef	-0.038115438
95	0xbd962f34	-0.07333222
96	0x3e580f84	0.21099669
97	0xbdf60282	-0.12012197
98	0x3f0f07da	0.55871356
99	0x3dff35c2	0.12461425
100	0x3ea64312	0.32473046
101	0x3d2e94c4	0.042622343
102	0xbde4d724	-0.11173847
103	0x3eb34699	0.350148
104	0xbcaf2718	-0.021380946
105	0x3f251c63	0.6449644
106	0x3dfcb6b4	0.12339535
107	0x3e2ca551	0.16859938
108	0xbc10e420	-0.008843452
109	0x3f1bed5d	0.6090906
110	0x3f34011c	0.7031419
111	0xbdb51e10	-0.088436246
112	0x3ca68528	0.020327166
113	0xbc891100	-0.016731739
114	0x3cf3fc59	0.029783415
115	0x3e918e7a	0.28429013
116	0xbd9dddf8	-0.07708353
117	0xbe249918	-0.16074026
118	0x3d5265f6	0.05136677
119	0x3e1ccb98	0.1531204
120	0x3e98b835	0.2982804
121	0xbeddf17d	-0.43348303
122	0x3d341f65	0.043975253
123	0x3e21ee4a	0.15813556
124	0xbd4dfeac	-0.050291702
125	0x3cbe0448	0.0231954
126	0x3e90d875	0.28290144
127	0x3c9a6c80	0.018850565
128	0x3df6aa92	0.120442525
129	0x3f2482b8	0.6426196
130	0xbddf7fcf	-0.109130494
131	0x3de9aea6	0.11410265
132	0xbe955e56	-0.29173535
133	0x3f1c8e0e	0.6115426
134	0xbdf51c3d	-0.11968277
135	0xbe781079	-0.24225034
136	0xbeb8443f	-0.35989568
137	0x3f1723e9	0.5903917
138	0x3eeb1314	0.45912993
139	0x3c1987d0	0.009370759
140	0xbdb2e22c	-0.08734545
141	0xbe475007	-0.19464122
142	0x3eb2c33a	0.3491457
143	0x3f173257	0.5906119
144	0xbee4ba0e	-0.44673198
145	0x3c2186e0	0.009858817
146	0xbeca346a	-0.39493114
147	0xbe7f88c5	-0.24954517
148	0x3e99fd7c	0.30076206
149	0x3d4ced3c	0.05003093
150	0x3e3a91f1	0.18219735
151	0xbd5458e6	-0.051842593
152	0x3e33caa0	0.17557764
153	0x3e9a859c	0.3018006
154	0xbddf43f2	-0.109016314
155	0xbc05431e	-0.008133678
156	0x3c8e5a3a	0.017377008
157	0x3e3e437b	0.1858043
158	0x3e829164	0.2550155
159	0xbceaf740	-0.028682351
160	0x3d70a842	0.058754213
161	0x3da68ebe	0.08132695
162	0xbe37c7a7	-0.17947255
163	0x3dcd0534	0.10010758
164	0x3e56b0f4	0.2096594
165	0xbdc47ac2	-0.09593727
166	0xbdb44678	-0.08802503
167	0x3e0c3dc0	0.13695431
168	0xbd8c4b0e	-0.06850253
169	0x3ec756fe	0.38933557
170	0xbc1a26e0	-0.009408683
171	0x3e5e869a	0.21731034
172	0xbd8157f8	-0.06315607
173	0x3ed434bf	0.41446492
174	0x3f204b5c	0.6261499
175	0x3dfb2552	0.12262978
176	0xbd3dc310	-0.046328604
177	0xbdb74bd6	-0.089500114
178	0x3d53fd17	0.051755037
179	0xbf1a0b1a	-0.6017319
180	0x3dd5f264	0.10446623
181	0xbe18a789	-0.1490766
182	0x3df2c72a	0.11854394
183	0x3f4ecea1	0.8078404
184	0x3e8502c8	0.25978684
185	0x3d023b96	0.031795107
186	0x3e21bdce	0.15795061
187	0x3e3b0d3e	0.1826677
188	0xbe50dad9	-0.20395984
189	0x3ab36c80	0.0013688952
190	0x3e57878c	0.21047801
191	0xbd330198	-0.04370269
192	0xbddf4770	-0.109022975
193	0xbe8f2a4c	-0.27961957
194	0x3d4329d0	0.047647297
195	0xbda74fa4	-0.08169487
196	0xbf02f289	-0.5115133
197	0x3f3969c7	0.7242703
198	0xbe28ead5	-0.16495831
199	0x3e6d1657	0.23153053
200	0xbed8f7a4	-0.42376435
201	0xbd36fd44	-0.044675127
202	0x3d4476d4	0.047964886
203	0x3cae8178	0.02130197
204	0x3d0b38f0	0.033989847
205	0x3cee6681	0.029101612
206	0xbdce964c	-0.100872606
207	0xbe7b6c71	-0.24553086
208	0xbe63cea1	-0.22246791
209	0x3d0ba01c	0.03408824
210	0xbf0e2839	-0.55530125
211	0xbe3cc9a7	-0.184363
212	0x3e452e79	0.19256009
213	0xbb9529a0	-0.004552081
214	0xbcd84afc	-0.026402943
215	0xbddd28d3	-0.10798802
216	0x3f73219c	0.9497316
217	0xbdddcaef	-0.10829722
218	0xbdec9a56	-0.11552875
219	0x3d898579	0.06714911
220	0xbd66ed48	-0.056378633
221	0x3dd0634b	0.10175189
222	0x3f0e2aee	0.55534256
223	0xbdfdef66	-0.12399177
224	0x3d8806e5	0.0664194
225	0xbc4427f0	-0.0119724125
226	0x3ef7fb08	0.4843371
227	0x3deb3532	0.114847556
228	0x3eef429b	0.46730503
229	0x3da47574	0.08030215
230	0x3d20e161	0.039277438
231	0x3df49d5e	0.11944078
232	0x3cf0a030	0.029373258
233	0x3f425e5f	0.7592525
234	0xbda77324	-0.08176258
235	0x3d446219	0.047945116
236	0x3dfa95da	0.12235613
237	0x3f011edd	0.5043772
238	0x3f21b608	0.6316838
239	0x3d9a0bf6	0.075218126
240	0xbc8300a0	-0.015991509
241	0xbdfc65de	-0.12324117
242	0x3beca9e1	0.0072223996
243	0x3f08faf0	0.535079
244	0xbde1f048	-0.11032158
245	0xbdc84698	-0.0977909
246	0x3c693ec8	0.01423616
247	0xbea6e15a	-0.32593805
248	0x3ec05637	0.37565777
249	0xbe0d5547	-0.13802062
250	0x3da39b72	0.07988633
251	0x3d17fab1	0.037104312
252	0xbe2437cc	-0.1603691
253	0xbcffded0	-0.031234175
254	0x3e3774fc	0.1791572
255	0xbd8e75e0	-0.069560766

mlr.2.bias f4 [208]
0	0x3de00d81	0.10940076
1	0x3dd919dc	0.106006354
2	0x3c8930e0	0.016746938
3	0x3e158f91	0.14605547
4	0x3e18fe13	0.14940672
5	0x3e0bece4	0.13664585
6	0x3e1e93aa	0.15486017
7	0x3d336fcf	0.0438078
8	0x3dbbe987	0.09175401
9	0x3e198016	0.14990267
10	0x3dde6b4d	0.1086031
11	0x3d838842	0.064224735
12	0x3dd5debb	0.10442873
13	0xbcbef4bc	-0.023310058
14	0x3cd25890	0.025676996
15	0x3d65a48f	0.05606514
16	0x3df7cf01	0.1210003
17	0x3d9a991e	0.07548736
18	0xbc20dd5b	-0.0098184
19	0x3d160fd9	0.036636207
20	0x3d91d89b	0.07121392
21	0x3d42c117	0.047547426
22	0x3df78123	0.12085178
23	0x3d94bdaf	0.07262742
24	0x3dd82493	0.10553851
25	0x3dad3aa1	0.08458448
26	0x3dbd7472	0.09250726
27	0x3e0db54a	0.13838688
28	0x3db80e6d	0.089871265
29	0x3e158d7a	0.1460475
30	0x3dadc2af	0.084843986
31	0x3de959ff	0.113941185
32	0x3de4b5c4	0.111674815
33	0x3bddbcd7	0.006766896
34	0x3d8e66e9	0.06953222
35	0x3d393ec9	0.045225892
36	0x3d8999de	0.06718801
37	0x3d8b0767	0.06788521
38	0x3dcfd37d	0.1014776
39	0xbc209a53	-0.009802419
40	0x3d24695b	0.040139537
41	0x3da9d3fa	0.082923844
42	0x3d85d21f	0.06534218
43	0x3d9ad470	0.075600505
44	0xbc21369a	-0.009839678
45	0x3e03a2a9	0.12855019
46	0x3cb3246b	0.021867951
47	0x3d89af17	0.06722849
48	0x3d7d7568	0.061879545
49	0x3e126b82	0.14298823
50	0x3de593d7	0.11209839
51	0x3d38449b	0.044987302
52	0x3e31c2e4	0.17359501
53	0x3e4fe682	0.20302776
54	0x3dbae161	0.09125019
55	0x3e1c3e01	0.15258028
56	0x3e0933db	0.13398688
57	0x3e1a2a15	0.15055116
58	0x3e094046	0.13403425
59	0x3e13fd32	0.14452055
60	0x3dfacd3b	0.12246176
61	0x3e161a53	0.1465848
62	0x3dce5a63	0.10075834
63	0x3e23d866	0.16000518
64	0x3d9f5cfb	0.077814065
65	0x3d08ed4d	0.033429433
66	0x3dceb508	0.10093123
67	0x3c5c7a42	0.013456883
68	0x3d1fccb0	0.039013565
69	0x3c191e26	0.009345567
70	0x3dce1f8f	0.10064613
71	0x3e046411	0.12928797
72	0x3de6dffe	0.11273192
73	0x3da9ee37	0.08297389
74	0x3cf2577e	0.029582735
75	0x3e069575	0.13142951
76	0x3db35263	0.087559484
77	0x3de9d783	0.11418059
78	0x3e35408a	0.17700401
79	0x3e49e21f	0.19715165
80	0x3e3c4ace	0.1838791
81	0x3e2eb0b2	0.17059591
82	0x3e33451d	0.17506833
83	0x3e1f40ae	0.15552017
84	0x3e28a64d	0.16469689
85	0x3e005a64	0.12534481
86	0x3e1fc012	0.15600613
87	0x3e229ebc	0.15880865
88	0x3e3ca60a	0.18422714
89	0x3e0bb2c5	0.13642414
90	0x3e1c4379	0.15260114
91	0x3e1efe5e	0.15526721
92	0x3e2d4048	0.16919053
93	0x3d90f459	0.070778556
94	0x3e5aac97	0.213549
95	0x3e3d4448	0.18483078
96	0x3dc0cd4d	0.09414158
97	0x3e23862b	0.1596915
98	0x3e015b9d	0.12632604
99	0x3dcc33ee	0.09970842
100	0x3d6ad277	0.05732962
101	0x3da5d6d2	0.08097614
102	0x3e1d1cf2	0.15343073
103	0x3da58bde	0.08083318
104	0x3e5bdfbd	0.21472068
105	0x3e2da32c	0.16956776
106	0x3e0416a1	0.12899257
107	0x3e7c23a7	0.24622975
108	0x3dd1f096	0.10250966
109	0x3e0f5363	0.13996653
110	0x3e7ba103	0.2457314
111	0x3e459659	0.19295634
112	0x3e8517cb	0.25994715
113	0x3e4d978e	0.20077345
114	0x3e12a05d	0.14318986
115	0x3e4d5473	0.20051746
116	0x3e267a41	0.16257574
117	0x3e4a3ad3	0.19749002
118	0x3da9c17a	0.08288856
119	0x3e20dd57	0.15709434
120	0x3e25053f	0.16115282
121	0x3e1a380e	0.15060446
122	0x3df27ae5	0.118398465
123	0x3e2e3cb2	0.17015341
124	0x3e388001	0.1801758
125	0x3e4721ce	0.19446489
126	0x3d9f5826	0.07780485
127	0x3ddd7451	0.10813201
128	0x3e281a43	0.16416268
129	0x3d70a9c0	0.058755636
130	0x3e099ee5	0.1343952
131	0x3e33a03e	0.17541596
132	0x3e58e538	0.2118119
133	0x3e175129	0.14777054
134	0x3debfa1f	0.11522316
135	0x3de1b737	0.110212736
136	0x3dfae557	0.12250774
137	0x3e3d3504	0.18477255
138	0x3db75679	0.0895204
139	0x3e28184e	0.16415522
140	0x3e4f86e7	0.20266305
141	0x3e167018	0.14691198
142	0x3e28da57	0.1648954
143	0x3e074b61	0.13212349
144	0x3de319cd	0.110889055
145	0x3dd8aaab	0.10579427
146	0x3d8f3543	0.06992581
147	0x3d092e59	0.033491466
148	0x3dea22b1	0.11432398
149	0x3d6f0491	0.058353964
150	0x3d75c802	0.060005195
151	0x3e025d3f	0.12730883
152	0x3daad5bf	0.0834155
153	0x3e54ce18	0.20781744
154	0x3e25a6be	0.16176888
155	0x3d0ab371	0.033862535
156	0x3e3122c7	0.17298423
157	0x3dd6fb6c	0.10497174
158	0x3e65cb1b	0.2244076
159	0x3e3be8c3	0.1835051
160	0x3dfddb77	0.12395375
161	0x3e34503c	0.17608732
162	0x3d97ca34	0.07411614
163	0x3dbf3b26	0.093374535
164	0x3e2441bd	0.16040702
165	0x3e12cdd1	0.14336325
166	0x3dde19e4	0.10844782
167	0x3e0b9581	0.1363125
168	0x3d3f67b3	0.046729755
169	0x3d19fd61	0.037595157
170	0x3d43f036	0.047836505
171	0x3cc4b08e	0.02400997
172	0x3e04c852	0.12967041
173	0x3d1a593a	0.03768275
174	0x3d46f7d5	0.048576195
175	0x3d881bc7	0.06645923
176	0x3e053629	0.13008942
177	0x3e1e17c5	0.15438755
178	0x3e024316	0.12720904
179	0x3dae5264	0.085118085
180	0x3e04f749	0.12984957
181	0x3da3617f	0.0797758
182	0x3e3eb99d	0.18625493
183	0x3d97068c	0.073742956
184	0x3e24170d	0.16024418
185	0x3e40bb7e	0.18821523
186	0x3d9a6b38	0.075399816
187	0x3e2ab34d	0.1666996
188	0x3dc39833	0.09550514
189	0x3e0f5928	0.13998854
190	0x3d82eb7d	0.06392572
191	0x3d9940ca	0.07483061
192	0x3d7db2f3	0.061938237
193	0x3d9bb2f1	0.0760249
194	0x3dbae95d	0.09126542
195	0x3dec4c79	0.115380235
196	0x3c2fa74a	0.010721037
197	0x3c245beb	0.010031681
198	0x3d8678f3	0.06566038
199	0x3b30b9f9	0.0026966317
200	0x3c47b594	0.012189288
201	0xbc2cf78d	-0.010557068
202	0x3e058d79	0.13042249
203	0x3e11e03d	0.14245696
204	0x3d8e6380	0.06952572
205	0x3e0d2a71	0.13785721
206	0x3e2a41d5	0.16626675
207	0x3de8959c	0.11356661
