pqc_reup_v1_output/best_model_epoch_50.pth (torch, 61285 bytes, 6 tensors)

reupload_weights f4 [12, 3, 4]
00000000: 6dd4 203e 4c03 213e b1a6 453e 059b 30be
00000010: 005a a33e a6f7 573e 686b 813e 13aa 573f
00000020: 5595 dc3c 68c4 be3e 57a7 f2bc 6054 aebe
00000030: 5b92 36be bef7 4fbe d544 0e3c 0a7b 3f3d
00000040: d4b4 80be af56 11bf f517 37be 2385 c93d
00000050: b054 a6bc 5b90 6c3d 76b1 a03c beff 863e
00000060: 9d48 823d d186 c83d f2da 723e d8e7 6d3d
00000070: cb4a 163f 0b27 3b3d 15cc 373e baa9 2dbe
00000080: 74cf 0ebd bc39 5d3d 3256 cd3e 4b1d 503e
00000090: cce0 46ba 4e0a 2cbe 2521 813d 4e97 42be
000000a0: 318a 0c3f 3503 6e3f bab1 bd3e fc23 c9be
000000b0: 609c 663f 8d46 993f 9299 253f 8391 b8bd
000000c0: 22ea 81bd 3bf1 ebbb 5e35 0a3e fe3e 4d3e
000000d0: a28d d63e bd36 173f 478c 1dbf e3ec 2fbf
000000e0: 6edd 4a3e 3dac df3e 71b0 a9be 8f29 98be
000000f0: 436e f3bd c273 e23d 3857 45be eb90 9cbc
00000100: baf7 ca3e d28a 923d 30e2 343d f567 cd3d
00000110: d201 263d 9ba0 4abe 8c7a eabe 21d9 143d
00000120: cd37 d2bd c9c5 abbd e21d 2cbe 24c2 d93b
00000130: aacc b13d 7e60 08be efe7 23be 27d9 cb3c
00000140: c51c e13e aade 903e 1e08 a33e 9c28 7d3e
00000150: 2c7e 043e b83d f83d 4598 ddbc 9108 b9bd
00000160: b715 b6be cd80 08bf e201 633e 77fd b53e
00000170: 6e83 e0be fdf0 cfbe 1eaa 163f 9c73 f53e
00000180: 1146 86be 158b 4a3e ffdc 873d 1210 103d
00000190: 8aa4 64be 7491 203f 4bf1 443f 265d c53e
000001a0: f1c0 11bf 019d 7d3e a516 d33e 17fe b8bd
000001b0: c6c3 81bd a7e5 3a3d f388 333d 1424 ac3d
000001c0: 3508 903e 1b74 843e 3a11 083e 63c8 4fbf
000001d0: 29bd 1b3f 800b b23e c11e 083e 1b52 633e
000001e0: 5ec3 a8bd f5f2 62be 2d0e fa3c a2ea 043d
000001f0: d633 2dbd 0829 c1bd b584 243f 2fc0 ba3e
00000200: 8202 10bf c188 40bf ac5c 38be 9848 08bf
00000210: 2871 0fbd 97bd 643e 11a9 b93d 436c d63d
00000220: cf18 74bf 8dd5 4f3d d7b8 8bbe 37e8 f6bd
00000230: 8cc4 88bf 12bb 5a3e cbcd 59be 53c7 5bbd
0.15706034 0.15723914 0.19301869 -0.17246635 0.31904602 0.21090564 0.25277257 0.8424389
0.026926676 0.3725922 -0.02962081 -0.34048748 -0.17829268 -0.2030935 0.008683403 0.0467482
-0.2513796 -0.56772894 -0.17880233 0.09839847 -0.020304054 0.057754856 0.01961587 0.2636699
0.06361506 0.09791339 0.23716334 0.05808243 0.58707875 0.04569153 0.17948945 -0.16959277
-0.03486581 0.054010138 0.40104824 0.20323674 -0.0007586598 -0.16800806 0.0630515 -0.1900303
0.54898363 0.92973644 0.37049657 -0.39285266 0.9008236 1.1974655 0.64687455 -0.09012129
-0.063434854 -0.007200388 0.1349692 0.20043561 0.41904932 0.590679 -0.6154217 -0.68720835
0.19811031 0.43686095 -0.33142427 -0.29719207 -0.11886265 0.11057235 -0.19271553 -0.019112071
0.39642125 0.07155384 0.04416102 0.10029594 0.04052908 -0.19787829 -0.4579662 0.036339883
-0.102645494 -0.08387334 -0.16808274 0.006645458 0.08681615 -0.13318059 -0.16006444 0.02488382
0.43967262 0.2829488 0.3184213 0.24722522 0.12938756 0.12121147 -0.027050147 -0.09034837
-0.35563442 -0.53321534 0.22168687 0.3554494 -0.43850273 -0.40613547 0.5885333 0.47939765
-0.2622533 0.19779618 0.066339485 0.035171576 -0.22328392 0.62721944 0.76930684 0.3854763
-0.5693503 0.24766923 0.41228214 -0.09032839 -0.06336169 0.04562917 0.043831777 0.08405319
0.2813126 0.2586983 0.13287821 -0.8116514 0.6083551 0.347744 0.13292982 0.2219929
-0.08240388 -0.22162993 0.030524338 0.032450326 -0.042285763 -0.09431654 0.64264995 0.3647475
-0.56253827 -0.7520867 -0.18004102 -0.5323577 -0.035020024 0.22337948 0.0906545 0.10469868
-0.95350355 0.050740767 -0.2728946 -0.1205601 -1.0684981 0.21360424 -0.2126991 -0.053656887

reupload_bias f4 [12, 3]
00000000: ee57 e8be bdf2 203f 43d5 163c 7828 d13e
00000010: 6026 96be 4959 8d3e 858a f9be 448f 6a3f
00000020: 1afd 0c3e e4d0 b93e 0ae9 f23e 4d27 9d3f
00000030: 5ca2 ccbe 4850 89be 0692 d9bb f814 aa3e
00000040: b85b 0ebe cb8d 77be 1a9b 2cbe 56ab 57be
00000050: 1644 66bd 811c 2fbf 0d81 08bf ce3e 29be
00000060: 73aa f83e cd82 123f 60f1 2abf 1eae eebe
00000070: 85fc 45bf 593f e73e 7ff0 803e d6b6 30bc
00000080: f1eb 9fbf e849 d3be dfc5 f0be e37a f9bd
-0.45379585 0.6287039 0.009206119 0.40851188 -0.29326153 0.27607182 -0.48738495 0.91624856
0.13768426 0.36292183 0.4744342 1.2277619 -0.3996762 -0.26819062 -0.006639722 0.33219123
-0.13902175 -0.24175183 -0.16856042 -0.21061453 -0.056217276 -0.6840287 -0.53321916 -0.16527864
0.48567542 0.57230836 -0.6677456 -0.46617216 -0.7733844 0.45165518 0.25183484 -0.010785779
-1.2493879 -0.41267323 -0.47025964 -0.12181642

mlr.0.weight f4 [64, 12]
00000000: 6f08 8a3b 1b33 8dbc fc21 8e3d 0dad a53d
00000010: eb3d 86be 762d dabd b0ef 783e b84e e63d
00000020: d13d 6bbc 9038 32be 04da 34be 5565 84be
00000030: 508a e6bd f3ba 23bd 85f9 db3d 152c 163d
00000040: f7cd 98be fee4 aebe f5fa 10be 2d91 cd3e
00000050: 368c 4f3d 8423 06be 0d06 153e 22af 46bd
00000060: 85af 5fbe 2c07 383e 880a 27be fb71 b5bd
00000070: e861 a3be 142e 263e 664c 3f3e 8528 993d
00000080: 263d 6ebe b9b0 a1be ba5c 88be db3f 3d3e
00000090: beeb 0d3e 64c0 783e 91db 1a3e 39a1 953d
000000a0: 9743 39bb e1ce 60be c443 7dbe ff3e 8abe
000000b0: 7c04 f23d bc21 11be b7f6 6dbd 0c1f 2abe
000000c0: ac76 57bd 520e 50be e026 41be 121c c43d
000000d0: 59b4 afbd 1c7d 363e 0eaa bdbd 4dd8 58be
000000e0: ad9f 50bd ff4a 0fbe ecdf b4bd e0b4 8cbe
000000f0: 6068 003e 4551 68be ca2f 1d3e 509b b13d
00000100: 3d04 473e 31be 71be c18c 703e 805a 6dbe
00000110: 49b9 463d 0869 8b3e 147e 7fbd 53bd dabd
00000120: c3f5 bdbc b3ba 90be 0d33 5f3e 647c c6be
00000130: 5304 6b3e 1c9d 513e 16c8 c33e 8298 62be
00000140: 1eca 75be 9615 9b3d 07eb 863e b932 dabe
00000150: c024 debc 4d06 3ebe dc95 953c 24eb 22be
00000160: c864 96bd c42d d6bd b79f 6ebe c5e6 633e
00000170: 331b 8e3e e815 46bd e35e 443d 5f0a 03be
00000180: 6479 85be 16d5 8fbe 19ba db3d c54c 22be
00000190: 5d09 3ebe e782 b8bc e0e0 c4bd 8444 bfbd
000001a0: 2bf8 173c f8cd 7abd 4f8f cbbd 6089 0dbe
000001b0: 8626 a6be af24 973e f945 0abe 815d 053e
000001c0: 68c8 0ebe a273 c83d 6664 903e 91aa 163e
000001d0: a4f2 a7be 7861 6e3e 51e2 713e 5a00 363d
000001e0: 9309 663d b965 b53e 5699 a9bd 0fcb 433e
000001f0: 130a 5cbe 7285 bbbc 2d3b 1f3e ebc0 3b3e
00000200: 09ba 79be b58e acbe ca2c c4be 1a62 5fbe
00000210: 5c19 64be 3134 92bd f67e 473e 3dea 453d
00000220: 67d6 60be db23 6dbe 2b0e 133e c8e1 5bbe
00000230: 6a96 11bd 7ecd 0d3e 0dcf 08be 24ee 00bd
00000240: 59d8 cdbc a2de 8bbd 62e1 15be 8ec1 83be
00000250: f9f3 6ebe c548 1ebe 9fc0 8e3e e0c7 0ebe
00000260: 8381 46be 194e 8f3d 52f1 a23d c5f6 213e
00000270: bfb3 823e a349 0e3e 75d4 9abe 3632 163d
00000280: c87c 343e dff0 97bd 954a 63be 2819 c93e
00000290: f128 98bd aff0 5cbe 0932 86be 83e1 053e
000002a0: fc58 b03c 1dbf 8b3d 6707 ccbc 46cd 36be
000002b0: 1f9a aebe 27a4 7f3c c62a 593e 55b7 733e
000002c0: dd08 65be 2a54 3e3d 4533 93be 2f45 18be
000002d0: 44bf bb3b 7537 8d3c 907a 0a3e 0635 c7be
000002e0: 210f c53d 53e4 b8be 04b6 2d39 5d0a 893e
000002f0: 4629 86bd 534d 623e 2c77 8bbe ad80 12be
00000300: cc55 5f3e d79f a2bd 39f8 5f3c 5d17 4abe
00000310: a56d 7c3e 3f6b 233e 6afe 3e3e c409 b0be
00000320: d68a 71be b079 813c 0050 1b3e c40b 8abe
00000330: 126b a5bd 15a4 473e a261 bc3c e264 553c
00000340: 0c7f 91bd 01d9 85be bcf8 8abe 874d 0dbe
00000350: f242 16be 4c31 b83d 4b1b acbd 0a4b e7bd
00000360: 59a4 b93e 0b6d b73d c9d0 583e a8ef 40be
00000370: 7655 09be 6ca1 e13d 4a9e 52be 64e6 70be
00000380: 83d6 523a 8e66 19be d065 44be 039b 343e
00000390: b6fd 9e3e e566 38bc 9e7a 03be 0d5a c1be
000003a0: 8c40 55be 92bc 613c 20fd 8c3d 8a9b 86bc
000003b0: 3f71 05be 61f5 6f3e 05ea 45be c196 353e
000003c0: ece4 e2bc d051 173e 2533 943d ef56 4e3e
000003d0: c720 423d db85 bd3e e5a3 d83d 08db b63e
000003e0: 234d c33e 2e10 5abd f4bd 0abe 8131 c33e
000003f0: 8ea3 673e 06b5 61be 13cf b6bc 49c0 91be
0.004212431 -0.017236283 0.06940076 0.080896474 -0.26219115 -0.10653202 0.24310184 0.11245483
-0.014358 -0.1740439 -0.17661291 -0.2585856 -0.1125685 -0.03997321 0.107409514 0.036663134
-0.2984464 -0.34159082 -0.14158233 0.40149823 0.050670825 -0.13099486 0.1455309 -0.048506863
-0.21844299 0.17971486 -0.16312611 -0.08859631 -0.31910634 0.16228515 0.18681487 0.074784316
-0.23265514 -0.3158014 -0.26633245 0.1848139 0.1385946 0.24292141 0.1512282 0.073061414
-0.0028269046 -0.21953918 -0.24732882 -0.27001187 0.118172616 -0.14173025 -0.058096614 -0.16613406
-0.05260341 -0.20317963 -0.18862486 0.095756665 -0.085793205 0.17821163 -0.09260951 -0.21176262
-0.05093353 -0.13993452 -0.08831772 -0.27481747 0.12539816 -0.22687252 0.15350261 0.08672202
0.1943521 -0.23607709 0.23491193 -0.23179054 0.048516545 0.2722857 -0.062376097 -0.10680642
-0.023188477 -0.2826744 0.21796818 -0.38766778 0.22950868 0.20470089 0.3823859 -0.2212849
-0.24002883 0.075724766 0.26351187 -0.42616823 -0.027117133 -0.18557091 0.018259935 -0.15910012
-0.07343441 -0.10457948 -0.23303114 0.22256 0.27755126 -0.048360735 0.047942054 -0.12796925
-0.26069176 -0.2809226 0.10728855 -0.15849598 -0.1855826 -0.022523357 -0.09613204 -0.0933924
0.009275476 -0.061231583 -0.09939443 -0.13821936 -0.32451266 0.29520175 -0.13503255 0.1302395
-0.13943636 0.0978768 0.28201598 0.14713503 -0.32802308 0.23279369 0.23621489 0.04443393
0.056161474 0.3542917 -0.082812 0.1912043 -0.21488218 -0.02289078 0.15549918 0.18335311
-0.24387373 -0.33702627 -0.3831542 -0.21814767 -0.22275299 -0.07138861 0.19482026 0.04831909
-0.21956788 -0.23158209 0.14360873 -0.21472847 -0.035543837 0.1384792 -0.13360234 -0.03147711
-0.025127577 -0.06829573 -0.14636758 -0.25733608 -0.23335256 -0.15457447 0.27881333 -0.13943434
-0.19385342 0.06997318 0.079561844 0.15816791 0.2552776 0.13895278 -0.30240217 0.03666898
0.17625725 -0.074189894 -0.2219642 0.39277005 -0.07429684 -0.21576189 -0.2621005 0.13074307
0.021526806 0.06823561 -0.024905873 -0.17851743 -0.3410196 0.015603102 0.21207723 0.23800404
-0.22366662 0.046466984 -0.28750053 -0.14870141 0.0057295877 0.017238358 0.13523316 -0.3890764
0.09622026 -0.36111698 0.00016566372 0.2676572 -0.06550841 0.2209981 -0.27239358 -0.14306898
0.21810073 -0.07940643 0.013670021 -0.19735475 0.24651201 0.1595888 0.18651739 -0.3438245
-0.23588118 0.015805095 0.15167236 -0.269621 -0.08077063 0.19496186 0.022995774 0.013024541
-0.071043104 -0.26142123 -0.27142894 -0.13799106 -0.14673975 0.08993778 -0.08403643 -0.112936094
0.362582 0.08956345 0.21173395 -0.18841422 -0.13411507 0.11017117 -0.20568195 -0.23525387
0.0008042829 -0.14980528 -0.19179463 0.17637257 0.3105294 -0.011255001 -0.12839743 -0.37764016
-0.20825404 0.013777869 0.06884217 -0.016431589 -0.13031481 0.23433448 -0.19327553 0.1773329
-0.02769705 0.14777303 0.072363175 0.2015035 0.04739454 0.37016186 0.105781354 0.35713983
0.38144788 -0.053238086 -0.13549024 0.38123706 0.22620985 -0.22041711 -0.022315538 -0.28467014

mlr.0.bias f4 [64]
00000000: 2d91 a2bd 649e 4e3e 1592 6d3d c22d 4ebd
00000010: 5cbe 473d 332d 8dbd 27e7 c33d dce8 313e
00000020: 29c4 9e3d ee4d b2bd b3d1 333e 79b4 2abd
00000030: a72a e6bd 1609 2d3e d140 8f3e 0449 313e
00000040: 81f4 853d ea89 c9bd 78c3 b93d 2c1d 333e
00000050: 5e63 52be 4e7c 12bd 5fa1 01be 0e0e 3b3d
00000060: bd27 123c f4d1 8cbd abd5 c5bc eaa2 e6bb
00000070: b8b0 8ebd 4a96 5cbe 74af ae3d 0dc8 14be
00000080: 9ddb 7abd c710 df3c aeb4 6cbd f308 8bbe
00000090: f453 423e b845 06be 3bbd 22be d0f8 15bb
000000a0: a043 1abe 8978 31be 0135 c7bd c069 d1bd
000000b0: f9e8 f6bd add4 b9bd 57ff 36bd 2035 6fbe
000000c0: 41ec 32be 6a06 8a3b 41a0 933c f177 613d
000000d0: 9978 22be 1cb6 bc3d baf4 7e3d 8bb7 d63c
000000e0: 3bc1 46be 50d8 3bbe 8b94 38be 03c3 dbbd
000000f0: 4e17 033e 8d8e 30bd 9917 fb3d 6285 2dbe
-0.07937846 0.20177609 0.058000643 -0.050336607 0.048765525 -0.06893387 0.09565573 0.17373985
0.07752258 -0.0870627 0.17560463 -0.04167602 -0.11238604 0.16897997 0.27979138 0.1731301
0.06540776 -0.09840758 0.09070486 0.17491597 -0.20545718 -0.035763077 -0.12659214 0.0456677
0.008920607 -0.06875983 -0.024149736 -0.007038464 -0.069673 -0.21541706 0.08529559 -0.14529438
-0.061244596 0.02722968 -0.057789497 -0.27155265 0.18977338 -0.13112533 -0.15892498 -0.00228839
-0.1506486 -0.17331137 -0.097269066 -0.10225248 -0.12056155 -0.09073768 -0.044677105 -0.2336011
-0.17472936 0.0042121904 0.018020751 0.055046026 -0.15866317 0.09214422 0.06224511 0.026210567
-0.19409649 -0.18344235 -0.18025415 -0.10730555 0.12801859 -0.043104697 0.1226036 -0.16945413

mlr.2.weight f4 [208, 64]
00000000: 609b 9b3c 80ef edbc 2f0d 3e3d 24f0 5fbd
00000010: 8063 00bd 8f41 0abd 0d71 5abe 7aba 58bc
00000020: 7c83 783d e257 9c3d 2697 b83e 608f 60bc
00000030: 5819 cebd 1c11 1d3e 0537 54bd 59c8 b33d
00000040: 3658 35be 1893 6fbd 12fc 19bd 1554 2ebd
00000050: 1b3a 1a3e 80c1 76bd dadc 133e 822d db3b
00000060: 2608 05bc 064a 493c 0003 fc3d bf7e 803d
00000070: 6e0b 8ebc c9b6 5f3d d6ad 223e 4a9c d7bd
00000080: c857 37bd 88d5 953d c9b3 183e 084d f43d
00000090: c7cd 61bd 0476 8a3d f432 8dbd e0ac 103e
000000a0: c8b7 b83d eca8 843e 4855 b83d 83bf 283e
000000b0: 4072 1f3b 874c 593e dbbf ba3d 50f1 5e3d
000000c0: cc8e 24bd 008e 09bb 9292 ddbd 311a f8bd
000000d0: 1bae 0abd 50b5 2cbd 7197 87bd 26f6 01bb
000000e0: b83c 353e 6498 583e 3775 373e ad52 053e
000000f0: c649 c9bd be2f fdbd 6c35 423d bc70 8f3d
00000100: 72c7 dbbd b8f3 b83d 4a51 c93d 201f f83b
00000110: be3a 9abd 314f 273e b4d2 70be e1c9 03bd
00000120: 0c21 adbd 1a94 8d3e 0312 a23d 804f fd3d
00000130: 2cef 58bd 8c75 423e ebbb bf3c 47a6 ce3d
00000140: 6a9f 4fbe e84b 523d 51f8 2bbd 41e9 89bd
00000150: fb81 0b3e fc95 c83d 2c6f c03c f748 bf3c
00000160: d466 923d e7ca 573e a836 993d d23f 0e3e
00000170: 9bbf 7abd dbb8 aa3c 10e7 303e 342f 96bd
00000180: 40a9 573e 8202 f6bd 0087 653e c235 ff3d
00000190: 6b1a 0abd c494 2e3d 24d7 e4bd 1084 513e
000001a0: 1827 afbc 3c46 163e b4b6 fc3d 08a0 0e3d
000001b0: 20e4 10bc 02ec 8c3e 975d ee3d 101e b5bd
000001c0: 2885 a63c 0011 89bc eff6 f33c 148e 9abc
000001d0: 5913 873d 8cb7 63bd 38f6 43bd a02e 38bd
000001e0: 535d 783e 030a 493e ed0d 3cbc a5b7 5e3e
000001f0: 4d28 f03d 4804 be3c 924e 96bd 806c 9a3c
00000200: 92aa f63d 7be7 0b3e 0aae debd a6ae e93d
00000210: 70bd 1e3c 688e 113e abda 14be 93a4 e9bc
00000220: 988f c7bd c569 753e 6856 ad3e d087 193c
00000230: 2ce2 b2bd 0421 c23d d78d b83d a32f a53d
00000240: 71c5 35be e086 213c 9766 073e 1971 943c
00000250: a687 7b3e 3ced 4c3d 403d 1d3e f1da 633b
00000260: 5176 0f3e 25b8 0b3e f243 dfbd 24aa e7bb
00000270: 3a5a 8e3c 838e bd3d 00d0 a53e 40f7 eabc
00000280: a2ab 703d be8e a63d 99f0 463d 3405 cd3d
00000290: 64d0 7a3d c27a c4bd 7846 b4bd 133f 243c
000002a0: 0e4b 8cbd 34fa 343e e026 1abc aea4 a93d
000002b0: f857 81bd 2211 203e 27c2 d83d 5225 fb3d
000002c0: 10c3 3dbd d64b b7bd 0ced 593d 3b79 4fbd
000002d0: bc4a 1f3e 08f5 9f3d c4e9 083e 6bfc f3bb
000002e0: eb57 5f3e c0a7 8b3e c5c2 db3c 9a32 583e
000002f0: b979 053e 806c b33a b0dc 763d 9801 33bd
00000300: 7047 dfbd 8605 6bbd b3f2 443d a44f a7bd
00000310: e051 783d da0c 59bd 0ee2 98be 6cfb aebc
00000320: 7465 0b3d 9972 1c3d d017 5d3e 7881 ae3c
00000330: f038 0b3d b1c5 023e e7dd cdbd b5d9 03be
00000340: 9ec3 56be 1ca0 0b3d 30e5 243d fc0c f93c
00000350: 7fa3 f73d a029 95bb 65f9 363d edf2 41bc
00000360: 27a4 563e 95d7 983d 569a ecbd f9ec 8b3d
00000370: 48ed 66bd 92fd f53d ad75 d33e 66ef fdbd
00000380: be92 853d f027 44bc d23a 9c3d 3235 eb3d
00000390: fb7b 8a3c 7475 a43d 61e1 203d 65a8 27bd
000003a0: 30a0 f03c feab b73e 2473 a7bd 92df 07bc
000003b0: da95 fa3d ee89 853e ed4e 0c3e f60b 9a3d
000003c0: a000 83bc de65 fcbd c254 0f3c 5623 843d
000003d0: d103 953c c81d 323d df3c d9bd f0a5 d23d
000003e0: f1b7 a53e a641 8c3e 3a48 d13d 3116 c23d
000003f0: 2b5c 37bd d0de ffbc 8084 43bc e075 8ebd
0.018994987 -0.029044867 0.04639929 -0.054672375 -0.03134489 -0.033753928 -0.21332188 -0.013228053
0.06067227 0.0763395 0.36052817 -0.013706058 -0.10063428 0.15338558 -0.051810283 0.08778448
-0.17709431 -0.05848989 -0.03759391 -0.042560656 0.15061228 -0.06024313 0.14439717 0.0066887746
-0.0081196185 0.012285715 0.1230526 0.06274175 -0.017339434 0.054617677 0.15886626 -0.10527857
-0.04476145 0.073161185 0.14912333 0.11928755 -0.055127885 0.06760791 -0.06894484 0.14128447
0.090194285 0.25910127 0.09000641 0.16479306 0.0024329573 0.21220599 0.09118625 0.054429352
-0.040175244 -0.002098918 -0.10818972 -0.121143706 -0.033857446 -0.0421651 -0.06620682 -0.0019830554
0.17698944 0.21151882 0.17915808 0.1301982 -0.09828524 -0.12362622 0.04741423 0.07003924
-0.107314005 0.09030861 0.09829958 0.0075720698 -0.075307354 0.16338803 -0.23517877 -0.03217495
-0.08453569 0.27652055 0.07913592 0.12368679 -0.052962467 0.18990153 0.023405036 0.10090309
-0.20275655 0.05134192 -0.04198486 -0.06733943 0.13623802 0.09794232 0.02349051 0.023350222
0.07148519 0.21073495 0.07481128 0.13891533 -0.061217885 0.0208401 0.17275643 -0.07333222
0.21060658 -0.12012197 0.2241478 0.12461425 -0.0337166 0.042622343 -0.11173847 0.20460534
-0.021380946 0.1467523 0.12339535 0.034820586 -0.008843452 0.2752381 0.116389446 -0.088436246
0.020327166 -0.016731739 0.029780833 -0.018866576 0.06595487 -0.055594966 -0.047842234 -0.04496634
0.2425435 0.19632725 -0.01147793 0.21749742 0.11726437 0.0231954 -0.07339205 0.018850565
0.120442525 0.13662522 -0.10873039 0.11410265 0.00968872 0.1421448 -0.1453654 -0.028520858
-0.09744185 0.23966129 0.33854985 0.009370759 -0.08734545 0.094789535 0.09011429 0.080657266
-0.17751099 0.009858817 0.13222729 0.018120335 0.24563465 0.05003093 0.15355396 0.003476795
0.14009978 0.13644464 -0.109016314 -0.007069843 0.017377008 0.092556976 0.32385254 -0.028682351
0.05875743 0.08132695 0.048569296 0.10010758 0.061233893 -0.09593727 -0.08802503 0.010024804
-0.06850253 0.1767357 -0.009408683 0.08283363 -0.06315607 0.15631536 0.105839066 0.12262978
-0.046328604 -0.089500114 0.05320458 -0.050652724 0.15555853 0.07810408 0.13370425 -0.007445862
0.21810882 0.2727642 0.026826272 0.21113053 0.13034715 0.0013688952 0.060269058 -0.04370269
-0.109022975 -0.057378314 0.04808302 -0.08169487 0.060624957 -0.05299077 -0.29859966 -0.021360122
0.0340323 0.038195226 0.21591115 0.02130197 0.033989847 0.12770726 -0.1005209 -0.12876017
-0.2097306 0.03408824 0.040257633 0.0304017 0.12091731 -0.004552081 0.044671435 -0.011837703
0.20961057 0.07462994 -0.11552875 0.06832308 -0.056378633 0.12011255 0.41300717 -0.12399177
0.065221295 -0.0119724125 0.076284066 0.114847556 0.016904822 0.08030215 0.039277438 -0.040932078
0.029373258 0.35873407 -0.08176258 -0.008293049 0.12235613 0.26081795 0.13701983 0.075218126
-0.015991509 -0.12324117 0.008748235 0.06452052 0.018190296 0.043485433 -0.10607313 0.10285556
0.323669 0.27393836 0.10218854 0.09476889 -0.044765633 -0.031234175 -0.011933446 -0.069560766

mlr.2.bias f4 [208]
00000000: b2c9 b03d 1d56 953d 0f73 84bc 782f ce3d
00000010: 3be1 063e 7296 f83d 7719 263e 31e7 1e3d
00000020: 32f1 c53d a3cf fa3d ca5d bc3d 7401 253d
00000030: 7e1f be3d c19e 0ebd ceac 66bb 3473 733d
00000040: 890d b73d 8fab 543d da60 d7bc 0336 863c
00000050: 56f4 9e3d 9cc8 0b3d ac50 b33d 4f37 d63c
00000060: fb76 b63d c6dd 873d 13eb 523d c344 c33d
00000070: f822 713d f135 983d ad92 ee3c f8b6 8d3d
00000080: 40c9 023e f35f 9bbb b13a 863d 5084 843c
00000090: d1bd 4d3d d6ed 543d 41ea e93d 52c5 0abd
000000a0: 0115 203c 9253 ca3d f77a 043d 36aa ae3d
000000b0: 9080 a5bc 5dc2 fa3d 55e7 13bb be9a 323d
000000c0: bba9 63bb 77b6 f93d 1093 a23d d314 c13c
000000d0: 00aa dd3d 5d72 083e 37b0 cc3c 7233 4e3d
000000e0: c28b 803d 1faa c93d abaf fc3d ebec 1b3e
000000f0: 6ab7 c83d 7ab2 f43d f4b2 8e3d 316f 1a3e
00000100: 1a06 913d 942f 653c 0bf8 bf3d 2011 013b
00000110: 899f 47bc 1666 a6bc a57a e53d 4766 b73d
00000120: 37fc a93d 9d8a e73c 819d 9ebc 498a 543d
00000130: 2fd5 233c 7574 4c3d bdd8 ec3d f890 053e
00000140: 0d13 213e 786c 8a3d dd99 dd3d a721 a73d
00000150: a8d3 b73d 5c96 403d baaa bc3d 9f3b ea3d
00000160: ddfe e93d 416a 263d ee19 b23d 78b5 cb3d
00000170: 183a e73d e1e7 193d b35d 093e 08f8 ef3d
00000180: a86a 25bb 84eb 023e ef2a e73d cb22 7d3d
00000190: 4743 cf3c 6685 023b 28bc ce3d 40a6 f73c
000001a0: b3d7 0e3e 8f73 cb3d 691e 953d 77df 2a3e
000001b0: c729 dc3c ed7f 973d 7425 643e def8 1c3e
000001c0: 2a11 5f3e 7fb6 373e 8409 833d 121c 283e
000001d0: bd01 e93d 463e 183e e0ea 2f3d bb66 f83d
000001e0: a7f5 443d c38a b63d 9aba ca3c e4a4 023e
000001f0: 7ff6 0d3e c934 163e 9ce0 053d ed7d 363c
00000200: e8db d93d a1bf 25bc 3b36 2e3d 1929 fb3d
00000210: 3d37 1e3e 66c3 3a3d 4578 533d 2923 413d
00000220: 4b8c 813d 19de 1c3e 464a 063d 41c7 083e
00000230: c4ee 003e e9a7 d13d b2bc f63d fea9 ae3d
00000240: 888a b03d 859e 473d 5031 bdbb 5b8d 45bd
00000250: d4e4 8d3d a105 963b c838 a13c 357b 8b3d
00000260: decd 2a3d 1689 1a3e aa21 093e 5b65 2dbc
00000270: 9952 ec3d 1c81 833d f95c 253e 3477 af3d
00000280: 282c 473d 3253 ee3d 6067 823c 1dd9 823d
00000290: 4dba fe3d 189f ea3d 4116 2b3d 965a b23d
000002a0: 8ac6 bebc 0c48 95bc 8b17 0b3c 2d41 25bd
000002b0: 6789 b93d 5666 b6bc 45f5 d3bc 9bf6 343d
000002c0: b1d9 b33d 0f53 e73d c12e af3d 1b41 743c
000002d0: 3b97 903d 6866 4a3d 2565 093e aa30 ba3c
000002e0: e68c cc3d 1b59 cf3d 1412 f6bb 4a71 e43d
000002f0: e742 3c3d 4178 133e c274 433d 7f71 853d
00000300: b7d9 b4bb da0d 383d 5249 823d 0170 943d
00000310: b124 bfbb 9233 0bbd 0734 853d 9304 0ebd
00000320: 56e5 40bd 38cd 55bd 8abd bf3d f2d4 ba3d
00000330: cf7d ac3c 6559 ae3d 254a e73d 2b7f bd3d
0.0863222 0.072918154 -0.016168145 0.10067648 0.13171856 0.1213807 0.16220652 0.0387947
0.09665145 0.12246635 0.09197576 0.04028459 0.092833504 -0.03481937 -0.0035198214 0.059436038
0.089381285 0.051921424 -0.0262913 0.016383177 0.07761447 0.034126863 0.08755621 0.02614942
0.089094125 0.06634097 0.051493715 0.095346 0.05887124 0.074321635 0.029122675 0.06919664
0.12772083 -0.0047416626 0.06554163 0.016176373 0.05022985 0.05198463 0.114216335 -0.033879586
0.009770633 0.09879221 0.03234383 0.08528559 -0.020202905 0.12244103 -0.0022568305 0.043604605
-0.0034738618 0.121930055 0.07938206 0.0235695 0.108234406 0.13324876 0.02498637 0.05034203
0.06276657 0.09846901 0.123381935 0.15227096 0.098006085 0.11948104 0.06967726 0.15081479
0.07081242 0.013988394 0.09373482 0.0019694045 -0.012184032 -0.02031235 0.11205033 0.08955055
0.08300059 0.028264338 -0.019362213 0.05188969 0.009999557 0.04991575 0.11564777 0.13043582
0.15729924 0.0675897 0.10820363 0.081607156 0.08975917 0.047018394 0.09212251 0.11437153
0.114255644 0.040628675 0.08696352 0.09946722 0.112903774 0.037574653 0.1341465 0.1171723
-0.0025240574 0.12785155 0.11287486 0.06180076 0.025300635 0.0019915937 0.10094482 0.030230641
0.1394947 0.099341504 0.07281191 0.16686808 0.02687539 0.07397447 0.22279912 0.1532931
0.21783891 0.1794071 0.06398299 0.16416958 0.11377285 0.14867505 0.042948604 0.12128969
0.048085835 0.089131854 0.024747182 0.12758213 0.13863562 0.14668573 0.032684907 0.0111384215
0.10637647 -0.010116489 0.042532187 0.12263698 0.15450759 0.045596503 0.05162837 0.047152672
0.06325587 0.15319099 0.032785676 0.1335726 0.12591082 0.102371044 0.120477095 0.08528517
0.08620173 0.04873516 -0.005773701 -0.04823051 0.06928411 0.0045783077 0.019680396 0.06810609
0.041700236 0.15091357 0.13391748 -0.010583247 0.11539192 0.0642111 0.16148748 0.08567658
0.048626095 0.11636962 0.015918434 0.06389067 0.12437878 0.11456126 0.04176927 0.08708684
-0.02328803 -0.018222831 0.0084895 -0.04034536 0.090594105 -0.022265594 -0.02587379 0.044180494
0.08781756 0.11295139 0.085538395 0.0149081005 0.07060095 0.04941407 0.1341749 0.022728283
0.09987812 0.101244174 -0.0075094793 0.11154421 0.04596224 0.14401342 0.04771877 0.06515788
-0.0055191177 0.044935085 0.06361641 0.072479255 -0.0058332314 -0.03398473 0.06504064 -0.03467233
-0.04709371 -0.052197665 0.093623236 0.09122647 0.021056084 0.085131444 0.11293439 0.09252771
