pqc_reup_v1_output/best_model_epoch_27.pth (torch, 61285 bytes, 6 tensors)

reupload_weights f4 [12, 3, 4]
00000000: 03b6 303e 3513 e53d 60e3 573e 144d 48be
00000010: 880e bf3e 97d8 2f3e 4c54 c03e b742 5e3f
00000020: 2604 243d da95 923e ad1e 0d3e 11e7 75be
00000030: 7875 1ebe 4a99 30be 5678 90bb ddaa de3d
00000040: 51b3 92be cedd 00bf 722e b3bd ba28 8d3c
00000050: d006 37bc 5237 093e 2db2 fa3d e388 5e3e
00000060: 579b 403d a3ae bd3d 1957 cd3d 906c 783d
00000070: 4cda 353f b63e a03e a005 8a3e 924f 803e
00000080: 9313 38be 4b4d fdbb 4745 3c3e 82ac 3f3e
00000090: eecb fb3c 5fee 30be 69b1 853d 1565 65be
000000a0: d90b be3e 92a0 453f 1d9c b53e ecc1 8bbe
000000b0: 0481 1a3f 8019 6d3f d123 0d3f 692e bebd
000000c0: 2eee 5cbd d480 c53b 6811 073e 642e 483e
000000d0: 1eb8 9d3e bf65 073f 13cd b5be a9fa c0be
000000e0: d695 b63d 68bf 923e e03f b1be 0095 7dbe
000000f0: e975 95bd d0a1 f23d 62df 38be 628f 16bd
00000100: 0350 b53e 622b 12ba 1f60 cb3d 74fe be3d
00000110: 4fb6 813d 814e 61be 135b a9be a69b a13d
00000120: d49c 5dbd 5e23 5dbd bd96 a4bd 16b4 d33d
00000130: 4800 903d 2d2c f3bd 5fea 73be a3c4 f4bc
00000140: 85c4 c93e 9ece 863e bc75 473e d8ac 493e
00000150: 5b30 023e 0e3f c83d 0131 8c3d 3eba f7bc
00000160: ebb1 98be fa7c dabe 7d51 743e a5c7 9e3e
00000170: 00c1 e8be cc8b b9be 9c59 093f f97c b93e
00000180: 4e8e 87be c48d 243e c2b8 47bc 9c6a 8c3d
00000190: 01c1 69be f7b8 123f 1bf1 353f 4257 dc3e
000001a0: d3a6 10bf 9cff f03d 00f4 803e 6cf1 7e3c
000001b0: 62ed 85bd de52 b53d d6cc 363d 6e79 133e
000001c0: 1fbd b0bc 9d17 b9bb 66e1 94bc 15ed 78bf
000001d0: a746 ab3e 92e2 643e c101 1a3e c86f 433e
000001e0: 2eea 9fbd dafe 25be c9e8 713d 6e16 603d
000001f0: ae0d 68bd fe20 d4bd 75c9 fd3e 0d1e c23e
00000200: 4d0c 12bf e6c2 3fbf 8ec7 b8be 45c8 efbe
00000210: a780 88bd a124 833e 1488 ac3d 3a12 9a3d
00000220: 6c19 51bf cce7 c3bd be51 f8be 21b4 20be
00000230: 7e1b 64bf 6a40 1a3e 0433 30be d076 eb3b
0.17256932 0.11185304 0.2108283 -0.19560653 0.37315774 0.17172466 0.37564313 0.8682055
0.04004302 0.28629953 0.13781233 -0.24013926 -0.15474498 -0.17245975 -0.0044088764 0.10872433
-0.28652433 -0.5033845 -0.08749093 0.017231334 -0.011171058 0.1340001 0.122410156 0.21731906
0.047023144 0.09261825 0.10026378 0.06065041 0.7103622 0.31297845 0.26957417 0.25060707
-0.17976217 -0.0077301613 0.18385802 0.1871815 0.03073689 -0.17278431 0.06527979 -0.22401841
0.37118414 0.77198136 0.35470667 -0.27296388 0.6035311 0.92617035 0.55132776 -0.09286196
-0.053938083 0.0060273204 0.13190234 0.19548947 0.30804533 0.5288963 -0.35508022 -0.3769124
0.08915298 0.28661656 -0.34619045 -0.2476387 -0.0729788 0.118472695 -0.18053964 -0.036757834
0.35412607 -0.00055759226 0.09930443 0.09325877 0.06333601 -0.22002603 -0.33077297 0.07891016
-0.05410464 -0.053988807 -0.080365635 0.10337083 0.07031304 -0.1187366 -0.23819874 -0.02987892
0.39407745 0.2632951 0.19478506 0.19694841 0.12713759 0.09777652 0.06845284 -0.030240174
-0.2982324 -0.42673475 0.2385921 0.31011692 -0.45459747 -0.3623947 0.5365236 0.3622816
-0.26475757 0.16069704 -0.012190046 0.068562716 -0.22827531 0.57313484 0.7107102 0.43035322
-0.56504554 0.117675036 0.25186157 0.015560489 -0.06539418 0.08853696 0.04462894 0.1440179
-0.021574555 -0.005648567 -0.018173885 -0.9723676 0.3345234 0.22352055 0.15039732 0.1908561
-0.07808338 -0.162105 0.05905989 0.05470889 -0.05665367 -0.10357855 0.49567762 0.37913552
-0.5705002 -0.74906766 -0.36089748 -0.4683248 -0.066651635 0.25613883 0.08424392 0.07523008
-0.81679416 -0.09565696 -0.48499864 -0.15693714 -0.8910445 0.15063635 -0.17206961 0.0071857944

reupload_bias f4 [12, 3]
00000000: 40a6 e4be b990 3a3f c09d 1b3d 2254 d63e
00000010: 0cb9 c7be b7dd ed3d abb9 b2be cdd4 693f
00000020: 6abb 423d ed17 b43e 06bc 613e f050 533f
00000030: 0d04 d0be d5b2 17bc ca44 49be 1fcb 6c3e
00000040: bd8a 87be 33fb 99be 4d55 21be 12ac 80be
00000050: a766 a0bd 4e75 11bf 2552 babe f071 60bd
00000060: 3625 f03e a346 1b3f c359 08bf 598b cabe
00000070: 29f0 31bf b7a7 813e 3264 673e 4e41 b73d
00000080: a579 88bf 970f dfbe 883d 0ebf 5d0f 24be
-0.4465809 0.7287708 0.03799224 0.41861063 -0.39008367 0.116145544 -0.34907278 0.91340333
0.047542013 0.35174504 0.22044381 0.82545376 -0.4062809 -0.0092589455 -0.19655147 0.2312436
-0.26473036 -0.30074462 -0.15755196 -0.2513128 -0.078320794 -0.5681962 -0.36390796 -0.05479616
0.4690339 0.6065466 -0.53261966 -0.3955944 -0.6950708 0.2532327 0.22596815 0.08948003
-1.0662123 -0.43566582 -0.5556264 -0.16021486

mlr.0.weight f4 [64, 12]
00000000: 6f08 8a3b 1b33 8dbc fc21 8e3d 0dad a53d
00000010: eb3d 86be 762d dabd b0ef 783e b84e e63d
00000020: d13d 6bbc 9038 32be 04da 34be 5565 84be
00000030: c0cf 27be 433e 723d 978a 043e 69cf f53d
00000040: 0a06 97be df9f 57be a520 cabd 9c3c 973e
00000050: b457 d43a 7151 d4bd 9be5 953d 5ace debd
00000060: e173 49be cc9b 4e3e d783 10be 0f63 88bd
00000070: f324 98be 45b0 3c3e 5cd1 553e 6a71 c53d
00000080: b7f0 57be 506b 96be 65d9 7abe 5e4d 533e
00000090: beeb 0d3e 64c0 783e 91db 1a3e 39a1 953d
000000a0: 9743 39bb e1ce 60be c443 7dbe ff3e 8abe
000000b0: 7c04 f23d bc21 11be b7f6 6dbd 0c1f 2abe
000000c0: ac76 57bd 520e 50be e026 41be 121c c43d
000000d0: 59b4 afbd 1c7d 363e 0eaa bdbd 4dd8 58be
000000e0: ad9f 50bd ff4a 0fbe ecdf b4bd e0b4 8cbe
000000f0: 3d13 1e3e ddb6 69be cf70 243e 2826 aa3d
00000100: d554 513e fa9b 70be 4d93 6f3e c776 52be
00000110: cd58 a83d 5d58 863e 2eed b6bc ea97 8fbd
00000120: c03a d6bb 6399 93be 1e48 6d3e c199 c9be
00000130: 3796 733e 54cf 423e 8c4d c33e d2e6 4ebe
00000140: db4c 66be b666 353d ca08 943e 8943 cebe
00000150: bb31 86bd 7733 31be 2ad6 cebc fd7f 11be
00000160: 87aa f1bd 0daf bbbd de74 8cbe 758b 723e
00000170: 42d0 773e eb7b 39bd daa7 06bd 8148 f1bd
00000180: 6479 85be 16d5 8fbe 19ba db3d c54c 22be
00000190: 5d09 3ebe e782 b8bc e0e0 c4bd 8444 bfbd
000001a0: 2bf8 173c f8cd 7abd 4f8f cbbd 6089 0dbe
000001b0: 0fcc 86be 1e41 833e 4481 0dbe 225a d53d
000001c0: d719 f4bd 830f 213d 6a15 7f3e ab11 2f3e
000001d0: a744 88be 8283 113e 4c49 793e dd40 cc3d
000001e0: 2e1e 223e 4ade 973e a0f3 bfbd d780 d23d
000001f0: 019c 74be 7296 4cbd 6743 263e 5b5e 483e
00000200: 8df3 51be 9c62 7abe 1f4b 88be 3bd6 6abe
00000210: 5c19 64be 3134 92bd f67e 473e 3dea 453d
00000220: 67d6 60be db23 6dbe 2b0e 133e c8e1 5bbe
00000230: 6a96 11bd 7ecd 0d3e 0dcf 08be 24ee 00bd
00000240: 59d8 cdbc a2de 8bbd 62e1 15be 8ec1 83be
00000250: f9f3 6ebe c548 1ebe 9fc0 8e3e e0c7 0ebe
00000260: 8381 46be 194e 8f3d 52f1 a23d c5f6 213e
00000270: 7b75 7a3e 248f 4d3e a456 95be aba0 b33d
00000280: 5420 383e 2eb9 9b3b f811 3abe 968a be3e
00000290: b546 a4bd d2a7 02be 5c6f 85be 9f5c df3d
000002a0: 2465 023d cce3 c33d db62 073b 98a0 15be
000002b0: 276e 9abe ccaa d93c f534 553e e4f5 4f3e
000002c0: 128e 4fbe 86ed 04bd a50b a9be 9f07 08be
000002d0: a45e 3dbc 7fe3 cd3d c550 293e f759 9dbe
000002e0: f9e6 fd3d b0b0 82be 88a2 0c3d 07ca 543e
000002f0: 0f62 80bd 567d 543e 5d99 a2be 724c 14be
00000300: c2e1 633e da74 e5bd a12d b03c c8fd 66be
00000310: 3fd5 803e ec87 df3d 293a 3c3e 751c 97be
00000320: 43d4 64be edd5 53ba 7534 4a3e cc51 80be
00000330: 126b a5bd 15a4 473e a261 bc3c e264 553c
00000340: 0c7f 91bd 01d9 85be bcf8 8abe 874d 0dbe
00000350: f242 16be 4c31 b83d 4b1b acbd 0a4b e7bd
00000360: 5610 a53e cfd2 cb3d 9be9 653e 814e 20be
00000370: 5d51 e2bd 694c de3d 6bc9 31be bd64 3dbe
00000380: 0312 283b 2167 bebd e33d 2fbe 7186 3a3e
00000390: 9ceb 743e b804 d33c daf1 a9bd fb87 97be
000003a0: 7170 0bbe 881e 503d c17c ce3d 4a97 12bd
000003b0: 4e68 ffbd b46f 1c3e 28d4 79be 0920 3f3e
000003c0: 3dbe 06bd 2bed d53d 47f4 8b3c d106 193e
000003d0: 5116 09bc e593 a03e d4ba 853d dacb b43e
000003e0: e835 b93e 4014 1fbd 69cd 0ebe b590 b73e
000003f0: 8ea3 673e 06b5 61be 13cf b6bc 49c0 91be
0.004212431 -0.017236283 0.06940076 0.080896474 -0.26219115 -0.10653202 0.24310184 0.11245483
-0.014358 -0.1740439 -0.17661291 -0.2585856 -0.16387844 0.05914141 0.12943493 0.12002451
-0.29496795 -0.2105708 -0.09869508 0.2953843 0.0016200454 -0.10367096 0.073191844 -0.10879202
-0.1967311 0.2017662 -0.14112793 -0.06659519 -0.2971569 0.18426616 0.20880646 0.09640773
-0.21087919 -0.29378748 -0.24496992 0.20634982 0.1385946 0.24292141 0.1512282 0.073061414
-0.0028269046 -0.21953918 -0.24732882 -0.27001187 0.118172616 -0.14173025 -0.058096614 -0.16613406
-0.05260341 -0.20317963 -0.18862486 0.095756665 -0.085793205 0.17821163 -0.09260951 -0.21176262
-0.05093353 -0.13993452 -0.08831772 -0.27481747 0.15437026 -0.22823663 0.16058658 0.08308059
0.20442517 -0.23497 0.23396035 -0.20553122 0.082200624 0.2623929 -0.022329893 -0.07011397
-0.0065377653 -0.28827962 0.23172042 -0.39375117 0.23787771 0.19024402 0.381451 -0.20205238
-0.22490256 0.044287406 0.28912956 -0.402859 -0.06552454 -0.17304789 -0.025248606 -0.1420898
-0.11800104 -0.09164248 -0.27432913 0.23686011 0.24200538 -0.045284193 -0.03287492 -0.11781407
-0.26069176 -0.2809226 0.10728855 -0.15849598 -0.1855826 -0.022523357 -0.09613204 -0.0933924
0.009275476 -0.061231583 -0.09939443 -0.13821936 -0.2632756 0.25635618 -0.13818842 0.10417582
-0.11918991 0.039321434 0.24910513 0.17096584 -0.26614878 0.14210322 0.24344367 0.09973309
0.15831825 0.2966178 -0.0937264 0.102784805 -0.23887636 -0.049948163 0.1623665 0.19567244
-0.20503063 -0.24451679 -0.26619813 -0.22933285 -0.22275299 -0.07138861 0.19482026 0.04831909
-0.21956788 -0.23158209 0.14360873 -0.21472847 -0.035543837 0.1384792 -0.13360234 -0.03147711
-0.025127577 -0.06829573 -0.14636758 -0.25733608 -0.23335256 -0.15457447 0.27881333 -0.13943434
-0.19385342 0.06997318 0.079561844 0.15816791 0.24458878 0.20074135 -0.29167664 0.08770879
0.17981082 0.0047522997 -0.18170917 0.37215108 -0.08021299 -0.12759331 -0.26061523 0.10906338
0.031834736 0.09564933 0.0020658288 -0.14612043 -0.30162165 0.0265707 0.20820983 0.20308644
-0.2026904 -0.032453083 -0.33016697 -0.13284157 -0.011558209 0.10053157 0.16534717 -0.307327
0.1239757 -0.25525427 0.03433469 0.20780192 -0.06268703 0.20750937 -0.31757632 -0.14482287
0.22254089 -0.11203928 0.021506133 -0.22557747 0.25162694 0.10914597 0.18381561 -0.29513898
-0.22346596 -0.00080808887 0.19746573 -0.25062406 -0.08077063 0.19496186 0.022995774 0.013024541
-0.071043104 -0.26142123 -0.27142894 -0.13799106 -0.14673975 0.08993778 -0.08403643 -0.112936094
0.32239026 0.09952318 0.22452395 -0.15654947 -0.11050675 0.10854418 -0.17361991 -0.1849546
0.0025645501 -0.09297014 -0.17113452 0.18215348 0.23918003 0.025759086 -0.08298083 -0.29595932
-0.13617112 0.050810367 0.10082389 -0.03578881 -0.124710664 0.15276986 -0.24397337 0.18664564
-0.03289627 0.10445627 0.017084254 0.14944007 -0.008367137 0.31362835 0.06529775 0.35311776
0.3617394 -0.03883767 -0.13945545 0.3585259 0.22620985 -0.22041711 -0.022315538 -0.28467014

mlr.0.bias f4 [64]
00000000: 2d91 a2bd c6f5 2a3e 810b a53d c22d 4ebd
00000010: 5cbe 473d da7e e8bd e13a bf3d 28dc e93d
00000020: 29c4 9e3d 386e 02be 653e 413e 79b4 2abd
00000030: a72a e6bd 48ca 3a3e 7a96 a43e bd55 293e
00000040: 9528 9b3d ea89 c9bd a6e8 ed3d fb97 323e
00000050: 41ad 73be 4e7c 12bd 179c 4abe b15a 5c3d
00000060: 65a0 3c3d c07f 9bbd abd5 c5bc 8106 d63c
00000070: b8b0 8ebd 11fd 81be 1648 153e 0dc8 14be
00000080: 1f3e adbd c710 df3c 26f7 03bd f308 8bbe
00000090: 709f 073e b845 06be 3bbd 22be b69b 803c
000000a0: a043 1abe 07fb 42be 0135 c7bd b515 0ebe
000000b0: f9e8 f6bd 01a3 c3bd 5803 78bc 2035 6fbe
000000c0: 41ec 32be 6a06 8a3b 9e6f 243d ebb7 483d
000000d0: 29c2 3dbe 1cb6 bc3d 7633 b23d db6c 153d
000000e0: 65bd 87be 46e2 2ebe 3fce 77be 21a1 2cbe
000000f0: 3f5a fa3d 8d8e 30bd 9917 fb3d 6285 2dbe
-0.07937846 0.16695318 0.08058835 -0.050336607 0.048765525 -0.1135232 0.09337402 0.114189446
0.07752258 -0.12737358 0.18871458 -0.04167602 -0.11238604 0.18241227 0.32146055 0.16536613
0.075761 -0.09840758 0.1161664 0.17440788 -0.2379656 -0.035763077 -0.19786106 0.053797428
0.0460514 -0.07592726 -0.024149736 0.026126148 -0.069673 -0.25388387 0.1457828 -0.14529438
-0.08459114 0.02722968 -0.03221812 -0.27155265 0.13244414 -0.13112533 -0.15892498 0.015699249
-0.1506486 -0.19041072 -0.097269066 -0.13875468 -0.12056155 -0.09552575 -0.015137516 -0.2336011
-0.17472936 0.0042121904 0.04014551 0.049003523 -0.18531097 0.09214422 0.08701222 0.036480766
-0.26511684 -0.17078504 -0.2419977 -0.16858341 0.12224244 -0.043104697 0.1226036 -0.16945413

mlr.2.weight f4 [208, 64]
00000000: 609b 9b3c 1486 e4bc a263 473d 24f0 5fbd
00000010: 8063 00bd 69a2 a0bd 1b7a 8dbe 2211 f33d
00000020: 7c83 783d 2643 d93c 1b5e 8e3d 608f 60bc
00000030: 5819 cebd a75a 3f3e bcd4 fe3c 035e b13d
00000040: ac72 55be 1893 6fbd b49a 3b3d 8d00 a63d
00000050: 4df9 103e 80c1 76bd 8a80 0b3e c0bc 96bc
00000060: 18f2 99bc 272a 5c3c 0003 fc3d 3860 653d
00000070: 6e0b 8ebc b217 953c d15f 843d 4a9c d7bd
00000080: 34ed 1bbd 88d5 953d 6e41 243e 084d f43d
00000090: 36d1 b8bd 0476 8a3d f432 8dbd 271f 0e3e
000000a0: c8b7 b83d c70b 603e 4855 b83d cf28 073e
000000b0: 4072 1f3b 0e18 0d3e a9f4 263d 50f1 5e3d
000000c0: cc8e 24bd 008e 09bb 26d1 debd ecb6 4e3c
000000d0: 74c0 45bd 50b5 2cbd c8d7 85bd 8068 4dbd
000000e0: 72ed 213e da3d 123e c865 1d3e 2eda 0c3e
000000f0: 1297 39bb be2f fdbd 6c35 423d bc70 8f3d
00000100: 72c7 dbbd f784 cc3d 8100 ce3d 201f f83b
00000110: be3a 9abd c1c4 fc3d 96ee babe 0486 a93d
00000120: 0c21 adbd 8b44 573e 8914 14bd 804f fd3d
00000130: 2cef 58bd a16c 4d3e ee2b f03c 341b c53d
00000140: d83d a4be e84b 523d e45c 47bc cfb2 8fbd
00000150: b110 f33d fc95 c83d b5b7 843b 58ee 203d
00000160: 445d f63c 2f46 473e a836 993d 315d d03d
00000170: 9bbf 7abd 3cd1 33bc 8459 0e3d 342f 96bd
00000180: 1835 4a3e 8202 f6bd 74ea 063e c235 ff3d
00000190: 4a36 803d c494 2e3d 24d7 e4bd 5cb6 513e
000001a0: 1827 afbc 4845 9a3d b4b6 fc3d 9e7c 933c
000001b0: 20e4 10bc a100 633e aa7d 023d 101e b5bd
000001c0: 2885 a63c 0011 89bc b8de eb3c c2b8 29bd
000001d0: 754d 1b3d 8cb7 63bd 8416 38bd 66e9 56bd
000001e0: 3092 513e 3a65 da3d a78a 35bd f516 543e
000001f0: 297c 083e 4804 be3c 924e 96bd 806c 9a3c
00000200: 92aa f63d fc18 193e dcfa d9bd a6ae e93d
00000210: 70bd 1e3c 049f bd3d 37ce 6cbe 0a3e da3d
00000220: 988f c7bd 2bc2 573e f6f7 d73b d087 193c
00000230: 2ce2 b2bd fd7b d23d dd71 2b3e 1c3b 823d
00000240: 59a5 71be e086 213c adb7 363e 1aa5 013e
00000250: 4a5b 5a3e 3ced 4c3d b89d f93d c006 bdbb
00000260: 805f c03d fac5 fb3d f243 dfbd 2c12 bcbc
00000270: 3a5a 8e3c 66e0 1a3d 08bd 213e 40f7 eabc
00000280: c892 ba3d be8e a63d 8cd6 123d 3405 cd3d
00000290: b820 ca3d c27a c4bd 7846 b4bd f43f 71bc
000002a0: 0e4b 8cbd 139f de3d e026 1abc de6a 153d
000002b0: f857 81bd 2d1e 863d bdec 813d 5225 fb3d
000002c0: 10c3 3dbd d64b b7bd 50d6 543d cbb4 5f3d
000002d0: deab fe3d 08f5 9f3d b906 0b3e 52ac aabc
000002e0: 5c7b 343e 1265 3e3e caaa 8ebc e390 4c3e
000002f0: c1d7 413e 806c b33a b0dc 763d 9801 33bd
00000300: 7047 dfbd c272 563d f208 4a3d a44f a7bd
00000310: e051 783d 507a b8bd ee65 d6be 6ee8 f73d
00000320: 7465 0b3d ad22 303d 20ad 9b3d 7881 ae3c
00000330: f038 0b3d c1f3 0e3e d627 49bd 2b51 c9bc
00000340: 34db aabe 1ca0 0b3d 37e4 0b3d 1dff e93d
00000350: 31f0 c93d a029 95bb cb19 493d 48fb 07bd
00000360: e4cd 183e 43d3 b63d 569a ecbd c059 113d
00000370: 48ed 66bd bae1 be3d 10c8 a63d 66ef fdbd
00000380: 6f90 8f3d f027 44bc 0891 783c 3235 eb3d
00000390: 986f dfbc 7475 a43d 61e1 203d effc 0bbd
000003a0: 30a0 f03c df3b 953e 2473 a7bd bd52 a6bc
000003b0: da95 fa3d d9ef 473e e708 4e3d f60b 9a3d
000003c0: a000 83bc de65 fcbd 90df 193c 6cf5 b93d
000003d0: 8c8e 06bc c81d 323d 78ee d2bd 3196 0f3e
000003e0: 431f 953e 436f 193e 5bb4 a63d 7138 003e
000003f0: 3bad 87bc d0de ffbc 8084 43bc e075 8ebd
0.018994987 -0.027895965 0.048679 -0.054672375 -0.03134489 -0.07843477 -0.27632222 0.11868502
0.06067227 0.026521277 0.06951543 -0.013706058 -0.10063428 0.18686925 0.031107299 0.086605094
-0.20844525 -0.05848989 0.045801833 0.08105574 0.141576 -0.06024313 0.13623253 -0.01840055
-0.018792197 0.013437784 0.1230526 0.055999964 -0.017339434 0.018199775 0.06463588 -0.10527857
-0.03806801 0.073161185 0.16040584 0.11928755 -0.09024279 0.06760791 -0.06894484 0.13879071
0.090194285 0.21879493 0.09000641 0.13199161 0.0024329573 0.13778707 0.04076067 0.054429352
-0.040175244 -0.002098918 -0.10879736 0.012616854 -0.04827924 -0.0421651 -0.06535298 -0.050148487
0.15813234 0.14281407 0.15370858 0.13755104 -0.0028318805 -0.12362622 0.04741423 0.07003924
-0.107314005 0.099862985 0.1005869 0.0075720698 -0.075307354 0.12342215 -0.36510152 0.082775146
-0.08453569 0.21022241 -0.036152396 0.12368679 -0.052962467 0.2006097 0.029317822 0.09624329
-0.32078433 0.05134192 -0.012168143 -0.07016527 0.11868418 0.09794232 0.00405022 0.039289802
0.03007377 0.19460367 0.07481128 0.10174025 -0.061217885 -0.010975178 0.034753338 -0.07333222
0.19746816 -0.12012197 0.13175374 0.12461425 0.06260355 0.042622343 -0.11173847 0.20479721
-0.021380946 0.075327456 0.12339535 0.018003758 -0.008843452 0.22168209 0.031858124 -0.088436246
0.020327166 -0.016731739 0.028792724 -0.041435964 0.037915666 -0.055594966 -0.044943348 -0.05246868
0.20465922 0.10663839 -0.044321682 0.20711882 0.13328613 0.0231954 -0.07339205 0.018850565
0.120442525 0.14950937 -0.10643551 0.11410265 0.00968872 0.092588454 -0.2312554 0.10656364
-0.09744185 0.21070163 0.0065908385 0.009370759 -0.08734545 0.10277555 0.16742654 0.063589305
-0.23598231 0.009858817 0.17843504 0.12660637 0.21323887 0.05003093 0.121882856 -0.005768627
0.09393215 0.122936204 -0.109016314 -0.022957884 0.017377008 0.03781166 0.15794766 -0.028682351
0.091100276 0.08132695 0.03584914 0.10010758 0.09869522 -0.09593727 -0.08802503 -0.01472472
-0.06850253 0.10870185 -0.009408683 0.03647887 -0.06315607 0.06548724 0.06343982 0.12262978
-0.046328604 -0.089500114 0.051962197 0.054615777 0.12435125 0.07810408 0.13576783 -0.020834122
0.17625183 0.18593243 -0.017415423 0.19977145 0.1892996 0.0013688952 0.060269058 -0.04370269
-0.109022975 0.052355535 0.049324937 -0.08169487 0.060624957 -0.09007704 -0.4187464 0.12104879
0.0340323 0.04300182 0.0760138 0.02130197 0.033989847 0.13960172 -0.049110256 -0.024574837
-0.33370364 0.03408824 0.03415319 0.11425612 0.09860266 -0.004552081 0.049096864 -0.033198625
0.14922291 0.08927014 -0.11552875 0.035485983 -0.056378633 0.09320398 0.08143628 -0.12399177
0.070099704 -0.0119724125 0.015171297 0.114847556 -0.027274892 0.08030215 0.039277438 -0.034176763
0.029373258 0.2914724 -0.08176258 -0.020303125 0.12235613 0.19525088 0.05030146 0.075218126
-0.015991509 -0.12324117 0.00939168 0.09080014 -0.008212697 0.043485433 -0.102993906 0.14022137
0.29125413 0.14983849 0.08139869 0.1252153 -0.016562095 -0.031234175 -0.011933446 -0.069560766

mlr.2.bias f4 [208]
00000000: d620 c13d 9310 033d 67a3 0cbd 2a09 a23d
00000010: 3d00 ff3d 6e1d 013e 8c0b 163e 53b3 083c
00000020: 1039 e33d 548d ef3d 8adf d83d 61a3 333b
00000030: b4c4 023e 7002 31bd 1f99 86bb b933 ae3d
00000040: 53b6 e93d b510 973d 1823 813c 38e3 69bc
00000050: 8fb5 c13d 502b 06ba f07d bc3d 7683 433d
00000060: aefe af3d b73e 9b3d ac7f 2b3d 673c 1d3d
00000070: 92db 0c3d 1b5a 1e3d 4961 0b3c 2feb ae3d
00000080: facd b23d 43b9 e9bc 01ed 133d 947f 6abc
00000090: a117 613d d501 913c 731e 013e 6ebc 18bd
000000a0: 8144 fc3c 92b7 093e 8382 613d 465b e33d
000000b0: 42d6 f539 0379 e03d b096 c6bc dd62 473b
000000c0: e5cf dbbc 8cee 063e 6c59 9a3d af78 663c
000000d0: ef56 a53d b281 be3d 1c51 28bb c2bf 133c
000000e0: bcb8 803d 2230 df3d 9601 a03d 9860 1a3e
000000f0: d9bd 9d3d 25aa db3d 0494 9f3d 31f7 083e
00000100: 7878 9d3d a910 bd3b 8791 e63d 4a9e 713c
00000110: 8ec1 9a3b 7e3f c1bc 23b9 003e 2dfc 873d
00000120: f990 b33d f4ce 4fbb 139c 34bd 888e 453d
00000130: 67cf 06bd f09d 543d 6886 3d3d 8122 ab3d
00000140: aced 0a3e ab53 dfbb 18b9 c73d 59a6 0c3d
00000150: 5a88 193d 61a3 923c 0a3a e03c 85d6 ba3d
00000160: 1d2b cd3d 7c8c c4bc 8432 933d 9c48 9a3d
00000170: 4b09 f63d a612 203d 1aec 163e 29f7 043e
00000180: 319b dbbc ac85 b83d 7e00 983d 42d9 5e3c
00000190: b038 d7bc 0f29 f8bc 4958 873d d2b3 083b
000001a0: 39eb be3d eb7c 723d 1326 043d cd6c 0d3e
000001b0: 6295 8fbb 8d11 0f3d 6472 fa3d 106f c03d
000001c0: 6f25 163e 5578 e03d 5dfb 2cbc c3f8 dd3d
000001d0: 4e48 553d 5962 df3d c902 00bc c371 a63d
000001e0: 0ec2 2f3c cf3d 973d 2d9b 54bc 357f a53d
000001f0: de86 ba3d afcd cd3d 4a3c 85bc f72d 44bd
00000200: 3dd0 8c3d 28a9 1dbd c582 63bc 137d 903d
00000210: 9437 f23d e7ce 86bc 4c35 973c cf74 25bb
00000220: 64c8 023d 4f5a ca3d 42a7 e4bc 322c f73d
00000230: 937e d33d 56a3 873d 23fc d43d 08cb 8b3d
00000240: de25 393d bf4b 683c 562f f6bc 1b48 7bbd
00000250: 4773 663d 3a53 7fbc d9a3 72bd a390 cbbb
00000260: cbfc 1dbd 6e9e c23d b884 953d 857a a6bd
00000270: c6f9 aa3d 922f 03bb d5e8 083e 7a2a 973d
00000280: e657 023d 16bf dc3d 73e1 52bc 0bea 233c
00000290: 16f1 dc3d 4c11 e23d 8461 083d 7a50 b83d
000002a0: 0cd2 51bd 55e2 61bd 8bd8 94bc fa9f a0bd
000002b0: 159b 973d 3855 20bd c7f4 64bd 462f 363d
000002c0: 2a05 d63c a1bc 8f3d 787c 723d 34ce 1fbd
000002d0: ded9 4a3d b269 d7bb 0304 d23d f037 bdbc
000002e0: f13a 863d 2536 ae3d fcfa e6bc 0d3d b13d
000002f0: 38e7 933c 0ea5 bc3d ce9d 4a3a 533b 273d
00000300: 8235 24bd aae0 fc3c 233f b73d 285d 5b3d
00000310: df01 23bd ebce 7dbd f600 943d dbb9 2dbd
00000320: 3807 79bd 2027 29bd ae46 673d f6fb 3d3d
00000330: 2516 f9bc 8eee 753d c3b2 ed3d 799e 563d
0.09430091 0.03199823 -0.03433552 0.07911904 0.12451217 0.12608883 0.14652842 0.0083435355
0.11094868 0.11696878 0.10589512 0.0027410614 0.12770349 -0.043215215 -0.004107609 0.08505959
0.11411729 0.073762335 0.015763804 -0.014275365 0.09458458 -0.00051181484 0.09203708 0.047732793
0.08593498 0.07580321 0.041869804 0.038387682 0.034389086 0.03866015 0.008507081 0.085409515
0.08730693 -0.028530722 0.036114696 -0.014312644 0.054954175 0.017701069 0.12609272 -0.037289076
0.030794384 0.13448933 0.055056106 0.111013934 0.00046889676 0.10960581 -0.024241775 0.0030423917
-0.02683253 0.13176936 0.07536587 0.014066859 0.08073222 0.09302081 -0.002568311 0.009017887
0.06285235 0.108978525 0.078128025 0.1507591 0.07702226 0.10725812 0.077919036 0.13375546
0.07688993 0.0057698083 0.11258226 0.014747212 0.0047227805 -0.023589846 0.12570624 0.066398956
0.08767886 -0.0031709047 -0.044094156 0.04823163 -0.032912638 0.051908433 0.046270758 0.083561905
0.13567227 -0.006815394 0.09752101 0.03433833 0.03748355 0.01790017 0.027371425 0.091229476
0.10017989 -0.02399277 0.071873695 0.075333804 0.12013491 0.039080285 0.14738503 0.12984909
-0.0268074 0.09009871 0.07421969 0.013601603 -0.026272148 -0.030293016 0.06608636 0.0020859134
0.09322209 0.059201162 0.032262873 0.13811035 -0.0043818215 0.034928847 0.122288495 0.093961835
0.14662717 0.109604515 -0.010557977 0.10838463 0.05207091 0.1090743 -0.007813164 0.08127167
0.010727419 0.07384836 -0.01297645 0.080809034 0.09107755 0.10048997 -0.0162641 -0.047895398
0.06875656 -0.038491398 -0.013886158 0.07055106 0.11827007 -0.01645608 0.018458031 -0.0025246625
0.03192939 0.09880506 -0.027911786 0.120689765 0.103268765 0.06622951 0.10399654 0.068258345
0.04520213 0.0141782155 -0.030051868 -0.061348062 0.05626228 -0.015583808 -0.05923829 -0.0062123104
-0.03857116 0.09502874 0.07300705 -0.081288375 0.08348422 -0.0020017368 0.13370068 0.07381149
0.031822108 0.10778634 -0.012871134 0.010004531 0.10788171 0.11038455 0.033296123 0.08999725
-0.051225707 -0.055147488 -0.018169662 -0.07843013 0.074026264 -0.03914377 -0.0558975 0.044478677
0.02612551 0.070184 0.059200734 -0.03901501 0.04952418 -0.006573879 0.102546714 -0.023097962
0.06554211 0.08506421 -0.02819585 0.08654223 0.01805459 0.09211169 0.0007729203 0.04082806
-0.04009009 0.030868847 0.08947589 0.053555638 -0.039796706 -0.06196491 0.07226746 -0.042413574
-0.0607979 -0.041297078 0.05646389 0.046382867 -0.030406067 0.060041957 0.11606362 0.052397225
