pqc_reup_v1_output/best_model_epoch_2.pth (torch, 61273 bytes, 6 tensors)

reupload_weights f4 [12, 3, 4]
0.18313892 0.17575863 0.12882127 -0.12513998 0.31351444 0.13004613 0.25683963 0.1349025
0.120589 0.3722878 0.1791281 0.12680754 -0.17748609 -0.120464355 -0.078677066 0.044792186
0.18615116 -0.043851838 -0.14890373 -0.02606897 0.1318706 0.27763537 0.18899488 0.2822336
0.055471174 0.07159937 0.013239239 0.07251142 0.21549562 0.22959396 0.1823784 0.31355947
-0.061905164 0.0025934363 0.070801 0.2566434 -0.012588634 -0.09336684 -0.001264049 -0.16700478
-0.04592396 0.21357557 0.018702699 0.07482334 0.09046815 0.4309024 0.09957093 0.14783901
0.0066858726 0.023934554 0.09223454 0.14349721 -0.06524536 0.109043226 -0.0890324 -0.08552905
-0.18557836 -0.040920544 -0.05069371 0.021996453 -0.069153965 0.11080372 -0.1895264 0.069393374
0.10103292 0.040751915 0.17729051 0.007956459 -0.0118016545 -0.05376765 -0.14029986 0.08960699
-0.030040009 0.04285064 -0.00090858917 0.03987966 0.014916631 -0.100279786 -0.25348938 -0.10371392
0.12071774 0.08949909 -0.007089345 0.072145656 0.13167356 0.085150525 0.12044668 0.037898295
-0.20893925 -0.33070862 -0.36974737 -0.1972527 -0.38986412 -0.28581458 -0.047378935 -0.13580324
-0.3019672 -0.03316889 0.017873904 -0.041857813 0.14743796 0.1568997 0.23824821 0.08732934
-0.39427847 -0.2942783 -0.34134498 -0.37215668 0.060862724 0.16970573 0.040929243 0.07247658
-0.47963247 -0.33612928 -0.39282098 -0.299439 -0.0009304359 -0.051220212 -0.10842383 -0.048588797
-0.06323934 -0.032102864 -0.043163717 0.013319633 0.13285515 0.06345843 0.12174727 0.085910924
-0.023356 -0.12667228 -0.3580677 -0.32085493 -0.025219643 0.19220039 0.0643946 0.055432033
-0.12344757 -0.21683358 -0.40606654 -0.13587661 -0.110741474 0.056635104 -0.09163332 0.036295887
00000000: c588 3b3e 12fa 333e b9e9 033e b224 00be
00000010: f784 a03e d02a 053e 7c80 833e e223 0a3e
00000020: 5ef7 f63d 829c be3e 5b6d 373e d6d9 013e
00000030: eabe 35be 04b6 f6bd 7121 a1bd 0378 373d
00000040: 699e 3e3e fc9d 33bd 387a 18be 988e d5bc
00000050: 1609 073e 3926 8e3e e087 413e ec80 903e
00000060: be35 633d b1a2 923d 65e9 583c de80 943d
00000070: e2aa 5c3e ae1a 6b3e 67c1 3a3e de8a a03e
00000080: 4590 7dbd a4f6 293b 1d00 913d c466 833e
00000090: 8f40 4ebc 1d37 bfbd 72ae a5ba 4d03 2bbe
000000a0: c31a 3cbd 8eb3 5a3e 6736 993c fb3c 993d
000000b0: 5e47 b93d 3d9f dc3e d8eb cb3d 1c63 173e
000000c0: 2a15 db3b 6612 c43c 76e5 bc3d eff0 123e
000000d0: 5c9f 85bd 0e52 df3d 9e56 b6bd db29 afbd
000000e0: 4108 3ebe 4d9c 27bd 35a4 4fbd e831 b43c
000000f0: 98a0 8dbd 10ed e23d 3513 42be 1d1e 8e3d
00000100: 59ea ce3d 7beb 263d a58b 353e cf5b 023c
00000110: ba5b 41bc 783b 5cbd c4aa 0fbe df83 b73d
00000120: 7716 f6bc 2784 2f3d 632e 6eba db58 233d
00000130: e364 743c 7d5f cdbd 5cc9 81be f767 d4bd
00000140: dd3a f73d 4d4b b73d bc4d e8bb 1ac1 933d
00000150: 6fd5 063e 6663 ae3d c0ac f63d 3e3b 1b3d
00000160: 2cf4 55be a452 a9be 874f bdbe 9dfc 49be
00000170: 459c c7be 4a56 92be 6a10 42bd 0110 0bbe
00000180: 729b 9abe 1adc 07bd 4b6c 923c 1973 2bbd
00000190: faf9 163e 51aa 203e 57f7 733e bad9 b23d
000001a0: dede c9be a5ab 96be c5c4 aebe 528b bebe
000001b0: 314b 793d 57c7 2d3e 6ca5 273d 9a6e 943d
000001c0: 6392 f5be 2319 acbe d51f c9be 1250 99be
000001d0: 7fe8 73ba 49cc 51bd 500d debd 0c05 47bd
000001e0: a183 81bd 4b7e 03bd 70cc 30bd 973a 5a3c
000001f0: 2e0b 083e 7ef6 813d a256 f93d 11f2 af3d
00000200: 1555 bfbc 61b6 01be a654 b7be 1947 a4be
00000210: 6d99 cebc 2ed0 443e 51e1 833d b30c 633d
00000220: 14d2 fcbd 9f09 5ebe f4e7 cfbe 3d23 0bbe
00000230: 6dcc e2bd 36fa 673d 40aa bbbd ffaa 143d

reupload_bias f4 [12, 3]
-0.36984593 0.2473832 0.22194941 0.36102977 -0.30095127 -0.017933577 -0.22804287 0.3480539
0.10570299 0.30078906 0.019594189 0.49460474 -0.295224 0.036355715 -0.1451278 0.09726339
-0.21867326 -0.08840092 -0.05097143 -0.13767447 -0.010396931 -0.4375711 -0.37768087 -0.1373667
0.345125 0.5324136 -0.6284319 -0.35835642 -0.28087932 -0.09201598 0.1519508 0.24266332
-0.46752122 -0.33121058 -0.27419508 0.03592809
00000000: 725c bdbe 0652 7d3e b546 633e e5d8 b83e
00000010: 4916 9abe 70e9 92bc 1284 69be 1f34 b23e
00000020: cf7a d83d 0601 9a3e fe83 a03c d53c fd3e
00000030: 9a27 97be bbe9 143d 629c 14be 0732 c73d
00000040: e2eb 5fbe 8b0b b5bd 6bc7 50bd 89fa 0cbe
00000050: e457 2abc 5209 e0be 635f c1be dba9 0cbe
00000060: 39b4 b03e 424c 083f eae0 20bf 7e7a b7be
00000070: 6acf 8fbe e072 bcbd fe98 1b3e bc7c 783e
00000080: f15e efbe 6f94 a9be 4c63 8cbe 5529 133d

mlr.0.weight f4 [64, 12]
0.004212431 -0.017236283 0.06940076 0.080896474 -0.26219115 -0.10653202 0.24310184 0.11245483
-0.014358 -0.1740439 -0.17661291 -0.2585856 -0.076573364 0.10438048 0.19338168 0.14028734
-0.24195239 -0.16667739 -0.03548223 0.29277563 0.05683358 -0.06530714 0.1347677 -0.09361137
-0.18684661 0.21070029 -0.1312611 -0.057869766 -0.28717524 0.19320178 0.21871027 0.10520713
-0.20128572 -0.28490502 -0.23445587 0.21526511 0.1385946 0.24292141 0.1512282 0.073061414
-0.0028269046 -0.21953918 -0.24732882 -0.27001187 0.118172616 -0.14173025 -0.058096614 -0.16613406
-0.05260341 -0.20317963 -0.18862486 0.095756665 -0.085793205 0.17821163 -0.09260951 -0.21176262
-0.05093353 -0.13993452 -0.08831772 -0.27481747 0.1561172 -0.21651153 0.13172172 0.11549951
0.19620746 -0.23633902 0.19498937 -0.14532745 0.09917361 0.258865 -0.048197728 -0.00829405
-0.074996494 -0.24957523 0.12999739 -0.29510882 0.17067336 0.20746063 0.2644638 -0.07662516
-0.24572176 0.05636935 0.15093368 -0.29585332 -0.06552454 -0.17304789 -0.025248606 -0.1420898
-0.11800104 -0.09164248 -0.27432913 0.23686011 0.24200538 -0.045284193 -0.03287492 -0.11781407
-0.26069176 -0.2809226 0.10728855 -0.15849598 -0.1855826 -0.022523357 -0.09613204 -0.0933924
0.009275476 -0.061231583 -0.09939443 -0.13821936 -0.23212527 0.2355754 -0.12016836 0.07003741
-0.10194971 0.01763152 0.26509276 0.13263853 -0.249801 0.11145545 0.2745994 0.0781527
0.23441572 0.31619608 -0.01083108 0.09164593 -0.16380276 -0.027741425 0.24779959 0.18574257
-0.14392105 -0.19737864 -0.15862636 -0.24459526 -0.22275299 -0.07138861 0.19482026 0.04831909
-0.21956788 -0.23158209 0.14360873 -0.21472847 -0.035543837 0.1384792 -0.13360234 -0.03147711
-0.025127577 -0.06829573 -0.14636758 -0.25733608 -0.23335256 -0.15457447 0.27881333 -0.13943434
-0.19385342 0.06997318 0.079561844 0.15816791 0.26805142 0.202039 -0.2434306 0.06676256
0.21989508 0.015264298 -0.12682283 0.3214576 -0.061265487 -0.120372705 -0.2132038 0.061257716
0.11385761 0.04992474 0.043080214 -0.23290917 -0.28358898 -0.008906905 0.249215 0.15251717
-0.18209392 -0.05149382 -0.22685723 -0.15330374 0.06955229 0.16134933 0.24616918 -0.26079938
0.20433423 -0.19915979 0.115936495 0.25660858 0.01808374 0.27043116 -0.23166001 -0.09440998
0.15580463 -0.07546862 -0.0716742 -0.1328925 0.18641543 0.12902623 0.07992683 -0.17478913
-0.24689838 0.018654358 0.07295257 -0.14584832 -0.08077063 0.19496186 0.022995774 0.013024541
-0.071043104 -0.26142123 -0.27142894 -0.13799106 -0.14673975 0.08993778 -0.08403643 -0.112936094
0.32036218 0.13721253 0.24445783 -0.10323248 -0.07675991 0.14332545 -0.15309785 -0.14668229
0.028972633 -0.0661075 -0.17293772 0.2156496 0.2735339 0.0758618 -0.01835159 -0.23838888
-0.0693438 0.10287708 0.1688227 7.859642e-05 -0.07585343 0.19343331 -0.19111694 0.22238027
-0.06228654 0.042755246 -0.01633781 0.07326339 -0.04318185 0.2492355 0.033976123 0.2712643
0.3242457 -0.09808545 -0.1632751 0.2807569 0.22620985 -0.22041711 -0.022315538 -0.28467014
00000000: 6f08 8a3b 1b33 8dbc fc21 8e3d 0dad a53d
00000010: eb3d 86be 762d dabd b0ef 783e b84e e63d
00000020: d13d 6bbc 9038 32be 04da 34be 5565 84be
00000030: 7fd2 9cbd 6fc5 d53d d905 463e 7ca7 0f3e
00000040: 5ec2 77be 7aad 2abe d155 11bd b0e6 953e
00000050: 54ca 683d c0bf 85bd 8b00 0a3e 51b7 bfbd
00000060: b854 3fbe d1c1 573e 4f69 06be d908 6dbd
00000070: a208 93be b0d6 453e 96f5 5f3e d676 d73d
00000080: d81d 4ebe 12df 91be 3315 70be 756e 5c3e
00000090: beeb 0d3e 64c0 783e 91db 1a3e 39a1 953d
000000a0: 9743 39bb e1ce 60be c443 7dbe ff3e 8abe
000000b0: 7c04 f23d bc21 11be b7f6 6dbd 0c1f 2abe
000000c0: ac76 57bd 520e 50be e026 41be 121c c43d
000000d0: 59b4 afbd 1c7d 363e 0eaa bdbd 4dd8 58be
000000e0: ad9f 50bd ff4a 0fbe ecdf b4bd e0b4 8cbe
000000f0: 30dd 1f3e 33b5 5dbe 0fe2 063e 028b ec3d
00000100: 9cea 483e db02 72be 4bab 473e b8d0 14be
00000110: 891b cb3d f489 843e fb6a 45bd c4e3 07bc
00000120: c397 99bd a690 7fbe 091e 053e 8118 97be
00000130: ffc4 2e3e 8f70 543e cd67 873e a7ed 9cbd
00000140: 7c9e 7bbe 8ce3 663d 5c8e 1a3e 167a 97be
00000150: bb31 86bd 7733 31be 2ad6 cebc fd7f 11be
00000160: 87aa f1bd 0daf bbbd de74 8cbe 758b 723e
00000170: 42d0 773e eb7b 39bd daa7 06bd 8148 f1bd
00000180: 6479 85be 16d5 8fbe 19ba db3d c54c 22be
00000190: 5d09 3ebe e782 b8bc e0e0 c4bd 8444 bfbd
000001a0: 2bf8 173c f8cd 7abd 4f8f cbbd 6089 0dbe
000001b0: 3fb2 6dbe ad3a 713e d41a f6bd c66f 8f3d
000001c0: 02cb d0bd fa6f 903c 3dba 873e 65d2 073e
000001d0: d5cb 7fbe c142 e43d 4b98 8c3e 860e a03d
000001e0: ad0a 703e 74e4 a13e d874 31bc ddb0 bb3d
000001f0: e9bb 27be fc41 e3bc 2dbf 7d3e 4d33 3e3e
00000200: 0a60 13be a01d 4abe f36e 22be 2e77 7abe
00000210: 5c19 64be 3134 92bd f67e 473e 3dea 453d
00000220: 67d6 60be db23 6dbe 2b0e 133e c8e1 5bbe
00000230: 6a96 11bd 7ecd 0d3e 0dcf 08be 24ee 00bd
00000240: 59d8 cdbc a2de 8bbd 62e1 15be 8ec1 83be
00000250: f9f3 6ebe c548 1ebe 9fc0 8e3e e0c7 0ebe
00000260: 8381 46be 194e 8f3d 52f1 a23d c5f6 213e
00000270: 093e 893e 50e3 4e3e df45 79be cfba 883d
00000280: 2d2c 613e 1b17 7a3c d8dd 01be 1796 a43e
00000290: 85f1 7abd f785 f6bd 1952 5abe 5fe9 7a3d
000002a0: 2e2e e93d e27d 4c3d e174 303d be7f 6ebe
000002b0: 9332 91be 44ee 11bc 3832 7f3e 762d 1c3e
000002c0: d476 3abe 2feb 52bd 434d 68be a8fb 1cbe
000002d0: 6e71 8e3d c238 253e c613 7c3e 7f87 85be
000002e0: fe3c 513e 8bf0 4bbe 1d70 ed3d 3362 833e
000002f0: 5a24 943c f475 8a3e 4838 6dbe 055a c1bd
00000300: 408b 1f3e 4b8f 9abd ecc9 92bd f914 08be
00000310: b0e3 3e3e 741f 043e aeb0 a33d ecfb 32be
00000320: eed2 7cbe 06d1 983c 2868 953d 4359 15be
00000330: 126b a5bd 15a4 473e a261 bc3c e264 553c
00000340: 0c7f 91bd 01d9 85be bcf8 8abe 874d 0dbe
00000350: f242 16be 4c31 b83d 4b1b acbd 0a4b e7bd
00000360: 8306 a43e 7181 0c3e 2753 7a3e 8d6b d3bd
00000370: 4d34 9dbd e8c3 123e afc5 1cbe e233 16be
00000380: 0458 ed3c 5e63 87bd 9616 31be 40d3 5c3e
00000390: a30c 8c3e 6e5d 9b3d 1356 96bc 371c 74be
000003a0: 1f04 8ebd 38b1 d23d dcdf 2c3e 22d4 a438
000003b0: 0b59 9bbd 6213 463e 29b4 43be a7b7 633e
000003c0: 2c20 7fbd 2020 2f3d dfd6 85bc 1e0b 963d
000003d0: 74df 30bd 9737 7f3e 8c2a 0b3d 28e3 8a3e
000003e0: 8803 a63e 06e1 c8bd 9631 27be 5ebf 8f3e
000003f0: 8ea3 673e 06b5 61be 13cf b6bc 49c0 91be

mlr.0.bias f4 [64]
-0.07937846 0.22986042 0.08941329 -0.050336607 0.048765525 -0.12595719 0.104880646 0.114189446
0.07752258 -0.14327246 0.2545889 -0.04167602 -0.11238604 0.20317568 0.22158262 0.25919846
0.072916925 -0.09840758 0.16239753 0.24646336 -0.27468148 -0.035763077 -0.22460516 0.053797428
0.102683105 -0.046422146 -0.024149736 0.0843243 -0.048517548 -0.24779578 0.19917949 -0.14529438
-0.06985289 0.02722968 -0.002714732 -0.27155265 0.13244414 -0.13112533 -0.15892498 0.05252129
-0.1506486 -0.19042884 -0.097269066 -0.1095248 -0.12056155 -0.06883612 0.03711958 -0.2336011
-0.17472936 0.0042121904 0.04014551 0.11101475 -0.19496912 0.09214422 0.1352537 0.10853799
-0.33362493 -0.13886337 -0.28010437 -0.17794123 0.16891651 -0.043104697 0.1226036 -0.16945413
00000000: 2d91 a2bd 8860 6b3e 511e b73d c22d 4ebd
00000010: 5cbe 473d ecfa 00be aacb d63d 28dc e93d
00000020: 29c4 9e3d 04b6 12be 7a59 823e 79b4 2abd
00000030: a72a e6bd 490d 503e 8ee6 623e a9b5 843e
00000040: 7855 953d ea89 c9bd 8a4b 263e e460 7c3e
00000050: 0da3 8cbe 4e7c 12bd e5fe 65be b15a 5c3d
00000060: 854b d23d 2625 3ebd abd5 c5bc 38b2 ac3d
00000070: 56ba 46bd 2dbe 7dbe b5f5 4b3e 0dc8 14be
00000080: 080f 8fbd c710 df3c a5e9 31bb f308 8bbe
00000090: 709f 073e b845 06be 3bbd 22be 9020 573d
000000a0: a043 1abe c7ff 42be 0135 c7bd 8a4e e0bd
000000b0: f9e8 f6bd f4f9 8cbd b30a 183d 2035 6fbe
000000c0: 41ec 32be 6a06 8a3b 9e6f 243d b45b e33d
000000d0: fca5 47be 1cb6 bc3d f27f 0a3e 2a49 de3d
000000e0: e3d0 aabe 3332 0ebe d769 8fbe 3a36 36be
000000f0: 73f8 2c3e 8d8e 30bd 9917 fb3d 6285 2dbe

mlr.2.weight f4 [208, 64]
0.018994987 -0.060902406 0.0624865 -0.054672375 -0.03134489 -0.08238789 0.007701944 0.11868502
0.06067227 -0.043231774 0.0073011206 -0.013706058 -0.10063428 0.11668034 -0.012924284 0.04580711
-0.037723213 -0.05848989 0.03785581 0.06477823 0.064363174 -0.06024313 0.15325989 -0.01840055
-0.054947678 -0.032484222 0.1230526 0.021241928 -0.016968027 -0.02247305 -0.024460472 -0.10527857
-0.07248124 0.073161185 0.12997386 0.11928755 -0.09024279 0.06760791 -0.06894484 0.09957831
0.090194285 0.12388568 0.09000641 0.10637304 0.0024329573 0.08098009 -0.02511681 0.054429352
-0.040175244 -0.002098918 -0.10879736 -0.00936167 -0.03313879 -0.0421651 -0.060779914 -0.08872095
0.11727478 0.10543335 0.14457732 0.107906975 -0.047061704 -0.12362622 0.04741423 0.07003924
-0.107314005 0.07748409 0.10568465 0.0075720698 -0.075307354 0.1384983 0.060697913 0.082775146
-0.08453569 0.1086229 -0.052198183 0.12368679 -0.052962467 0.116482764 0.009809949 0.06728253
-0.0063546053 0.05134192 -0.01180058 -0.07963963 0.011080825 0.09794232 0.017399147 0.039289802
-0.00876687 0.13940018 0.07481128 0.078325175 -0.06389521 -0.057476986 0.026129382 -0.07333222
0.13917504 -0.12012197 0.10007033 0.12461425 0.06260355 0.042622343 -0.11173847 0.16002186
-0.021380946 -0.079664215 0.12339535 -0.006771127 -0.008843452 0.15837976 -0.05224073 -0.088436246
0.020327166 -0.016731739 0.028792724 -0.069280446 0.057449054 -0.055594966 -0.03170472 -0.07917093
0.1598997 0.063484594 -0.058380697 0.1541574 0.07893198 0.0231954 -0.07339205 0.018850565
0.120442525 0.114796944 -0.09735878 0.11410265 0.00968872 0.093016036 0.10441732 0.10656364
-0.09744185 0.14158013 -0.05647589 0.009370759 -0.08734545 0.0100539075 -0.02017971 0.016135812
-0.0069196266 0.009858817 0.15920582 0.10678013 0.12376457 0.05003093 0.14115766 -0.005768627
0.043911476 0.067070946 -0.109016314 -0.06948694 0.015325174 -0.008353866 0.01765461 -0.028682351
0.05311288 0.08132695 -0.0018607546 0.10010758 0.09869522 -0.09593727 -0.08802503 -0.06490292
-0.06850253 -0.014343927 -0.009408683 0.009479136 -0.06315607 -3.7293416e-05 -0.014160896 0.12262978
-0.046328604 -0.089500114 0.051962197 0.025388354 0.14397 0.07810408 0.14128463 -0.059000734
0.17283618 0.14048903 -0.020243954 0.16470222 0.13034871 0.0013688952 0.060269058 -0.04370269
-0.109022975 0.041270982 0.03726566 -0.08169487 0.060624957 -0.08024709 0.114824496 0.12104879
0.0340323 -0.054457746 0.05884453 0.02130197 0.033989847 0.05686775 0.08047827 -0.037261393
-0.015262749 0.03408824 0.027522432 0.11565894 -0.027983973 -0.004552081 0.05793422 -0.033198625
0.1045857 0.038513754 -0.11552875 0.0051279166 -0.056694612 0.04197772 -0.015265583 -0.12399177
0.005079415 -0.0119724125 -0.01588228 0.114847556 -0.027274892 0.08030215 0.039277438 -0.081607126
0.029373258 0.13144355 -0.08176258 -0.05272512 0.12235613 0.1223197 -0.052711073 0.075218126
-0.015991509 -0.12324117 0.00939168 0.062358852 -0.004533166 0.043485433 -0.08922133 0.1089123
0.20688327 0.09217982 0.05531925 0.07747086 -0.07598893 -0.031234175 -0.011933446 -0.069560766
00000000: 609b 9b3c cd74 79bd d8f1 7f3d 24f0 5fbd
00000010: 8063 00bd fbba a8bd 9760 fc3b 2211 f33d
00000020: 7c83 783d cd13 31bd 3d3e ef3b 608f 60bc
00000030: 5819 cebd 1af6 ee3d 60c0 53bc 3ca0 3b3d
00000040: a883 1abd 1893 6fbd b20e 1b3d 73aa 843d
00000050: d7d0 833d 80c1 76bd 29f0 1c3e c0bc 96bc
00000060: d110 61bd 2d0e 05bd 0003 fc3d 8d03 ae3c
00000070: 8800 8bbc 6719 b8bc 5461 c8bc 4a9c d7bd
00000080: 0b71 94bd 88d5 953d de17 053e 084d f43d
00000090: 36d1 b8bd 0476 8a3d f432 8dbd b7ef cb3d
000000a0: c8b7 b83d c7b7 fd3d 4855 b83d 1cda d93d
000000b0: 4072 1f3b e4d8 a53d c5c1 cdbc 50f1 5e3d
000000c0: cc8e 24bd 008e 09bb 26d1 debd b161 19bc
000000d0: 8abc 07bd 50b5 2cbd 5cf4 78bd 54b3 b5bd
000000e0: c32d f03d 71ed d73d 140c 143e 55fe dc3d
000000f0: c6c3 40bd be2f fdbd 6c35 423d bc70 8f3d
00000100: 72c7 dbbd fbaf 9e3d 3271 d83d 201f f83b
00000110: be3a 9abd 80d2 0d3e 609e 783d 0486 a93d
00000120: 0c21 adbd af75 de3d c3cd 55bd 804f fd3d
00000130: 2cef 58bd 848e ee3d e9b9 203c 6ccb 893d
00000140: 4b3a d0bb e84b 523d 3857 41bc 1a1a a3bd
00000150: 598c 353c fc95 c83d a888 8e3c 58ee 203d
00000160: eba2 0fbc ecbe 0e3e a836 993d f368 a03d
00000170: 7edb 82bd fd6c 6bbd 490d d63c 342f 96bd
00000180: e783 0e3e 8202 f6bd acf1 cc3d c235 ff3d
00000190: 4a36 803d c494 2e3d 24d7 e4bd c5dc 233e
000001a0: 1827 afbc fe26 a3bd b4b6 fc3d 55e0 ddbb
000001b0: 20e4 10bc 4e2e 223e 60fa 55bd 101e b5bd
000001c0: 2885 a63c 0011 89bc b8de eb3c e8e2 8dbd
000001d0: b34f 6b3d 8cb7 63bd cfdc 01bd 5e24 a2bd
000001e0: bfbc 233e 3604 823d 9920 6fbd 70db 1d3e
000001f0: 17a7 a13d 4804 be3c 924e 96bd 806c 9a3c
00000200: 92aa f63d a91a eb3d 0a64 c7bd a6ae e93d
00000210: 70bd 1e3c 317f be3d bfd8 d53d 0a3e da3d
00000220: 988f c7bd 62fa 103e 4353 67bd d087 193c
00000230: 2ce2 b2bd 25b9 243c eb4f a5bc 402f 843c
00000240: 09be e2bb e086 213c da06 233e 8aaf da3d
00000250: 4778 fd3d 3ced 4c3d a28b 103e c006 bdbb
00000260: 85dc 333d 7e5c 893d f243 dfbd 2b4f 8ebd
00000270: 7016 7b3c a7de 08bc 67a0 903c 40f7 eabc
00000280: e48c 593d be8e a63d 90e4 f3ba 3405 cd3d
00000290: b820 ca3d c27a c4bd 7846 b4bd d2eb 84bd
000002a0: 0e4b 8cbd ca02 6bbc e026 1abc 614e 1b3c
000002b0: f857 81bd 806b 1cb8 1a03 68bc 5225 fb3d
000002c0: 10c3 3dbd d64b b7bd 50d6 543d 3dfb cf3c
000002d0: df6c 133e 08f5 9f3d ebac 103e c1aa 71bd
000002e0: f8fb 303e 5bdc 0f3e a6d6 a5bc b3a7 283e
000002f0: 227a 053e 806c b33a b0dc 763d 9801 33bd
00000300: 7047 dfbd c30b 293d e0a3 183d a44f a7bd
00000310: e051 783d 9658 a4bd 1b29 eb3d 6ee8 f73d
00000320: 7465 0b3d 160f 5fbd f606 713d 7881 ae3c
00000330: f038 0b3d 28ee 683d cbd1 a43d 679f 18bd
00000340: 9c10 7abc 1ca0 0b3d b976 e13c 98de ec3d
00000350: a53e e5bc a029 95bb 6f4c 6d3d 48fb 07bd
00000360: 0731 d63d 99c0 1d3d 569a ecbd 1508 a83b
00000370: 9c38 68bd d4f0 2b3d 7f1c 7abc 66ef fdbd
00000380: 3971 a63b f027 44bc 8e1b 82bc 3235 eb3d
00000390: 986f dfbc 7475 a43d 61e1 203d a321 a7bd
000003a0: 30a0 f03c 2399 063e 2473 a7bd 4cf6 57bd
000003b0: da95 fa3d c082 fa3d 91e7 57bd f60b 9a3d
000003c0: a000 83bc de65 fcbd 90df 193c ff6b 7f3d
000003d0: f48a 94bb c81d 323d acb9 b6bd 690d df3d
000003e0: 35d9 533e c6c8 bc3d 7096 623d 0ba9 9e3d
000003f0: 16a0 9bbd d0de ffbc 8084 43bc e075 8ebd

mlr.2.bias f4 [208]
0.054580826 -0.0018307529 -0.08919767 0.04751909 0.09409718 0.09201492 0.11280446 -0.048782032
0.0863105 0.10502109 0.08987036 -0.039109048 0.10967313 -0.07397281 -0.056886178 0.08913235
0.10378511 0.07128525 -0.003977435 -0.06711183 0.08439294 -0.029452369 0.07695694 0.023027811
0.056512132 0.054065414 -0.032286935 -0.019506497 -0.018980153 -0.01943907 -0.06436505 0.047872696
0.06402408 -0.09585051 -0.031492297 -0.078980364 0.023396485 -0.029359505 0.10613145 -0.069116995
-0.020474155 0.14553529 0.021950474 0.105510995 -0.02974468 0.11277524 -0.06631127 -0.032498512
-0.066805705 0.122811325 0.056806788 -0.014362931 0.027199041 0.03926148 -0.07240023 -0.05415077
0.039820384 0.06561897 0.042038877 0.09621621 0.012806628 0.08868592 0.039611265 0.11810798
0.048057154 -0.049063776 0.08350686 -0.027082713 -0.06574893 -0.074389085 0.11394357 0.036318418
0.07239757 -0.02422682 -0.08773748 0.04049766 -0.06447421 0.051973253 0.00076808396 0.04951185
0.092168756 -0.07497337 0.07061161 -0.029854046 0.00068032095 -0.051618405 -0.028316407 0.05749147
0.06617078 -0.077139355 0.03608585 0.034809157 0.096895166 0.01766298 0.14051357 0.1279385
-0.0661525 0.09687942 0.055475026 0.0021724098 -0.052137014 -0.05789184 0.058085226 -0.03108786
0.06651883 0.023803817 -0.01570769 0.094515696 -0.051398214 -0.02042696 0.11001095 0.08798638
0.14271879 0.090727955 -0.06358289 0.078096144 0.028734153 0.11606075 -0.011289197 0.090460785
-0.009574639 0.06598655 -0.03704336 0.078776725 0.079665236 0.09944995 -0.028063059 -0.07191381
0.07293922 -0.03635569 -0.06173986 0.052120786 0.1192079 -0.06882583 -0.017867843 -0.056078736
-0.00046605425 0.08732219 -0.072403915 0.12595499 0.08248054 0.025319858 0.097874776 0.08002726
0.057968 0.01624821 -0.0371334 -0.08308243 0.090686575 -0.003144577 -0.08344093 -0.0078103603
-0.053349786 0.10286906 0.088542685 -0.10222007 0.052555036 -0.029858567 0.12056374 0.034731276
0.003479872 0.071163565 -0.0732038 -0.028229482 0.09907058 0.11469883 0.01785552 0.09377694
-0.07535242 -0.08039561 0.00086936675 -0.095004536 0.1119292 -0.028342312 -0.0375459 0.07242248
0.0077706603 0.07447051 0.09091847 -0.05512638 0.059139375 -0.001133279 0.077330425 -0.04521194
0.038203318 0.05431991 -0.076029584 0.05408671 -0.015921755 0.06633487 -0.036358036 -0.002543861
-0.088045396 -0.0036598628 0.09884377 0.07334193 -0.044877205 -0.085693255 0.09883358 -0.047993455
-0.06710863 -0.036594573 0.069632076 0.027011847 -0.035960432 0.088461675 0.13378914 0.051547416
00000000: 2590 5f3d e0f5 efba 45ad b6bd 61a3 423d
00000010: 06b6 c03d 5272 bc3d 0606 e73d abcf 47bd
00000020: 8fc3 b03d 4c15 d73d f40d b83d cf30 20bd
00000030: 4e9c e03d 0e7f 97bd 7b01 69bd 068b b63d
00000040: 4a8d d43d 00fe 913d 2555 82bb ed71 89bd
00000050: 35d6 ac3d 1846 f1bc 9a9b 9d3d d2a4 bc3c
00000060: 4479 673d b273 5d3d 4e3f 04bd 17cc 9fbc
00000070: 447c 9bbc af3e 9fbc d3d1 83bd 2916 443d
00000080: 0f1f 833d 464d c4bd 11fe 00bd 75c0 a1bd
00000090: fca9 bf3c 5883 f0bc 725b d93d 368d 8dbd
000000a0: 6ab9 a7bc 3407 153e 7bd1 b33c 2616 d83d
000000b0: 1dab f3bc b4f6 e63d 34ce 87bd 291d 05bd
000000c0: 6ed1 88bd 8184 fb3d 3cae 683d 8052 6bbc
000000d0: 86d0 de3c a5d0 203d 9246 94bd 33cd 5dbd
000000e0: b31a 233d 3d63 863d f530 2c3d 010d c53d
000000f0: e4d2 513c f7a0 b53d 6c3f 223d 99e2 f13d
00000100: 94d7 443d 19f7 48bd a505 ab3d 91dc ddbc
00000110: 60a7 86bd 4e59 98bd 3f5b e93d 9fc2 143d
00000120: 2d45 943d 5377 c6bc b5af b3bd e0e0 253d
00000130: 0e0b 84bd e8e1 543d 3e59 493a f0cc 4a3d
00000140: f9c2 bc3d a38b 99bd d29c 903d 7990 f4bc
00000150: 9157 323a d26d 53bd cff7 e7bc 2d7c 6b3d
00000160: 8c84 873d 3dfb 9dbd c2ce 133d 0c94 0e3d
00000170: f970 c63d f4b1 903c cae2 0f3e 4f02 033e
00000180: f67a 87bd b868 c63d c839 633d fd5e 0e3b
00000190: 9f8d 55bd fe1f 6dbd c6ea 6d3d f8ab febc
000001a0: 063b 883d 3900 c33c 6aad 80bc 7291 c13d
000001b0: ef86 52bd 7156 a7bc 6c4d e13d 3432 b43d
000001c0: e024 123e 94cf b93d bf37 82bd dff0 9f3d
000001d0: e363 eb3c 42b1 ed3d 53f6 38bc 8143 b93d
000001e0: f2de 1cbc f523 873d c7ba 17bd b155 a13d
000001f0: 8727 a33d 6aac cb3d 80e4 e5bc 8c47 93bd
00000200: 2861 953d b4e9 14bd efe2 7cbd 9b7c 553d
00000210: 4523 f43d 8ff4 8cbd 955f 92bc d1b2 65bd
00000220: be58 f4b9 fad5 b23d 8148 94bd 58fa 003e
00000230: 8feb a83d 976b cf3c 9272 c83d 55e5 a33d
00000240: db6f 6d3d f71a 853c 3119 18bd 1f27 aabd
00000250: e2b9 b93d 3f15 4ebb 14e3 aabd 0dee ffbb
00000260: 4e85 5abd 04ad d23d de55 b53d c258 d1bd
00000270: f343 573d f499 f4bc 1fea f63d 6242 0e3d
00000280: 900e 643b 34be 913d e0eb 95bd 8441 e7bc
00000290: 84e5 ca3d 38e7 ea3d bd45 923c 200e c03d
000002a0: 5f52 9abd 74a6 a4bd 37e6 633a bd91 c2bd
000002b0: 233b e53d 232e e8bc bbc9 19bd 3d52 943d
000002c0: 06a1 fe3b ff83 983d 7633 ba3d 33cc 61bd
000002d0: 213c 723d 888a 94ba 6a5f 9e3d 2830 39bd
000002e0: 157b 1c3d 8e7e 5e3d 66b5 9bbd 078a 5d3d
000002f0: 576e 82bc 94da 873d 2aec 14bd e8b6 26bb
00000300: 2551 b4bd 4fda 6fbb 9a6e ca3d 4b34 963d
00000310: 29d1 37bd f27f afbd 4369 ca3d c994 44bd
00000320: 4070 89bd 31e4 15bd 439b 8e3d f347 dd3c
00000330: 3f4b 13bd 652b b53d 0500 093e 6223 533d
