pqc_reup_v1_output/best_model_epoch_42.pth (torch, 61285 bytes, 6 tensors)

reupload_weights f4 [12, 3, 4]
000000 e6 29 16 3e e6 8f 07 3e 60 43 4c 3e 74 3b 2e be
       0.1466442 0.13238487 0.19947577 -0.17014867
000010 0f c2 b6 3e 47 43 70 3e 28 fa a7 3e 73 51 67 3f
       0.3569493 0.23463164 0.32808042 0.90358657
000020 dc b4 61 3c b2 95 a8 3e d1 57 3c 3d 72 b2 89 be
       0.01377603 0.32926708 0.045982186 -0.26893955
000030 53 c1 2b be 11 64 46 be 96 bb c6 3b da 80 62 3d
       -0.16772966 -0.1937411 0.0060648425 0.055298664
000040 0c 55 7e be 1d f0 0a bf b9 74 0d be 55 06 87 3d
       -0.2483713 -0.54272634 -0.13814057 0.065930046
000050 d3 07 b9 bc 81 cf 99 3d b0 3e 57 3d 5d f5 71 3e
       -0.022586739 0.07510281 0.052550018 0.23628755
000060 b8 68 60 3d 82 8d aa 3d 46 7f 3e 3e 9d 04 7e 3d
       0.054787368 0.08327772 0.18603238 0.06201612
000070 81 79 1f 3f 61 61 f0 3d 17 cf 53 3e ad a2 7a bd
       0.62294775 0.117373236 0.20684467 -0.061190296
000080 83 5c fb bd 84 46 cb bb 49 c1 9a 3e b7 36 45 3e
       -0.122735046 -0.0062034745 0.3022559 0.19259153
000090 77 c2 9f ba 51 ab 3c be 57 f5 65 3d 37 c8 4f be
       -0.0012188692 -0.18424727 0.056142177 -0.2029122
0000a0 f5 35 fc 3e 50 e6 64 3f b5 54 ce 3e 41 89 b2 be
       0.49259916 0.8941393 0.40299 -0.3487034
0000b0 b3 85 3e 3f 4d b8 88 3f 07 8c 1b 3f f8 98 08 be
       0.7442276 1.0681244 0.6076054 -0.13339603
0000c0 cf be 70 bd e6 b9 93 ba 90 5d 0d 3e ff 8a 4e 3e
       -0.05877572 -0.0011270612 0.13805223 0.2017021
0000d0 03 d8 a6 3e 17 85 0e 3f 0a 1b 04 bf 92 b0 14 bf
       0.3258668 0.5567183 -0.5160376 -0.58081925
0000e0 d8 9a 28 3e 63 64 c9 3e 5c a2 a3 be c7 e1 87 be
       0.16465318 0.393344 -0.31959808 -0.26539442
0000f0 3e 5c c7 bd b0 02 e9 3d 71 f4 3e be d2 67 b9 bc
       -0.09734391 0.11377466 -0.18647934 -0.022632513
000100 7d 71 cf 3e 26 01 6d 3d 3d 8c 9e 3d c5 66 db 3d
       0.40516272 0.057862423 0.07741592 0.10712961
000110 d0 a8 9d 3d 0a ae 47 be a2 9a ca be 00 4d 80 3d
       0.07698214 -0.19499984 -0.395711 0.062646866
000120 3c be ca bd c7 57 9e bd 87 65 08 be 94 3e d5 3c
       -0.098995656 -0.07731586 -0.1331998 0.026030816
000130 be cd ce 3d aa e6 e3 bd 56 cd 37 be 47 b9 02 3b
       0.10097836 -0.1112798 -0.17949423 0.001994686
000140 6e 3a e8 3e 01 d4 98 3e dd 75 94 3e 9a 14 75 3e
       0.45357078 0.29849246 0.28996173 0.2393364
000150 ea fb eb 3d b8 b1 d8 3d f7 ab d8 3b e9 2f 8d bd
       0.11522658 0.10580772 0.0066122967 -0.06893904
000160 40 69 a8 be be 04 f8 be b3 fc 83 3e d0 ba ad 3e
       -0.328928 -0.48441118 0.25778732 0.3393159
000170 64 cd ea be 14 fb cb be e1 11 14 3f 7c 60 da 3e
       -0.45859826 -0.39839995 0.5783978 0.42651737
000180 5a 2a 8b be 6b e7 2f 3e 00 0a 17 3d 24 39 34 3d
       -0.2718075 0.17178123 0.03687477 0.043999806
000190 76 fe 6f be 58 f8 18 3f 9d 9e 3e 3f f7 03 ca 3e
       -0.23436913 0.5975394 0.74460775 0.3945615
0001a0 d8 e7 1a bf 2a 60 30 3e d8 50 b4 3e 13 36 a0 bd
       -0.60510015 0.17224184 0.3521793 -0.07822814
0001b0 9a 82 82 bd 0a f1 35 3d 1d 7d 1d 3d ed b8 d6 3d
       -0.063725665 0.044419326 0.038449395 0.104844905
0001c0 1a 09 4a 3e 33 7a 14 3e 9e a0 4f 3d 1f db 6b bf
       0.19730034 0.1449974 0.050690286 -0.9213123
0001d0 3e a2 0f 3f 9e 98 a9 3e 7c d1 2d 3e fb 46 64 3e
       0.56106937 0.3312425 0.16974443 0.22292702
0001e0 2a 2e 84 bd a9 0f 39 be 65 45 5f 3d b1 f4 2d 3d
       -0.064541176 -0.1807238 0.05450954 0.042469684
0001f0 ca a7 29 3b 8e 20 8f bd e6 1e 2a 3f 17 70 d7 3e
       0.0025887364 -0.06988631 0.664534 0.42077705
000200 ea f2 0f bf 70 d5 3f bf d0 cb 4d be a3 86 f2 be
       -0.5623003 -0.74935055 -0.2009728 -0.47368345
000210 37 1e 3d bd 08 ed 6e 3e 2e 56 ad 3d 5d 1c bf 3d
       -0.046171393 0.23332608 0.08463703 0.09331582
000220 7e c2 62 bf 5d 82 dc 3c 0e 9c c6 be e2 67 0f be
       -0.8857802 0.02691763 -0.38790935 -0.14004472
000230 ae f0 80 bf e4 2b 5c 3e bb 78 42 be 8a f8 de bc
       -1.007345 0.21501118 -0.18991368 -0.027218122

reupload_bias f4 [12, 3]
000000 73 b0 de be 01 38 36 3f f1 59 8f 3d a5 dc cf 3e
       -0.43493995 0.71179205 0.06999577 0.40598026
000010 93 b0 9a be 7c 3f 59 3e ca 6f d6 be 01 49 76 3f
       -0.3021284 0.21215624 -0.41882163 0.96205145
000020 45 7b ad 3d 6c a2 b3 3e 9a b4 c2 3e 86 38 88 3f
       0.084707774 0.35084856 0.38028413 1.064225
000030 b1 07 cb be ef ab 4f be ee 8d ac bd 48 d2 98 3e
       -0.39654306 -0.20280431 -0.084255084 0.29847932
000040 0e 69 3c be 7d 65 85 be c1 ad 30 be 51 9b 59 be
       -0.1839945 -0.26053992 -0.17253782 -0.21250655
000050 b9 58 1f bd be 20 22 bf 48 21 ed be 3e 37 05 be
       -0.038902972 -0.6333121 -0.46314454 -0.13009354
000060 de 9b f8 3e bb bc 18 3f 13 e3 1e bf d4 ee db be
       0.48556417 0.5966298 -0.6206524 -0.4295565
000070 63 9a 46 bf 4a 8c df 3e f7 38 81 3e b6 93 23 3d
       -0.77579325 0.4366172 0.25238773 0.03993579
000080 06 1d 94 bf 5f da d6 be 29 86 fc be fd 6f 10 be
       -1.1571357 -0.4196348 -0.49321106 -0.1410522

mlr.0.weight f4 [64, 12]
000000 6f 08 8a 3b 1b 33 8d bc fc 21 8e 3d 0d ad a5 3d
       0.004212431 -0.017236283 0.06940076 0.080896474
000010 eb 3d 86 be 76 2d da bd b0 ef 78 3e b8 4e e6 3d
       -0.26219115 -0.10653202 0.24310184 0.11245483
000020 d1 3d 6b bc 90 38 32 be 04 da 34 be 55 65 84 be
       -0.014358 -0.1740439 -0.17661291 -0.2585856
000030 72 c8 11 be a8 e5 a6 bb 73 0f dd 3d 14 af 88 3d
       -0.1423662 -0.005093295 0.10793962 0.066740185
000040 8b 9b 9b be 6c 4a 96 be 14 c8 06 be 64 81 ba 3e
       -0.30392107 -0.29353654 -0.13162261 0.36426842
000050 0c 7c e0 3c 9b 51 ee bd 19 ab f4 3d bb e0 93 bd
       0.0274029 -0.11636659 0.11946697 -0.07220598
000060 85 af 5f be 2c 07 38 3e 88 0a 27 be fb 71 b5 bd
       -0.21844299 0.17971486 -0.16312611 -0.08859631
000070 e8 61 a3 be 14 2e 26 3e 66 4c 3f 3e 85 28 99 3d
       -0.31910634 0.16228515 0.18681487 0.074784316
000080 26 3d 6e be b9 b0 a1 be ba 5c 88 be db 3f 3d 3e
       -0.23265514 -0.3158014 -0.26633245 0.1848139
000090 be eb 0d 3e 64 c0 78 3e 91 db 1a 3e 39 a1 95 3d
       0.1385946 0.24292141 0.1512282 0.073061414
0000a0 97 43 39 bb e1 ce 60 be c4 43 7d be ff 3e 8a be
       -0.0028269046 -0.21953918 -0.24732882 -0.27001187
0000b0 7c 04 f2 3d bc 21 11 be b7 f6 6d bd 0c 1f 2a be
       0.118172616 -0.14173025 -0.058096614 -0.16613406
0000c0 ac 76 57 bd 52 0e 50 be e0 26 41 be 12 1c c4 3d
       -0.05260341 -0.20317963 -0.18862486 0.095756665
0000d0 59 b4 af bd 1c 7d 36 3e 0e aa bd bd 4d d8 58 be
       -0.085793205 0.17821163 -0.09260951 -0.21176262
0000e0 ad 9f 50 bd ff 4a 0f be ec df b4 bd e0 b4 8c be
       -0.05093353 -0.13993452 -0.08831772 -0.27481747
0000f0 51 a3 ff 3d 79 e8 66 be e3 0c 1d 3e 7f 97 b2 3d
       0.12482322 -0.22549619 0.15336947 0.08720302
000100 af b3 45 3e 8e 6c 6c be 5f 62 6e 3e ca ec 6c be
       0.19306825 -0.23088285 0.23279713 -0.23137203
000110 c6 f4 54 3d 50 38 88 3e 5d 0f 66 bd 73 0c cd bd
       0.051991247 0.26605463 -0.056166995 -0.1001214
000120 81 25 d2 bc fd 7a 8f be 35 50 67 3e 90 08 c5 be
       -0.025652649 -0.2802352 0.2258919 -0.38483095
000130 d2 39 6f 3e 4a eb 51 3e 82 a7 c4 3e 05 f8 5d be
       0.233619 0.20499912 0.38409048 -0.21676643
000140 d5 6a 75 be ce 57 80 3d 8f bc 8a 3e 63 18 d7 be
       -0.23966534 0.062667474 0.27096984 -0.42010793
000150 ac 74 88 bd 5f 8b 31 be 2d d8 ce bc 9b 51 12 be
       -0.066628784 -0.17338322 -0.025249565 -0.14288943
000160 e1 ae f1 bd 26 ff bc bd 1a 4c 8c be e9 9d 6f 3e
       -0.11800934 -0.09228353 -0.2740181 0.23400082
000170 97 14 77 3e 88 b9 3b bd 04 cc 0c bd de 66 f6 bd
       0.24128948 -0.045831233 -0.034374252 -0.12031339
000180 64 79 85 be 16 d5 8f be 19 ba db 3d c5 4c 22 be
       -0.26069176 -0.2809226 0.10728855 -0.15849598
000190 5d 09 3e be e7 82 b8 bc e0 e0 c4 bd 84 44 bf bd
       -0.1855826 -0.022523357 -0.09613204 -0.0933924
0001a0 2b f8 17 3c f8 cd 7a bd 4f 8f cb bd 60 89 0d be
       0.009275476 -0.061231583 -0.09939443 -0.13821936
0001b0 73 0d 9d be 03 9a 88 3e 83 f7 11 be 76 19 de 3d
       -0.30674323 0.26680002 -0.14254574 0.108447
0001c0 96 fc 0b be ff ab 72 3d 80 8f 84 3e df 14 18 3e
       -0.13670573 0.05924606 0.25890732 0.14851712
0001d0 66 a0 9e be ce 71 33 3e 04 a5 6a 3e 14 8e 75 3d
       -0.3098175 0.17523882 0.22914511 0.05994995
0001e0 73 34 d3 3d f2 c3 a1 3e 36 69 b9 bd e5 f0 10 3e
       0.10312738 0.31594807 -0.090532705 0.14154394
0001f0 9e 47 66 be d6 7d 44 bd 39 e7 1b 3e 78 b0 3b 3e
       -0.22488257 -0.04797157 0.15224923 0.18329036
000200 8a 75 68 be 4f ac a0 be 59 31 ab be d6 16 69 be
       -0.22701088 -0.3138146 -0.33436087 -0.22762617
000210 5c 19 64 be 31 34 92 bd f6 7e 47 3e 3d ea 45 3d
       -0.22275299 -0.07138861 0.19482026 0.04831909
000220 67 d6 60 be db 23 6d be 2b 0e 13 3e c8 e1 5b be
       -0.21956788 -0.23158209 0.14360873 -0.21472847
000230 6a 96 11 bd 7e cd 0d 3e 0d cf 08 be 24 ee 00 bd
       -0.035543837 0.1384792 -0.13360234 -0.03147711
000240 59 d8 cd bc a2 de 8b bd 62 e1 15 be 8e c1 83 be
       -0.025127577 -0.06829573 -0.14636758 -0.25733608
000250 f9 f3 6e be c5 48 1e be 9f c0 8e 3e e0 c7 0e be
       -0.23335256 -0.15457447 0.27881333 -0.13943434
000260 83 81 46 be 19 4e 8f 3d 52 f1 a2 3d c5 f6 21 3e
       -0.19385342 0.06997318 0.079561844 0.15816791
000270 0f 14 7c 3e b6 99 2d 3e c5 c3 99 be a3 28 7e 3d
       0.24617027 0.16953167 -0.30032173 0.062050473
000280 46 4a 32 3e 12 9b 13 bd f4 49 51 be dc e9 c5 3e
       0.17411146 -0.03603656 -0.20438367 0.38654983
000290 db 9c a5 bd 73 10 2a be ed f2 84 be da 21 f7 3d
       -0.080865584 -0.16607837 -0.25966588 0.120670035
0002a0 3e e6 78 3c 4b 86 a0 3d c9 23 62 bc fc 3b 27 be
       0.015191613 0.07838114 -0.013802477 -0.16331476
0002b0 a8 5c a5 be a2 5f 99 3c 8d bb 57 3e 4a 4c 5d 3e
       -0.32297254 0.01872236 0.21067639 0.21611133
0002c0 f4 8c 61 be e2 6f 5d 3b c7 15 a0 be 4c 61 16 be
       -0.22026426 0.0033788611 -0.31266615 -0.14685553
0002d0 12 fa 9c bc 02 81 45 3d 6d d1 10 3e d3 a3 b6 be
       -0.019162212 0.048218735 0.1414239 -0.35671863
0002e0 3a c7 d0 3d ed 8c a2 be 44 16 0c 3c 82 63 6e 3e
       0.101942495 -0.31748143 0.00855023 0.23280147
0002f0 f4 90 9c bd af 07 54 3e ea 1b 99 be db a1 1d be
       -0.07644835 0.20706056 -0.2990411 -0.15393774
000300 b9 e4 5c 3e 4c ba b3 bd 6a b4 b8 3c ff d4 4e be
       0.21571626 -0.08775768 0.022546966 -0.20198439
000310 7d 88 81 3e 93 74 13 3e ec 32 42 3e 80 ac a4 be
       0.25299445 0.14399938 0.18964738 -0.32162857
000320 73 8e 6d be b0 88 1a 3c 08 2c 2f 3e c9 ae 84 be
       -0.23198871 0.009432003 0.1710664 -0.259146
000330 12 6b a5 bd 15 a4 47 3e a2 61 bc 3c e2 64 55 3c
       -0.08077063 0.19496186 0.022995774 0.013024541
000340 0c 7f 91 bd 01 d9 85 be bc f8 8a be 87 4d 0d be
       -0.071043104 -0.26142123 -0.27142894 -0.13799106
000350 f2 42 16 be 4c 31 b8 3d 4b 1b ac bd 0a 4b e7 bd
       -0.14673975 0.08993778 -0.08403643 -0.112936094
000360 15 72 ad 3e 0d f6 be 3d 2f 51 58 3e 73 3c 34 be
       0.338761 0.09324274 0.21124719 -0.17601185
000370 db a9 08 be 36 0d e0 3d ef db 46 be 08 1f 5c be
       -0.13346045 0.1094002 -0.19419836 -0.21496212
000380 37 ef 01 bc 54 94 e7 bd 1d 68 3d be 2e d9 32 3e
       -0.007930568 -0.11307588 -0.18496747 0.1746566
000390 35 e8 8c 3e 1a af f4 3a b8 ab e3 bd 6d f7 b0 be
       0.2752091 0.0018667907 -0.11116737 -0.3456377
0003a0 46 c8 39 be 4a 4b cc 3c e0 dd 9d 3d 1f d7 f4 bc
       -0.18142805 0.024938244 0.07708335 -0.029887734
0003b0 5c 32 07 be 0d 78 3f 3e 85 e1 5f be 47 0d 3a 3e
       -0.13202804 0.1869814 -0.21863373 0.18169127
0003c0 73 9f 14 bd 3f 0f 03 3e 93 75 37 3d ad 74 36 3e
       -0.036284875 0.12798785 0.044789862 0.17817946
0003d0 e3 11 9d 3c 6b 8e b0 3e 16 f4 b0 3d 63 05 b4 3e
       0.019173568 0.34483656 0.08640306 0.3516036
0003e0 16 69 bb 3e 96 4f 30 bd 9c c2 10 be d0 f0 ba 3e
       0.36603612 -0.04304465 -0.14136738 0.3651185
0003f0 8e a3 67 3e 06 b5 61 be 13 cf b6 bc 49 c0 91 be
       0.22620985 -0.22041711 -0.022315538 -0.28467014

mlr.0.bias f4 [64]
000000 2d 91 a2 bd 90 eb 3f 3e 15 92 6d 3d c2 2d 4e bd
       -0.07937846 0.18742204 0.058000643 -0.050336607
000010 5c be 47 3d f5 2a b2 bd 83 53 b0 3d 08 e2 f0 3d
       0.048765525 -0.086996 0.086096786 0.11761862
000020 29 c4 9e 3d 85 85 d4 bd 6c 4a 37 3e 79 b4 2a bd
       0.07752258 -0.10377029 0.17899483 -0.04167602
000030 a7 2a e6 bd e8 e0 32 3e 64 83 95 3e c9 a9 22 3e
       -0.11238604 0.17468607 0.29201806 0.1588508
000040 d8 b1 80 3d ea 89 c9 bd a8 57 c6 3d 85 2a 2a 3e
       0.06283921 -0.09840758 0.09684688 0.16617782
000050 47 84 5f be 4e 7c 12 bd 83 37 1e be b1 5a 5c 3d
       -0.21827804 -0.035763077 -0.15450864 0.053797428
000060 06 53 6f 3c 4d 2b 9f bd ab d5 c5 bc d8 a4 cf bb
       0.014607197 -0.07771931 -0.024149736 -0.0063367896
000070 b8 b0 8e bd 5d ff 6f be 57 ba d7 3d 0d c8 14 be
       -0.069673 -0.23437257 0.105335884 -0.14529438
000080 0c d3 56 bd c7 10 df 3c aa 2e 73 bd f3 08 8b be
       -0.052447364 0.02722968 -0.059370674 -0.27155265
000090 a0 24 29 3e b8 45 06 be 3b bd 22 be 22 7b 8d bb
       0.16517878 -0.13112533 -0.15892498 -0.004317657
0000a0 a0 43 1a be ed a2 35 be 01 35 c7 bd c6 0f f0 bd
       -0.1506486 -0.17737933 -0.097269066 -0.117217585
0000b0 f9 e8 f6 bd 6a 8b d5 bd f8 9d 0d bd 20 35 6f be
       -0.12056155 -0.10426982 -0.03457448 -0.2336011
0000c0 41 ec 32 be 6a 06 8a 3b 9e 6f 24 3d 73 c1 2f 3d
       -0.17472936 0.0042121904 0.04014551 0.042909097
0000d0 58 fc 2e be 1c b6 bc 3d ba f4 7e 3d ed bf 4d 3c
       -0.17088449 0.09214422 0.06224511 0.012557966
0000e0 9f c3 61 be a8 f9 3b be b2 bf 50 be 37 03 08 be
       -0.2204728 -0.18356955 -0.20385626 -0.13282476
0000f0 00 5e fd 3d 8d 8e 30 bd 99 17 fb 3d 62 85 2d be
       0.12371445 -0.043104697 0.1226036 -0.16945413

mlr.2.weight f4 [208, 64]
000000 60 9b 9b 3c 0e b0 8e bc 2f 0d 3e 3d 24 f0 5f bd
       0.018994987 -0.017417934 0.04639929 -0.054672375
000010 80 63 00 bd 19 6f 5a bd d2 e0 5f be 1f 24 ed 3d
       -0.03134489 -0.053328607 -0.21863106 0.11579155
000020 7c 83 78 3d 25 2e dd 3c ad 01 87 3e 60 8f 60 bc
       0.06067227 0.026999542 0.26368466 -0.013706058
000030 58 19 ce bd a8 6e 28 3e 5f 1f 6e bc c8 9c cf 3d
       -0.10063428 0.16448462 -0.014533847 0.101373255
000040 88 41 32 be 18 93 6f bd 5c 81 3f 3c 5a 71 08 3d
       -0.1740781 -0.05848989 0.0116885565 0.033311225
000050 bf a1 08 3e 80 c1 76 bd c3 0d 0c 3e c0 bc 96 bc
       0.13342951 -0.06024313 0.13677125 -0.01840055
000060 ea 89 a8 bc 3c fd b7 3b 00 03 fc 3d 0a 92 80 3d
       -0.020573575 0.0056149047 0.1230526 0.06277855
000070 6e 0b 8e bc f1 c2 eb 3c 08 c9 04 3e 4a 9c d7 bd
       -0.017339434 0.028779479 0.12967312 -0.10527857
000080 1e fa 2a bd 88 d5 95 3d 51 ca 19 3e 08 4d f4 3d
       -0.041742437 0.073161185 0.15018584 0.11928755
000090 55 99 de bd 04 76 8a 3d f4 32 8d bd d5 ab 08 3e
       -0.108690895 0.06760791 -0.06894484 0.13346799
0000a0 c8 b7 b8 3d a8 58 5b 3e 48 55 b8 3d 73 d1 13 3e
       0.090194285 0.21420538 0.09000641 0.14435367
0000b0 40 72 1f 3b 53 b7 2a 3e 18 24 ce 3c 50 f1 5e 3d
       0.0024329573 0.16671495 0.025163695 0.054429352
0000c0 cc 8e 24 bd 00 8e 09 bb 26 d1 de bd 58 46 3e bd
       -0.040175244 -0.002098918 -0.10879736 -0.046453804
0000d0 08 b9 3e bd 50 b5 2c bd 71 97 87 bd 70 5a 0c bd
       -0.04656318 -0.0421651 -0.06620682 -0.034265935
0000e0 bc c7 27 3e 4c c3 29 3e 69 14 26 3e f1 44 ff 3d
       0.16384786 0.16578406 0.16218723 0.124643214
0000f0 fc 88 65 bd be 2f fd bd 6c 35 42 3d bc 70 8f 3d
       -0.05603884 -0.12362622 0.04741423 0.07003924
000100 72 c7 db bd 05 ae 26 3e 4a 51 c9 3d 20 1f f8 3b
       -0.107314005 0.1627732 0.09829958 0.0075720698
000110 be 3a 9a bd 09 af 1b 3e 07 a8 7a be 27 7f 99 3d
       -0.075307354 0.1520349 -0.2447816 0.074949555
000120 0c 21 ad bd bd 44 61 3e f1 c0 24 3d 80 4f fd 3d
       -0.08453569 0.21998878 0.040223066 0.12368679
000130 2c ef 58 bd 56 38 51 3e e9 e8 60 3d 26 98 1c 3e
       -0.052962467 0.20431647 0.05490962 0.15292415
000140 7e ca 5e be e8 4b 52 3d 39 0d 4a bc c3 e4 e9 bc
       -0.21756932 0.05134192 -0.012332254 -0.028551465
000150 3e 6b f0 3d fc 95 c8 3d db f7 89 3c 58 ee 20 3d
       0.11739205 0.09794232 0.01684182 0.039289802
000160 9d ac 65 3d f4 0c 4e 3e a8 36 99 3d f6 61 0e 3e
       0.05607282 0.20122129 0.07481128 0.13904557
000170 9b bf 7a bd 69 bb 46 ba 19 67 fd 3d 34 2f 96 bd
       -0.061217885 -0.0007581027 0.1237318 -0.07333222
000180 54 70 3e 3e 82 02 f6 bd 12 04 35 3e c2 35 ff 3d
       0.18597537 -0.12012197 0.17677334 0.12461425
000190 39 85 c2 3a c4 94 2e 3d 24 d7 e4 bd 4c 0d 58 3e
       0.0014840729 0.042622343 -0.11173847 0.21098822
0001a0 18 27 af bc 7f 52 aa 3d b4 b6 fc 3d fa 79 e7 3c
       -0.021380946 0.08316516 0.12339535 0.028256405
0001b0 20 e4 10 bc 8e 05 81 3e 52 7f b6 3c 10 1e b5 bd
       -0.008843452 0.2519955 0.022277508 -0.088436246
0001c0 28 85 a6 3c 00 11 89 bc b8 de eb 3c eb 3f 7c bc
       0.020327166 -0.016731739 0.028792724 -0.015396099
0001d0 43 6c 4b 3d 8c b7 63 bd 38 f6 43 bd 52 06 db bc
       0.049663793 -0.055594966 -0.047842234 -0.026736412
0001e0 f7 38 69 3e 5e e9 0d 3e e3 c3 de bc a7 50 57 3e
       0.22775637 0.13858554 -0.027193015 0.2102686
0001f0 e2 6f 0d 3e 48 04 be 3c 92 4e 96 bd 80 6c 9a 3c
       0.13812211 0.0231954 -0.07339205 0.018850565
000200 92 aa f6 3d 45 07 1f 3e 0a ae de bd a6 ae e9 3d
       0.120442525 0.15530117 -0.10873039 0.11410265
000210 70 bd 1e 3c af 99 fc 3d f7 ac 22 be 2f 39 cc 3d
       0.00968872 0.12334 -0.15886293 0.099718444
000220 98 8f c7 bd 2d cb 51 3e fa 41 5c 3e d0 87 19 3c
       -0.09744185 0.20487662 0.21509543 0.009370759
000230 2c e2 b2 bd 6a 96 c3 3d 09 08 f9 3d 1d 56 b8 3d
       -0.08734545 0.095501736 0.12159736 0.090008
000240 17 65 40 be e0 86 21 3c a9 7f 21 3e 3e dd b7 3d
       -0.18788563 0.009858817 0.15771355 0.089777455
000250 35 d2 63 3e 3c ed 4c 3d 3f f4 0f 3e c0 06 bd bb
       0.22248156 0.05003093 0.14058016 -0.005768627
000260 26 84 e8 3d 85 b7 02 3e f2 43 df bd d2 76 e4 bb
       0.1135333 0.1276532 -0.109016314 -0.0069721723
000270 3a 5a 8e 3c 6a 70 81 3d 5d 0e 85 3e 40 f7 ea bc
       0.017377008 0.063202694 0.2598752 -0.028682351
000280 ad 92 cb 3d be 8e a6 3d f3 2d 27 3d 34 05 cd 3d
       0.099400856 0.08132695 0.040815305 0.10010758
000290 ca 27 3b 3d c2 7a c4 bd 78 46 b4 bd da a9 5e bb
       0.045692243 -0.09593727 -0.08802503 -0.003397575
0002a0 0e 4b 8c bd e2 cf 00 3e e0 26 1a bc 54 27 77 3d
       -0.06850253 0.12579301 -0.009408683 0.06034024
0002b0 f8 57 81 bd 99 92 dd 3d da d3 0d 3d 52 25 fb 3d
       -0.06315607 0.10818977 0.034625866 0.12262978
0002c0 10 c3 3d bd d6 4b b7 bd 50 d6 54 3d e8 8f 63 3c
       -0.046328604 -0.089500114 0.051962197 0.01388929
0002d0 41 a8 0d 3e 08 f5 9f 3d c4 e9 08 3e 64 5c 57 bc
       0.13833715 0.07810408 0.13370425 -0.013144586
0002e0 db 77 4b 3e 74 63 62 3e 3b fb c6 3b 01 a8 4f 3e
       0.1986994 0.22108251 0.0060724295 0.20278932
0002f0 72 85 1e 3e 80 6c b3 3a b0 dc 76 3d 98 01 33 bd
       0.15480593 0.0013688952 0.060269058 -0.04370269
000300 70 47 df bd 24 42 eb 3c b3 f2 44 3d a4 4f a7 bd
       -0.109022975 0.028718062 0.04808302 -0.08169487
000310 e0 51 78 3d 57 8f 97 bd 1c 05 a0 be ef 43 03 3e
       0.060624957 -0.07400387 -0.31253898 0.12818883
000320 74 65 0b 3d d2 f1 1f 3c f5 0b 2a 3e 78 81 ae 3c
       0.0340323 0.009762244 0.16606124 0.02130197
000330 f0 38 0b 3d 33 1b 08 3e 1a fc 64 bd a7 08 3d bd
       0.033989847 0.13291626 -0.055904485 -0.04615083
000340 fa f1 6a be 1c a0 0b 3d ee f1 4e 3d 95 ac c7 3d
       -0.22943869 0.03408824 0.05052369 0.09749714
000350 3e 42 c2 3d a0 29 95 bb bf d2 1d 3d 48 fb 07 bd
       0.09485291 -0.004552081 0.03853106 -0.033198625
000360 02 c2 34 3e a1 29 91 3d 56 9a ec bd 40 32 8c 3d
       0.17652133 0.07088018 -0.11552875 0.06845522
000370 48 ed 66 bd b1 7d c1 3d 24 c7 9f 3e 66 ef fd bd
       -0.056378633 0.09447802 0.3120662 -0.12399177
000380 b2 23 59 3d f0 27 44 bc ff 85 28 3d 32 35 eb 3d
       0.053012557 -0.0119724125 0.041143414 0.114847556
000390 38 c5 f8 bc 74 75 a4 3d 61 e1 20 3d ee 8f 2e bd
       -0.030367479 0.08030215 0.039277438 -0.04261773
0003a0 30 a0 f0 3c f0 f0 96 3e 24 73 a7 bd 23 f3 b1 bc
       0.029373258 0.29480696 -0.08176258 -0.021722382
0003b0 da 95 fa 3d 33 52 62 3e e0 75 4d 3d f6 0b 9a 3d
       0.12235613 0.22101669 0.050161242 0.075218126
0003c0 a0 00 83 bc de 65 fc bd 90 df 19 3c 3e 35 ad 3d
       -0.015991509 -0.12324117 0.00939168 0.08457421
0003d0 7c 12 27 bb c8 1d 32 3d df 3c d9 bd d5 3d 13 3e
       -0.0025493195 0.043485433 -0.10607313 0.14379056
0003e0 6c 2b 9c 3e 87 d3 4c 3e 0a 3b ac 3d d3 c6 bf 3d
       0.30501878 0.20002566 0.08409698 0.093640946
0003f0 e8 32 ea bc d0 de ff bc 80 84 43 bc e0 75 8e bd
       -0.028588727 -0.031234175 -0.011933446 -0.069560766

mlr.2.bias f4 [208]
000000 b4 bb b5 3d 15 b0 90 3d 21 ff c0 bc e5 68 ce 3d
       0.08873692 0.07064835 -0.023559155 0.10078601
000010 05 77 03 3e 07 48 fa 3d 35 71 18 3e 2d f7 dd 3c
       0.12838371 0.122207694 0.14886935 0.027095402
000020 1c 7f c4 3d cb 93 f3 3d f9 50 d6 3d 09 04 2a 3d
       0.09594557 0.11893424 0.10464663 0.041507754
000030 ae 32 d2 3d 92 88 26 bd 53 31 3e bc f3 19 6c 3d
       0.10263573 -0.040657587 -0.0116084395 0.057641935
000040 0a 26 c5 3d 22 37 6c 3d f0 df ee bc b1 67 14 3c
       0.09626396 0.057669766 -0.029159516 0.009057925
000050 d7 45 95 3d 6b 85 c0 3c 6a b1 c6 3d 7b 88 21 3d
       0.072887115 0.023501119 0.09701808 0.0394368
000060 e4 8d b9 3d 86 4d 89 3d 6c e1 5e 3d df d7 be 3d
       0.090602666 0.067042395 0.054414198 0.09318518
000070 28 9d 48 3d ba 69 8f 3d 05 64 a4 3c 92 23 8b 3d
       0.048978 0.070025876 0.020067224 0.06793894
000080 8f f3 e9 3d 1a 54 5e bc 36 5d 76 3d da 0a 84 3c
       0.11423408 -0.013569856 0.060147487 0.016118456
000090 4d a7 80 3d 7b c0 5f 3d f4 7a dc 3d 29 84 04 bd
       0.0628191 0.054626923 0.10765639 -0.0323526
0000a0 e0 fe 9e 3c f0 f6 d8 3d 87 0e d6 3c 2f 21 a3 3d
       0.019408643 0.105939746 0.026129974 0.07965314
0000b0 a2 05 b8 bc 76 07 e3 3d c2 1e 83 bc 48 9f ef 3c
       -0.022463623 0.110854074 -0.016005877 0.029250756
0000c0 19 8d cd bb 8c 06 04 3e 5a 8c 8c 3d 57 46 89 3c
       -0.0062729237 0.12893122 0.068627074 0.016757173
0000d0 40 de da 3d a3 c1 01 3e fa cf b7 3c 0f 9e 3f 3d
       0.10686922 0.12671523 0.022438038 0.046781596
0000e0 4c 15 91 3d d2 64 cf 3d 26 6e ec 3d d1 fb 1c 3e
       0.0708414 0.10126652 0.11544447 0.15330435
0000f0 ba d7 cb 3d 6f 8a f7 3d 61 a2 a2 3d ec 47 20 3e
       0.09953256 0.12086951 0.079411276 0.15652436
000100 17 b4 85 3d 40 74 3c 3c e0 0e c0 3d 3f 4f 64 3b
       0.0652849 0.011502326 0.09377837 0.0034837273
000110 e4 41 74 bc a2 49 0c bd 39 6a ce 3d eb 81 9a 3d
       -0.014908288 -0.03424991 0.10078854 0.07544311
000120 a0 77 9c 3d 3f ce 7a 3c 08 15 07 bd a9 d3 82 3d
       0.07640004 0.015307962 -0.03297904 0.06388027
000130 87 59 7c 3b 26 76 6c 3d 71 09 d5 3d f0 d7 f1 3d
       0.003850551 0.057729863 0.104021914 0.11808765
000140 95 fa 17 3e b6 e6 61 3d 92 81 df 3d 94 a1 75 3d
       0.14841683 0.055151664 0.109133855 0.059968546
000150 15 27 b8 3d 83 2f 32 3d 74 fc a5 3d 76 74 d4 3d
       0.08991829 0.043502342 0.08104792 0.10373776
000160 ff b4 f6 3d 16 e1 fd 3c e4 92 b5 3d 81 4a a2 3d
       0.12046241 0.030991118 0.08865908 0.07924367
000170 95 94 ce 3d b0 99 bb 3c f4 fc 0d 3e 76 31 ff 3d
       0.100869335 0.022900432 0.13866025 0.12460606
000180 da 1c 84 bb cb 46 d7 3d 65 d2 ac 3d f5 cc 27 3d
       -0.0040317597 0.105115496 0.08438567 0.040966947
000190 15 27 b7 bb 14 29 c2 3b a4 34 a8 3d 6a af a5 3c
       -0.0055893757 0.005925307 0.082131654 0.020225246
0001a0 35 eb 0e 3e d6 66 b6 3d 1f f1 51 3d 62 c1 1e 3e
       0.13956912 0.08906333 0.05125534 0.15503457
0001b0 af 21 8b 3c 06 c7 35 3d b0 56 3f 3e 35 4d 02 3e
       0.016983835 0.044379257 0.18685412 0.12724765
0001c0 2c d6 39 3e ee d8 11 3e 68 83 3f 3d 88 c9 10 3e
       0.18148106 0.14242908 0.04675618 0.14139378
0001d0 6a a9 bc 3d f7 a7 07 3e 48 8b 28 3c 12 e9 b3 3d
       0.09212001 0.13247667 0.0102871135 0.08784689
0001e0 d7 5d 49 3d cf 6f 97 3d fa 3e e3 3c 42 d1 e2 3d
       0.04916176 0.07394373 0.02773999 0.11075069
0001f0 b3 06 e8 3d 82 5b f4 3d fd 66 87 3b 6d 93 f9 3b
       0.11329403 0.11931516 0.00413215 0.0076164515
000200 d1 69 dc 3d 5b 46 65 bc ca 10 03 3d 5a 8d c5 3d
       0.107623704 -0.013993825 0.031998433 0.09646101
000210 11 fd 11 3e af 2a f9 3c 26 a4 f9 3c b2 fa a0 3c
       0.14256693 0.030415861 0.03047378 0.01965079
000220 77 27 3e 3d 53 7f 04 3e 82 a7 35 3c 4f 3a 01 3e
       0.046424355 0.12939195 0.0110873 0.12619899
000230 a9 46 f7 3d 53 81 a3 3d d0 96 e9 3d 63 6d a2 3d
       0.12074024 0.07983651 0.11405718 0.0793102
000240 8b cc 92 3d 02 73 3e 3d 82 1b 09 bc 74 99 40 bd
       0.0716792 0.0464964 -0.008368375 -0.047021344
000250 86 fb 74 3d e6 b7 b1 ba 59 d0 20 bc 27 e2 25 3d
       0.059810184 -0.0013558834 -0.009815299 0.04049888
000260 3a 9e 6a 3c e8 2c 0d 3e c8 b6 db 3d 2a 46 25 bd
       0.014319951 0.13786662 0.10728222 -0.040350117
000270 3b f5 da 3d 96 20 23 3d b0 5c 1f 3e 00 d1 bc 3d
       0.10691305 0.039826 0.15562701 0.09219551
000280 f7 9b 45 3d e5 c8 e3 3d cd e6 e1 3b dc be 15 3d
       0.048244443 0.11122302 0.0068939687 0.03655897
000290 50 ef e2 3d ec 35 d1 3d de b8 1e 3d 2e 7a b1 3d
       0.110808015 0.10215363 0.03875052 0.08665882
0002a0 aa 3c ba bc 8c 51 f5 bc 8d 11 0f bb fc 26 6d bd
       -0.022734005 -0.029946111 -0.002183053 -0.057898507
0002b0 b3 09 ab 3d 4c f5 c2 bc 5e c9 cb bc 34 be 07 3d
       0.08351459 -0.023798607 -0.024876293 0.033140376
0002c0 cf fd 94 3d 33 88 ce 3d d3 70 9e 3d 91 7a 5d 3c
       0.07274973 0.10084572 0.07736363 0.013517992
0002d0 37 66 a1 3d 12 87 f5 3c 68 b7 04 3e 52 10 67 3b
       0.07880824 0.029971633 0.12960589 0.003525753
0002e0 4f 66 bb 3d 7c d9 db 3d 27 08 c5 bb 9a 31 e0 3d
       0.09150373 0.10734841 -0.0060129347 0.10946961
0002f0 49 30 31 3d 8a 88 d4 3d ee 75 c4 3c cf cf 45 3d
       0.04325894 0.10377605 0.023982015 0.048293885
000300 31 4f c8 bb 2d 46 1a 3d a3 71 8e 3d f7 b4 92 3d
       -0.006112956 0.03766458 0.06955268 0.071634226
000310 27 21 84 bc e5 44 42 bd be 4e 55 3d 2c cf 1a bd
       -0.01612909 -0.047428984 0.052077048 -0.03779523
000320 e8 23 30 bd 11 c2 63 bd f4 d0 b1 3d f2 66 ba 3d
       -0.043002993 -0.055604998 0.08682433 0.091016665
000330 70 d3 4d 3c 75 c2 b8 3d 7c 59 f3 3d 06 f2 b5 3d
       0.012562618 0.09021465 0.11882302 0.08884053
