pqc_reup_v1_output/best_model_epoch_133.pth (torch, 61297 bytes, 6 tensors)

reupload_weights f4 [12, 3, 4]
0.2914852 0.14563155 0.14884867 -0.20676538 0.23878665 -0.33867213 0.19199358 0.70270455
0.458273 0.2199264 -0.105785474 -0.76966524 -0.19083896 -0.12315195 0.086750776 0.02569792
0.20957059 -0.9285395 -0.6419482 0.10127487 -0.20930022 0.08921557 0.053592667 0.285873
0.23804025 0.15645304 0.10530636 -0.026622033 0.83742815 -0.22383563 0.22214001 -0.87368405
0.1641386 0.15064985 0.7021714 -0.053125717 -0.10611988 -0.057631444 0.012108137 -0.08706304
0.3981312 0.9397517 0.11332792 -0.6496338 0.6412881 1.1192874 0.09338518 -0.3924213
-0.07212111 -0.04827525 0.17829415 0.075956605 1.0601858 0.974767 -1.072018 -0.6335779
0.4581307 0.54561853 -1.1781157 -0.50342476 -0.04163862 0.07837397 -0.10986876 -0.12230101
0.36293268 0.19641866 -0.13653481 0.10036012 -0.29469022 -0.29603532 -0.89595115 -0.11607184
-0.0039280453 -0.09536225 -0.20842187 0.085872166 -0.17709169 -0.100289054 -0.12027857 0.19115996
0.30353105 0.37906587 0.462847 0.4242675 0.1466333 0.12023676 0.0971611 -0.078004904
-0.36074716 -0.5416685 -0.115001194 0.39858788 -0.32831252 -0.2748675 0.5558663 0.5062094
-0.23755214 0.21441457 0.13637316 0.09224608 -0.14848118 0.6064862 0.7513347 0.26243022
-0.096234135 0.59205097 0.19783005 -0.17536935 -0.055936147 0.14614911 0.16440594 0.09324912
0.15919551 0.41729596 0.09981192 -0.6317883 0.49235263 0.48098513 0.22353211 0.51987725
0.15312447 -0.60090363 -0.20537597 0.22193636 0.25768852 0.20067395 0.77931106 0.5602691
-0.7813545 -1.0033069 -0.5484377 -0.6990204 -0.01730972 0.1070221 0.094139546 0.25031307
-1.4655384 0.028187731 0.10938906 -0.4465031 -1.2554389 0.39200774 0.4060759 0.06780933
00000000: 8c3d 953e 7020 153e c96b 183e 4eba 53be
00000010: 7d84 743e 6f66 adbe f799 443e 72e4 333f
00000020: c2a2 ea3e 6334 613e 0ea6 d8bd c808 45bf
00000030: 4a6b 43be 1737 fcbd 64aa b13d 7284 d23c
00000040: ac99 563e c4b4 6dbf b856 24bf 3369 cf3d
00000050: cc52 56be a7b6 b63d fc83 5b3d f25d 923e
00000060: d3c0 733e 3a35 203e dcaa d73d 7316 dabc
00000070: b161 563f 2b35 65be ac78 633e c2a9 5fbf
00000080: f313 283e f443 1a3e 81c1 333f 5a9a 59bd
00000090: 6155 d9bd f30e 6cbd 3561 463c 1b4e b2bd
000000a0: dad7 cb3e 9193 703f 7818 e83d 674e 26bf
000000b0: 752b 243f cf44 8f3f bb40 bf3d 72eb c8be
000000c0: 3cb4 93bd 45bc 45bd be92 363e 238f 9b3d
000000d0: 2bb4 873f 558a 793f e337 89bf 2932 22bf
000000e0: 1b90 ea3e a8ad 0b3f 7fcc 96bf 72e0 00bf
000000f0: 428d 2abd 8882 a03d df02 e1bd f478 fabd
00000100: 50d2 b93e f921 493e c8cf 0bbe 9b89 cd3d
00000110: a3e1 96be f191 97be 0e5d 65bf 13b7 edbd
00000120: d5b6 80bb 494d c3bd 8b6c 55be bfdd af3d
00000130: 8657 35be 5964 cdbd 9c54 f6bd 70bf 433e
00000140: 6c68 9b3e ec14 c23e 48fa ec3e 9739 d93e
00000150: 0a27 163e b13e f63d 66fc c63d 09c1 9fbd
00000160: dab3 b8be c9aa 0abf bf85 ebbd b613 cc3e
00000170: 9418 a8be 6fbb 8cbe 414d 0e3f f096 013f
00000180: de40 73be 7e8f 5b3e 68a5 0b3e 83eb bc3d
00000190: 730b 18be ae42 1b3f 7957 403f 415d 863e
000001a0: 6716 c5bd a790 173f f693 4a3e 0694 33be
000001b0: 4d1d 65bd 1da8 153e 085a 283e 65f9 be3d
000001c0: 2604 233e d1a7 d53e 316a cc3d e1bc 21bf
000001d0: a515 fc3e af43 f63e 9ae5 643e ad16 053f
000001e0: a9cc 1c3e d2d4 19bf 144e 52be 4943 633e
000001f0: c0ef 833e 797d 4d3e ee80 473f cc6d 0f3f
00000200: d906 48bf 5c6c 80bf 6a66 0cbf 00f3 32bf
00000210: 1dcd 8dbc 672e db3d 3ccc c03d 0929 803e
00000220: c396 bbbf f5e9 e63c 5f07 e03d 0e9c e4be
00000230: 39b2 a0bf 3db5 c83e 2ee9 cf3e 9edf 8a3d

reupload_bias f4 [12, 3]
-0.5513404 0.20662172 -0.2907857 0.5190643 -0.30888 0.40468237 -0.5671108 1.0532116
0.030257389 0.5569279 0.8341927 1.6658138 -0.43641403 -0.2988917 0.31353042 0.4865925
0.21512711 -0.2717786 -0.12310263 -0.08083549 0.12653528 -0.71374005 -0.6352148 -0.16270776
0.4542146 0.68435925 -0.74250215 -0.5730892 -0.88402927 0.6597563 0.17436247 0.15597779
-1.726796 -0.5535425 -0.45588395 0.84138346
00000000: a524 0dbf a594 533e dde1 94be 66e1 043f
00000010: 8525 9ebe 8732 cf3e 2c2e 11bf a3cf 863f
00000020: 58de f73c d492 0e3f a78d 553f 6339 d53f
00000030: a971 dfbe 5508 99be 0f87 a03e a722 f93e
00000040: 484a 5c3e 9126 8bbe 3b1d fcbd 148d a5bd
00000050: 7792 013e abb7 36bf 709d 22bf dd9c 26be
00000060: d18e e83e 2b32 2f3f 9f14 3ebf f9b5 12bf
00000070: be4f 62bf cae5 283f 138c 323e a4b8 1f3e
00000080: a707 ddbf f6b4 0dbf 9f69 e9be e864 573f

mlr.0.weight f4 [64, 12]
0.004212431 -0.017236283 0.06940076 0.080896474 -0.26219115 -0.10653202 0.24310184 0.11245483
-0.014358 -0.1740439 -0.17661291 -0.2585856 -0.2520691 -0.111381896 0.19467604 -0.061034277
-0.40691006 -0.58379704 -0.083427384 0.52542573 0.051526994 -0.22565252 0.2840324 -0.0193501
-0.24187844 0.15294129 -0.18539886 -0.11606978 -0.34642035 0.1375773 0.16228424 0.04856891
-0.25863707 -0.3401632 -0.28549567 0.15954512 0.1385946 0.24292141 0.1512282 0.073061414
-0.0028269046 -0.21953918 -0.24732882 -0.27001187 0.118172616 -0.14173025 -0.058096614 -0.16613406
0.05447776 -0.21814136 -0.35313174 0.030781286 -0.03263098 0.15446334 -0.15315951 -0.39532897
-0.037352555 -0.17397782 -0.058131937 -0.41708663 -0.006132611 -0.31589794 0.2957177 0.07195223
0.26073682 -0.64260846 0.33265483 -0.20506236 0.02653679 0.087926015 -0.05577144 -0.2031805
-0.032706495 -0.41995028 0.25627553 -0.42057917 0.29426476 0.1919533 0.43825006 -0.33753422
-0.23423314 0.08740789 0.18411627 -0.4883429 0.0036376754 -0.35667753 0.01706525 -0.29975125
-0.13212423 -0.19656233 -0.22395347 0.34484965 0.4808358 -0.15355836 0.1879481 0.027306175
-0.21798933 -0.369327 -0.021822892 -0.2481335 -0.14496732 -0.13967091 -0.092681296 -0.34140092
0.012286028 -0.16436513 0.015267322 -0.36280823 -0.47177812 0.42019182 -0.08179893 0.10595171
-0.20284562 0.06076207 0.30545855 0.22917114 -0.4891176 0.4809695 0.3071743 -0.12368804
-0.16624536 0.48516375 -0.09724711 0.25700188 -0.27592778 -0.07578122 0.14303273 0.18495245
-0.37921283 -0.25231838 -0.41583857 -0.345813 -0.22275299 -0.07138861 0.19482026 0.04831909
-0.21956788 -0.23158209 0.14360873 -0.21472847 -0.035543837 0.1384792 -0.13360234 -0.03147711
-0.025127577 -0.06829573 -0.14636758 -0.25733608 -0.23335256 -0.15457447 0.27881333 -0.13943434
-0.19385342 0.06997318 0.079561844 0.15816791 0.49117038 0.119102105 -0.34321123 0.02453336
0.17696927 -0.12948851 -0.2496851 0.3165242 -0.0969307 -0.41426688 -0.29192466 0.25835177
0.072554484 0.16837718 -0.057059035 -0.2973488 -0.45559743 -0.042744003 0.16913716 0.32814622
-0.281826 0.23319404 -0.12451355 -0.2396314 -0.033992596 0.14984962 0.23621093 -0.5218563
-0.002220822 -0.61072713 -0.0048790188 0.3724188 -0.12098595 0.36071873 -0.15362434 -0.26927912
0.38316 -0.10608456 0.00017768904 -0.21802506 0.32285297 0.22603194 0.17325619 -0.5374841
-0.24335499 0.0062598316 0.023188137 -0.31398287 -0.08077063 0.19496186 0.022995774 0.013024541
-0.071043104 -0.26142123 -0.27142894 -0.13799106 -0.14673975 0.08993778 -0.08403643 -0.112936094
0.6869038 0.25684696 0.19459377 -0.2834427 -0.13177173 0.22884521 -0.3107526 -0.42780173
0.014635123 -0.32923654 -0.2603517 0.24023989 0.5405633 0.0702779 -0.18466532 -0.52298456
-0.2727567 0.05922509 -0.02126974 -0.064467765 -0.17847341 0.40011483 -0.17635594 0.14357913
-0.043692462 0.13171467 0.16574107 0.18191509 0.016905088 0.44492358 0.17845318 0.34980822
0.39504474 -0.12922844 -0.115211464 0.44267088 0.22620985 -0.22041711 -0.022315538 -0.28467014
00000000: 6f08 8a3b 1b33 8dbc fc21 8e3d 0dad a53d
00000010: eb3d 86be 762d dabd b0ef 783e b84e e63d
00000020: d13d 6bbc 9038 32be 04da 34be 5565 84be
00000030: 330f 81be 311c e4bd 2859 473e 14ff 79bd
00000040: 8456 d0be b973 15bf fadb aabd 4d82 063f
00000050: f80d 533d 7411 67be b26c 913e 1a84 9ebc
00000060: fbae 77be a49c 1c3e 33d9 3dbe feb5 edbd
00000070: 025e b1be 10e1 0c3e d72d 263e 32f0 463d
00000080: 146c 84be df29 aebe 7d2c 92be cc5f 233e
00000090: beeb 0d3e 64c0 783e 91db 1a3e 39a1 953d
000000a0: 9743 39bb e1ce 60be c443 7dbe ff3e 8abe
000000b0: 7c04 f23d bc21 11be b7f6 6dbd 0c1f 2abe
000000c0: 1224 5f3d 7360 5fbe afcd b4be 0929 fc3c
000000d0: 10a8 05bd a32b 1e3e d9d5 1cbe 8f68 cabe
000000e0: fefe 18bd 3e27 32be c11b 6ebd 618c d5be
000000f0: 12f4 c8bb 60bd a1be 4f68 973e b15b 933d
00000100: 4c7f 853e fd81 24bf bc51 aa3e defb 51be
00000110: af63 d93c 8e12 b43d 9870 64bd 8d0e 50be
00000120: 3ff7 05bd b903 d7be 8c36 833e 2756 d7be
00000130: dfa9 963e 688f 443e 5062 e03e 49d1 acbe
00000140: d0da 6fbe e802 b33d fa88 3c3e 1508 fabe
00000150: 1166 6e3b 709e b6be 6ccc 8b3c ff78 99be
00000160: 934b 07be a347 49be 0f54 65be 2290 b03e
00000170: 1c30 f63e 673e 1dbe 7775 403e 33b1 df3c
00000180: 9838 5fbe 6e18 bdbe ecc5 b2bc b516 7ebe
00000190: 5072 14be e405 0fbe b1cf bdbd 1acc aebe
000001a0: 564b 493c 554f 28be ca23 7a3c 00c2 b9be
000001b0: e78c f1be 6223 d73e 3386 a7bd 36fd d83d
000001c0: c3b6 4fbe a6e1 783d 1065 9c3e d7ab 6a3e
000001d0: 9f6d fabe a241 f63e f345 9d3e 2850 fdbd
000001e0: 393c 2abe 6267 f83e 7e29 c7bd c095 833e
000001f0: 6846 8dbe 2f33 9bbd 2c77 123e 2d64 3d3e
00000200: 2f28 c2be e02f 81be cbe8 d4be 670e b1be
00000210: 5c19 64be 3134 92bd f67e 473e 3dea 453d
00000220: 67d6 60be db23 6dbe 2b0e 133e c8e1 5bbe
00000230: 6a96 11bd 7ecd 0d3e 0dcf 08be 24ee 00bd
00000240: 59d8 cdbc a2de 8bbd 62e1 15be 8ec1 83be
00000250: f9f3 6ebe c548 1ebe 9fc0 8e3e e0c7 0ebe
00000260: 8381 46be 194e 8f3d 52f1 a23d c5f6 213e
00000270: af7a fb3e ceeb f33d 62b9 afbe 2ffa c83c
00000280: 6f37 353e a398 04be 73ad 7fbe 760f a23e
00000290: 9a83 c6bd ca1a d4be 2677 95be af46 843e
000002a0: 7297 943d 116b 2c3e bcb6 69bd 1a3e 98be
000002b0: 1144 e9be 5614 2fbd 4b32 2d3e c802 a83e
000002c0: 7f4b 90be 6bca 6e3e f600 ffbd ef61 75be
000002d0: d23b 0bbd 2e72 193e 47e1 713e 6098 05bf
000002e0: 368b 11bb 9d58 1cbf 2de0 9fbb adad be3e
000002f0: 7bc7 f7bd 20b0 b83e b34f 1dbe f4de 89be
00000300: 8c2d c43e dd42 d9bd 0a52 3a39 f641 5fbe
00000310: fc4c a53e eb74 673e 126a 313e 8f98 09bf
00000320: 0d32 79be 461f cd3b 0cf5 bd3c 5dc2 a0be
00000330: 126b a5bd 15a4 473e a261 bc3c e264 553c
00000340: 0c7f 91bd 01d9 85be bcf8 8abe 874d 0dbe
00000350: f242 16be 4c31 b83d 4b1b acbd 0a4b e7bd
00000360: edd8 2f3f 7281 833e 9743 473e 671f 91be
00000370: 2bef 06be 6656 6a3e f71a 9fbe d408 dbbe
00000380: 28c8 6f3c b191 a8be d14c 85be 7201 763e
00000390: 5b62 0a3f dced 8f3d e818 3dbe 51e2 05bf
000003a0: c4a6 8bbe 0296 723d e13d aebc ad07 84bd
000003b0: bcc1 36be dadb cc3e a796 34be 6806 133e
000003c0: def6 32bd 36e0 063e 07b8 293e f347 3a3e
000003d0: 8a7c 8a3c 06cd e33e 6ebc 363e 101a b33e
000003e0: 4e43 ca3e 7654 04be fdf3 ebbd c2a5 e23e
000003f0: 8ea3 673e 06b5 61be 13cf b6bc 49c0 91be

mlr.0.bias f4 [64]
-0.07937846 0.18507752 0.027739841 -0.050336607 0.13914125 -0.054518726 0.128505 0.087369874
0.15958314 0.0062015336 0.13282537 -0.04167602 -0.11238604 0.12494979 0.18655835 0.1495095
0.08016167 -0.09840758 0.07473116 0.14630185 -0.1325919 -0.035763077 -0.04944994 0.16043507
0.012581864 -0.025579618 -0.024149736 -0.007038464 -0.069673 -0.0982695 0.06593641 -0.14529438
-0.063371874 0.02722968 -0.0034390737 -0.27155265 0.18060881 -0.13112533 -0.15892498 0.027268602
-0.1506486 -0.06827485 -0.097269066 -0.02251076 -0.12056155 -0.048093062 0.0066411006 -0.2336011
-0.17472936 0.0042121904 -0.011940182 0.060710955 -0.0796928 0.19989935 0.047064178 0.05216017
-0.13079387 -0.16786723 -0.06168129 -0.051529936 0.09114942 -0.043104697 0.17651822 -0.16945413
00000000: 2d91 a2bd f684 3d3e aa3e e33c c22d 4ebd
00000010: 0b7b 0e3e 074f 5fbd d196 033e faee b23d
00000020: c369 233e 3c36 cb3b 6003 083e 79b4 2abd
00000030: a72a e6bd ade5 ff3d 2709 3f3e 0519 193e
00000040: cd2b a43d ea89 c9bd a70c 993d 27d0 153e
00000050: 2cc6 07be 4e7c 12bd 058c 4abd 1749 243e
00000060: 2a24 4e3c 598c d1bc abd5 c5bc eaa2 e6bb
00000070: b8b0 8ebd 8541 c9bd ab09 873d 0dc8 14be
00000080: 1dc9 81bd c710 df3c 1562 61bb f308 8bbe
00000090: 84f1 383e b845 06be 3bbd 22be 6762 df3c
000000a0: a043 1abe afd3 8bbd 0135 c7bd 7c68 b8bc
000000b0: f9e8 f6bd 3bfd 44bd 979d d93b 2035 6fbe
000000c0: 41ec 32be 6a06 8a3b c1a0 43bc 0dac 783d
000000d0: fb35 a3bd 6ab2 4c3e 5ec6 403d e7a5 553d
000000e0: d4ee 05be 63e5 2bbe 85a5 7cbd 0e11 53bd
000000f0: 8cac ba3d 8d8e 30bd 31c1 343e 6285 2dbe

mlr.2.weight f4 [208, 64]
0.018994987 0.45187563 0.045872785 -0.054672375 -0.27176017 0.6123516 -0.17144713 -0.23770629
-0.28285804 0.5125894 0.46541104 -0.013706058 -0.10063428 -0.04507617 0.22776353 0.5239023
-0.33259395 -0.05848989 -0.5870138 -0.238166 0.153037 -0.06024313 0.15067622 0.00494769
-0.16282524 0.11031185 0.1230526 0.06274175 -0.017339434 0.124510445 0.026830703 -0.10527857
-0.04429257 0.073161185 -0.021034349 0.11928755 0.12646441 0.06760791 -0.06894484 0.15388
0.090194285 0.27568024 0.09000641 0.26394343 0.0024329573 0.453172 0.91382116 0.054429352
-0.040175244 -0.002098918 -0.11008343 -0.6326419 -0.054507572 -0.25455475 -0.07220105 0.89968836
0.20145199 0.2262028 0.25675806 0.13212967 -0.44504458 -0.12362622 0.04655129 0.07003924
-0.107314005 0.26283976 0.098302506 0.0075720698 -0.41981336 0.4223642 -0.07925864 0.1170032
-0.479988 0.56246495 0.10935965 0.12368679 -0.052962467 -0.15117913 0.19937146 0.2193538
-0.3333304 0.05134192 -0.767727 -0.19625247 0.19417855 0.09794232 -0.00060816103 -0.03549708
0.567539 0.0802743 0.07481128 0.13891533 -0.061217885 -0.006311774 0.043071475 -0.07333222
0.21099669 -0.12012197 0.5403071 0.12461425 0.25045788 0.042622343 -0.11173847 0.18914174
-0.021380946 0.52388716 0.12339535 0.11592624 -0.008843452 0.54938424 0.7251225 -0.088436246
0.020327166 -0.016731739 0.029783415 0.14939772 -0.04416254 -0.18355812 -0.051653147 0.16122408
0.28538322 -0.11067172 0.034864344 0.1796621 -0.064556256 0.0231954 -0.06073918 0.018850565
0.120442525 0.6068219 -0.109130494 0.11410265 -0.30823123 0.65306264 -0.0695247 -0.14485836
-0.48837876 0.63125056 0.5058225 0.009370759 -0.08734545 -0.1949328 0.36026007 0.5336995
-0.37896118 0.009858817 -0.45666215 -0.2455294 0.2815905 0.05003093 0.16937761 -0.0068995277
0.2711463 0.21418881 -0.109016314 -0.007069843 0.017377008 0.14768368 0.25842017 -0.028682351
0.058754213 0.08132695 -0.057118937 0.10010758 0.21796271 -0.09593727 -0.08802503 0.033324465
-0.06850253 0.35801867 -0.009408683 0.16549905 -0.06315607 0.43685699 0.91223323 0.12262978
-0.046328604 -0.089500114 0.051755037 -0.60385025 0.10131884 -0.21623376 0.12804675 0.65628767
0.24858224 0.23214379 0.121232174 0.18427715 -0.15725504 0.0013688952 0.04008619 -0.04370269
-0.109022975 -0.25260562 0.047647297 -0.08169487 -0.42496297 0.33757985 -0.19267605 0.14271498
-0.48293233 -0.016666353 0.09909129 0.02130197 0.033989847 0.055007163 -0.10637866 -0.28255388
-0.20418797 0.03408824 -0.381841 -0.1673193 0.18734433 -0.004552081 -0.0113099795 -0.07022716
0.8256715 -0.099371135 -0.11552875 0.06832308 -0.056378633 0.11206907 0.5808097 -0.12399177
0.0664194 -0.0119724125 0.4375972 0.114847556 0.32112715 0.08030215 0.039277438 -0.042365726
0.029373258 0.6958139 -0.08176258 0.050599683 0.12235613 0.47741026 0.52897346 0.075218126
-0.015991509 -0.12324117 0.0072223996 0.44507486 -0.08086044 -0.06331315 -0.10871454 -0.25135505
0.3759419 0.09272256 0.08829208 0.050534047 -0.098882355 -0.031234175 -0.13679032 -0.069560766
00000000: 609b 9b3c 3e5c e73e 1ae5 3b3d 24f0 5fbd
00000010: 2624 8bbe 13c3 1c3f d68f 2fbe 4769 73be
00000020: c5d2 90be 0f39 033f 5b4a ee3e 608f 60bc
00000030: 5819 cebd caa1 38bd d83a 693e 761e 063f
00000040: c149 aabe 1893 6fbd 8946 16bf cae1 73be
00000050: bbb5 1c3e 80c1 76bd de4a 1a3e 3b20 a23b
00000060: a9bb 26be 2eeb e13d 0003 fc3d bf7e 803d
00000070: 6e0b 8ebc 55ff fe3d 10cc db3c 4a9c d7bd
00000080: 206c 35bd 88d5 953d 3a50 acbc 084d f43d
00000090: e37f 013e 0476 8a3d f432 8dbd b892 1d3e
000000a0: c8b7 b83d f625 8d3e 4855 b83d 9823 873e
000000b0: 4072 1f3b 2906 e83e 2ff0 693f 50f1 5e3d
000000c0: cc8e 24bd 008e 09bb 6c73 e1bd d2f4 21bf
000000d0: 5543 5fbd 0055 82be 25de 93bd fa51 663f
000000e0: 6e49 4e3e b5a1 673e cb75 833e 004d 073e
000000f0: e2dc e3be be2f fdbd 91ac 3e3d bc70 8f3d
00000100: 72c7 dbbd ef92 863e d352 c93d 201f f83b
00000110: c7f1 d6be 1f40 d83e 5b52 a2bd 609f ef3d
00000120: fdc0 f5be b4fd 0f3f f4f7 df3d 804f fd3d
00000130: 2cef 58bd b4ce 1abe 0828 4c3e 489e 603e
00000140: 48aa aabe e84b 523d c289 44bf 68f6 48be
00000150: bed6 463e fc95 c83d ff6c 1fba 6365 11bd
00000160: 3c4a 113f da66 a43d a836 993d d23f 0e3e
00000170: 9bbf 7abd ffd2 cebb b76b 303d 342f 96bd
00000180: 840f 583e 8202 f6bd 9151 0a3f c235 ff3d
00000190: 043c 803e c494 2e3d 24d7 e4bd 5fae 413e
000001a0: 1827 afbc 781d 063f b4b6 fc3d bd6a ed3d
000001b0: 20e4 10bc 72a4 0c3f a1a1 393f 101e b5bd
000001c0: 2885 a63c 0011 89bc 59fc f33c b7fb 183e
000001d0: c8e3 34bd a9f6 3bbe 4092 53bd ed17 253e
000001e0: c01d 923e dba7 e2bd eacd 0e3d 57f9 373e
000001f0: 1236 84bd 4804 be3c a5c9 78bd 806c 9a3c
00000200: 92aa f63d ae58 1b3f cf7f dfbd a6ae e93d
00000210: 7cd0 9dbe 1d2f 273f f762 8ebd c055 14be
00000220: c80c fabe a399 213f 957d 013f d087 193c
00000230: 2ce2 b2bd 779c 47be 0274 b83e 88a0 083f
00000240: 3307 c2be e086 213c 9fcf e9be 0f6c 7bbe
00000250: a12c 903e 3ced 4c3d 5371 2d3e 6f15 e2bb
00000260: b0d3 8a3e 5054 5b3e f243 dfbd 24aa e7bb
00000270: 3a5a 8e3c 643a 173e a64f 843e 40f7 eabc
00000280: 42a8 703d be8e a63d 8cf5 69bd 3405 cd3d
00000290: 9e31 5f3e c27a c4bd 7846 b4bd 3c7f 083d
000002a0: 0e4b 8cbd 394e b73e e026 1abc 9578 293e
000002b0: f857 81bd b8ab df3e 1e88 693f 5225 fb3d
000002c0: 10c3 3dbd d64b b7bd 17fd 533d ee95 1abf
000002d0: 4180 cf3d 626c 5dbe b01e 033e 7802 283f
000002e0: 588c 7e3e 1ab7 6d3e 9348 f83d 26b3 3c3e
000002f0: 7707 21be 806c b33a 6b31 243d 9801 33bd
00000300: 7047 dfbd 8655 81be d029 433d a44f a7bd
00000310: bf94 d9be 44d7 ac3e df4c 45be e023 123e
00000320: e842 f7be e087 88bc 60f0 ca3d 7881 ae3c
00000330: f038 0b3d 314f 613d 0edd d9bd e7aa 90be
00000340: a716 51be 1ca0 0b3d aa80 c3be c055 2bbe
00000350: 31d7 3f3e a029 95bb 7e4d 39bc 42d3 8fbd
00000360: 355f 533f 1883 cbbd 569a ecbd f9ec 8b3d
00000370: 48ed 66bd 7884 e53d f2af 143f 66ef fdbd
00000380: e506 883d f027 44bc bd0c e03e 3235 eb3d
00000390: c76a a43e 7475 a43d 61e1 203d af87 2dbd
000003a0: 30a0 f03c dc20 323f 2473 a7bd 9d41 4f3d
000003b0: da95 fa3d 1e6f f43e ce6a 073f f60b 9a3d
000003c0: a000 83bc de65 fcbd e1a9 ec3b dae0 e33e
000003d0: 299a a5bd 53aa 81bd bba5 debd 9cb1 80be
000003e0: 757b c03e 53e5 bd3d 7ad2 b43d cafc 4e3d
000003f0: d582 cabd d0de ffbc c312 0cbe e075 8ebd

mlr.2.bias f4 [208]
0.10449435 0.1037161 0.018279968 0.14210089 0.16593342 0.14539964 0.16276579 0.038291376
0.07540863 0.1362465 0.08621821 0.052829046 0.09350926 -0.024183888 0.018416878 0.055660505
0.100816645 0.06559514 -0.005603427 0.052192025 0.089078605 0.05849125 0.114351004 0.051428124
0.11878292 0.09242623 0.076481126 0.13348822 0.09033696 0.13054523 0.09169621 0.111645244
0.122642554 -0.0010814463 0.057514723 0.022570288 0.0413301 0.055169124 0.10439579 -0.022191329
0.016623855 0.07568206 0.05098716 0.08339539 -0.010303113 0.14711441 0.03536012 0.07939292
0.052361764 0.13580269 0.12742063 0.0612599 0.15527168 0.18305582 0.06879952 0.12375801
0.10260991 0.13717021 0.13924119 0.14951679 0.10720377 0.13703857 0.07801817 0.16060345
0.08759151 0.035770014 0.09621229 0.011699593 0.028972132 0.014687827 0.12789889 0.13443907
0.11233037 0.08101095 0.025008557 0.09734642 0.07954731 0.1028802 0.16304882 0.17687272
0.16975716 0.14426474 0.14771323 0.15135048 0.1376133 0.09647352 0.13898152 0.14036219
0.15412231 0.11528581 0.13415682 0.16004819 0.15921465 0.06770988 0.18775 0.1579966
0.07353896 0.17104661 0.14628424 0.101864 0.0679603 0.05081618 0.15538757 0.07374475
0.18559079 0.13158415 0.11128031 0.22646356 0.072999895 0.14309725 0.26284334 0.18757686
0.266284 0.21058345 0.12410776 0.20272604 0.15964572 0.19461726 0.09171592 0.16693218
0.11619315 0.13360357 0.083268724 0.16968845 0.1815565 0.19902135 0.079609364 0.077220514
0.15270141 0.04831073 0.10502852 0.16923505 0.18916847 0.12236363 0.103418194 0.108707584
0.116334 0.18185522 0.07317484 0.13496773 0.16970892 0.14275461 0.1475186 0.124041095
0.11762405 0.08387058 0.046732802 0.011372629 0.11015238 0.050030407 0.069133185 0.1353712
0.08772734 0.20115519 0.18207611 0.05487245 0.15612431 0.10198675 0.20177822 0.14735468
0.097467795 0.15943475 0.06427681 0.09655176 0.14526792 0.12054631 0.074258864 0.10448
0.012456977 0.02584628 0.043956093 0.012257753 0.11962638 0.018614309 0.022529276 0.07063928
0.13604325 0.15251411 0.11848736 0.07035078 0.10770976 0.098220155 0.16726074 0.06485479
0.14148435 0.15023857 0.04992701 0.15172797 0.083672404 0.16876192 0.06410101 0.07012558
0.025074141 0.06389126 0.070366316 0.10203402 0.013826676 0.005682733 0.07413641 -0.007690707
-0.004014197 -0.016010998 0.13108845 0.12703626 0.060239624 0.12224969 0.14857617 0.12289403
00000000: 2201 d63d 1b69 d43d dfbf 953c e582 113e
00000010: 73ea 293e a5e3 143e 13ac 263e 6bd7 1c3d
00000020: d76f 9a3d 3484 0b3e 2c93 b03d 4563 583d
00000030: c881 bf3d 4a1d c6bc fede 963c 45fc 633d
00000040: f578 ce3d bf56 863d f49c b7bb 4ec7 553d
00000050: d86e b63d 8594 6f3d dc30 ea3d 4ca6 523d
00000060: 7644 f33d f749 bd3d 23a2 9c3d 23b1 083e
00000070: 9602 b93d a6ad 053e 39cb bb3d 43a6 e43d
00000080: 052c fb3d 51bf 8dba 8f94 6b3d 53e5 b83c
00000090: c049 293d 05f9 613d 76cd d53d 97ca b5bc
000000a0: c02e 883c 32ff 9a3d ead7 503d 34cb aa3d
000000b0: 63ce 28bc 29a5 163e c6d5 103d c198 a23d
000000c0: 4a79 563d dc0f 0b3e 8e7a 023e a9eb 7a3d
000000d0: 8aff 1e3e fc72 3b3e c3e6 8c3d d774 fd3d
000000e0: 2525 d23d 5976 0c3e 3e95 0e3e ee1a 193e
000000f0: a68d db3d d753 0c3e fec7 9f3d 3b75 243e
00000100: 2d63 b33d 9483 123d f30a c53d a6af 3f3c
00000110: f756 ed3c 36a5 703c edf7 023e 65aa 093e
00000120: 770d e63d 12e9 a53d bfde cc3c 8f5d c73d
00000130: b3e9 a23d dbb2 d23d 45f6 263e 1f1e 353e
00000140: d2d4 2d3e 23ba 133e 2342 173e 9ffb 1a3e
00000150: 80ea 0c3e e993 c53d 2c51 0e3e 1bbb 0f3e
00000160: 3dd2 1d3e f71a ec3d 6860 093e ace3 233e
00000170: 2a09 233e 7aab 8a3d 8941 403e dcc9 213e
00000180: 989b 963d d826 2f3e 89cb 153e 139e d03d
00000190: c52e 8b3d a024 503d eb1d 1f3e 7d07 973d
000001a0: 830b 3e3e ffbd 063e eee6 e33d 10e6 673e
000001b0: f880 953d 1688 123e 6793 863e 2614 403e
000001c0: 6056 883e 30a3 573e 362c fe3d 6a97 4f3e
000001d0: 2b7a 233e bf49 473e 8ed5 bb3d 45f0 2a3e
000001e0: adf6 ed3d 60cf 083e cb88 aa3d cfc2 2d3e
000001f0: f2e9 393e 41cc 4b3e 3c0a a33d ca25 9e3d
00000200: c25d 1c3e 79e1 453d 3119 d73d f44b 2d3e
00000210: 61b5 413e c899 fa3d ebcc d33d 15a2 de3d
00000220: 8540 ee3d 4138 3a3e b1dc 953d fb34 0a3e
00000230: 2dc8 2d3e 442e 123e 1e0f 173e 4209 fe3d
00000240: e1e4 f03d 57c4 ab3d e56a 3f3d 4354 3a3c
00000250: 9297 e13d afec 4c3d b395 8d3d bf9e 0a3e
00000260: 64aa b33d a0fb 4d3e 2972 3a3e efc1 603d
00000270: 0ddf 1f3e 6ede d03d f39e 4e3e 25e4 163e
00000280: 329d c73d dd42 233e 8fa3 833d eebc c53d
00000290: 1dc1 143e fce0 f63d 0815 983d 9cf9 d53d
000002a0: 5918 4c3c 94bb d33c 4e0b 343d bed4 483c
000002b0: adfe f43d 097d 983c 518f b83c 54ab 903d
000002c0: ec4e 0b3e a92c 1c3e 80a9 f23d 1214 903d
000002d0: ef96 dc3d a627 c93d 6646 2b3e 97d2 843d
000002e0: 46e1 103e 24d8 193e 4480 4c3d 945e 1b3e
000002f0: 705c ab3d edcf 2c3e 6447 833d 009e 8f3d
00000300: 4968 cd3c 6cd9 823d 371c 903d 36f7 d03d
00000310: 4889 623c 3836 ba3b d5d4 973d 5402 fcbb
00000320: 8689 83bb 7f29 83bc 0d3c 063e cb15 023e
00000330: d3bd 763d 0c5e fa3d 5a24 183e ddaf fb3d
