pqc_reup_v1_output/best_model_epoch_79.pth (torch, 61285 bytes, 6 tensors)

reupload_weights f4 [12, 3, 4]
0	0x3e800add	0.25008288
1	0x3e2356de	0.15951106
2	0x3e0a16d3	0.13485269
3	0xbe254f8b	-0.16143624
4	0x3ec01ad7	0.37520477
5	0x3ddea7ab	0.10871824
6	0x3e1f46da	0.15554371
7	0x3f54bcce	0.83100593
8	0x3e998240	0.29982185
9	0x3f04ca1a	0.5187088
10	0xbe5fbb68	-0.21848834
11	0xbf02b295	-0.51053745
12	0xbdd58bcf	-0.10427057
13	0xbe2912e0	-0.16511106
14	0x3d7aaa69	0.061197672
15	0x3de6eead	0.112759925
16	0xbe694040	-0.22778416
17	0xbf347ec9	-0.7050596
18	0xbee17a87	-0.44038793
19	0x3e204cf3	0.15654354
20	0x3da353b1	0.07974947
21	0xbd1c2310	-0.038119376
22	0xbe8a3ed2	-0.27001053
23	0x3e96d9f9	0.29463175
24	0x3e089b2e	0.13340446
25	0x3e2c9269	0.16852726
26	0x3e1038cd	0.14084168
27	0x3dd5526d	0.10416112
28	0x3f1bf7e8	0.6092515
29	0xbddefb2a	-0.108877495
30	0x3dee97fc	0.116500825
31	0xbf006ae2	-0.5016309
32	0x3e9d86ec	0.30767
33	0x3e46cbcc	0.1941368
34	0x3eed3d98	0.46336055
35	0x3d9bf4f3	0.0761508
36	0xbd95d8c5	-0.07316736
37	0xbdb8ce18	-0.09023684
38	0x3d9640f6	0.07336609
39	0xbe435399	-0.19074859
40	0x3eece765	0.4627029
41	0x3f623361	0.8835965
42	0x3d494db7	0.04914638
43	0xbf0bdbd0	-0.5463228
44	0x3f4eb461	0.80743986
45	0x3f9b5dd7	1.2138013
46	0x3e7d9478	0.24763668
47	0xbe632d5b	-0.2218527
48	0xbd1ca1c6	-0.038240217
49	0xbd174a0f	-0.036935862
50	0x3e086eb7	0.13323484
51	0x3e0cf806	0.13766488
52	0x3f3f55de	0.747404
53	0x3f48cc57	0.784368
54	0xbf3e080e	-0.7423104
55	0xbf5020fd	-0.81300336
56	0x3ed58df1	0.41709855
57	0x3f237926	0.6385673
58	0xbf0e0644	-0.5547831
59	0xbeb4548c	-0.35220754
60	0xbdfd17ab	-0.1235803
61	0x3dd310a5	0.10305909
62	0xbe2e42ba	-0.17017642
63	0xbd51e95b	-0.051247936
64	0x3eb924f5	0.36161008
65	0x3d8098a3	0.06279113
66	0xbd431654	-0.047628716
67	0x3dbf798f	0.09349357
68	0xbdad3aa0	-0.084584475
69	0xbe83d932	-0.25751644
70	0xbf20babc	-0.62784934
71	0xbd0fb77d	-0.035087097
72	0xbc964ca8	-0.0183471
73	0xbdeedf75	-0.11663715
74	0xbe7a6084	-0.2445088
75	0x3dbe28bd	0.09285114
76	0xbd520e50	-0.05128318
77	0xbe39c8e5	-0.18143041
78	0xbe1d0e32	-0.15337446
79	0x3ccfef5e	0.025382694
80	0x3ec61bd8	0.38693118
81	0x3e9d8af9	0.3077009
82	0x3eca7997	0.3954589
83	0x3e8c9483	0.27457055
84	0x3e22b45c	0.15889114
85	0x3e1a58fc	0.15073007
86	0xbbb85e52	-0.005626478
87	0xbdad6928	-0.084673226
88	0xbed4638a	-0.41482192
89	0xbf20926b	-0.62723416
90	0x3dab42dd	0.083623625
91	0x3edacf8a	0.42736465
92	0xbebcf2f6	-0.36904114
93	0xbec7412c	-0.3891691
94	0x3f106852	0.5640918
95	0x3f182569	0.59432083
96	0xbe47bd12	-0.19505718
97	0x3e7b03bb	0.24513142
98	0x3da47487	0.08030038
99	0x3d6077eb	0.054801863
100	0xbde56776	-0.11201374
101	0x3f32a31c	0.69780135
102	0x3f3aa817	0.72912735
103	0x3eb28960	0.34870434
104	0xbe964486	-0.29349154
105	0x3ee9cb70	0.45663023
106	0x3ed08137	0.40723583
107	0xbd824ec4	-0.063626796
108	0xbd11d5cb	-0.03560428
109	0x3dc0bd55	0.09411112
110	0x3dbb7a51	0.091541894
111	0x3d7010fa	0.05860994
112	0x3e4f5bea	0.20249906
113	0x3eb2850b	0.3486713
114	0x3dfe9697	0.124310665
115	0xbf39fe91	-0.7265406
116	0x3f2d2ab3	0.6764328
117	0x3f01b353	0.5066425
118	0x3e7343b8	0.23756301
119	0x3ec35c1a	0.38156205
120	0x3d1e9f1f	0.03872597
121	0xbf10c515	-0.56550723
122	0xbd9bd80e	-0.076095685
123	0x3e75e0ca	0.24011531
124	0x3e119cd6	0.14219984
125	0x3e1e3301	0.15449144
126	0x3f566153	0.83742255
127	0x3f104387	0.5635304
128	0xbf50df5c	-0.8159082
129	0xbf706659	-0.9390617
130	0xbedf1640	-0.43571663
131	0xbf45404b	-0.7705123
132	0x3cf8cbd4	0.03037063
133	0x3e601beb	0.2188565
134	0x3db0c59a	0.086314395
135	0x3e122339	0.14271249
136	0xbf8d049c	-1.1017032
137	0x3dadd7a2	0.08488394
138	0xbe0fe95b	-0.14053862
139	0xbe1cd50a	-0.15315643
140	0xbf9266b8	-1.1437597
141	0x3eaafb7b	0.3339499
142	0x3dd7999e	0.10527347
143	0x3e070912	0.13187054

reupload_bias f4 [12, 3]
0	0xbefa46f0	-0.48882246
1	0x3eb7dbd0	0.3590989
2	0xbe08d911	-0.13364054
3	0x3edd8904	0.43268597
4	0xbe5e169c	-0.21688312
5	0x3eb09f83	0.34496698
6	0xbf15faae	-0.5858563
7	0x3f6d52ab	0.92704266
8	0x3d741cea	0.059597887
9	0x3eece363	0.46267232
10	0x3f0bc983	0.5460436
11	0x3fae575e	1.3620412
12	0xbec8a704	-0.39189923
13	0xbec4d5dc	-0.38444412
14	0x3e62e848	0.22158921
15	0x3ed4e82b	0.4158338
16	0x3bc9173a	0.006136802
17	0xbe6fc67b	-0.23415558
18	0xbe1cd56e	-0.15315792
19	0xbe48a1e1	-0.19593002
20	0xbbe8d966	-0.007105994
21	0xbf3329da	-0.69985735
22	0xbf1acd8c	-0.6046989
23	0xbe15fd6e	-0.14647457
24	0x3ef9bff1	0.48779252
25	0x3f1932e7	0.59843296
26	0xbf3702a3	-0.714884
27	0xbf070269	-0.5273805
28	0xbf590442	-0.8477212
29	0x3f0c826b	0.548865
30	0x3e3ce79d	0.18447728
31	0x3d844124	0.06457737
32	0xbfd2562a	-1.6432545
33	0xbeeada26	-0.4586956
34	0xbf07df9d	-0.5307558
35	0x3e8e9503	0.27848062

mlr.0.weight f4 [64, 12]
0	0x3b8a086f	0.004212431
1	0xbc8d331b	-0.017236283
2	0x3d8e21fc	0.06940076
3	0x3da5ad0d	0.080896474
4	0xbe863deb	-0.26219115
5	0xbdda2d76	-0.10653202
6	0x3e78efb0	0.24310184
7	0x3de64eb8	0.11245483
8	0xbc6b3dd1	-0.014358
9	0xbe323890	-0.1740439
10	0xbe34da04	-0.17661291
11	0xbe846555	-0.2585856
12	0xbe0687ad	-0.13137694
13	0xbda01a1d	-0.07817481
14	0x3e03c6f5	0.12868865
15	0x3ac20078	0.0014801165
16	0xbe9fb8ed	-0.31195775
17	0xbeeb8afe	-0.4600448
18	0xbe15c39a	-0.14625397
19	0x3ee84013	0.45361385
20	0x3d39b933	0.045342635
21	0xbe3227a3	-0.17397933
22	0x3e345c16	0.17613253
23	0xbd34a325	-0.0441009
24	0xbe5faf85	-0.21844299
25	0x3e38072c	0.17971486
26	0xbe270a88	-0.16312611
27	0xbdb571fb	-0.08859631
28	0xbea361e8	-0.31910634
29	0x3e262e14	0.16228515
30	0x3e3f4c66	0.18681487
31	0x3d992885	0.074784316
32	0xbe6e3d26	-0.23265514
33	0xbea1b0b9	-0.3158014
34	0xbe885cba	-0.26633245
35	0x3e3d3fdb	0.1848139
36	0x3e0debbe	0.1385946
37	0x3e78c064	0.24292141
38	0x3e1adb91	0.1512282
39	0x3d95a139	0.073061414
40	0xbb394397	-0.0028269046
41	0xbe60cee1	-0.21953918
42	0xbe7d43c4	-0.24732882
43	0xbe8a3eff	-0.27001187
44	0x3df2047c	0.118172616
45	0xbe1121bc	-0.14173025
46	0xbd6df6b7	-0.058096614
47	0xbe2a1f0c	-0.16613406
48	0xbd5776ac	-0.05260341
49	0xbe500e52	-0.20317963
50	0xbe4126e0	-0.18862486
51	0x3dc41c12	0.095756665
52	0xbdafb459	-0.085793205
53	0x3e367d1c	0.17821163
54	0xbdbdaa0e	-0.09260951
55	0xbe58d84d	-0.21176262
56	0xbd509fad	-0.05093353
57	0xbe0f4aff	-0.13993452
58	0xbdb4dfec	-0.08831772
59	0xbe8cb4e0	-0.27481747
60	0x3dcb5702	0.09928705
61	0xbe84ceea	-0.25939113
62	0x3e4992e9	0.19684948
63	0x3d345c3b	0.04403327
64	0x3e4b2d7a	0.19841567
65	0xbeb31a08	-0.34980798
66	0x3e887d09	0.26657894
67	0xbe30ea80	-0.17276955
68	0x3cddae79	0.027060734
69	0x3ea5961c	0.32341087
70	0xbc8429d6	-0.01613323
71	0xbe1fde01	-0.15612032
72	0xbc804252	-0.015656624
73	0xbe9a52b9	-0.30141237
74	0x3e5e047c	0.21681398
75	0xbec5c5b0	-0.38627386
76	0x3e7e4fcd	0.24835129
77	0x3e465e5b	0.19371931
78	0x3ece806c	0.40332353
79	0xbe8453be	-0.2584514
80	0xbe753532	-0.23946074
81	0x3dac0fb6	0.08401434
82	0x3e718c44	0.23588663
83	0xbee534f0	-0.4476695
84	0x3cb36547	0.021898879
85	0xbe6c9768	-0.23104632
86	0xbaa7b053	-0.0012793638
87	0xbe472a26	-0.19449672
88	0xbd99dce0	-0.07512832
89	0xbe2b4309	-0.1672479
90	0xbe88c7aa	-0.26714832
91	0x3e6fac59	0.23405589
92	0x3ea27d68	0.31736302
93	0xbe0aaeec	-0.1354329
94	0x3d71f47e	0.059071057
95	0xbdb0599b	-0.08610841
96	0xbe857964	-0.26069176
97	0xbe8fd516	-0.2809226
98	0x3ddbba19	0.10728855
99	0xbe224cc5	-0.15849598
100	0xbe3e095d	-0.1855826
101	0xbcb882e7	-0.022523357
102	0xbdc4e0e0	-0.09613204
103	0xbdbf4484	-0.0933924
104	0x3c17f82b	0.009275476
105	0xbd7acdf8	-0.061231583
106	0xbdcb8f4f	-0.09939443
107	0xbe0d8960	-0.13821936
108	0xbeccac2f	-0.39975116
109	0x3ea5fef4	0.32421076
110	0xbdedb865	-0.11607436
111	0x3deb85ab	0.115001045
112	0xbe337cbc	-0.17528051
113	0x3dc8ad61	0.097986944
114	0x3ea647c9	0.32476643
115	0x3e40376e	0.18771145
116	0xbeca2a42	-0.39485365
117	0x3ed91079	0.4239538
118	0x3e95ba34	0.29243624
119	0xbd2201af	-0.039552387
120	0xbd6dcc16	-0.05805596
121	0x3eca9ab0	0.39571142
122	0xbda501dd	-0.08056996
123	0x3e820357	0.25393173
124	0xbe78e93e	-0.24307725
125	0xbd726eaa	-0.05918757
126	0x3e1db083	0.15399365
127	0x3e6f5b4f	0.23374675
128	0xbe9c5e37	-0.3054063
129	0xbe97d59b	-0.29655156
130	0xbede55f4	-0.43424952
131	0xbe67a1c0	-0.22620296
132	0xbe64195c	-0.22275299
133	0xbd923431	-0.07138861
134	0x3e477ef6	0.19482026
135	0x3d45ea3d	0.04831909
136	0xbe60d667	-0.21956788
137	0xbe6d23db	-0.23158209
138	0x3e130e2b	0.14360873
139	0xbe5be1c8	-0.21472847
140	0xbd11966a	-0.035543837
141	0x3e0dcd7e	0.1384792
142	0xbe08cf0d	-0.13360234
143	0xbd00ee24	-0.03147711
144	0xbccdd859	-0.025127577
145	0xbd8bdea2	-0.06829573
146	0xbe15e162	-0.14636758
147	0xbe83c18e	-0.25733608
148	0xbe6ef3f9	-0.23335256
149	0xbe1e48c5	-0.15457447
150	0x3e8ec09f	0.27881333
151	0xbe0ec7e0	-0.13943434
152	0xbe468183	-0.19385342
153	0x3d8f4e19	0.06997318
154	0x3da2f152	0.079561844
155	0x3e21f6c5	0.15816791
156	0x3ea96106	0.33081836
157	0x3dc8f036	0.098114416
158	0xbea01e72	-0.31273228
159	0xbb810620	-0.0039374977
160	0x3e317eec	0.17333573
161	0xbdc8e3da	-0.09809084
162	0xbe85a727	-0.2610409
163	0x3eb6c3b4	0.35696185
164	0xbd46b8ad	-0.048515964
165	0xbeb90d92	-0.36143166
166	0xbe94ef9b	-0.29089054
167	0x3e3db758	0.18526971
168	0x3d0625b2	0.032750793
169	0x3d687049	0.05674771
170	0xbd77aecc	-0.060469434
171	0xbe78d316	-0.24299273
172	0xbed2d26c	-0.41176164
173	0xba68bfeb	-0.00088786957
174	0x3e4a2822	0.19741872
175	0x3e8bc1a0	0.27296162
176	0xbe85ffb8	-0.2617166
177	0x3e3aca9f	0.18241356
178	0xbe66e790	-0.22549272
179	0xbe45aaca	-0.19303432
180	0xbc21011a	-0.009826923
181	0x3b437852	0.0029826355
182	0x3e1b6d4c	0.15178412
183	0xbee407bd	-0.44537154
184	0x3d525057	0.05134615
185	0xbef39891	-0.47577336
186	0xba14e0b2	-0.0005679234
187	0x3ead80ed	0.33887425
188	0xbdd3daf6	-0.10344498
189	0x3e9e0e7e	0.30870432
190	0xbe5fbe71	-0.21849991
191	0xbe3516d6	-0.17684492
192	0x3e932e77	0.28746387
193	0xbdaef903	-0.08543589
194	0xbbf7465f	-0.0075462307
195	0xbe539d97	-0.20665585
196	0x3e8577d4	0.26067984
197	0x3e503a64	0.20334774
198	0x3e3d8f32	0.18511656
199	0xbed85f68	-0.4226029
200	0xbe64c9fc	-0.22342676
201	0x3bb901d7	0.0056459713
202	0x3dded700	0.10880852
203	0xbe8c6381	-0.27419665
204	0xbda56b12	-0.08077063
205	0x3e47a415	0.19496186
206	0x3cbc61a2	0.022995774
207	0x3c5564e2	0.013024541
208	0xbd917f0c	-0.071043104
209	0xbe85d901	-0.26142123
210	0xbe8af8bc	-0.27142894
211	0xbe0d4d87	-0.13799106
212	0xbe1642f2	-0.14673975
213	0x3db8314c	0.08993778
214	0xbdac1b4b	-0.08403643
215	0xbde74b0a	-0.112936094
216	0x3f00124b	0.5002791
217	0x3dc0840e	0.094001874
218	0x3e43b05d	0.19110246
219	0xbe689907	-0.22714625
220	0xbe03c40e	-0.12867758
221	0x3e324d0d	0.17412205
222	0xbe8150bd	-0.2525691
223	0xbea22d42	-0.31675154
224	0x3d3597fd	0.0443344
225	0xbe89b3b6	-0.2689492
226	0xbe6149fe	-0.22000882
227	0x3e6cd166	0.23126754
228	0x3ecec42b	0.4038404
229	0xbbde15c9	-0.0067774993
230	0xbe2dfd99	-0.16991271
231	0xbeea4b9b	-0.45760807
232	0xbe881960	-0.2658186
233	0x3d0cd24d	0.034380246
234	0x3d069738	0.032859057
235	0xbd0d98a3	-0.034569394
236	0xbe157c6a	-0.14598241
237	0x3eaaf53f	0.33390233
238	0xbe289a2b	-0.1646506
239	0x3e25e4e1	0.16200592
240	0x3b3d1e40	0.0028857142
241	0x3e1b65c0	0.15175533
242	0x3dddd7c0	0.10832167
243	0x3e4e1a37	0.20127188
244	0x3d9537ea	0.072860554
245	0x3ed3fd30	0.41404104
246	0x3e01e246	0.12683973
247	0x3eafc1b1	0.34327462
248	0x3ed0b46c	0.4076265
249	0xbdbcf8e2	-0.09227158
250	0xbe09326a	-0.13398138
251	0x3ecda315	0.40163484
252	0x3e67a38e	0.22620985
253	0xbe61b506	-0.22041711
254	0xbcb6cf13	-0.022315538
255	0xbe91c049	-0.28467014

mlr.0.bias f4 [64]
0	0xbda2912d	-0.07937846
1	0x3e46a9eb	0.19400756
2	0x3d6d9215	0.058000643
3	0xbd4e2dc2	-0.050336607
4	0x3d47be5c	0.048765525
5	0xbdc463f5	-0.09589378
6	0x3de043b1	0.10950411
7	0x3e260093	0.16211157
8	0x3d9ec429	0.07752258
9	0xbd67be95	-0.056578238
10	0x3e2f582b	0.17123477
11	0xbd2ab479	-0.04167602
12	0xbde62aa7	-0.11238604
13	0x3e1ce337	0.1532105
14	0x3e6f1b26	0.233502
15	0x3e1eea96	0.15519175
16	0x3d9c2ca1	0.076257
17	0xbdc989ea	-0.09840758
18	0x3dc8969f	0.09794354
19	0x3e28a28a	0.16468254
20	0xbe2b0d6f	-0.16704343
21	0xbd127c4e	-0.035763077
22	0xbdb0ecfd	-0.08638952
23	0x3e386da8	0.1801058
24	0xba4536df	-0.000752313
25	0xbd1f0b7e	-0.03882932
26	0xbcc5d5ab	-0.024149736
27	0xbbe6a2ea	-0.007038464
28	0xbd8eb0b8	-0.069673
29	0xbe1f2cb5	-0.15544398
30	0x3da1d147	0.079012446
31	0xbe14c80d	-0.14529438
32	0xbd81c91d	-0.063371874
33	0x3cdf10c7	0.02722968
34	0xbd46863d	-0.048467863
35	0xbe8b08f3	-0.27155265
36	0x3e6b0b0a	0.2295343
37	0xbe0645b8	-0.13112533
38	0xbe22bd3b	-0.15892498
39	0x3bed9df4	0.0072514955
40	0xbe1a43a0	-0.1506486
41	0xbe0f380f	-0.13986228
42	0xbdc73501	-0.097269066
43	0xbd7de845	-0.061989088
44	0xbdf6e8f9	-0.12056155
45	0xbda48409	-0.08032996
46	0xbc912d03	-0.017721659
47	0xbe6f3520	-0.2336011
48	0xbe32ec41	-0.17472936
49	0x3b8a066a	0.0042121904
50	0x3c93a041	0.018020751
51	0x3d7d5c3c	0.06185554
52	0xbdefc68b	-0.11707791
53	0x3db960a3	0.09051635
54	0x3d7ef4ba	0.06224511
55	0x3c98b936	0.018643003
56	0xbe2df575	-0.16988166
57	0xbe46959e	-0.19393012
58	0xbdf8d23f	-0.12149476
59	0xbd99d6f8	-0.07511705
60	0x3e04333b	0.12910168
61	0xbd308e8d	-0.043104697
62	0x3de653e0	0.11246467
63	0xbe2d8562	-0.16945413

mlr.2.weight f4 [208, 64]
0	0x3c9b9b60	0.018994987
1	0x3e3da573	0.18520145
2	0x3d3e0d2f	0.04639929
3	0xbd5ff024	-0.054672375
4	0xbd006380	-0.03134489
5	0x3e69924d	0.22809716
6	0xbe383bee	-0.17991611
7	0xbddc4197	-0.10754698
8	0x3d78837c	0.06067227
9	0x3ead4989	0.33845165
10	0x3f1038c4	0.5633662
11	0xbc608f60	-0.013706058
12	0xbdce1958	-0.10063428
13	0x3d70d16e	0.058793478
14	0x3d4b179b	0.04958306
15	0x3e97d954	0.29657996
16	0xbe81ae6a	-0.2532838
17	0xbd6f9318	-0.05848989
18	0xbede128a	-0.4337352
19	0xbe4c3b75	-0.19944556
20	0x3e255960	0.16147375
21	0xbd76c180	-0.06024313
22	0x3e1ec3f1	0.15504433
23	0x3e1d2fa0	0.15350199
24	0xbca51622	-0.020152155
25	0x3d6e612e	0.058198147
26	0x3dfc0300	0.1230526
27	0x3d807ebf	0.06274175
28	0xbc8e0b6e	-0.017339434
29	0x3dd8e625	0.105907716
30	0x3dbfc966	0.093645856
31	0xbdd79c4a	-0.10527857
32	0xbd356c20	-0.04429257
33	0x3d95d588	0.073161185
34	0x3e06e4e0	0.13173246
35	0x3df44d08	0.11928755
36	0x3dda68bc	0.10664508
37	0x3d8a7604	0.06760791
38	0xbd8d32f4	-0.06894484
39	0x3e290382	0.16505244
40	0x3db8b7c8	0.090194285
41	0x3e9f1276	0.31068772
42	0x3db85548	0.09000641
43	0x3e61acc2	0.22038558
44	0x3b1f7240	0.0024329573
45	0x3ebdbb23	0.37056836
46	0x3ef2cef5	0.4742352
47	0x3d5ef150	0.054429352
48	0xbd248ecc	-0.040175244
49	0xbb098e00	-0.002098918
50	0xbddd9292	-0.10818972
51	0xbebdfe20	-0.37107944
52	0xbd461735	-0.048361976
53	0xbd449fb9	-0.048003886
54	0xbd879771	-0.06620682
55	0x3ef3be57	0.47606155
56	0x3e47cf24	0.19512612
57	0x3e3dc99a	0.18533936
58	0x3e67fea2	0.22655728
59	0x3e16efdf	0.14739941
60	0xbea0a18a	-0.31373245
61	0xbdfd2fbe	-0.12362622
62	0x3d27f4ac	0.04100482
63	0x3d8f70bc	0.07003924
64	0xbddbc772	-0.107314005
65	0x3d094f5f	0.03352296
66	0x3dc9514a	0.09829958
67	0x3bf81f20	0.0075720698
68	0xbd9a3abe	-0.075307354
69	0x3e9d45c7	0.30717298
70	0xbe49ac3c	-0.19694608
71	0xbe398ede	-0.18120906
72	0xbdad210c	-0.08453569
73	0x3effcf8b	0.4996303
74	0x3e4f2fb2	0.20233038
75	0x3dfd4f80	0.12368679
76	0xbd58ef2c	-0.052962467
77	0x3d466f71	0.048446123
78	0x3d13ad5e	0.036054008
79	0x3dcf2f84	0.10116485
80	0xbe75c9ef	-0.24002813
81	0x3d524be8	0.05134192
82	0xbed6c560	-0.4194746
83	0xbe409f9a	-0.18810883
84	0x3e234fb5	0.15948375
85	0x3dc895fc	0.09794232
86	0x3d0606be	0.032721274
87	0xbc3e0213	-0.011597174
88	0x3df8fb73	0.12157335
89	0x3e7af42e	0.2450721
90	0x3d9936a8	0.07481128
91	0x3e0e3fd2	0.13891533
92	0xbd7abf9b	-0.061217885
93	0x3d4d11af	0.050065693
94	0x3dee5f9f	0.11639332
95	0xbd962f34	-0.07333222
96	0x3e580f84	0.21099669
97	0xbdf60282	-0.12012197
98	0x3ec5dfe8	0.3864739
99	0x3dff35c2	0.12461425
100	0x3e6c6cf9	0.23088445
101	0x3d2e94c4	0.042622343
102	0xbde4d724	-0.11173847
103	0x3e279f8a	0.16369453
104	0xbcaf2718	-0.021380946
105	0x3e901a63	0.2814513
106	0x3dfcb6b4	0.12339535
107	0x3d208d04	0.039196983
108	0xbc10e420	-0.008843452
109	0x3ebec503	0.37259683
110	0x3ee42eb7	0.4456689
111	0xbdb51e10	-0.088436246
112	0x3ca68528	0.020327166
113	0xbc891100	-0.016731739
114	0x3cf3f6ef	0.029780833
115	0xbd834cf7	-0.06411164
116	0x3d85618b	0.065127455
117	0xbd91c549	-0.07117707
118	0xbd43f638	-0.047842234
119	0x3db6e0f5	0.08929626
120	0x3e85abdc	0.2610768
121	0x3e6883cb	0.22706525
122	0x3ce58fee	0.028022733
123	0x3e6e4c4e	0.23271295
124	0xbd56568a	-0.052328624
125	0x3cbe0448	0.0231954
126	0xbd99405d	-0.074829794
127	0x3c9a6c80	0.018850565
128	0x3df6aa92	0.120442525
129	0x3e95ec27	0.29281732
130	0xbddeae0a	-0.10873039
131	0x3de9aea6	0.11410265
132	0x3c1ebd70	0.00968872
133	0x3ea34b4e	0.3189339
134	0xbde9cd28	-0.114160836
135	0xbdfa1839	-0.12211651
136	0xbdc78f98	-0.09744185
137	0x3ee668fc	0.45001972
138	0x3efdf907	0.49604055
139	0x3c1987d0	0.009370759
140	0xbdb2e22c	-0.08734545
141	0xbc7adb92	-0.015311139
142	0x3e168546	0.14699277
143	0x3e83228e	0.256123
144	0xbe83958f	-0.25700042
145	0x3c2186e0	0.009858817
146	0xbe8ba284	-0.27272427
147	0xbe40a8c2	-0.18814376
148	0x3e80e040	0.2517109
149	0x3d4ced3c	0.05003093
150	0x3e1eaf5e	0.15496585
151	0xbc9a71b6	-0.01885305
152	0x3e3ccbc4	0.18437105
153	0x3e27f275	0.16401084
154	0xbddf43f2	-0.109016314
155	0xbbe7aa24	-0.007069843
156	0x3c8e5a3a	0.017377008
157	0x3e059d76	0.13048348
158	0x3e92c37e	0.28664774
159	0xbceaf740	-0.028682351
160	0x3d70a842	0.058754213
161	0x3da68ebe	0.08132695
162	0x3d1014f0	0.035176218
163	0x3dcd0534	0.10010758
164	0x3e2b39e3	0.16721301
165	0xbdc47ac2	-0.09593727
166	0xbdb44678	-0.08802503
167	0x3cb582a3	0.022157019
168	0xbd8c4b0e	-0.06850253
169	0x3e7a790e	0.24460241
170	0xbc1a26e0	-0.009408683
171	0x3de803f2	0.113288775
172	0xbd8157f8	-0.06315607
173	0x3e9e29d1	0.30891278
174	0x3ed9c9bd	0.42536727
175	0x3dfb2552	0.12262978
176	0xbd3dc310	-0.046328604
177	0xbdb74bd6	-0.089500114
178	0x3d59ed0c	0.05320458
179	0xbeb1cc45	-0.34726158
180	0x3e0392c7	0.1284896
181	0x3d886923	0.06660678
182	0x3e08e9c4	0.13370425
183	0x3e9a3532	0.3011871
184	0x3e66458f	0.22487472
185	0x3e7a5207	0.24445353
186	0x3d76ffad	0.060302425
187	0x3e57489e	0.21023795
188	0xbdb8ab98	-0.09017104
189	0x3ab36c80	0.0013688952
190	0x3d618496	0.055058084
191	0xbd330198	-0.04370269
192	0xbddf4770	-0.109022975
193	0xbe6e34ec	-0.23262376
194	0x3d44f2b3	0.04808302
195	0xbda74fa4	-0.08169487
196	0x3d7851e0	0.060624957
197	0x3d06f1b2	0.032945342
198	0xbe970257	-0.29493973
199	0xbe0558f1	-0.1302221
200	0x3d0b6574	0.0340323
201	0x3cdf0023	0.027221745
202	0x3ea417e5	0.3204948
203	0x3cae8178	0.02130197
204	0x3d0b38f0	0.033989847
205	0x3dd2a5f7	0.102855615
206	0xbe39d89b	-0.18149035
207	0xbe9b03ea	-0.30276424
208	0xbe4faf96	-0.20281824
209	0x3d0ba01c	0.03408824
210	0xbd992037	-0.074768476
211	0xbe1b5571	-0.15169312
212	0x3e30686c	0.17227334
213	0xbb9529a0	-0.004552081
214	0x3d2df0a4	0.04246582
215	0xbd07c42c	-0.03314607
216	0x3eba8bd5	0.36434808
217	0x3d7142be	0.05890154
218	0xbdec9a56	-0.11552875
219	0x3d8becf9	0.06832308
220	0xbd66ed48	-0.056378633
221	0x3e1f7eb2	0.15575674
222	0x3f09a61e	0.537691
223	0xbdfdef66	-0.12399177
224	0x3d8806e5	0.0664194
225	0xbc4427f0	-0.0119724125
226	0x3e2905f2	0.16506174
227	0x3deb3532	0.114847556
228	0x3e307155	0.17230733
229	0x3da47574	0.08030215
230	0x3d20e161	0.039277438
231	0xbccf1b53	-0.025281584
232	0x3cf0a030	0.029373258
233	0x3ef6176a	0.4806474
234	0xbda77324	-0.08176258
235	0x3c9e4f7d	0.019325012
236	0x3dfa95da	0.12235613
237	0x3eb36ead	0.35045376
238	0x3eb90d8f	0.36143157
239	0x3d9a0bf6	0.075218126
240	0xbc8300a0	-0.015991509
241	0xbdfc65de	-0.12324117
242	0x3c0f54c2	0.008748235
243	0x3d8a9ca5	0.06768159
244	0x3d11f9c5	0.03563859
245	0x3cd0f0d0	0.025505453
246	0xbdd93cdf	-0.10607313
247	0xbdb6999f	-0.0891602
248	0x3eb6ab72	0.35677677
249	0x3ea3a6c1	0.3196316
250	0x3dfd3c54	0.12365022
251	0x3dbaf16a	0.09128077
252	0xbdc293ab	-0.09500822
253	0xbcffded0	-0.031234175
254	0xbc76d81b	-0.015066172
255	0xbd8e75e0	-0.069560766

mlr.2.bias f4 [208]
0	0x3db4d014	0.0882875
1	0x3d607108	0.054795295
2	0xbcd74c87	-0.026281608
3	0x3dba9ad1	0.0911156
4	0x3dfb3160	0.12265277
5	0x3dd6c6d4	0.10487142
6	0x3e18110b	0.14850251
7	0x3d00a378	0.031405896
8	0x3dba4082	0.09094335
9	0x3e01db46	0.12681302
10	0x3dd1c30c	0.1024228
11	0x3cfc175d	0.03077286
12	0x3dcc872c	0.099867195
13	0xbd232625	-0.0398313
14	0x3cadc3d8	0.02121155
15	0x3d5409e8	0.05176726
16	0x3de8e0d8	0.113710105
17	0x3d847088	0.06466776
18	0xbbca8380	-0.006180227
19	0x3ce52dfd	0.02797603
20	0x3daa5479	0.08316893
21	0x3d045d4b	0.032315534
22	0x3dd333ec	0.10312638
23	0x3d6220ce	0.055207066
24	0x3dc503e7	0.09619885
25	0x3da77348	0.08176285
26	0x3d836163	0.064150594
27	0x3da28e9c	0.07937357
28	0x3d46b320	0.04851067
29	0x3db28f16	0.08718698
30	0x3d255825	0.040367264
31	0x3da901af	0.08252274
32	0x3dbc59e2	0.09196831
33	0xbbff03f6	-0.0077824546
34	0x3d677795	0.056510527
35	0x3c2b4fd6	0.010456046
36	0x3d46ef64	0.048568144
37	0x3cf30a77	0.029668076
38	0x3dcdced2	0.100492135
39	0xbcecb67f	-0.028895615
40	0x3d1e3679	0.038626168
41	0x3db84841	0.08998156
42	0x3d6473a6	0.055774353
43	0x3da61c84	0.08110908
44	0xbc6f633b	-0.014611061
45	0x3e008d8b	0.12553994
46	0x3c1762f7	0.009239904
47	0x3d218393	0.03943212
48	0x3c829895	0.015941897
49	0x3e00ca0a	0.12577072
50	0x3dc52e2f	0.096279494
51	0x3cf4454f	0.029818205
52	0x3df5a629	0.11994583
53	0x3e10565e	0.14095446
54	0x3d064cd5	0.032788116
55	0x3d9a6a11	0.07539762
56	0x3d8c76ed	0.06858621
57	0x3de6487b	0.11244293
58	0x3dc87ceb	0.09789451
59	0x3e0f9a1e	0.14023635
60	0x3dbe6381	0.092963226
61	0x3ddc9ecd	0.10772476
62	0x3d8f04ff	0.06983375
63	0x3e029c10	0.12754846
64	0x3d9168e2	0.07100083
65	0x3ca3ac89	0.019979732
66	0x3dd6cb49	0.10487992
67	0x3ab06c7e	0.0013460068
68	0x3cb223d2	0.021745596
69	0xbc871a7c	-0.01649212
70	0x3dcffb07	0.101553015
71	0x3dd31bac	0.10308012
72	0x3db68120	0.089113474
73	0x3d2af444	0.041736856
74	0xbaa724af	-0.0012752021
75	0x3d9331d1	0.07187236
76	0x3cf6e0df	0.030136524
77	0x3d830925	0.063982286
78	0x3df3ac38	0.118980825
79	0x3e14f2f0	0.14545798
80	0x3e275dfe	0.16344449
81	0x3dc551e1	0.09634758
82	0x3df2f686	0.11863427
83	0x3de61abf	0.1123557
84	0x3dc46868	0.095902264
85	0x3d9c1e82	0.076230064
86	0x3daee46f	0.08539664
87	0x3df099a9	0.11748058
88	0x3e01f9cf	0.1269295
89	0x3d791b8b	0.060817283
90	0x3dc72b4d	0.09725056
91	0x3dfd831d	0.123785235
92	0x3e121123	0.1426435
93	0x3d4c2088	0.04983571
94	0x3e26c48c	0.16285914
95	0x3e05adf7	0.13054644
96	0x3d03adc1	0.032148127
97	0x3e0f1457	0.13972603
98	0x3dee47c7	0.11634784
99	0x3d9a2b04	0.07527736
100	0x3d0d0ad9	0.034434173
101	0x3ce23d2a	0.027617056
102	0x3e0853a9	0.13313164
103	0x3d5b0235	0.0534689
104	0x3e24f984	0.16110808
105	0x3df80b4f	0.12111532
106	0x3db1aa85	0.08675102
107	0x3e501056	0.20318732
108	0x3d608062	0.054809935
109	0x3df8edbc	0.12154719
110	0x3e5c78fd	0.21530528
111	0x3e21867f	0.15773962
112	0x3e6a3f49	0.22875704
113	0x3e3beba8	0.18351614
114	0x3dd5ecb7	0.104455404
115	0x3e3dddf8	0.18541706
116	0x3e0024f6	0.125141
117	0x3e3374f3	0.17525081
118	0x3d5aaca2	0.05338729
119	0x3e0a4d55	0.13506062
120	0x3ddfef1f	0.109342806
121	0x3e055c4e	0.13023493
122	0x3d9c57f2	0.07633962
123	0x3e1aa609	0.151024
124	0x3e1fd1b2	0.15607336
125	0x3e32a2a1	0.1744485
126	0x3d53240b	0.051548045
127	0x3d5ba8bb	0.05362771
128	0x3e066912	0.13126019
129	0x3c5d8d19	0.01352241
130	0x3dacb5a1	0.084330805
131	0x3e08bd8b	0.13353555
132	0x3e2d84cb	0.16945188
133	0x3dc9665d	0.09833977
134	0x3db247f8	0.08705133
135	0x3dae9628	0.08524734
136	0x3dcfcbf4	0.10146323
137	0x3e1ab839	0.15109338
138	0x3d5a4219	0.053285692
139	0x3e11ac94	0.1422599
140	0x3e282a65	0.16422422
141	0x3e085983	0.13315396
142	0x3e0a1791	0.13485552
143	0x3dcb77c3	0.09934952
144	0x3d9f65d1	0.07783092
145	0x3d8f277c	0.06989953
146	0x3cbca219	0.023026513
147	0xbc5f7cbc	-0.013640579
148	0x3dad943c	0.08475539
149	0x3c976df3	0.018485045
150	0x3cec8bd4	0.028875269
151	0x3dcc8d37	0.09987872
152	0x3d575ee5	0.052580733
153	0x3e3a72eb	0.182079
154	0x3e17c5ca	0.14821544
155	0x3ba2c034	0.00496676
156	0x3e12f032	0.1434944
157	0x3d71cfda	0.059036113
158	0x3e4ae7cf	0.1981499
159	0x3e1a6b95	0.15080102
160	0x3dbed68d	0.09318266
161	0x3e31e90b	0.17374055
162	0x3d6f811d	0.05847274
163	0x3d52f7bf	0.0515058
164	0x3e02f412	0.12788418
165	0x3df4aa5c	0.11946556
166	0x3d80e9bb	0.062945805
167	0x3dc4404f	0.095825784
168	0xbc276ca8	-0.010218777
169	0xbbedbe03	-0.007255317
170	0xbc060144	-0.008179013
171	0xbcdf2e85	-0.027243862
172	0x3dab487f	0.08363437
173	0xbc832a87	-0.01601149
174	0xbcbd441f	-0.023103772
175	0x3cfb50c8	0.030678168
176	0x3df454f8	0.11930269
177	0x3e1c6d83	0.1527615
178	0x3de70b31	0.112814315
179	0x3d51a0e1	0.051178817
180	0x3dd676d4	0.104718834
181	0x3d83ef93	0.064421795
182	0x3e2b2af6	0.16715607
183	0x3cf9b9c4	0.030484088
184	0x3e0b1c64	0.13585049
185	0x3e1e8cef	0.1548345
186	0x3d434980	0.047677517
187	0x3e1d73bc	0.1537618
188	0x3d996e77	0.074917726
189	0x3e0020b4	0.12512475
190	0x3d1cd7bb	0.038291674
191	0x3d866c48	0.06563622
192	0x3c684bfe	0.014178274
193	0x3d51a068	0.051178366
194	0x3d8f6200	0.07001114
195	0x3d8dfee5	0.06933383
196	0xbcaf39f8	-0.021389946
197	0xbcbb861a	-0.022891093
198	0x3d5ceea6	0.05393853
199	0xbd024bfe	-0.031810753
200	0xbcc306ae	-0.023806896
201	0xbd1b8779	-0.037970994
202	0x3e017af4	0.12644559
203	0x3e0b11c4	0.13580996
204	0x3d3eb815	0.046562273
205	0x3df05f12	0.11736883
206	0x3e1cb709	0.15304197
207	0x3dfc3543	0.12314846
