pqc_reup_v1_output/best_model_epoch_38.pth (torch, 61285 bytes, 6 tensors)

reupload_weights f4 [12, 3, 4]
0	0x3e14fd6b	0.14549796
1	0x3df062e5	0.11737613
2	0x3e4c0e5b	0.19927351
3	0xbe346157	-0.17615257
4	0x3ebcb329	0.36855438
5	0x3e65a940	0.22427845
6	0x3eb46965	0.3523666
7	0x3f6a4b98	0.91521597
8	0x3ca32d65	0.019919107
9	0x3e9fb02b	0.31189093
10	0x3da8f166	0.08249168
11	0xbe7665bc	-0.24062246
12	0xbe21400e	-0.15747091
13	0xbe3f1c1d	-0.18663068
14	0x3baba2fe	0.005237936
15	0x3d8f4321	0.06995226
16	0xbe83bf92	-0.25732094
17	0xbf08ccca	-0.53437483
18	0xbdf88100	-0.1213398
19	0x3d50cdfb	0.05097769
20	0xbc97a5ea	-0.018511731
21	0x3db7a880	0.08967686
22	0x3d9431b6	0.07236044
23	0x3e6c1023	0.2305303
24	0x3d5940f4	0.05304046
25	0x3daac151	0.083376534
26	0x3e217b9b	0.15769808
27	0x3d802cc6	0.0625854
28	0x3f258794	0.6466
29	0x3e2a159d	0.16609807
30	0x3e5b9283	0.21442609
31	0x3bceaa44	0.0063069183
32	0xbe11495c	-0.1418814
33	0xbc5180d5	-0.012787064
34	0x3e865f48	0.2624457
35	0x3e41a2a1	0.18909694
36	0x3b72d219	0.0037051497
37	0xbe3e8890	-0.18606782
38	0x3d613250	0.054979622
39	0xbe574ea2	-0.2102609
40	0x3ee41883	0.4454995
41	0x3f5aa7ad	0.854121
42	0x3ec66b8c	0.38753927
43	0xbeae416c	-0.34034288
44	0x3f2c7c22	0.6737691
45	0x3f80e40e	1.0069597
46	0x3f13a953	0.57680243
47	0xbe14e890	-0.1454184
48	0xbd6d419c	-0.057923898
49	0xbac319dc	-0.0014885026
50	0x3e09d074	0.13458425
51	0x3e4a251e	0.19740722
52	0x3ea144b5	0.31497732
53	0x3f0e0830	0.55481243
54	0xbef11095	-0.47082964
55	0xbf07b013	-0.5300304
56	0x3e19b028	0.15008605
57	0x3ebd6ba8	0.36996198
58	0xbea88ea9	-0.3292134
59	0xbe8679f6	-0.26264924
60	0xbdbb33af	-0.09140717
61	0x3de68b78	0.1125707
62	0xbe3b5490	-0.18293977
63	0xbce35e48	-0.027754918
64	0x3ecd1247	0.40053007
65	0x3d379a0a	0.044824637
66	0x3daf18f4	0.08549681
67	0x3dd8bed5	0.10583273
68	0x3da03279	0.07822127
69	0xbe524ac7	-0.20536338
70	0xbec26b9c	-0.37972724
71	0x3d83f827	0.06443816
72	0xbdb79604	-0.0896416
73	0xbd9de209	-0.077091284
74	0xbdfa7985	-0.12230209
75	0x3d38a3fc	0.045078263
76	0x3dcd67e6	0.10029583
77	0xbdd62a2d	-0.10457263
78	0xbe422942	-0.18961051
79	0xbbc2b98b	-0.0059425286
80	0x3ee5fba0	0.44918537
81	0x3e9ad596	0.30241078
82	0x3e8c97aa	0.2745946
83	0x3e6dbabe	0.23215768
84	0x3ded16ec	0.115766376
85	0x3dd525bb	0.10407587
86	0x3cccf982	0.025021318
87	0xbd5dd67c	-0.054159626
88	0xbea3f9e8	-0.320266
89	0xbeef5ddc	-0.46751297
90	0x3e840f98	0.25793147
91	0x3ea96a76	0.33089036
92	0xbeeab7ca	-0.45843345
93	0xbec6b1df	-0.3880758
94	0x3f122e6d	0.5710209
95	0x3ed0c197	0.40772697
96	0xbe8b9ea5	-0.27269474
97	0x3e2670cd	0.16253968
98	0x3c979089	0.018501537
99	0x3d4eaa18	0.050455183
100	0xbe6d9636	-0.23201832
101	0x3f1724bc	0.5904043
102	0x3f3bed30	0.73408794
103	0x3ecf73c0	0.40517998
104	0xbf193282	-0.59842694
105	0x3e17317c	0.1476497
106	0x3ea23631	0.3168197
107	0xbd5a1f23	-0.05325235
108	0xbd7ddac8	-0.061976224
109	0x3d69a618	0.057043165
110	0x3d3a5554	0.04549153
111	0x3df25cb2	0.118340865
112	0x3e09320d	0.13397999
113	0x3dad0aad	0.08449302
114	0x3c753481	0.014966131
115	0xbf769849	-0.9632612
116	0x3f04db03	0.51896685
117	0x3ea0c465	0.31399837
118	0x3e3cea8c	0.18448848
119	0x3e660ceb	0.22465865
120	0xbd85a78b	-0.06526097
121	0xbe2fdca9	-0.17174019
122	0x3d65d8d3	0.056114983
123	0x3d43f125	0.047837395
124	0x3a71e254	0.0009227146
125	0xbd8d1995	-0.06889645
126	0x3f24c854	0.64368176
127	0x3eddaa96	0.4329421
128	0xbf12897f	-0.5724105
129	0xbf411afe	-0.7543181
130	0xbe79df70	-0.24401641
131	0xbeeb719d	-0.45985118
132	0xbd5470c6	-0.05186536
133	0x3e726c77	0.23674189
134	0x3da7a8cf	0.081864946
135	0x3dae33f1	0.08506001
136	0xbf5bd308	-0.85868883
137	0x3b3c3c0f	0.002872232
138	0xbee19e84	-0.4406625
139	0xbe162c37	-0.14665304
140	0xbf7a5ba5	-0.9779609
141	0x3e54552a	0.20735613
142	0xbe3c1a8e	-0.18369505
143	0xbc6ae03c	-0.014335688

reupload_bias f4 [12, 3]
0	0xbedfbe2c	-0.43699777
1	0x3f3b2e93	0.7311794
2	0x3da7466f	0.08167731
3	0x3ed265c6	0.41093272
4	0xbea198ec	-0.31561983
5	0x3e404bec	0.18778962
6	0xbecb332d	-0.39687482
7	0x3f77b509	0.9676061
8	0x3d92e9d7	0.07173508
9	0x3eb396fb	0.35076126
10	0x3ea92a39	0.33040026
11	0x3f7bb831	0.9832793
12	0xbecd2354	-0.40066016
13	0xbe2795fb	-0.16365807
14	0xbdf8919a	-0.12137146
15	0x3e8ed43e	0.27896303
16	0xbe51f603	-0.20504002
17	0xbe8d1ff2	-0.27563435
18	0xbe302e99	-0.17205276
19	0xbe5cd8e5	-0.21567114
20	0xbd1b3ee2	-0.037901767
21	0xbf1c4eee	-0.6105794
22	0xbedda61f	-0.43290803
23	0xbddd034e	-0.10791646
24	0x3ef7061d	0.48246852
25	0x3f1b5f8b	0.6069266
26	0xbf168fd4	-0.58813214
27	0xbed3fedf	-0.4140539
28	0xbf430f4f	-0.76195234
29	0x3ed3355b	0.41251644
30	0x3e7d7423	0.24751334
31	0x3d72b4fd	0.059254635
32	0xbf90267b	-1.1261743
33	0xbeda1b2f	-0.42598864
34	0xbf04d2a1	-0.51883894
35	0xbe1d1681	-0.15340616

mlr.0.weight f4 [64, 12]
0	0x3b8a086f	0.004212431
1	0xbc8d331b	-0.017236283
2	0x3d8e21fc	0.06940076
3	0x3da5ad0d	0.080896474
4	0xbe863deb	-0.26219115
5	0xbdda2d76	-0.10653202
6	0x3e78efb0	0.24310184
7	0x3de64eb8	0.11245483
8	0xbc6b3dd1	-0.014358
9	0xbe323890	-0.1740439
10	0xbe34da04	-0.17661291
11	0xbe846555	-0.2585856
12	0xbe1f856c	-0.1557824
13	0x3c72452d	0.014787001
14	0x3de47540	0.11155176
15	0x3dacce0f	0.0843774
16	0xbe9b5ceb	-0.30344328
17	0xbe88e527	-0.2673733
18	0xbdfe0c3c	-0.12404677
19	0x3eaf0b0b	0.34188113
20	0x3c856da1	0.016287627
21	0xbde78397	-0.11304396
22	0x3dd0677d	0.10175989
23	0xbdaddfec	-0.08489975
24	0xbe5faf85	-0.21844299
25	0x3e38072c	0.17971486
26	0xbe270a88	-0.16312611
27	0xbdb571fb	-0.08859631
28	0xbea361e8	-0.31910634
29	0x3e262e14	0.16228515
30	0x3e3f4c66	0.18681487
31	0x3d992885	0.074784316
32	0xbe6e3d26	-0.23265514
33	0xbea1b0b9	-0.3158014
34	0xbe885cba	-0.26633245
35	0x3e3d3fdb	0.1848139
36	0x3e0debbe	0.1385946
37	0x3e78c064	0.24292141
38	0x3e1adb91	0.1512282
39	0x3d95a139	0.073061414
40	0xbb394397	-0.0028269046
41	0xbe60cee1	-0.21953918
42	0xbe7d43c4	-0.24732882
43	0xbe8a3eff	-0.27001187
44	0x3df2047c	0.118172616
45	0xbe1121bc	-0.14173025
46	0xbd6df6b7	-0.058096614
47	0xbe2a1f0c	-0.16613406
48	0xbd5776ac	-0.05260341
49	0xbe500e52	-0.20317963
50	0xbe4126e0	-0.18862486
51	0x3dc41c12	0.095756665
52	0xbdafb459	-0.085793205
53	0x3e367d1c	0.17821163
54	0xbdbdaa0e	-0.09260951
55	0xbe58d84d	-0.21176262
56	0xbd509fad	-0.05093353
57	0xbe0f4aff	-0.13993452
58	0xbdb4dfec	-0.08831772
59	0xbe8cb4e0	-0.27481747
60	0x3e05dde3	0.13072924
61	0xbe66ea5b	-0.22550337
62	0x3e1f2a6c	0.15543526
63	0x3db09059	0.08621282
64	0x3e47cc41	0.1951151
65	0xbe6b4869	-0.22976841
66	0x3e6fa08e	0.2340109
67	0xbe68dcf5	-0.22740538
68	0x3d6cdd28	0.0578281
69	0x3e88473d	0.2661685
70	0xbd44ae91	-0.048018042
71	0xbdc2d690	-0.09513581
72	0xbcb9cb7d	-0.022680039
73	0xbe917f93	-0.28417644
74	0x3e6a1008	0.22857678
75	0xbec73c08	-0.38912988
76	0x3e712d87	0.23552524
77	0x3e4caa74	0.19986898
78	0x3ec4a607	0.3840792
79	0xbe5c57e1	-0.21517898
80	0xbe73056f	-0.23732542
81	0x3d60c2d7	0.054873314
82	0x3e8db344	0.2767583
83	0xbed671e4	-0.41883767
84	0xbd8631bb	-0.06552454
85	0xbe313377	-0.17304789
86	0xbcced62a	-0.025248606
87	0xbe117ffd	-0.1420898
88	0xbdf1aa87	-0.11800104
89	0xbdbbaf0d	-0.09164248
90	0xbe8c74de	-0.27432913
91	0x3e728b75	0.23686011
92	0x3e77d042	0.24200538
93	0xbd397beb	-0.045284193
94	0xbd06a7da	-0.03287492
95	0xbdf14881	-0.11781407
96	0xbe857964	-0.26069176
97	0xbe8fd516	-0.2809226
98	0x3ddbba19	0.10728855
99	0xbe224cc5	-0.15849598
100	0xbe3e095d	-0.1855826
101	0xbcb882e7	-0.022523357
102	0xbdc4e0e0	-0.09613204
103	0xbdbf4484	-0.0933924
104	0x3c17f82b	0.009275476
105	0xbd7acdf8	-0.061231583
106	0xbdcb8f4f	-0.09939443
107	0xbe0d8960	-0.13821936
108	0xbe96bbad	-0.2944006
109	0x3e859f58	0.26098132
110	0xbe10c78a	-0.14138618
111	0x3dd6d9f8	0.10490793
112	0xbe067fc4	-0.13134676
113	0x3d4b7864	0.04967536
114	0x3e824631	0.25444177
115	0x3e1f098e	0.15530989
116	0xbe97e807	-0.2966921
117	0x3e24848a	0.16066185
118	0x3e6dc30b	0.23218934
119	0x3d9231f5	0.07138435
120	0x3e022c07	0.12712108
121	0x3e9b081e	0.3027963
122	0xbdbbfba0	-0.09178853
123	0x3df99f43	0.1218858
124	0xbe6b66bb	-0.22988407
125	0xbd5f08e8	-0.054451853
126	0x3e1e854c	0.15480536
127	0x3e401cfb	0.18761055
128	0xbe5f575f	-0.21810673
129	0xbe95fd3b	-0.29294762
130	0xbe9c11f5	-0.3048245
131	0xbe6949ba	-0.2278203
132	0xbe64195c	-0.22275299
133	0xbd923431	-0.07138861
134	0x3e477ef6	0.19482026
135	0x3d45ea3d	0.04831909
136	0xbe60d667	-0.21956788
137	0xbe6d23db	-0.23158209
138	0x3e130e2b	0.14360873
139	0xbe5be1c8	-0.21472847
140	0xbd11966a	-0.035543837
141	0x3e0dcd7e	0.1384792
142	0xbe08cf0d	-0.13360234
143	0xbd00ee24	-0.03147711
144	0xbccdd859	-0.025127577
145	0xbd8bdea2	-0.06829573
146	0xbe15e162	-0.14636758
147	0xbe83c18e	-0.25733608
148	0xbe6ef3f9	-0.23335256
149	0xbe1e48c5	-0.15457447
150	0x3e8ec09f	0.27881333
151	0xbe0ec7e0	-0.13943434
152	0xbe468183	-0.19385342
153	0x3d8f4e19	0.06997318
154	0x3da2f152	0.079561844
155	0x3e21f6c5	0.15816791
156	0x3e79de00	0.24401093
157	0x3e394853	0.18093996
158	0xbe992f11	-0.2991872
159	0x3d923c9a	0.07140465
160	0x3e31f6ce	0.17379305
161	0xbcb14102	-0.021637443
162	0xbe4a925d	-0.19782396
163	0x3ec384e8	0.38187337
164	0xbda91683	-0.08256247
165	0xbe1ad030	-0.1511848
166	0xbe85ab15	-0.26107088
167	0x3deee34a	0.11664446
168	0x3c7fbf31	0.015609548
169	0x3db2825d	0.08716271
170	0xbbf6d6e6	-0.007532942
171	0xbe1d2044	-0.1534434
172	0xbea0f782	-0.31438833
173	0x3cbd62b5	0.023118356
174	0x3e57d11b	0.21075861
175	0x3e53c77a	0.20681563
176	0xbe5e0218	-0.21680486
177	0xbc536175	-0.012901654
178	0xbea5d3f4	-0.3238827
179	0xbe14d62d	-0.14534827
180	0xbcd7849a	-0.026308347
181	0x3d873ea6	0.06603746
182	0x3e16c8f9	0.14725102
183	0xbead818e	-0.33887905
184	0x3ddbbd23	0.10729434
185	0xbe96a953	-0.2942606
186	0x3c7eee9b	0.015559818
187	0x3e5de898	0.21670759
188	0xbda17489	-0.078835554
189	0x3e4fd911	0.20297648
190	0xbea00bcc	-0.31259
191	0xbe21b189	-0.1579038
192	0x3e5e8914	0.21731979
193	0xbdc74f5c	-0.097319335
194	0x3cc0b30c	0.023522876
195	0xbe582121	-0.21106388
196	0x3e81ec95	0.2537581
197	0x3e06a84a	0.13150135
198	0x3e415313	0.18879347
199	0xbea04b4b	-0.31307444
200	0xbe6b2aad	-0.22965498
201	0x3bab18f6	0.0052214814
202	0x3e3a0d1f	0.18169068
203	0xbe83fb10	-0.25777483
204	0xbda56b12	-0.08077063
205	0x3e47a415	0.19496186
206	0x3cbc61a2	0.022995774
207	0x3c5564e2	0.013024541
208	0xbd917f0c	-0.071043104
209	0xbe85d901	-0.26142123
210	0xbe8af8bc	-0.27142894
211	0xbe0d4d87	-0.13799106
212	0xbe1642f2	-0.14673975
213	0x3db8314c	0.08993778
214	0xbdac1b4b	-0.08403643
215	0xbde74b0a	-0.112936094
216	0x3eaaf0a9	0.33386734
217	0x3dc151c8	0.09439427
218	0x3e5b0a52	0.21390656
219	0xbe2fab61	-0.1715522
220	0xbe041ad9	-0.12900867
221	0x3ddd9eb4	0.10821286
222	0xbe40ff02	-0.18847278
223	0xbe51ac43	-0.20475869
224	0xbbcd9a69	-0.0062745106
225	0xbdd38d54	-0.103296906
226	0xbe37b140	-0.1793871
227	0x3e34d7b9	0.17660417
228	0x3e84d44f	0.2594323
229	0x3c01331c	0.007885721
230	0xbdd625ff	-0.10456466
231	0xbea9ba59	-0.33149984
232	0xbe2d68c0	-0.1693449
233	0x3cfd9bfb	0.030958166
234	0x3da4dfe1	0.08050514
235	0xbd13d036	-0.036087237
236	0xbe081a7c	-0.13291353
237	0x3e2d2c52	0.16911438
238	0xbe6e151f	-0.23250245
239	0x3e39de6c	0.18151253
240	0xbd11c5a6	-0.035588883
241	0x3df681ae	0.12036453
242	0x3d10a78b	0.03531603
243	0x3e2ceee4	0.16888005
244	0x3c18493f	0.009294807
245	0x3eab8095	0.33496538
246	0x3da30ec6	0.07961802
247	0x3eb4eb94	0.35335982
248	0x3eba4d92	0.36387306
249	0xbd20d8db	-0.03926931
250	0xbe0fb925	-0.14035471
251	0x3eb9bb27	0.36275598
252	0x3e67a38e	0.22620985
253	0xbe61b506	-0.22041711
254	0xbcb6cf13	-0.022315538
255	0xbe91c049	-0.28467014

mlr.0.bias f4 [64]
0	0xbda2912d	-0.07937846
1	0x3e3b9619	0.18318976
2	0x3d6d9215	0.058000643
3	0xbd4e2dc2	-0.050336607
4	0x3d47be5c	0.048765525
5	0xbdc0124d	-0.093784906
6	0x3dab010b	0.08349808
7	0x3de9dc28	0.114189446
8	0x3d9ec429	0.07752258
9	0xbddf60e8	-0.10907155
10	0x3e37f250	0.17963529
11	0xbd2ab479	-0.04167602
12	0xbde62aa7	-0.11238604
13	0x3e36ca61	0.17850639
14	0x3e9a0566	0.30082244
15	0x3e223323	0.1583982
16	0x3d7fd32d	0.062457252
17	0xbdc989ea	-0.09840758
18	0x3dd34ed2	0.10317768
19	0x3e29c5fd	0.16579433
20	0xbe645b44	-0.2230044
21	0xbd127c4e	-0.035763077
22	0xbe296f3f	-0.16546343
23	0x3d5c5ab1	0.053797428
24	0x3cbfe6af	0.023425428
25	0xbd9f2fb6	-0.07772772
26	0xbcc5d5ab	-0.024149736
27	0x3c4222b1	0.011849091
28	0xbd8eb0b8	-0.069673
29	0xbe7731d1	-0.24140097
30	0x3de5265d	0.11188958
31	0xbe14c80d	-0.14529438
32	0xbd51f211	-0.051256243
33	0x3cdf10c7	0.02722968
34	0xbd5e76e1	-0.05431259
35	0xbe8b08f3	-0.27155265
36	0x3e079f70	0.13244414
37	0xbe0645b8	-0.13112533
38	0xbe22bd3b	-0.15892498
39	0xbabb9b1f	-0.0014313197
40	0xbe1a43a0	-0.1506486
41	0xbe381e96	-0.17980418
42	0xbdc73501	-0.097269066
43	0xbdfe40b6	-0.124146864
44	0xbdf6e8f9	-0.12056155
45	0xbdd4905e	-0.10379098
46	0xbcfad056	-0.03061692
47	0xbe6f3520	-0.2336011
48	0xbe32ec41	-0.17472936
49	0x3b8a066a	0.0042121904
50	0x3d246f9e	0.04014551
51	0x3d28906d	0.04115336
52	0xbe34b4ea	-0.17647138
53	0x3dbcb61c	0.09214422
54	0x3d7ef4ba	0.06224511
55	0x3ca52f28	0.020164087
56	0xbe6d74e2	-0.23189119
57	0xbe3d698f	-0.18497299
58	0xbe5bca8a	-0.21463981
59	0xbe1134b6	-0.14180264
60	0x3dffe055	0.1249396
61	0xbd308e8d	-0.043104697
62	0x3dfb1799	0.1226036
63	0xbe2d8562	-0.16945413

mlr.2.weight f4 [208, 64]
0	0x3c9b9b60	0.018994987
1	0xbcc9dc01	-0.024641039
2	0x3d3e0d2f	0.04639929
3	0xbd5ff024	-0.054672375
4	0xbd006380	-0.03134489
5	0xbd743730	-0.059622943
6	0xbe6c395d	-0.23068757
7	0x3df31122	0.11868502
8	0x3d78837c	0.06067227
9	0x3ca2e372	0.019883845
10	0x3e48d019	0.19610633
11	0xbc608f60	-0.013706058
12	0xbdce1958	-0.10063428
13	0x3e2bc52e	0.16774437
14	0xbb1a8eaa	-0.002358357
15	0x3dba2416	0.09088914
16	0xbe3a29d3	-0.18180017
17	0xbd6f9318	-0.05848989
18	0x3caf1472	0.021372054
19	0x3d665869	0.05623666
20	0x3e060204	0.13086706
21	0xbd76c180	-0.06024313
22	0x3e0bb05d	0.13641496
23	0xbc96bcc0	-0.01840055
24	0xbcd25d90	-0.02567938
25	0x3be0de67	0.00686245
26	0x3dfc0300	0.1230526
27	0x3d827a84	0.06371024
28	0xbc8e0b6e	-0.017339434
29	0x3cb4ceaa	0.022071201
30	0x3dd95884	0.10612586
31	0xbdd79c4a	-0.10527857
32	0xbd276b16	-0.04087361
33	0x3d95d588	0.073161185
34	0x3e1bbbb4	0.15208322
35	0x3df44d08	0.11928755
36	0xbdb8d136	-0.09024279
37	0x3d8a7604	0.06760791
38	0xbd8d32f4	-0.06894484
39	0x3e07e710	0.13271737
40	0x3db8b7c8	0.090194285
41	0x3e53114e	0.2061207
42	0x3db85548	0.09000641
43	0x3e0e1ea1	0.13878872
44	0x3b1f7240	0.0024329573
45	0x3e1b223e	0.15149781
46	0x3c022f4c	0.007945847
47	0x3d5ef150	0.054429352
48	0xbd248ecc	-0.040175244
49	0xbb098e00	-0.002098918
50	0xbdded126	-0.10879736
51	0xbc6c5ee0	-0.014426917
52	0xbd48dba6	-0.049037598
53	0xbd2cb550	-0.0421651
54	0xbd879771	-0.06620682
55	0xbd340c52	-0.043957062
56	0x3e23c50f	0.1599314
57	0x3e1b4efc	0.15166849
58	0x3e2249b1	0.15848424
59	0x3e01d978	0.12680614
60	0xbd2c9904	-0.042138115
61	0xbdfd2fbe	-0.12362622
62	0x3d42356c	0.04741423
63	0x3d8f70bc	0.07003924
64	0xbddbc772	-0.107314005
65	0x3e2cbce3	0.1686893
66	0x3dc9514a	0.09829958
67	0x3bf81f20	0.0075720698
68	0xbd9a3abe	-0.075307354
69	0x3e15bead	0.14623518
70	0xbe84ce53	-0.25938663
71	0x3da98604	0.082775146
72	0xbdad210c	-0.08453569
73	0x3e537a59	0.2065214
74	0x3cfdc6c5	0.03097857
75	0x3dfd4f80	0.12368679
76	0xbd58ef2c	-0.052962467
77	0x3e528944	0.20560175
78	0x3d7efa32	0.062250324
79	0x3e1ecb91	0.15507342
80	0xbe6cc61b	-0.23122446
81	0x3d524be8	0.05134192
82	0xbbc9ba88	-0.0061562695
83	0xbcc4c85d	-0.024021322
84	0x3de47854	0.11155763
85	0x3dc895fc	0.09794232
86	0x3c551d46	0.013007468
87	0x3d20ee58	0.039289802
88	0x3d472843	0.04862238
89	0x3e4b06af	0.19826768
90	0x3d9936a8	0.07481128
91	0x3e11bc68	0.14232028
92	0xbd7abf9b	-0.061217885
93	0xbc03e938	-0.008051209
94	0x3dca363d	0.098736264
95	0xbd962f34	-0.07333222
96	0x3e3734cc	0.17891234
97	0xbdf60282	-0.12012197
98	0x3e253d06	0.1613656
99	0x3dff35c2	0.12461425
100	0x3d80364a	0.06260355
101	0x3d2e94c4	0.042622343
102	0xbde4d724	-0.11173847
103	0x3e5858f9	0.2112769
104	0xbcaf2718	-0.021380946
105	0x3d84b502	0.06479837
106	0x3dfcb6b4	0.12339535
107	0x3cc8c86c	0.024509631
108	0xbc10e420	-0.008843452
109	0x3e77c23c	0.24195188
110	0xbb90fb2a	-0.0044244723
111	0xbdb51e10	-0.088436246
112	0x3ca68528	0.020327166
113	0xbc891100	-0.016731739
114	0x3cebdeb8	0.028792724
115	0xbc9f2c98	-0.019430444
116	0x3d332f78	0.04374644
117	0xbd63b78c	-0.055594966
118	0xbd43f638	-0.047842234
119	0xbce5476f	-0.027988164
120	0x3e61b7aa	0.22042719
121	0x3df6f7fe	0.120590195
122	0xbd0984e2	-0.033573993
123	0x3e53c89c	0.20681995
124	0x3e0d3927	0.13791333
125	0x3cbe0448	0.0231954
126	0xbd964e92	-0.07339205
127	0x3c9a6c80	0.018850565
128	0x3df6aa92	0.120442525
129	0x3e22dd25	0.15904672
130	0xbddeae0a	-0.10873039
131	0x3de9aea6	0.11410265
132	0x3c1ebd70	0.00968872
133	0x3dec90de	0.11551069
134	0xbe304e62	-0.172174
135	0x3dda3e0a	0.10656364
136	0xbdc78f98	-0.09744185
137	0x3e4f7618	0.20259893
138	0x3e19ae33	0.15007858
139	0x3c1987d0	0.009370759
140	0xbdb2e22c	-0.08734545
141	0x3dc9901f	0.09841942
142	0x3e1026fd	0.14077373
143	0x3dae4225	0.0850871
144	0xbe4a2cd3	-0.19743662
145	0x3c2186e0	0.009858817
146	0x3e2b20b8	0.167117
147	0x3defd161	0.11709858
148	0x3e5de9c2	0.21671203
149	0x3d4ced3c	0.05003093
150	0x3e0b3afe	0.13596722
151	0xbbbd06c0	-0.005768627
152	0x3dd6d8c8	0.104905665
153	0x3e0219fe	0.12705228
154	0xbddf43f2	-0.109016314
155	0xbb93cf16	-0.0045107706
156	0x3c8e5a3a	0.017377008
157	0x3d5a860a	0.053350486
158	0x3e6e52a8	0.23273718
159	0xbceaf740	-0.028682351
160	0x3dce0a57	0.10060566
161	0x3da68ebe	0.08132695
162	0x3d247f30	0.040160358
163	0x3dcd0534	0.10010758
164	0x3dca20b8	0.09869522
165	0xbdc47ac2	-0.09593727
166	0xbdb44678	-0.08802503
167	0xbbd3091b	-0.0064402944
168	0xbd8c4b0e	-0.06850253
169	0x3de8d300	0.1136837
170	0xbc1a26e0	-0.009408683
171	0x3d57b7f8	0.05266568
172	0xbd8157f8	-0.06315607
173	0x3dbaa244	0.09112981
174	0x3cc0ca07	0.023533834
175	0x3dfb2552	0.12262978
176	0xbd3dc310	-0.046328604
177	0xbdb74bd6	-0.089500114
178	0x3d54d650	0.051962197
179	0x3d346164	0.04403819
180	0x3e083ee6	0.13305244
181	0x3d9ff508	0.07810408
182	0x3e08e9c4	0.13370425
183	0xbc5faa2e	-0.013651414
184	0x3e44b78d	0.19210644
185	0x3e50e9e5	0.20401724
186	0xba71c134	-0.000922221
187	0x3e4ed1a9	0.20197167
188	0x3e2b5f1a	0.16735497
189	0x3ab36c80	0.0013688952
190	0x3d76dcb0	0.060269058
191	0xbd330198	-0.04370269
192	0xbddf4770	-0.109022975
193	0x3d6690e4	0.056290522
194	0x3d44f2b3	0.04808302
195	0xbda74fa4	-0.08169487
196	0x3d7851e0	0.060624957
197	0xbda311ef	-0.07962405
198	0xbea71d73	-0.32639655
199	0x3df7e86e	0.12104879
200	0x3d0b6574	0.0340323
201	0x3bc9aca8	0.0061546154
202	0x3e0cd52e	0.13753197
203	0x3cae8178	0.02130197
204	0x3d0b38f0	0.033989847
205	0x3e099bfd	0.13438411
206	0xbd28daa2	-0.04122413
207	0xbcad5949	-0.021160739
208	0xbe7ab2ea	-0.24482313
209	0x3d0ba01c	0.03408824
210	0x3d492d98	0.049115747
211	0x3df63cad	0.12023292
212	0x3db29fc4	0.08721879
213	0xbb9529a0	-0.004552081
214	0x3d232a4b	0.039835256
215	0xbd07fb48	-0.033198625
216	0x3e26ffda	0.16308537
217	0x3d970862	0.07374646
218	0xbdec9a56	-0.11552875
219	0x3d92fee9	0.071775265
220	0xbd66ed48	-0.056378633
221	0x3db25bc4	0.08708909
222	0x3e7df899	0.24801864
223	0xbdfdef66	-0.12399177
224	0x3d51cd40	0.051221132
225	0xbc4427f0	-0.0119724125
226	0x3cebb876	0.028774481
227	0x3deb3532	0.114847556
228	0xbcdf6f98	-0.027274892
229	0x3da47574	0.08030215
230	0x3d20e161	0.039277438
231	0xbd2569d0	-0.040384114
232	0x3cf0a030	0.029373258
233	0x3e8c302d	0.27380505
234	0xbda77324	-0.08176258
235	0xbcc331a8	-0.023827389
236	0x3dfa95da	0.12235613
237	0x3e541522	0.20711187
238	0x3c667750	0.014066532
239	0x3d9a0bf6	0.075218126
240	0xbc8300a0	-0.015991509
241	0xbdfc65de	-0.12324117
242	0x3c19df90	0.00939168
243	0x3dc2d58d	0.09513388
244	0xbc0ab0c6	-0.008464998
245	0x3d321dc8	0.043485433
246	0xbdd93cdf	-0.10607313
247	0x3e187a8e	0.14890501
248	0x3e989dcf	0.29807898
249	0x3e2e795b	0.17038481
250	0x3da39bf5	0.07988731
251	0x3dca417a	0.0987577
252	0xbcc17774	-0.02361653
253	0xbcffded0	-0.031234175
254	0xbc438480	-0.011933446
255	0xbd8e75e0	-0.069560766

mlr.2.bias f4 [208]
0	0x3db2b000	0.087249756
1	0x3d85f08a	0.0654002
2	0xbccefdbe	-0.025267478
3	0x3dc8936b	0.09793743
4	0x3e039df2	0.1285322
5	0x3dfbf3d2	0.123023644
6	0x3e14a940	0.14517689
7	0x3cbc554f	0.022989897
8	0x3dc8dd67	0.09807854
9	0x3df18def	0.1179465
10	0x3dd89526	0.10575323
11	0x3d184304	0.037173286
12	0x3ddcaa77	0.10774701
13	0xbd2c2a49	-0.042032514
14	0xbc729b94	-0.0148076005
15	0x3d7a2f48	0.061080247
16	0x3dc54e07	0.09634023
17	0x3d737563	0.05943812
18	0xbcba62cd	-0.02275219
19	0x3b09a7cf	0.0021004563
20	0x3d98b097	0.07455557
21	0x3c8b68a3	0.017017668
22	0x3dc290ee	0.095002994
23	0x3d1ec9ca	0.03876666
24	0x3db3d788	0.08781344
25	0x3d888263	0.06665494
26	0x3d48903c	0.048965678
27	0x3db17b0f	0.0866605
28	0x3d3c38e5	0.045952696
29	0x3d868af5	0.06569473
30	0x3c917811	0.017757447
31	0x3d8deb30	0.06929624
32	0x3de1e220	0.11029458
33	0xbc922976	-0.017842036
34	0x3d642b23	0.0557052
35	0x3c44e9aa	0.0120186005
36	0x3d7f42d2	0.062319584
37	0x3d540e2f	0.05177134
38	0x3de11dd2	0.10992016
39	0xbd11134e	-0.0354188
40	0x3c9660da	0.01835673
41	0x3dde6a7d	0.10860155
42	0x3cd966ab	0.026538214
43	0x3dac67ab	0.084182106
44	0xbca1399c	-0.01968079
45	0x3dded5c4	0.10880616
46	0xbca57a29	-0.020199852
47	0x3cbda377	0.023149235
48	0xbc261b60	-0.010138363
49	0x3e036792	0.12832478
50	0x3d8a6068	0.06756669
51	0x3c8350c8	0.01602973
52	0x3dd007a6	0.10157709
53	0x3df299fb	0.11845776
54	0x3c905d87	0.017622722
55	0x3d231229	0.03981224
56	0x3d8e30e1	0.06942917
57	0x3dcbb912	0.09947409
58	0x3dded022	0.10879542
59	0x3e1ba9c3	0.15201478
60	0x3dc3476d	0.09535108
61	0x3df4c4b2	0.11951579
62	0x3da22ca0	0.07918668
63	0x3e1f58ea	0.15561262
64	0x3d876aa8	0.0661214
65	0x3bdc6dd8	0.0067269616
66	0x3dbdb94d	0.09263859
67	0x3b1537e3	0.0022768907
68	0xbc8030a3	-0.015648192
69	0xbd095ba6	-0.03353467
70	0x3dd4e3dd	0.10395024
71	0x3d8ed14d	0.06973515
72	0x3d9c3b95	0.07628552
73	0x3c34e49e	0.011040835
74	0xbd1c7033	-0.03819294
75	0x3d7bc161	0.061463717
76	0xbaec6c37	-0.0018037622
77	0x3d6e15a0	0.058126092
78	0x3dbf8e40	0.09353304
79	0x3de0e7ca	0.1098171
80	0x3e126386	0.14295778
81	0x3d3c3655	0.045950253
82	0x3ddcf52e	0.10788952
83	0x3d58bf23	0.052916657
84	0x3da700b6	0.081544325
85	0x3d188752	0.037238427
86	0x3d951449	0.0727926
87	0x3dcb65ba	0.09931512
88	0x3def4d94	0.11684719
89	0x3cbcdc2a	0.023054201
90	0x3db15a1e	0.086597666
91	0x3d95b616	0.07310121
92	0x3dc8e587	0.09809404
93	0x3cb8d2ff	0.022561548
94	0x3e0f149f	0.1397271
95	0x3e0041f7	0.12525164
96	0xbc001838	-0.007818274
97	0x3dcf3091	0.10116685
98	0x3d9fdcb9	0.078057714
99	0x3d0a5730	0.033774555
100	0xbc5b2a62	-0.013376804
101	0x3a569b6b	0.0008186611
102	0x3d9b9df6	0.07598488
103	0x3c838aaf	0.01605734
104	0x3e065ff1	0.13122536
105	0x3da31378	0.07962698
106	0x3d3b6c82	0.045757778
107	0x3e1b18d9	0.15146197
108	0x3c433099	0.011913442
109	0x3d195a99	0.037439916
110	0x3e347ebb	0.17626469
111	0x3df7d1fc	0.12100598
112	0x3e336562	0.17519143
113	0x3e09976b	0.13436668
114	0x3d194fe4	0.037429705
115	0x3e0966d4	0.13418132
116	0x3db043b4	0.08606663
117	0x3e020225	0.1269613
118	0x3b947611	0.004530676
119	0x3da7d1fa	0.08194347
120	0x3d28286c	0.041054174
121	0x3d8dcb64	0.06923559
122	0x3ca95764	0.020671554
123	0x3dd432f4	0.10361281
124	0x3dd93223	0.10605266
125	0x3de440e9	0.11145193
126	0xbb3172eb	-0.0027076553
127	0x3a85923f	0.001019068
128	0x3dd3fa40	0.10350466
129	0xbc82654e	-0.015917446
130	0x3cb1ef95	0.021720687
131	0x3db6c6ef	0.08924662
132	0x3e0d20f3	0.137821
133	0x3caedf3f	0.021346686
134	0x3cdd4c7b	0.027014008
135	0x3c56b2d6	0.013104161
136	0x3d291415	0.041278917
137	0x3dfc8c86	0.1233149
138	0x3b2b70f8	0.0026159864
139	0x3dfc4651	0.12318099
140	0x3dee6983	0.116412185
141	0x3d98d82b	0.07463106
142	0x3de4c80d	0.11170969
143	0x3d9e088e	0.077164754
144	0x3d874e31	0.06606711
145	0x3d2082b3	0.039187144
146	0xbc4996c1	-0.012304009
147	0xbd4b076f	-0.049567636
148	0x3d74d6ec	0.059775278
149	0xbb2f05c1	-0.002670631
150	0xbc8e7f0e	-0.017394569
151	0x3d03da28	0.032190472
152	0x3ba050bc	0.004892437
153	0x3e04cda7	0.12969075
154	0x3dd07d9a	0.101802066
155	0xbd3c5bc8	-0.045985967
156	0x3dccc482	0.099984184
157	0x3d02efcc	0.03196697
158	0x3e187eba	0.14892092
159	0x3db1b063	0.08676221
160	0x3d315f67	0.043303873
161	0x3ddb15ee	0.10697542
162	0x3aa72400	0.0012751818
163	0x3cf6e7b5	0.030139783
164	0x3de20315	0.11035744
165	0x3dcd99d1	0.10039104
166	0x3d14e3e3	0.036350142
167	0x3db50b3b	0.08840033
168	0xbcd8d49a	-0.026468564
169	0xbd10225c	-0.035189018
170	0xbb93cff0	-0.004510872
171	0xbd8056cb	-0.062665544
172	0x3dab2d01	0.08358193
173	0xbcd1f00e	-0.025627162
174	0xbce5e55e	-0.028063472
175	0x3d126cc7	0.03574827
176	0x3d801652	0.06254257
177	0x3dc07f25	0.09399251
178	0x3d95e8dd	0.07319806
179	0x3beb5605	0.007181885
180	0x3d9a2236	0.075260565
181	0x3cd1c0f6	0.025604706
182	0x3df8cce9	0.121484585
183	0xbab0bc57	-0.0013483864
184	0x3dac111b	0.084017
185	0x3dd38df4	0.1032981
186	0xbc36182f	-0.011114164
187	0x3dd3047a	0.10303588
188	0x3d1ca7e5	0.038246054
189	0x3dcac15b	0.09900161
190	0x3c9c0029	0.019043045
191	0x3d37346b	0.044727724
192	0xbc4a737e	-0.012356637
193	0x3d17f23a	0.03709624
194	0x3d971dbe	0.0737872
195	0x3d8ef4b2	0.06980266
196	0xbc994a69	-0.01871224
197	0xbd4a1621	-0.04933751
198	0x3d63de38	0.055631846
199	0xbd1dda52	-0.038538285
200	0xbd3d2201	-0.046175007
201	0xbd575305	-0.052569408
202	0x3da5563e	0.0807309
203	0x3da86406	0.08222203
204	0x3b9ad658	0.004725259
205	0x3db059b3	0.08610859
206	0x3df32f53	0.11874261
207	0x3daae124	0.083437234
