pqc_reup_v1_output/model_params_epoch_5.pth (torch, 60874 bytes, 6 tensors)

reupload_weights f4 [12, 3, 4]
0	0x3e428ccc	0.18999022
1	0x3e2d16de	0.16903254
2	0x3e081561	0.13289405
3	0xbd99e7ef	-0.07514941
4	0x3eace93c	0.33771694
5	0x3df84949	0.12123353
6	0x3e974295	0.29542986
7	0x3e9560cc	0.29175413
8	0x3dd6362a	0.1045955
9	0x3eae5c1e	0.34054655
10	0x3e38d1a0	0.18048716
11	0x3e0865eb	0.13320129
12	0xbe568aad	-0.20951338
13	0xbe16ed75	-0.1473902
14	0xbd92a08a	-0.07159527
15	0x3d8137f9	0.06309504
16	0x3dd7085e	0.10499643
17	0xbe02adac	-0.12761563
18	0xbe718e5c	-0.23589462
19	0xbe0ff927	-0.14059888
20	0x3e0c0b68	0.13676226
21	0x3e8d25d8	0.27567935
22	0x3e196a7d	0.14982028
23	0x3e5d02a8	0.21583045
24	0x3d3b97c5	0.045799036
25	0x3db4527d	0.08804796
26	0x3ce18e45	0.02753366
27	0x3da18764	0.07887152
28	0x3eaec116	0.34131688
29	0x3eae422a	0.34034854
30	0x3ea0df27	0.31420252
31	0x3ed644f2	0.41849476
32	0xbe14640c	-0.1449129
33	0x3aff7300	0.0019489229
34	0x3dbb598b	0.09147938
35	0x3e62624b	0.22107808
36	0xbc8349ef	-0.016026465
37	0xbdbff12c	-0.09372172
38	0x3bad1a71	0.005282693
39	0xbe4bdc08	-0.19908154
40	0xbce27bb0	-0.02764687
41	0x3e8db1aa	0.2767461
42	0x3c75fcfb	0.0150139285
43	0x3d31c95d	0.043404926
44	0x3e7c2a5e	0.24625537
45	0x3f18b89d	0.596567
46	0x3e834ea5	0.2564594
47	0x3e6abc57	0.22923408
48	0x3c9adc8b	0.018903991
49	0x3d1f0957	0.038827267
50	0x3dc04fea	0.093902424
51	0x3e16afa2	0.14715436
52	0xbcce618b	-0.025192996
53	0x3e1476c8	0.14498436
54	0xbd28fcdf	-0.04125678
55	0xbd2df29b	-0.042467695
56	0xbe40270c	-0.18764895
57	0xbd2f70f5	-0.042832334
58	0xbd803c5b	-0.06261512
59	0x3c2cba68	0.01054249
60	0xbd93050b	-0.07178696
61	0x3dd5b650	0.10435164
62	0xbe47ae36	-0.1950005
63	0x3d6e5646	0.058187746
64	0x3dab2efd	0.08358572
65	0x3cdc2bc3	0.026876336
66	0x3e264077	0.16235529
67	0x39ee8752	0.0004549572
68	0xbcfd0fcd	-0.030891323
69	0xbd95ea12	-0.07320036
70	0xbe243b26	-0.16038188
71	0x3dab6995	0.083697475
72	0xbcd80f7c	-0.026374571
73	0x3d21f885	0.039543647
74	0xbc27c77f	-0.010240435
75	0x3d7afb73	0.061274957
76	0xbc857947	-0.016293181
77	0xbe0d950a	-0.13826385
78	0xbe9a0094	-0.30078566
79	0xbde3187f	-0.11088657
80	0x3d82b232	0.06381644
81	0x3c977602	0.018488888
82	0xbdbc4c24	-0.0919421
83	0x3d6b4574	0.057439283
84	0x3e2c66bf	0.1683607
85	0x3dd9fba3	0.10643699
86	0x3e06229a	0.13099137
87	0x3c9eb0e9	0.019371467
88	0xbe4c9226	-0.19977626
89	0xbea50efa	-0.3223799
90	0xbea76749	-0.32695988
91	0xbe295f43	-0.16540246
92	0xbeba059c	-0.36332405
93	0xbe81b8b1	-0.2533622
94	0x3cdc08f0	0.02685973
95	0xbd88b3d5	-0.06674925
96	0xbe98f2db	-0.29872784
97	0xbce54dab	-0.027991137
98	0xbd060a58	-0.03272471
99	0xbd807469	-0.062722035
100	0x3ea6f348	0.32607484
101	0x3ee9ea1b	0.4568642
102	0x3f06d578	0.5266948
103	0x3ebbdbaa	0.36691028
104	0xbebc8992	-0.36823708
105	0xbdd6b996	-0.104846165
106	0xbdc07ef9	-0.09399218
107	0xbe35f1f3	-0.17768078
108	0x3d7ea071	0.062164728
109	0x3e1ca051	0.15295531
110	0x3d843a90	0.064564824
111	0x3da73a59	0.08165426
112	0xbecfe7c1	-0.40606502
113	0xbe989848	-0.2980368
114	0xbeb5e90a	-0.35529357
115	0xbec503f3	-0.38479576
116	0x3e0e381b	0.1388859
117	0x3d87f7d0	0.06639063
118	0xbbf5e61e	-0.0075042387
119	0x3d048051	0.032348935
120	0xbdab259b	-0.08356782
121	0xbd8ae270	-0.06781471
122	0xbcd35d63	-0.025801366
123	0x3cd578d6	0.026058596
124	0x3d7e3207	0.06205943
125	0xbcbe8a30	-0.023259252
126	0x3e110f6a	0.14166036
127	0x3dc28a5c	0.09499046
128	0xbe32629f	-0.17420433
129	0xbe9470a1	-0.2899218
130	0xbee5449a	-0.447789
131	0xbee139d4	-0.43989432
132	0xbc2ed3a5	-0.010670577
133	0x3e40c601	0.18825532
134	0x3dadb6ae	0.08482109
135	0x3d93c962	0.07216145
136	0xbe8ea08b	-0.2785686
137	0xbe948e0d	-0.29014626
138	0xbefb240a	-0.49050933
139	0xbe502adf	-0.20328854
140	0xbe9be08c	-0.30444753
141	0xbc9a8b10	-0.018865138
142	0xbe3987a6	-0.18118152
143	0xbd293676	-0.041311704

reupload_bias f4 [12, 3]
0	0xbedcafa5	-0.43102756
1	0x3e938698	0.28813624
2	0x3e2756c6	0.16341695
3	0x3ed88330	0.42287588
4	0xbed37cc5	-0.4130613
5	0xbcc1ff24	-0.02368123
6	0xbe90ad92	-0.28257424
7	0x3ef930b7	0.4866998
8	0xba909701	-0.0011031331
9	0x3eba8f5b	0.36437497
10	0x3c563ad1	0.013075546
11	0x3f299a9f	0.6625156
12	0xbea6bd84	-0.32566464
13	0x3e15d277	0.14631067
14	0xbe27f969	-0.16403736
15	0x3df45b98	0.119315326
16	0xbe8cb958	-0.27485156
17	0xbe276a72	-0.163492
18	0xbdb75cf4	-0.08953276
19	0xbe5b5d2b	-0.2142226
20	0xbe30dbf4	-0.17271405
21	0xbf03c1bd	-0.51467496
22	0xbeceb997	-0.4037597
23	0xbdacc4e3	-0.08435991
24	0x3ed32f13	0.41246852
25	0x3f3aaefd	0.7292326
26	0xbf205870	-0.62634945
27	0xbed55bef	-0.41671702
28	0xbeac7d51	-0.3368936
29	0x3d33cebe	0.043898337
30	0x3e4d2aeb	0.20035903
31	0x3e59a321	0.21253635
32	0xbf264d12	-0.6496135
33	0xbecdc68b	-0.4019054
34	0xbeb0140f	-0.34390303
35	0x3d521da8	0.051297814

mlr.0.weight f4 [64, 12]
0	0x3b8a086f	0.004212431
1	0xbc8d331b	-0.017236283
2	0x3d8e21fc	0.06940076
3	0x3da5ad0d	0.080896474
4	0xbe863deb	-0.26219115
5	0xbdda2d76	-0.10653202
6	0x3e78efb0	0.24310184
7	0x3de64eb8	0.11245483
8	0xbc6b3dd1	-0.014358
9	0xbe323890	-0.1740439
10	0xbe34da04	-0.17661291
11	0xbe846555	-0.2585856
12	0xbd96ae57	-0.073574714
13	0x3ddfa182	0.10919477
14	0x3e490803	0.19631962
15	0x3e154c5f	0.14579915
16	0xbe73746e	-0.23774883
17	0xbe242c08	-0.16032422
18	0xbd030890	-0.031990588
19	0x3e9a059b	0.30082402
20	0x3d7aba54	0.061212853
21	0xbd730bc2	-0.059337385
22	0x3e0e7329	0.13911118
23	0xbdb02c6d	-0.086022235
24	0xbe3f54b8	-0.18684661
25	0x3e57c1d1	0.21070029
26	0xbe06694f	-0.1312611
27	0xbd6d08d9	-0.057869766
28	0xbe9308a2	-0.28717524
29	0x3e45d6b0	0.19320178
30	0x3e5ff596	0.21871027
31	0x3dd776d6	0.10520713
32	0xbe4e1dd8	-0.20128572
33	0xbe91df12	-0.28490502
34	0xbe701533	-0.23445587
35	0x3e5c6e75	0.21526511
36	0x3e0debbe	0.1385946
37	0x3e78c064	0.24292141
38	0x3e1adb91	0.1512282
39	0x3d95a139	0.073061414
40	0xbb394397	-0.0028269046
41	0xbe60cee1	-0.21953918
42	0xbe7d43c4	-0.24732882
43	0xbe8a3eff	-0.27001187
44	0x3df2047c	0.118172616
45	0xbe1121bc	-0.14173025
46	0xbd6df6b7	-0.058096614
47	0xbe2a1f0c	-0.16613406
48	0xbd5776ac	-0.05260341
49	0xbe500e52	-0.20317963
50	0xbe4126e0	-0.18862486
51	0x3dc41c12	0.095756665
52	0xbdafb459	-0.085793205
53	0x3e367d1c	0.17821163
54	0xbdbdaa0e	-0.09260951
55	0xbe58d84d	-0.21176262
56	0xbd509fad	-0.05093353
57	0xbe0f4aff	-0.13993452
58	0xbdb4dfec	-0.08831772
59	0xbe8cb4e0	-0.27481747
60	0x3e2a2f26	0.16619548
61	0xbe54cf96	-0.20782313
62	0x3e0f3d39	0.13988198
63	0x3dfee79e	0.12446521
64	0x3e5213be	0.20515344
65	0xbe6748a3	-0.22586302
66	0x3e50ac0a	0.20378128
67	0xbe081543	-0.1328936
68	0x3ddf1b84	0.1089392
69	0x3e8a0ed5	0.2696444
70	0xbd19f41b	-0.037586313
71	0x3ba06535	0.0048948773
72	0xbd72a04d	-0.059234906
73	0xbe7af17d	-0.24506183
74	0x3e1c0443	0.15236
75	0xbe9944e8	-0.29935384
76	0x3e3e0687	0.18557177
77	0x3e5e2b49	0.216962
78	0x3e945de7	0.28977892
79	0xbda91a42	-0.082569614
80	0xbe71d27d	-0.23615451
81	0x3d7c23b9	0.061557505
82	0x3e37c12b	0.17944781
83	0xbe968758	-0.29400134
84	0xbd8631bb	-0.06552454
85	0xbe313377	-0.17304789
86	0xbcced62a	-0.025248606
87	0xbe117ffd	-0.1420898
88	0xbdf1aa87	-0.11800104
89	0xbdbbaf0d	-0.09164248
90	0xbe8c74de	-0.27432913
91	0x3e728b75	0.23686011
92	0x3e77d042	0.24200538
93	0xbd397beb	-0.045284193
94	0xbd06a7da	-0.03287492
95	0xbdf14881	-0.11781407
96	0xbe857964	-0.26069176
97	0xbe8fd516	-0.2809226
98	0x3ddbba19	0.10728855
99	0xbe224cc5	-0.15849598
100	0xbe3e095d	-0.1855826
101	0xbcb882e7	-0.022523357
102	0xbdc4e0e0	-0.09613204
103	0xbdbf4484	-0.0933924
104	0x3c17f82b	0.009275476
105	0xbd7acdf8	-0.061231583
106	0xbdcb8f4f	-0.09939443
107	0xbe0d8960	-0.13821936
108	0xbe63ce70	-0.22246718
109	0x3e76b77f	0.24093436
110	0xbdebdeee	-0.1151713
111	0x3d9b782d	0.07591281
112	0xbdc522f9	-0.09625811
113	0x3cc82d48	0.024435654
114	0x3e8a891e	0.27057737
115	0x3e11da37	0.14243399
116	0xbe7790a2	-0.24176267
117	0x3df6b2d9	0.12045831
118	0x3e908d62	0.28232867
119	0x3db5ed9d	0.08883212
120	0x3e705c44	0.23472697
121	0x3ea2068c	0.3164562
122	0xbc525aa4	-0.012838993
123	0x3dbe73f8	0.09299463
124	0xbe28436f	-0.16431974
125	0xbcde0b9c	-0.027105145
126	0x3e7bcaab	0.2458903
127	0x3e421386	0.1895276
128	0xbe125a21	-0.14292194
129	0xbe48ed29	-0.1962172
130	0xbe2381a4	-0.15967423
131	0xbe76d847	-0.24105941
132	0xbe64195c	-0.22275299
133	0xbd923431	-0.07138861
134	0x3e477ef6	0.19482026
135	0x3d45ea3d	0.04831909
136	0xbe60d667	-0.21956788
137	0xbe6d23db	-0.23158209
138	0x3e130e2b	0.14360873
139	0xbe5be1c8	-0.21472847
140	0xbd11966a	-0.035543837
141	0x3e0dcd7e	0.1384792
142	0xbe08cf0d	-0.13360234
143	0xbd00ee24	-0.03147711
144	0xbccdd859	-0.025127577
145	0xbd8bdea2	-0.06829573
146	0xbe15e162	-0.14636758
147	0xbe83c18e	-0.25733608
148	0xbe6ef3f9	-0.23335256
149	0xbe1e48c5	-0.15457447
150	0x3e8ec09f	0.27881333
151	0xbe0ec7e0	-0.13943434
152	0xbe468183	-0.19385342
153	0x3d8f4e19	0.06997318
154	0x3da2f152	0.079561844
155	0x3e21f6c5	0.15816791
156	0x3e8cb1cf	0.27479407
157	0x3e521875	0.20517142
158	0xbe7638c4	-0.24045092
159	0x3d8fbbdd	0.07018254
160	0x3e64f7da	0.22360173
161	0x3c9a63ee	0.018846478
162	0xbdfd7020	-0.12374902
163	0x3ea808c2	0.32819182
164	0xbd63f4d5	-0.055653412
165	0xbdec6bae	-0.11543976
166	0xbe54f87a	-0.20797911
167	0x3d8cf396	0.06882398
168	0x3d99be2c	0.075069755
169	0x3db1a71b	0.08674451
170	0x3d6d8cad	0.057995487
171	0xbe459d3d	-0.19298263
172	0xbe897b76	-0.26852006
173	0x3cb6fc39	0.022337066
174	0x3e8613f5	0.261871
175	0x3e1ffdec	0.15624207
176	0xbe42ba53	-0.1901639
177	0xbd1d4c45	-0.038402814
178	0xbe7f1ed3	-0.24914102
179	0xbe2d76c8	-0.16939843
180	0x3da4525a	0.0802352
181	0x3e294405	0.16529854
182	0x3e7fc785	0.24978454
183	0xbe8350b9	-0.25647524
184	0x3e56522d	0.20929785
185	0xbe46be6b	-0.19408576
186	0x3df549f5	0.11976997
187	0x3e88818e	0.26661342
188	0x3cdab4b1	0.026697489
189	0x3e8e358b	0.27775225
190	0xbe655e7d	-0.22399326
191	0xbda92d14	-0.08260551
192	0x3e27c892	0.16385105
193	0xbd9058ae	-0.07048164
194	0xbd844e45	-0.06460241
195	0xbe04433e	-0.12916276
196	0x3e455879	0.19272031
197	0x3e09a389	0.1344129
198	0x3db24aa3	0.08705642
199	0xbe2ebe5c	-0.17064804
200	0xbe766c86	-0.24064836
201	0x3cc55189	0.02408673
202	0x3da61a2a	0.08110459
203	0xbe0f81b9	-0.14014329
204	0xbda56b12	-0.08077063
205	0x3e47a415	0.19496186
206	0x3cbc61a2	0.022995774
207	0x3c5564e2	0.013024541
208	0xbd917f0c	-0.071043104
209	0xbe85d901	-0.26142123
210	0xbe8af8bc	-0.27142894
211	0xbe0d4d87	-0.13799106
212	0xbe1642f2	-0.14673975
213	0x3db8314c	0.08993778
214	0xbdac1b4b	-0.08403643
215	0xbde74b0a	-0.112936094
216	0x3ea7ec9a	0.327977
217	0x3e0fc6ec	0.14040726
218	0x3e7e796a	0.24851003
219	0xbdcd3abe	-0.1002097
220	0xbd946aa5	-0.07246903
221	0x3e173534	0.14766389
222	0xbe18337c	-0.1486339
223	0xbe0f73a7	-0.14008962
224	0x3d0f74c3	0.035023462
225	0xbd7806ca	-0.06055335
226	0xbe29f774	-0.16598302
227	0x3e64e53d	0.22353072
228	0x3e91511e	0.283822
229	0x3da375f0	0.07981479
230	0xbc6721df	-0.014107197
231	0xbe6ff5ae	-0.23433563
232	0xbd838576	-0.0642194
233	0x3ddde3ef	0.108344905
234	0x3e31c708	0.1736108
235	0x3c188b30	0.009310529
236	0xbd8a83e1	-0.06763435
237	0x3e4dddaf	0.20104097
238	0xbe3b2d08	-0.18278897
239	0x3e6eea57	0.23331581
240	0xbd35d511	-0.04439265
241	0x3d5bc4e7	0.053654578
242	0xbbb7c9dd	-0.005608781
243	0x3dad0cd6	0.08449714
244	0xbcfe4b6a	-0.03104182
245	0x3e862330	0.2619872
246	0x3d391223	0.045183312
247	0x3e942311	0.28933004
248	0x3eae09fc	0.33991992
249	0xbda9c897	-0.082902126
250	0xbe175869	-0.1477982
251	0x3e99efdc	0.3006581
252	0x3e67a38e	0.22620985
253	0xbe61b506	-0.22041711
254	0xbcb6cf13	-0.022315538
255	0xbe91c049	-0.28467014

mlr.0.bias f4 [64]
0	0xbda2912d	-0.07937846
1	0x3e5dfbb7	0.21678053
2	0x3db71e51	0.08941329
3	0xbd4e2dc2	-0.050336607
4	0x3d47be5c	0.048765525
5	0xbe0cad3e	-0.13737962
6	0x3dec6eba	0.11544557
7	0x3de9dc28	0.114189446
8	0x3d9ec429	0.07752258
9	0xbe2273b7	-0.15864454
10	0x3e7a06d0	0.24416661
11	0xbd2ab479	-0.04167602
12	0xbde62aa7	-0.11238604
13	0x3e478ad6	0.19486555
14	0x3ebcd5eb	0.36881956
15	0x3e752fa4	0.23943955
16	0x3da1435e	0.078741774
17	0xbdc989ea	-0.09840758
18	0x3e1a03af	0.15040468
19	0x3e66564f	0.22493862
20	0xbe95846f	-0.292026
21	0xbd127c4e	-0.035763077
22	0xbe7d8e5e	-0.2476134
23	0x3d5c5ab1	0.053797428
24	0x3da6d18a	0.08145435
25	0xbd81cafa	-0.06337543
26	0xbcc5d5ab	-0.024149736
27	0x3d78eb0a	0.060771026
28	0xbd46ba56	-0.048517548
29	0xbe87e6e2	-0.26543337
30	0x3e412110	0.18860269
31	0xbe14c80d	-0.14529438
32	0xbdb7914a	-0.089632586
33	0x3cdf10c7	0.02722968
34	0xbc92c472	-0.017915938
35	0xbe8b08f3	-0.27155265
36	0x3e079f70	0.13244414
37	0xbe0645b8	-0.13112533
38	0xbe22c502	-0.15895465
39	0x3d18b92d	0.037285972
40	0xbe1a43a0	-0.1506486
41	0xbe4effeb	-0.20214812
42	0xbdc73501	-0.097269066
43	0xbdff508a	-0.124665335
44	0xbdf6e8f9	-0.12056155
45	0xbdb17785	-0.08665375
46	0x3c6ce856	0.01445969
47	0xbe6f3520	-0.2336011
48	0xbe32ec41	-0.17472936
49	0x3b8a066a	0.0042121904
50	0x3d246f9e	0.04014551
51	0x3db89fc9	0.090148516
52	0xbe564124	-0.20923287
53	0x3dbcb61c	0.09214422
54	0x3df2482e	0.118301734
55	0x3dc91e88	0.098202765
56	0xbe8b3d5b	-0.27195248
57	0xbe2147fb	-0.15750115
58	0xbe9c3c1c	-0.3051461
59	0xbe49272c	-0.19643849
60	0x3e1f84e1	0.15578033
61	0xbd308e8d	-0.043104697
62	0x3dfb1799	0.1226036
63	0xbe2d8562	-0.16945413

mlr.2.weight f4 [208, 64]
0	0x3c9b9b60	0.018994987
1	0xbd666405	-0.05624773
2	0x3d7ff1d8	0.0624865
3	0xbd5ff024	-0.054672375
4	0xbd006380	-0.03134489
5	0xbdaae462	-0.08344342
6	0xbc878245	-0.01654161
7	0x3df31122	0.11868502
8	0x3d78837c	0.06067227
9	0xbd0ab343	-0.033862364
10	0x3c70cc02	0.014697077
11	0xbc608f60	-0.013706058
12	0xbdce1958	-0.10063428
13	0x3e044af1	0.12919213
14	0xbbe1bb1a	-0.0068887593
15	0x3d4ce032	0.050018497
16	0xbd2e8afe	-0.042613022
17	0xbd6f9318	-0.05848989
18	0x3d25ef6b	0.04051153
19	0x3d8b7b1c	0.068105906
20	0x3da728ca	0.08162077
21	0xbd76c180	-0.06024313
22	0x3e1c64ef	0.15272878
23	0xbc96bcc0	-0.01840055
24	0xbd49c86c	-0.049263403
25	0xbcc1f1b3	-0.023674821
26	0x3dfc0300	0.1230526
27	0x3cce4cf6	0.025183182
28	0xbc8b0088	-0.016968027
29	0xbc87a5ee	-0.016558614
30	0xbc948417	-0.018129392
31	0xbdd79c4a	-0.10527857
32	0xbd8de868	-0.069290936
33	0x3d95d588	0.073161185
34	0x3e0cc1a0	0.13745737
35	0x3df44d08	0.11928755
36	0xbdb8d136	-0.09024279
37	0x3d8a7604	0.06760791
38	0xbd8d3a03	-0.068958305
39	0x3dd4ec36	0.10396616
40	0x3db8b7c8	0.090194285
41	0x3e069df2	0.13146189
42	0x3db85548	0.09000641
43	0x3ddfc0ca	0.109254435
44	0x3b1f7240	0.0024329573
45	0x3dbc71ee	0.09201418
46	0xbc8c4988	-0.017124906
47	0x3d5ef150	0.054429352
48	0xbd248ecc	-0.040175244
49	0xbb098e00	-0.002098918
50	0xbdded126	-0.10879736
51	0xbbe35f6a	-0.0069388645
52	0xbd05a50c	-0.032628104
53	0xbd2cb550	-0.0421651
54	0xbd7c77a3	-0.061637532
55	0xbdb09113	-0.08621421
56	0x3d118034	0.035522655
57	0x3de43f5b	0.111448966
58	0x3e17572f	0.14779352
59	0x3dec8f58	0.11550778
60	0xbd1ce97a	-0.038308598
61	0xbdfd2fbe	-0.12362622
62	0x3d42356c	0.04741423
63	0x3d8f70bc	0.07003924
64	0xbddbc772	-0.107314005
65	0x3da8d367	0.08243447
66	0x3dd87132	0.10568465
67	0x3bf81f20	0.0075720698
68	0xbd9a3abe	-0.075307354
69	0x3e0d843f	0.13819979
70	0x3c4f6022	0.012657197
71	0x3da98604	0.082775146
72	0xbdad210c	-0.08453569
73	0x3deff1cd	0.11716042
74	0xbd35839a	-0.04431496
75	0x3dfd4f80	0.12368679
76	0xbd58ef2c	-0.052962467
77	0x3e04f09b	0.12982409
78	0x3c44f70a	0.012021789
79	0x3d93194d	0.0718256
80	0xbc3ec3ff	-0.011643409
81	0x3d524be8	0.05134192
82	0xbbeca3bb	-0.0072216666
83	0xbd9ab2cf	-0.07553636
84	0x3ceceb4e	0.028920796
85	0x3dc895fc	0.09794232
86	0x3c9a3ff2	0.01882932
87	0x3d20ee58	0.039289802
88	0xbb4f7fe2	-0.0031661917
89	0x3e1863df	0.14881848
90	0x3d9936a8	0.07481128
91	0x3da80666	0.082043454
92	0xbd82db7e	-0.06389521
93	0xbd546f28	-0.05186382
94	0x3d01f955	0.031731922
95	0xbd962f34	-0.07333222
96	0x3e11f8d8	0.14255083
97	0xbdf60282	-0.12012197
98	0x3ddcb90e	0.10777484
99	0x3dff35c2	0.12461425
100	0x3d80364a	0.06260355
101	0x3d2e94c4	0.042622343
102	0xbde4de03	-0.11175158
103	0x3e2860ce	0.16443178
104	0xbcaf2718	-0.021380946
105	0xbd95eaf6	-0.07320206
106	0x3dfcb6b4	0.12339535
107	0xbb6d0431	-0.0036165828
108	0xbc10e420	-0.008843452
109	0x3e2d66c9	0.1693374
110	0xbd37b85a	-0.044853546
111	0xbdb51e10	-0.088436246
112	0x3ca68528	0.020327166
113	0xbc891100	-0.016731739
114	0x3cebdeb8	0.028792724
115	0xbd884541	-0.06653834
116	0x3d73a878	0.059486836
117	0xbd63b78c	-0.055594966
118	0xbd02c81b	-0.031929117
119	0xbd9ce977	-0.076617174
120	0x3d7cef56	0.061751686
121	0x3d8d893b	0.0691094
122	0xbd5c3529	-0.053761635
123	0x3e265978	0.16245067
124	0x3db51e56	0.08843677
125	0x3cbe0448	0.0231954
126	0xbd964e92	-0.07339205
127	0x3c9a6c80	0.018850565
128	0x3df6aa92	0.120442525
129	0x3df959c4	0.121753246
130	0xbdc7640a	-0.09735878
131	0x3de9aea6	0.11410265
132	0x3c1ebd70	0.00968872
133	0x3db731ad	0.08945022
134	0x3e120194	0.14258415
135	0x3dda3e0a	0.10656364
136	0xbdc78f98	-0.09744185
137	0x3e153e9f	0.1457467
138	0xbd2cbd56	-0.042172752
139	0x3c1987d0	0.009370759
140	0xbdb2e22c	-0.08734545
141	0x3cd090c5	0.025459656
142	0x3de10971	0.10988129
143	0x3cb0e463	0.021593278
144	0xbc0fb8bd	-0.008772072
145	0x3c2186e0	0.009858817
146	0x3e2890c4	0.16461474
147	0x3de4f84b	0.111801706
148	0x3e056c2e	0.13029549
149	0x3d4ced3c	0.05003093
150	0x3e068bf7	0.1313933
151	0xbbbd06c0	-0.005768627
152	0x3d499f7b	0.049224358
153	0x3d9608ae	0.07325874
154	0xbddf43f2	-0.109016314
155	0xbd866f21	-0.06564165
156	0x3c7b1670	0.015325174
157	0xbbe6057a	-0.007019696
158	0x3cf6e7f7	0.030139906
159	0xbceaf740	-0.028682351
160	0x3d5a3e35	0.05328198
161	0x3da68ebe	0.08132695
162	0x3b806750	0.003918566
163	0x3dcd0534	0.10010758
164	0x3dca20b8	0.09869522
165	0xbdc47ac2	-0.09593727
166	0xbdb44d28	-0.08803779
167	0xbd7d2401	-0.061801914
168	0xbd8c4b0e	-0.06850253
169	0xbc2347d9	-0.00996586
170	0xbc1a26e0	-0.009408683
171	0x3c0eb109	0.008709201
172	0xbd8157f8	-0.06315607
173	0x3c030e38	0.0079989955
174	0xbbe14a65	-0.0068753236
175	0x3dfb2552	0.12262978
176	0xbd3dc310	-0.046328604
177	0xbdb74bd6	-0.089500114
178	0x3d54d650	0.051962197
179	0x3ce043eb	0.027376136
180	0x3e0b63f4	0.13612348
181	0x3d9ff508	0.07810408
182	0x3e108e3e	0.14116761
183	0xbd68e952	-0.056863137
184	0x3dc65416	0.09684007
185	0x3e137af8	0.14402378
186	0xbcdf7867	-0.027279092
187	0x3e27c36e	0.16383144
188	0x3e103fec	0.14086884
189	0x3ab36c80	0.0013688952
190	0x3d76dcb0	0.060269058
191	0xbd330198	-0.04370269
192	0xbddf4770	-0.109022975
193	0x3d30b63f	0.043142553
194	0x3d18a3e0	0.03726566
195	0xbda74fa4	-0.08169487
196	0x3d7851e0	0.060624957
197	0xbda0189d	-0.078171946
198	0xbda700af	-0.08154427
199	0x3df7e86e	0.12104879
200	0x3d0b6574	0.0340323
201	0xbd183986	-0.037164234
202	0x3d6ba659	0.05753169
203	0x3cae8178	0.02130197
204	0x3d0b38f0	0.033989847
205	0x3d925996	0.071459934
206	0xbdb2b311	-0.087255605
207	0xbd09078e	-0.03345447
208	0xbce0931f	-0.027413903
209	0x3d0ba01c	0.03408824
210	0x3cfeab34	0.031087495
211	0x3df376c9	0.11887891
212	0x3c114338	0.008866124
213	0xbb9529a0	-0.004552081
214	0x3d9709c0	0.073749065
215	0xbd07fb48	-0.033198625
216	0x3de50855	0.1118323
217	0x3d5f7771	0.054557268
218	0xbdec9a56	-0.11552875
219	0x3c1d68c7	0.0096075
220	0xbd68389c	-0.056694612
221	0x3d662cba	0.056195
222	0xbca234a4	-0.019800492
223	0xbdfdef66	-0.12399177
224	0x3c81b6bc	0.015834205
225	0xbc4427f0	-0.0119724125
226	0xbbbf06a5	-0.0058296495
227	0x3deb3532	0.114847556
228	0xbcdf6f98	-0.027274892
229	0x3da47574	0.08030215
230	0x3d20d2c4	0.0392635
231	0xbd951095	-0.072785534
232	0x3cf0a030	0.029373258
233	0x3e1688ea	0.14700666
234	0xbda77324	-0.08176258
235	0xbd31c4d4	-0.0434006
236	0x3dfa95da	0.12235613
237	0x3e0bfabf	0.13669871
238	0xbd2a7da4	-0.041623726
239	0x3d9a0bf6	0.075218126
240	0xbc8300a0	-0.015991509
241	0xbdfc65de	-0.12324117
242	0x3c19df90	0.00939168
243	0x3d89e13f	0.067324154
244	0x3c051080	0.00812161
245	0x3d321dc8	0.043485433
246	0xbdb9eeae	-0.09078728
247	0x3de628ba	0.11238237
248	0x3e01ac54	0.12663394
249	0x3dd22096	0.102601215
250	0x3d99189c	0.07475397
251	0x3dcdce81	0.10049153
252	0xbd840bfa	-0.06447597
253	0xbcffded0	-0.031234175
254	0xbc438480	-0.011933446
255	0xbd8e75e0	-0.069560766

mlr.2.bias f4 [208]
0	0x3d6ca027	0.05776992
1	0x3ac9fab3	0.0015409797
2	0xbda7450f	-0.08167469
3	0x3d3701c0	0.044679403
4	0x3daeb469	0.08530504
5	0x3db7d1de	0.08975576
6	0x3dcd3a48	0.10020882
7	0xbd549300	-0.051898003
8	0x3d98984d	0.07450924
9	0x3dcd6748	0.10029465
10	0x3d928de1	0.071559675
11	0xbd37e67e	-0.04489755
12	0x3dcb14de	0.099160895
13	0xbd9ff7b3	-0.07810917
14	0xbd6c06a3	-0.057623517
15	0x3dad23e1	0.08454109
16	0x3daaabf0	0.08333576
17	0x3d3db4fd	0.046315182
18	0xbc603434	-0.013684321
19	0xbd8bf90c	-0.06834611
20	0x3d8b9556	0.06815593
21	0xbcf7e604	-0.030261047
22	0x3d7a1f3e	0.06106495
23	0x3cd7a377	0.026323063
24	0x3d490a28	0.04908195
25	0x3d4f9e1f	0.050687905
26	0xbc9d41f9	-0.019196497
27	0xbc1ad3de	-0.009449927
28	0xbc577ccd	-0.013152313
29	0xbc880c23	-0.01660735
30	0xbd6d8fcf	-0.057998475
31	0x3d34be27	0.044126656
32	0x3d5601e1	0.052247886
33	0xbdcc34b0	-0.09970987
34	0xbcf33b2c	-0.029691301
35	0xbd9fdfa9	-0.07806332
36	0x3c5b8474	0.0133982785
37	0xbcf70cb0	-0.030157417
38	0x3dca3dcf	0.0987507
39	0xbd9977d5	-0.07493559
40	0xbcdcea15	-0.026967088
41	0x3e0b9fdd	0.13635202
42	0x3c3e0f83	0.011600378
43	0x3dbbdac0	0.091725826
44	0xbd1364c8	-0.035984784
45	0x3dba24b8	0.09089035
46	0xbd8de70f	-0.069288366
47	0xbd2125c0	-0.03934264
48	0xbd880af8	-0.06642717
49	0x3de26568	0.11054498
50	0x3d61ac84	0.055096164
51	0xbc8dc724	-0.017306872
52	0x3cf69950	0.030102402
53	0x3d2a5d73	0.041593026
54	0xbd89fa45	-0.06737188
55	0xbd32892f	-0.04358786
56	0x3cce0059	0.02514665
57	0x3d73cd3d	0.059521902
58	0x3d3b82c7	0.045779016
59	0x3da2e0ae	0.079530105
60	0x3cabbbb1	0.020963522
61	0x3da54621	0.08070017
62	0x3cffacc4	0.03121031
63	0x3dd66dbe	0.104701504
64	0x3d1a96c9	0.037741456
65	0xbd546f99	-0.05186424
66	0x3d88e919	0.06685085
67	0xbd03c08d	-0.032166053
68	0xbd92cb22	-0.07167651
69	0xbd9630e4	-0.07333544
70	0x3dc886b7	0.0979132
71	0x3d0aa747	0.033850934
72	0x3d87f5a2	0.066386476
73	0xbce090ec	-0.027412854
74	0xbdb81f29	-0.08990318
75	0x3d26c7b3	0.04071779
76	0xbd74fab5	-0.059809405
77	0x3d4c5843	0.04988886
78	0x3bc6a7be	0.006062477
79	0x3d53311f	0.051560517
80	0x3db70483	0.089364074
81	0xbd845594	-0.06461635
82	0x3d8fb19d	0.07016299
83	0xbca91ad7	-0.020642681
84	0x3be594b0	0.0070062503
85	0xbd3bef26	-0.045882367
86	0xbc8e7a9e	-0.017392453
87	0x3d60a244	0.05484225
88	0x3d563f0f	0.05230623
89	0xbd89864c	-0.06715068
90	0x3d10eb6f	0.035380777
91	0x3d12ed8a	0.035871066
92	0x3dacf005	0.084442176
93	0x3c396035	0.011314441
94	0x3e08f102	0.13373187
95	0x3df10f5c	0.11770508
96	0xbd7d44d3	-0.061833214
97	0x3d9f4920	0.07777619
98	0x3d52e56d	0.05148833
99	0xbc33a347	-0.010964221
100	0xbd5e8441	-0.054325346
101	0xbd7921ff	-0.060823437
102	0x3d581b62	0.05276049
103	0xbd031c38	-0.032009333
104	0x3d7a11b1	0.061052028
105	0x3cf42eb2	0.029807422
106	0xbc4f05e2	-0.01263568
107	0x3dc9e482	0.098580375
108	0xbd47415d	-0.04864632
109	0xbc693f27	-0.014236248
110	0x3dd842e8	0.10559636
111	0x3da5da6e	0.08098303
112	0x3e0feb43	0.14054589
113	0x3d9fabd3	0.07796445
114	0xbd744c28	-0.05964294
115	0x3d95b99a	0.07310791
116	0x3cfdc944	0.03097976
117	0x3de15b2e	0.11003719
118	0xbcc70056	-0.024292152
119	0x3da8ceb9	0.08242554
120	0xbc2fc608	-0.010728367
121	0x3d677f6a	0.056517996
122	0xbd0d1a53	-0.034448933
123	0x3d6856a8	0.056723267
124	0x3d9af02d	0.07565341
125	0x3dc5c77e	0.09657191
126	0xbd0dbca9	-0.03460375
127	0xbd7fa457	-0.062412586
128	0x3d8aee89	0.06783778
129	0xbd0fad62	-0.03507746
130	0xbd69823a	-0.05700896
131	0x3d62d8fb	0.05538271
132	0x3de6589c	0.1124737
133	0xbd86ba26	-0.06578474
134	0xbcef9373	-0.029245114
135	0xbd468efa	-0.048476197
136	0xbc0836ca	-0.008313844
137	0x3da186dd	0.07887051
138	0xbd9fa167	-0.07794457
139	0x3df1a82d	0.11799655
140	0x3d995c25	0.07488278
141	0x3ce19817	0.027538342
142	0x3db6af2f	0.08920132
143	0x3d93c08c	0.0721446
144	0x3d442a90	0.047892153
145	0xb9b29358	-0.00034060585
146	0xbd213631	-0.03935832
147	0xbdb75819	-0.0895235
148	0x3d8cbcde	0.06871961
149	0xbc1ab30e	-0.009442104
150	0xbdb1dd28	-0.0868476
151	0xbc82eee6	-0.015983056
152	0xbd5cd76e	-0.053916387
153	0x3dad91c5	0.08475069
154	0x3d933c51	0.07189239
155	0xbdd3065f	-0.103039496
156	0x3d470bb3	0.04859514
157	0xbcd6611f	-0.026169358
158	0x3dcdd350	0.1005007
159	0x3cfa35c8	0.030543223
160	0xbbad1c89	-0.0052829427
161	0x3d84e7b4	0.06489506
162	0xbd92380d	-0.07139597
163	0xbcc30e50	-0.023810536
164	0x3db33a10	0.08751309
165	0x3dd5043e	0.104012
166	0x3c860dc4	0.016363986
167	0x3d978fde	0.07400487
168	0xbd9a37be	-0.07530163
169	0xbd9f0be1	-0.077659376
170	0xbb67a2b4	-0.0035344781
171	0xbdbd22a2	-0.09235121
172	0x3dc775b8	0.0973925
173	0xbd4bfdf9	-0.049802754
174	0xbd3bd31d	-0.04585563
175	0x3d7ec212	0.0621968
176	0x3bfd75db	0.0077349967
177	0x3d636caa	0.055523552
178	0x3d850a7b	0.064961396
179	0xbd60267d	-0.054724205
180	0x3d5d2d77	0.053998437
181	0xbba118fd	-0.004916309
182	0x3d9afc7c	0.07567689
183	0xbd2debd6	-0.04246124
184	0x3d074a79	0.033030007
185	0x3d741fe2	0.05960072
186	0xbd9adf64	-0.0756214
187	0x3d5e630e	0.054293685
188	0xbc4b5493	-0.012410301
189	0x3d83c1fc	0.06433484
190	0xbd1690b0	-0.03675908
191	0xbbefcdd3	-0.0073182373
192	0xbdab4e36	-0.08364527
193	0x3a1e5a76	0.00060407014
194	0x3d9ea833	0.07746925
195	0x3d90d2ec	0.0707148
196	0xbd4c3ea0	-0.04986441
197	0xbda1ee8f	-0.079068296
198	0x3dad8d05	0.08474163
199	0xbd522f50	-0.051314652
200	0xbd8fbb58	-0.07018155
201	0xbd4e3f28	-0.0503532
202	0x3d53a37b	0.05166958
203	0x3cc75f49	0.024337428
204	0xbd13c91b	-0.03608046
205	0x3da6d17e	0.08145426
206	0x3df72aa6	0.120686814
207	0x3d308647	0.043096807
