pqc_reup_v1_output/model_20260209_135313.pth (torch, 61309 bytes, 6 tensors)

reupload_weights f4 [12, 3, 4]
0	0x3e428ccc	0.18999022
1	0x3e2d16da	0.16903248
2	0x3e081565	0.13289411
3	0xbd99e7e7	-0.07514935
4	0x3eace93b	0.3377169
5	0x3df84945	0.1212335
6	0x3e974294	0.29542983
7	0x3e9560d8	0.29175448
8	0x3dd63620	0.10459542
9	0x3eae5c1d	0.34054652
10	0x3e38d1a0	0.18048716
11	0x3e0865d9	0.13320102
12	0xbe568aaf	-0.20951341
13	0xbe16ed73	-0.14739017
14	0xbd92a08b	-0.071595274
15	0x3d8137fe	0.06309508
16	0x3dd70855	0.10499636
17	0xbe02adae	-0.12761566
18	0xbe718e60	-0.23589468
19	0xbe0ff930	-0.14059901
20	0x3e0c0b61	0.13676216
21	0x3e8d25d2	0.27567917
22	0x3e196a73	0.14982013
23	0x3e5d029c	0.21583027
24	0x3d3b97cb	0.045799058
25	0x3db45285	0.08804802
26	0x3ce18e42	0.027533654
27	0x3da18760	0.07887149
28	0x3eaec117	0.3413169
29	0x3eae4228	0.34034848
30	0x3ea0df28	0.31420255
31	0x3ed644ed	0.4184946
32	0xbe14641c	-0.14491314
33	0x3aff72eb	0.0019489204
34	0x3dbb5993	0.09147944
35	0x3e626248	0.22107804
36	0xbc8349e3	-0.016026443
37	0xbdbff12a	-0.0937217
38	0x3bad1a89	0.0052827043
39	0xbe4bdc08	-0.19908154
40	0xbce27b6c	-0.027646743
41	0x3e8db1aa	0.2767461
42	0x3c75fd10	0.015013948
43	0x3d31c956	0.0434049
44	0x3e7c2a5f	0.24625538
45	0x3f18b89e	0.59656703
46	0x3e834ea8	0.25645947
47	0x3e6abc5b	0.22923414
48	0x3c9adc83	0.018903976
49	0x3d1f095f	0.038827296
50	0x3dc04feb	0.09390243
51	0x3e16afab	0.1471545
52	0xbcce6183	-0.025192982
53	0x3e1476c5	0.14498432
54	0xbd28fcf1	-0.04125685
55	0xbd2df2a8	-0.042467743
56	0xbe402712	-0.18764904
57	0xbd2f70f6	-0.042832337
58	0xbd803c5c	-0.06261513
59	0x3c2cba76	0.010542503
60	0xbd930508	-0.07178694
61	0x3dd5b64c	0.10435161
62	0xbe47ae35	-0.19500048
63	0x3d6e5643	0.058187734
64	0x3dab2efa	0.083585694
65	0x3cdc2bd3	0.026876366
66	0x3e264079	0.16235532
67	0x39ee89ed	0.0004549766
68	0xbcfd0fd7	-0.030891342
69	0xbd95ea11	-0.07320035
70	0xbe243b26	-0.16038188
71	0x3dab6995	0.083697475
72	0xbcd80f81	-0.02637458
73	0x3d21f883	0.03954364
74	0xbc27c794	-0.010240454
75	0x3d7afb72	0.061274953
76	0xbc857948	-0.016293183
77	0xbe0d9508	-0.13826382
78	0xbe9a0099	-0.3007858
79	0xbde3187b	-0.11088654
80	0x3d82b22c	0.0638164
81	0x3c9775e4	0.018488832
82	0xbdbc4c2e	-0.091942176
83	0x3d6b457a	0.057439305
84	0x3e2c66bd	0.16836067
85	0x3dd9fba0	0.10643697
86	0x3e062296	0.13099131
87	0x3c9eb0e9	0.019371467
88	0xbe4c9226	-0.19977626
89	0xbea50efc	-0.32237995
90	0xbea7674b	-0.32695994
91	0xbe295f43	-0.16540246
92	0xbeba059d	-0.36332408
93	0xbe81b8b5	-0.25336233
94	0x3cdc0903	0.026859766
95	0xbd88b3d0	-0.066749215
96	0xbe98f2da	-0.2987278
97	0xbce54da7	-0.02799113
98	0xbd060a5f	-0.032724734
99	0xbd80746e	-0.06272207
100	0x3ea6f349	0.32607487
101	0x3ee9ea23	0.45686445
102	0x3f06d575	0.5266946
103	0x3ebbdbab	0.3669103
104	0xbebc898b	-0.36823687
105	0xbdd6b992	-0.104846135
106	0xbdc07ef6	-0.09399216
107	0xbe35f1ef	-0.17768072
108	0x3d7ea077	0.06216475
109	0x3e1ca04f	0.15295528
110	0x3d843a8d	0.0645648
111	0x3da73a55	0.08165423
112	0xbecfe7c0	-0.406065
113	0xbe989847	-0.29803678
114	0xbeb5e90b	-0.3552936
115	0xbec503f6	-0.38479584
116	0x3e0e381c	0.13888592
117	0x3d87f7d4	0.06639066
118	0xbbf5e5af	-0.007504187
119	0x3d048057	0.032348957
120	0xbdab259f	-0.08356785
121	0xbd8ae275	-0.067814745
122	0xbcd35d57	-0.025801344
123	0x3cd578e0	0.026058614
124	0x3d7e31f2	0.06205935
125	0xbcbe8a33	-0.023259258
126	0x3e110f6b	0.14166038
127	0x3dc28a67	0.094990544
128	0xbe3262af	-0.17420457
129	0xbe9470aa	-0.28992206
130	0xbee5449f	-0.44778916
131	0xbee139d3	-0.4398943
132	0xbc2ed39f	-0.010670572
133	0x3e40c5fe	0.18825528
134	0x3dadb6a5	0.08482102
135	0x3d93c965	0.07216147
136	0xbe8ea094	-0.27856886
137	0xbe948e0b	-0.2901462
138	0xbefb2414	-0.49050963
139	0xbe502ae7	-0.20328866
140	0xbe9be08f	-0.30444762
141	0xbc9a8af0	-0.018865079
142	0xbe3987aa	-0.18118158
143	0xbd293674	-0.041311696

reupload_bias f4 [12, 3]
0	0xbedcafa8	-0.43102765
1	0x3e938697	0.2881362
2	0x3e2756c9	0.163417
3	0x3ed8832f	0.42287585
4	0xbed37cc7	-0.41306135
5	0xbcc1ff34	-0.02368126
6	0xbe90ad8e	-0.28257412
7	0x3ef930b3	0.48669967
8	0xba9095db	-0.0011030989
9	0x3eba8f5d	0.36437503
10	0x3c563ada	0.013075555
11	0x3f299aa0	0.66251564
12	0xbea6bd82	-0.32566458
13	0x3e15d276	0.14631066
14	0xbe27f964	-0.16403729
15	0x3df45b9b	0.11931535
16	0xbe8cb95a	-0.27485162
17	0xbe276a71	-0.16349198
18	0xbdb75cf8	-0.08953279
19	0xbe5b5d2b	-0.2142226
20	0xbe30dbf5	-0.17271407
21	0xbf03c1be	-0.514675
22	0xbeceb993	-0.40375957
23	0xbdacc4d6	-0.08435981
24	0x3ed32f10	0.41246843
25	0x3f3aaefc	0.72923255
26	0xbf20586a	-0.6263491
27	0xbed55bec	-0.41671693
28	0xbeac7d52	-0.33689362
29	0x3d33ceb6	0.043898307
30	0x3e4d2af7	0.20035921
31	0x3e59a31e	0.2125363
32	0xbf264d14	-0.6496136
33	0xbecdc68a	-0.40190536
34	0xbeb0140c	-0.34390295
35	0x3d521d85	0.051297683

mlr.0.weight f4 [64, 12]
0	0x3b8a086f	0.004212431
1	0xbc8d331b	-0.017236283
2	0x3d8e21fc	0.06940076
3	0x3da5ad0d	0.080896474
4	0xbe863deb	-0.26219115
5	0xbdda2d76	-0.10653202
6	0x3e78efb0	0.24310184
7	0x3de64eb8	0.11245483
8	0xbc6b3dd1	-0.014358
9	0xbe323890	-0.1740439
10	0xbe34da04	-0.17661291
11	0xbe846555	-0.2585856
12	0xbd96ae56	-0.07357471
13	0x3ddfa182	0.10919477
14	0x3e490805	0.19631965
15	0x3e154c5f	0.14579915
16	0xbe73746a	-0.23774877
17	0xbe242c07	-0.1603242
18	0xbd030888	-0.031990558
19	0x3e9a059d	0.30082408
20	0x3d7aba49	0.06121281
21	0xbd730bbc	-0.059337363
22	0x3e0e7329	0.13911118
23	0xbdb02c6c	-0.08602223
24	0xbe3f54b8	-0.18684661
25	0x3e57c1d1	0.21070029
26	0xbe06694f	-0.1312611
27	0xbd6d08d9	-0.057869766
28	0xbe9308a2	-0.28717524
29	0x3e45d6b0	0.19320178
30	0x3e5ff596	0.21871027
31	0x3dd776d6	0.10520713
32	0xbe4e1dd8	-0.20128572
33	0xbe91df12	-0.28490502
34	0xbe701533	-0.23445587
35	0x3e5c6e75	0.21526511
36	0x3e0debbe	0.1385946
37	0x3e78c064	0.24292141
38	0x3e1adb91	0.1512282
39	0x3d95a139	0.073061414
40	0xbb394397	-0.0028269046
41	0xbe60cee1	-0.21953918
42	0xbe7d43c4	-0.24732882
43	0xbe8a3eff	-0.27001187
44	0x3df2047c	0.118172616
45	0xbe1121bc	-0.14173025
46	0xbd6df6b7	-0.058096614
47	0xbe2a1f0c	-0.16613406
48	0xbd5776ac	-0.05260341
49	0xbe500e52	-0.20317963
50	0xbe4126e0	-0.18862486
51	0x3dc41c12	0.095756665
52	0xbdafb459	-0.085793205
53	0x3e367d1c	0.17821163
54	0xbdbdaa0e	-0.09260951
55	0xbe58d84d	-0.21176262
56	0xbd509fad	-0.05093353
57	0xbe0f4aff	-0.13993452
58	0xbdb4dfec	-0.08831772
59	0xbe8cb4e0	-0.27481747
60	0x3e2a2f26	0.16619548
61	0xbe54cf9b	-0.2078232
62	0x3e0f3d37	0.13988195
63	0x3dfee79d	0.124465205
64	0x3e5213c0	0.20515347
65	0xbe6748a2	-0.22586301
66	0x3e50ac09	0.20378126
67	0xbe081543	-0.1328936
68	0x3ddf1b89	0.10893924
69	0x3e8a0ed7	0.26964447
70	0xbd19f412	-0.03758628
71	0x3ba0653e	0.0048948815
72	0xbd72a04a	-0.059234895
73	0xbe7af175	-0.24506171
74	0x3e1c0442	0.15235999
75	0xbe9944ea	-0.2993539
76	0x3e3e0683	0.18557172
77	0x3e5e2b4a	0.21696201
78	0x3e945de8	0.28977895
79	0xbda91a42	-0.082569614
80	0xbe71d27d	-0.23615451
81	0x3d7c23bb	0.061557513
82	0x3e37c12e	0.17944786
83	0xbe96875b	-0.29400143
84	0xbd8631bb	-0.06552454
85	0xbe313377	-0.17304789
86	0xbcced62a	-0.025248606
87	0xbe117ffd	-0.1420898
88	0xbdf1aa87	-0.11800104
89	0xbdbbaf0d	-0.09164248
90	0xbe8c74de	-0.27432913
91	0x3e728b75	0.23686011
92	0x3e77d042	0.24200538
93	0xbd397beb	-0.045284193
94	0xbd06a7da	-0.03287492
95	0xbdf14881	-0.11781407
96	0xbe857964	-0.26069176
97	0xbe8fd516	-0.2809226
98	0x3ddbba19	0.10728855
99	0xbe224cc5	-0.15849598
100	0xbe3e095d	-0.1855826
101	0xbcb882e7	-0.022523357
102	0xbdc4e0e0	-0.09613204
103	0xbdbf4484	-0.0933924
104	0x3c17f82b	0.009275476
105	0xbd7acdf8	-0.061231583
106	0xbdcb8f4f	-0.09939443
107	0xbe0d8960	-0.13821936
108	0xbe63ce6d	-0.22246714
109	0x3e76b77f	0.24093436
110	0xbdebdee9	-0.11517126
111	0x3d9b7826	0.07591276
112	0xbdc522f3	-0.09625807
113	0x3cc82d58	0.024435684
114	0x3e8a891d	0.27057734
115	0x3e11da34	0.14243394
116	0xbe7790a4	-0.2417627
117	0x3df6b2da	0.12045832
118	0x3e908d64	0.28232872
119	0x3db5ed9f	0.08883213
120	0x3e705c43	0.23472695
121	0x3ea2068a	0.31645614
122	0xbc525a9d	-0.012838987
123	0x3dbe73f4	0.0929946
124	0xbe284371	-0.16431977
125	0xbcde0b9d	-0.027105147
126	0x3e7bcaab	0.2458903
127	0x3e421384	0.18952757
128	0xbe125a22	-0.14292195
129	0xbe48ed26	-0.19621715
130	0xbe2381a6	-0.15967426
131	0xbe76d849	-0.24105944
132	0xbe64195c	-0.22275299
133	0xbd923431	-0.07138861
134	0x3e477ef6	0.19482026
135	0x3d45ea3d	0.04831909
136	0xbe60d667	-0.21956788
137	0xbe6d23db	-0.23158209
138	0x3e130e2b	0.14360873
139	0xbe5be1c8	-0.21472847
140	0xbd11966a	-0.035543837
141	0x3e0dcd7e	0.1384792
142	0xbe08cf0d	-0.13360234
143	0xbd00ee24	-0.03147711
144	0xbccdd859	-0.025127577
145	0xbd8bdea2	-0.06829573
146	0xbe15e162	-0.14636758
147	0xbe83c18e	-0.25733608
148	0xbe6ef3f9	-0.23335256
149	0xbe1e48c5	-0.15457447
150	0x3e8ec09f	0.27881333
151	0xbe0ec7e0	-0.13943434
152	0xbe468183	-0.19385342
153	0x3d8f4e19	0.06997318
154	0x3da2f152	0.079561844
155	0x3e21f6c5	0.15816791
156	0x3e8cb1ce	0.27479404
157	0x3e521873	0.20517139
158	0xbe7638c3	-0.2404509
159	0x3d8fbbe0	0.07018256
160	0x3e64f7d7	0.22360168
161	0x3c9a63f3	0.018846488
162	0xbdfd7020	-0.12374902
163	0x3ea808c1	0.3281918
164	0xbd63f4d3	-0.055653404
165	0xbdec6bac	-0.11543974
166	0xbe54f878	-0.20797908
167	0x3d8cf393	0.068823956
168	0x3d99be38	0.075069845
169	0x3db1a731	0.08674467
170	0x3d6d8cb3	0.05799551
171	0xbe459d3e	-0.19298264
172	0xbe897b73	-0.26851997
173	0x3cb6fc54	0.022337116
174	0x3e8613ee	0.2618708
175	0x3e1ffdf8	0.15624225
176	0xbe42ba4b	-0.19016378
177	0xbd1d4c40	-0.038402796
178	0xbe7f1edd	-0.24914117
179	0xbe2d76cd	-0.1693985
180	0x3da45255	0.08023516
181	0x3e294405	0.16529854
182	0x3e7fc780	0.24978447
183	0xbe8350b9	-0.25647524
184	0x3e56522b	0.20929782
185	0xbe46be6f	-0.19408582
186	0x3df549f6	0.119769976
187	0x3e88818c	0.26661336
188	0x3cdab4b5	0.026697496
189	0x3e8e358b	0.27775225
190	0xbe655e79	-0.2239932
191	0xbda92d13	-0.0826055
192	0x3e27c893	0.16385107
193	0xbd9058ae	-0.07048164
194	0xbd844e45	-0.06460241
195	0xbe04433d	-0.12916274
196	0x3e45587b	0.19272034
197	0x3e09a387	0.13441287
198	0x3db24aa2	0.08705641
199	0xbe2ebe5c	-0.17064804
200	0xbe766c87	-0.24064837
201	0x3cc5518b	0.024086734
202	0x3da61a2d	0.081104614
203	0xbe0f81b9	-0.14014329
204	0xbda56b12	-0.08077063
205	0x3e47a415	0.19496186
206	0x3cbc61a2	0.022995774
207	0x3c5564e2	0.013024541
208	0xbd917f0c	-0.071043104
209	0xbe85d901	-0.26142123
210	0xbe8af8bc	-0.27142894
211	0xbe0d4d87	-0.13799106
212	0xbe1642f2	-0.14673975
213	0x3db8314c	0.08993778
214	0xbdac1b4b	-0.08403643
215	0xbde74b0a	-0.112936094
216	0x3ea7ec9b	0.32797703
217	0x3e0fc6ec	0.14040726
218	0x3e7e796b	0.24851005
219	0xbdcd3abc	-0.10020968
220	0xbd946aa4	-0.072469026
221	0x3e173537	0.14766394
222	0xbe18337e	-0.14863393
223	0xbe0f739e	-0.14008948
224	0x3d0f74bd	0.03502344
225	0xbd7806cc	-0.060553357
226	0xbe29f773	-0.165983
227	0x3e64e53d	0.22353072
228	0x3e915121	0.2838221
229	0x3da375ed	0.07981477
230	0xbc6721ed	-0.01410721
231	0xbe6ff5b2	-0.23433569
232	0xbd838578	-0.064219415
233	0x3ddde3eb	0.108344875
234	0x3e31c70e	0.1736109
235	0x3c188b2c	0.009310525
236	0xbd8a83e2	-0.06763436
237	0x3e4dddaf	0.20104097
238	0xbe3b2d05	-0.18278892
239	0x3e6eea5a	0.23331586
240	0xbd35d518	-0.044392675
241	0x3d5bc4dc	0.053654537
242	0xbbb7c9d2	-0.0056087757
243	0x3dad0cd4	0.084497124
244	0xbcfe4b5e	-0.031041797
245	0x3e862331	0.26198724
246	0x3d391220	0.0451833
247	0x3e942310	0.28933
248	0x3eae0a01	0.33992007
249	0xbda9c88d	-0.08290205
250	0xbe17586a	-0.14779821
251	0x3e99efdb	0.30065808
252	0x3e67a38e	0.22620985
253	0xbe61b506	-0.22041711
254	0xbcb6cf13	-0.022315538
255	0xbe91c049	-0.28467014

mlr.0.bias f4 [64]
0	0xbda2912d	-0.07937846
1	0x3e5dfbb7	0.21678053
2	0x3db71e51	0.08941329
3	0xbd4e2dc2	-0.050336607
4	0x3d47be5c	0.048765525
5	0xbe0cad3c	-0.13737959
6	0x3dec6ec3	0.115445636
7	0x3de9dc28	0.114189446
8	0x3d9ec429	0.07752258
9	0xbe2273b6	-0.15864453
10	0x3e7a06d3	0.24416666
11	0xbd2ab479	-0.04167602
12	0xbde62aa7	-0.11238604
13	0x3e478ad8	0.19486558
14	0x3ebcd5e6	0.36881942
15	0x3e752fa2	0.23943952
16	0x3da1435d	0.07874177
17	0xbdc989ea	-0.09840758
18	0x3e1a03b0	0.15040469
19	0x3e66564b	0.22493856
20	0xbe958470	-0.29202604
21	0xbd127c4e	-0.035763077
22	0xbe7d8e68	-0.24761355
23	0x3d5c5ab1	0.053797428
24	0x3da6d18d	0.081454374
25	0xbd81cafc	-0.06337544
26	0xbcc5d5ab	-0.024149736
27	0x3d78eb19	0.06077108
28	0xbd46ba56	-0.048517548
29	0xbe87e6df	-0.26543328
30	0x3e41210f	0.18860267
31	0xbe14c80d	-0.14529438
32	0xbdb79147	-0.08963256
33	0x3cdf10c7	0.02722968
34	0xbc92c47c	-0.017915957
35	0xbe8b08f3	-0.27155265
36	0x3e079f70	0.13244414
37	0xbe0645b8	-0.13112533
38	0xbe22c502	-0.15895465
39	0x3d18b92d	0.037285972
40	0xbe1a43a0	-0.1506486
41	0xbe4effea	-0.20214811
42	0xbdc73501	-0.097269066
43	0xbdff508c	-0.12466535
44	0xbdf6e8f9	-0.12056155
45	0xbdb17781	-0.08665372
46	0x3c6ce852	0.014459686
47	0xbe6f3520	-0.2336011
48	0xbe32ec41	-0.17472936
49	0x3b8a066a	0.0042121904
50	0x3d246f9e	0.04014551
51	0x3db89fc8	0.09014851
52	0xbe564124	-0.20923287
53	0x3dbcb61c	0.09214422
54	0x3df2482e	0.118301734
55	0x3dc91e92	0.09820284
56	0xbe8b3d5b	-0.27195248
57	0xbe214801	-0.15750124
58	0xbe9c3c18	-0.30514598
59	0xbe492729	-0.19643845
60	0x3e1f84e6	0.1557804
61	0xbd308e8d	-0.043104697
62	0x3dfb1799	0.1226036
63	0xbe2d8562	-0.16945413

mlr.2.weight f4 [208, 64]
0	0x3c9b9b60	0.018994987
1	0xbd666409	-0.056247745
2	0x3d7ff1d8	0.0624865
3	0xbd5ff024	-0.054672375
4	0xbd006380	-0.03134489
5	0xbdaae464	-0.08344343
6	0xbc878221	-0.016541542
7	0x3df31122	0.11868502
8	0x3d78837c	0.06067227
9	0xbd0ab349	-0.033862386
10	0x3c70cc0e	0.014697088
11	0xbc608f60	-0.013706058
12	0xbdce1958	-0.10063428
13	0x3e044af2	0.12919214
14	0xbbe1bb59	-0.0068887887
15	0x3d4ce036	0.05001851
16	0xbd2e8afe	-0.042613022
17	0xbd6f9318	-0.05848989
18	0x3d25ef68	0.04051152
19	0x3d8b7b1d	0.06810591
20	0x3da728c9	0.08162076
21	0xbd76c180	-0.06024313
22	0x3e1c64f0	0.1527288
23	0xbc96bcc0	-0.01840055
24	0xbd49c86c	-0.049263403
25	0xbcc1f1ae	-0.023674812
26	0x3dfc0300	0.1230526
27	0x3cce4cf6	0.025183182
28	0xbc8b0088	-0.016968027
29	0xbc87a5df	-0.016558586
30	0xbc948416	-0.01812939
31	0xbdd79c4a	-0.10527857
32	0xbd8de868	-0.069290936
33	0x3d95d588	0.073161185
34	0x3e0cc1a1	0.13745739
35	0x3df44d08	0.11928755
36	0xbdb8d136	-0.09024279
37	0x3d8a7604	0.06760791
38	0xbd8d3a03	-0.068958305
39	0x3dd4ec39	0.103966184
40	0x3db8b7c8	0.090194285
41	0x3e069df3	0.1314619
42	0x3db85548	0.09000641
43	0x3ddfc0cd	0.10925446
44	0x3b1f7240	0.0024329573
45	0x3dbc71eb	0.09201416
46	0xbc8c4985	-0.0171249
47	0x3d5ef150	0.054429352
48	0xbd248ecc	-0.040175244
49	0xbb098e00	-0.002098918
50	0xbdded126	-0.10879736
51	0xbbe35f54	-0.006938854
52	0xbd05a507	-0.032628085
53	0xbd2cb550	-0.0421651
54	0xbd7c77a4	-0.061637536
55	0xbdb09114	-0.086214215
56	0x3d118031	0.035522643
57	0x3de43f5e	0.11144899
58	0x3e17572b	0.14779346
59	0x3dec8f59	0.11550779
60	0xbd1ce97b	-0.0383086
61	0xbdfd2fbe	-0.12362622
62	0x3d42356c	0.04741423
63	0x3d8f70bc	0.07003924
64	0xbddbc772	-0.107314005
65	0x3da8d367	0.08243447
66	0x3dd87132	0.10568465
67	0x3bf81f20	0.0075720698
68	0xbd9a3abe	-0.075307354
69	0x3e0d843f	0.13819979
70	0x3c4f602f	0.012657209
71	0x3da98604	0.082775146
72	0xbdad210c	-0.08453569
73	0x3deff1cc	0.11716041
74	0xbd35839f	-0.044314977
75	0x3dfd4f80	0.12368679
76	0xbd58ef2c	-0.052962467
77	0x3e04f09c	0.1298241
78	0x3c44f731	0.012021826
79	0x3d93194a	0.07182558
80	0xbc3ec400	-0.01164341
81	0x3d524be8	0.05134192
82	0xbbeca3ca	-0.0072216736
83	0xbd9ab2ce	-0.075536355
84	0x3ceceb4c	0.028920792
85	0x3dc895fc	0.09794232
86	0x3c9a3ff6	0.018829327
87	0x3d20ee58	0.039289802
88	0xbb4f8016	-0.0031662039
89	0x3e1863e2	0.14881852
90	0x3d9936a8	0.07481128
91	0x3da80665	0.08204345
92	0xbd82db7e	-0.06389521
93	0xbd546f24	-0.051863804
94	0x3d01f950	0.031731904
95	0xbd962f34	-0.07333222
96	0x3e11f8d7	0.14255081
97	0xbdf60282	-0.12012197
98	0x3ddcb90f	0.107774846
99	0x3dff35c2	0.12461425
100	0x3d80364a	0.06260355
101	0x3d2e94c4	0.042622343
102	0xbde4de03	-0.11175158
103	0x3e2860d2	0.16443184
104	0xbcaf2718	-0.021380946
105	0xbd95eaf8	-0.07320207
106	0x3dfcb6b4	0.12339535
107	0xbb6d0437	-0.0036165842
108	0xbc10e420	-0.008843452
109	0x3e2d66cd	0.16933747
110	0xbd37b85b	-0.04485355
111	0xbdb51e10	-0.088436246
112	0x3ca68528	0.020327166
113	0xbc891100	-0.016731739
114	0x3cebdeb8	0.028792724
115	0xbd884543	-0.066538356
116	0x3d73a877	0.059486832
117	0xbd63b78c	-0.055594966
118	0xbd02c81b	-0.031929117
119	0xbd9ce977	-0.076617174
120	0x3d7cef4a	0.06175164
121	0x3d8d893d	0.06910942
122	0xbd5c3529	-0.053761635
123	0x3e265976	0.16245064
124	0x3db51e57	0.088436775
125	0x3cbe0448	0.0231954
126	0xbd964e92	-0.07339205
127	0x3c9a6c80	0.018850565
128	0x3df6aa92	0.120442525
129	0x3df959c3	0.12175324
130	0xbdc7640a	-0.09735878
131	0x3de9aea6	0.11410265
132	0x3c1ebd70	0.00968872
133	0x3db731b0	0.08945024
134	0x3e120191	0.1425841
135	0x3dda3e0a	0.10656364
136	0xbdc78f98	-0.09744185
137	0x3e153e9f	0.1457467
138	0xbd2cbd57	-0.042172756
139	0x3c1987d0	0.009370759
140	0xbdb2e22c	-0.08734545
141	0x3cd090c2	0.02545965
142	0x3de10974	0.10988131
143	0x3cb0e45f	0.02159327
144	0xbc0fb8bc	-0.008772071
145	0x3c2186e0	0.009858817
146	0x3e2890c8	0.1646148
147	0x3de4f84b	0.111801706
148	0x3e056c2c	0.13029546
149	0x3d4ced3c	0.05003093
150	0x3e068bf6	0.13139328
151	0xbbbd06c0	-0.005768627
152	0x3d499f7c	0.04922436
153	0x3d9608ab	0.07325872
154	0xbddf43f2	-0.109016314
155	0xbd866f22	-0.06564166
156	0x3c7b1670	0.015325174
157	0xbbe6056b	-0.007019689
158	0x3cf6e7f9	0.03013991
159	0xbceaf740	-0.028682351
160	0x3d5a3e32	0.05328197
161	0x3da68ebe	0.08132695
162	0x3b806754	0.0039185677
163	0x3dcd0534	0.10010758
164	0x3dca20b8	0.09869522
165	0xbdc47ac2	-0.09593727
166	0xbdb44d28	-0.08803779
167	0xbd7d23fb	-0.06180189
168	0xbd8c4b0e	-0.06850253
169	0xbc2347dd	-0.009965864
170	0xbc1a26e0	-0.009408683
171	0x3c0eb10e	0.008709205
172	0xbd8157f8	-0.06315607
173	0x3c030e33	0.007998991
174	0xbbe14a82	-0.006875337
175	0x3dfb2552	0.12262978
176	0xbd3dc310	-0.046328604
177	0xbdb74bd6	-0.089500114
178	0x3d54d650	0.051962197
179	0x3ce043ee	0.027376141
180	0x3e0b63f5	0.1361235
181	0x3d9ff508	0.07810408
182	0x3e108e3e	0.14116761
183	0xbd68e955	-0.056863148
184	0x3dc65414	0.096840054
185	0x3e137af8	0.14402378
186	0xbcdf786e	-0.027279105
187	0x3e27c36d	0.16383143
188	0x3e103feb	0.14086883
189	0x3ab36c80	0.0013688952
190	0x3d76dcb0	0.060269058
191	0xbd330198	-0.04370269
192	0xbddf4770	-0.109022975
193	0x3d30b64a	0.043142594
194	0x3d18a3e0	0.03726566
195	0xbda74fa4	-0.08169487
196	0x3d7851e0	0.060624957
197	0xbda0189c	-0.07817194
198	0xbda700bb	-0.08154436
199	0x3df7e86e	0.12104879
200	0x3d0b6574	0.0340323
201	0xbd183988	-0.03716424
202	0x3d6ba65c	0.0575317
203	0x3cae8178	0.02130197
204	0x3d0b38f0	0.033989847
205	0x3d92599a	0.071459964
206	0xbdb2b315	-0.087255634
207	0xbd09078d	-0.033454467
208	0xbce09323	-0.02741391
209	0x3d0ba01c	0.03408824
210	0x3cfeab35	0.031087497
211	0x3df376cc	0.11887893
212	0x3c11432b	0.008866112
213	0xbb9529a0	-0.004552081
214	0x3d9709c0	0.073749065
215	0xbd07fb48	-0.033198625
216	0x3de50857	0.11183231
217	0x3d5f7769	0.054557238
218	0xbdec9a56	-0.11552875
219	0x3c1d68ca	0.009607503
220	0xbd68389c	-0.056694612
221	0x3d662cbf	0.056195017
222	0xbca234a4	-0.019800492
223	0xbdfdef66	-0.12399177
224	0x3c81b6be	0.015834209
225	0xbc4427f0	-0.0119724125
226	0xbbbf06c3	-0.0058296635
227	0x3deb3532	0.114847556
228	0xbcdf6f98	-0.027274892
229	0x3da47574	0.08030215
230	0x3d20d2c4	0.0392635
231	0xbd951098	-0.07278556
232	0x3cf0a030	0.029373258
233	0x3e1688e9	0.14700665
234	0xbda77324	-0.08176258
235	0xbd31c4dc	-0.04340063
236	0x3dfa95da	0.12235613
237	0x3e0bfac0	0.13669872
238	0xbd2a7da8	-0.04162374
239	0x3d9a0bf6	0.075218126
240	0xbc8300a0	-0.015991509
241	0xbdfc65de	-0.12324117
242	0x3c19df90	0.00939168
243	0x3d89e13f	0.067324154
244	0x3c05108d	0.008121622
245	0x3d321dc8	0.043485433
246	0xbdb9eeae	-0.09078728
247	0x3de628bc	0.11238238
248	0x3e01ac54	0.12663394
249	0x3dd22096	0.102601215
250	0x3d9918a0	0.074754
251	0x3dcdce7e	0.10049151
252	0xbd840bfb	-0.064475976
253	0xbcffded0	-0.031234175
254	0xbc438480	-0.011933446
255	0xbd8e75e0	-0.069560766

mlr.2.bias f4 [208]
0	0x3d6ca028	0.057769924
1	0x3ac9faae	0.0015409791
2	0xbda7450b	-0.08167466
3	0x3d3701c0	0.044679403
4	0x3daeb46b	0.08530506
5	0x3db7d1dc	0.089755744
6	0x3dcd3a49	0.10020883
7	0xbd5492fb	-0.051897984
8	0x3d98984b	0.074509226
9	0x3dcd6745	0.10029463
10	0x3d928ddf	0.07155966
11	0xbd37e67c	-0.04489754
12	0x3dcb14df	0.0991609
13	0xbd9ff7b3	-0.07810917
14	0xbd6c06a1	-0.05762351
15	0x3dad23e4	0.08454111
16	0x3daaabf1	0.083335765
17	0x3d3db4f8	0.046315163
18	0xbc603432	-0.013684319
19	0xbd8bf90b	-0.068346106
20	0x3d8b9553	0.06815591
21	0xbcf7e607	-0.030261053
22	0x3d7a1f44	0.061064973
23	0x3cd7a36f	0.026323048
24	0x3d490a2a	0.04908196
25	0x3d4f9e23	0.05068792
26	0xbc9d4202	-0.019196514
27	0xbc1ad3ea	-0.009449938
28	0xbc577cca	-0.013152311
29	0xbc880c1c	-0.016607337
30	0xbd6d8fcc	-0.057998464
31	0x3d34be27	0.044126656
32	0x3d5601e0	0.052247882
33	0xbdcc34b0	-0.09970987
34	0xbcf33b37	-0.029691322
35	0xbd9fdfad	-0.07806335
36	0x3c5b8477	0.013398281
37	0xbcf70caf	-0.030157415
38	0x3dca3dd3	0.09875073
39	0xbd9977d5	-0.07493559
40	0xbcdcea1c	-0.0269671
41	0x3e0b9fdf	0.13635205
42	0x3c3e0f84	0.011600379
43	0x3dbbdabe	0.09172581
44	0xbd1364ca	-0.03598479
45	0x3dba24b7	0.09089034
46	0xbd8de70e	-0.06928836
47	0xbd2125c0	-0.03934264
48	0xbd880af9	-0.06642718
49	0x3de26567	0.11054497
50	0x3d61ac89	0.055096183
51	0xbc8dc71a	-0.017306853
52	0x3cf6994b	0.030102393
53	0x3d2a5d76	0.041593038
54	0xbd89fa45	-0.06737188
55	0xbd32892f	-0.04358786
56	0x3cce0054	0.02514664
57	0x3d73cd38	0.059521884
58	0x3d3b82cc	0.045779034
59	0x3da2e0b1	0.07953013
60	0x3cabbbb1	0.020963522
61	0x3da54622	0.080700174
62	0x3cffacc4	0.03121031
63	0x3dd66dc7	0.10470157
64	0x3d1a96c3	0.037741434
65	0xbd546f99	-0.05186424
66	0x3d88e916	0.066850826
67	0xbd03c08e	-0.032166056
68	0xbd92cb21	-0.0716765
69	0xbd9630e6	-0.073335454
70	0x3dc886ba	0.09791322
71	0x3d0aa747	0.033850934
72	0x3d87f59e	0.06638645
73	0xbce090f1	-0.027412863
74	0xbdb81f26	-0.08990316
75	0x3d26c7b9	0.040717814
76	0xbd74fab4	-0.0598094
77	0x3d4c5843	0.04988886
78	0x3bc6a7d1	0.0060624857
79	0x3d533119	0.051560495
80	0x3db70483	0.089364074
81	0xbd845594	-0.06461635
82	0x3d8fb1a0	0.07016301
83	0xbca91ad7	-0.020642681
84	0x3be594b6	0.007006253
85	0xbd3bef20	-0.045882344
86	0xbc8e7a95	-0.017392436
87	0x3d60a244	0.05484225
88	0x3d563f0a	0.052306212
89	0xbd89864b	-0.067150675
90	0x3d10eb6e	0.035380773
91	0x3d12ed8e	0.03587108
92	0x3dacf001	0.084442146
93	0x3c39603b	0.011314447
94	0x3e08f101	0.13373186
95	0x3df10f59	0.117705055
96	0xbd7d44d4	-0.061833218
97	0x3d9f4925	0.07777623
98	0x3d52e571	0.051488344
99	0xbc33a33b	-0.01096421
100	0xbd5e8440	-0.054325342
101	0xbd792202	-0.060823448
102	0x3d581b64	0.052760497
103	0xbd031c32	-0.03200931
104	0x3d7a11b1	0.061052028
105	0x3cf42eb5	0.029807428
106	0xbc4f05d2	-0.012635665
107	0x3dc9e480	0.09858036
108	0xbd474158	-0.0486463
109	0xbc693f1f	-0.014236241
110	0x3dd842e9	0.10559637
111	0x3da5da6b	0.080983005
112	0x3e0feb45	0.14054592
113	0x3d9fabd9	0.07796449
114	0xbd744c32	-0.059642978
115	0x3d95b999	0.073107906
116	0x3cfdc94c	0.030979775
117	0x3de15b2c	0.11003718
118	0xbcc7005d	-0.024292165
119	0x3da8ceba	0.08242555
120	0xbc2fc60d	-0.010728371
121	0x3d677f6b	0.056518
122	0xbd0d1a56	-0.034448944
123	0x3d68569c	0.056723222
124	0x3d9af032	0.07565345
125	0x3dc5c77f	0.096571915
126	0xbd0dbca8	-0.034603745
127	0xbd7fa45d	-0.06241261
128	0x3d8aee88	0.067837775
129	0xbd0fad62	-0.03507746
130	0xbd69823d	-0.05700897
131	0x3d62d8fb	0.05538271
132	0x3de6589f	0.11247372
133	0xbd86ba25	-0.06578473
134	0xbcef936a	-0.029245097
135	0xbd468efb	-0.0484762
136	0xbc0836c4	-0.008313838
137	0x3da186dd	0.07887051
138	0xbd9fa161	-0.077944525
139	0x3df1a82e	0.11799656
140	0x3d995c25	0.07488278
141	0x3ce1981e	0.027538355
142	0x3db6af31	0.08920134
143	0x3d93c08d	0.072144605
144	0x3d442a93	0.047892164
145	0xb9b2941c	-0.00034061156
146	0xbd213631	-0.03935832
147	0xbdb75819	-0.0895235
148	0x3d8cbcdb	0.06871959
149	0xbc1ab301	-0.009442092
150	0xbdb1dd2d	-0.08684764
151	0xbc82eee4	-0.015983053
152	0xbd5cd76e	-0.053916387
153	0x3dad91c2	0.08475067
154	0x3d933c55	0.07189242
155	0xbdd30659	-0.10303945
156	0x3d470bb7	0.048595157
157	0xbcd6611c	-0.026169352
158	0x3dcdd350	0.1005007
159	0x3cfa35d0	0.030543238
160	0xbbad1c79	-0.005282935
161	0x3d84e7af	0.06489503
162	0xbd923806	-0.07139592
163	0xbcc30e4d	-0.02381053
164	0x3db33a0e	0.087513074
165	0x3dd5043a	0.10401197
166	0x3c860dc6	0.01636399
167	0x3d978fdc	0.07400486
168	0xbd9a37be	-0.07530163
169	0xbd9f0be0	-0.07765937
170	0xbb67a2b6	-0.0035344786
171	0xbdbd22a1	-0.092351206
172	0x3dc775b7	0.09739249
173	0xbd4bfdff	-0.049802776
174	0xbd3bd31d	-0.04585563
175	0x3d7ec212	0.0621968
176	0x3bfd75d9	0.007734996
177	0x3d636caa	0.055523552
178	0x3d850a7d	0.06496141
179	0xbd60267f	-0.054724213
180	0x3d5d2d72	0.05399842
181	0xbba118f4	-0.0049163047
182	0x3d9afc7e	0.0756769
183	0xbd2debdb	-0.042461257
184	0x3d074a7c	0.03303002
185	0x3d741fe4	0.059600726
186	0xbd9adf67	-0.07562142
187	0x3d5e6312	0.0542937
188	0xbc4b548f	-0.012410297
189	0x3d83c1fe	0.064334854
190	0xbd1690b0	-0.03675908
191	0xbbefcdc0	-0.0073182285
192	0xbdab4e38	-0.083645284
193	0x3a1e5b08	0.00060407864
194	0x3d9ea82d	0.07746921
195	0x3d90d2ed	0.07071481
196	0xbd4c3ea4	-0.049864426
197	0xbda1ee94	-0.07906833
198	0x3dad8d05	0.08474163
199	0xbd522f4d	-0.05131464
200	0xbd8fbb56	-0.07018153
201	0xbd4e3f2b	-0.05035321
202	0x3d53a37d	0.051669586
203	0x3cc75f4b	0.024337431
204	0xbd13c91f	-0.036080476
205	0x3da6d181	0.081454284
206	0x3df72aa8	0.12068683
207	0x3d308646	0.043096803
