pqc_reup_v1_backup/best_model_epoch_9.pth (torch, 61273 bytes, 6 tensors)

reupload_weights f4 [12, 3, 4]
0	0x3e4022da	0.18763295
1	0x3e32ff80	0.17480278
2	0x3de388ec	0.111101
3	0xbe134d30	-0.14384913
4	0x3e928146	0.28614253
5	0x3dc3c771	0.09559525
6	0x3e6288cd	0.22122498
7	0x3dadcc2a	0.08486207
8	0x3dbae0a2	0.091248766
9	0x3eac7170	0.33680296
10	0x3e0f2f7d	0.13982959
11	0x3d999283	0.07498648
12	0xbe240214	-0.16016418
13	0xbdbff665	-0.09373168
14	0xbdb83af2	-0.08995618
15	0x3d1d0ec9	0.03834418
16	0x3e4defcb	0.20111005
17	0xbcfbce0e	-0.030737903
18	0xbdb7803f	-0.08960008
19	0x3cd00e82	0.025397543
20	0x3dd58fbb	0.10427805
21	0x3e83e3df	0.2575979
22	0x3e427c86	0.18992814
23	0x3e8e3cf7	0.27780887
24	0x3d698d8f	0.057019766
25	0x3d882a67	0.066487126
26	0x3bbdcc7b	0.0057921982
27	0x3d87b65f	0.066265814
28	0x3e088c85	0.13334854
29	0x3e246da3	0.16057448
30	0x3dee96f4	0.11649886
31	0x3e7b34db	0.24531882
32	0xbdaac0c1	-0.08337546
33	0xbcbfe80d	-0.02342608
34	0x3d2a61b9	0.0415971
35	0x3e6e3562	0.23262551
36	0x3b45fcfa	0.00302106
37	0xbda8c00d	-0.08239756
38	0xbc2bc20b	-0.010483275
39	0xbe1c3b72	-0.15257052
40	0xbdd17b17	-0.10228556
41	0x3e1cdfa6	0.1531969
42	0xbd044f12	-0.03230197
43	0x3c92d0a5	0.017921755
44	0x3c582226	0.013191735
45	0x3eb2cdb8	0.34922576
46	0x3c3d839d	0.011567024
47	0x3d9cbc3a	0.07653089
48	0x3b13213a	0.0022450224
49	0x3cbcc889	0.023044841
50	0x3db7ec0a	0.08980568
51	0x3e0c96fa	0.13729468
52	0xbd97e24f	-0.07416212
53	0x3dc45ced	0.09588037
54	0xbdd37c5d	-0.10326455
55	0xbdc243bd	-0.09485576
56	0xbe342a76	-0.17594323
57	0xbd04e784	-0.032447353
58	0xbd33c448	-0.04388836
59	0x3cec3054	0.028831638
60	0xbd8609b7	-0.06544822
61	0x3de2bbe7	0.11070996
62	0xbe433437	-0.19062887
63	0x3d8eb160	0.06967425
64	0x3dcc39a6	0.09971933
65	0x3d1fa527	0.03897586
66	0x3e328ba1	0.17436077
67	0x3bb491fa	0.005510566
68	0xbbb2be14	-0.005454788
69	0xbd43fb0e	-0.047846846
70	0xbe091f1b	-0.13390772
71	0x3dc5a92c	0.096514076
72	0xbcf7cc79	-0.030248867
73	0x3d216631	0.039404098
74	0xbbaa9227	-0.005205411
75	0x3d0f0348	0.03491524
76	0x3caa9a31	0.020825477
77	0xbdcd82ee	-0.100347385
78	0xbe826e9a	-0.25475007
79	0xbdd98ba3	-0.10622337
80	0x3dc8b0bb	0.09799334
81	0x3d82a2e9	0.06378729
82	0xbd0fa5dd	-0.03507029
83	0x3d2b3944	0.04180266
84	0x3dd8380b	0.10557564
85	0x3dc6044d	0.09668789
86	0x3dea868c	0.11451444
87	0x3c99d7b8	0.01877962
88	0xbe44db7f	-0.19224356
89	0xbea21658	-0.31657672
90	0xbebb3007	-0.3656008
91	0xbe4a562d	-0.19759436
92	0xbed9178a	-0.4240077
93	0xbeaba989	-0.33527783
94	0xbdca1d14	-0.098688275
95	0xbe3efb71	-0.18650605
96	0xbe991d66	-0.29905242
97	0xbbf35018	-0.0074253194
98	0x3d060a08	0.03272441
99	0xbd3f56cd	-0.04671364
100	0x3e3606e9	0.17776074
101	0x3e555698	0.20833814
102	0x3e8de4a7	0.2771351
103	0x3ddbc65d	0.10731194
104	0xbe9ba8d6	-0.3040225
105	0xbe5df1d0	-0.21674275
106	0xbe82c995	-0.2554442
107	0xbe8cd564	-0.27506554
108	0x3d7fee3a	0.06248305
109	0x3e1be507	0.15224086
110	0x3d42d7b5	0.047568996
111	0x3d18e7e5	0.037330527
112	0xbed7be0b	-0.4213718
113	0xbe95d4ca	-0.29263908
114	0xbeadd366	-0.33950347
115	0xbe7537ef	-0.23947118
116	0xbd4664a8	-0.048435837
117	0xbdd643f6	-0.10462181
118	0xbe1fe3e9	-0.15614285
119	0xbd9a0fdd	-0.07522557
120	0xbd753a85	-0.05987026
121	0xbd0fee7b	-0.035139542
122	0xbd155ac9	-0.036463533
123	0x3c8bf4a3	0.017084425
124	0x3e00c894	0.12576514
125	0x3d456b7f	0.04819822
126	0x3dd53af3	0.10411634
127	0x3d8f33a0	0.069922686
128	0x3d71b42a	0.05900971
129	0xbd0eb6e9	-0.034842405
130	0xbe91be22	-0.28465372
131	0xbe7c198b	-0.24619119
132	0xbc8b88a7	-0.017032934
133	0x3e32bd5c	0.17455047
134	0x3d56edbf	0.052472826
135	0x3d2b8cee	0.041882448
136	0xbd634284	-0.055483356
137	0xbe1e289a	-0.15445176
138	0xbeb0dc8e	-0.3454327
139	0xbd9bcb36	-0.07607119
140	0xbe0ff02f	-0.14056467
141	0x3cedba54	0.029019512
142	0xbe020f2f	-0.12701105
143	0x39b9ebcf	0.0003546164

reupload_bias f4 [12, 3]
0	0xbea8c5de	-0.3296346
1	0x3e909bc3	0.28243837
2	0x3e798c66	0.24369964
3	0x3eabf5a1	0.33585837
4	0xbe6b41f7	-0.22974382
5	0x3cc7a373	0.02436993
6	0xbe5c743f	-0.2152872
7	0x3e8c3e59	0.27391317
8	0x3dcfa3d8	0.101386726
9	0x3e8a9c11	0.27072194
10	0xbd0f5f33	-0.0350029
11	0x3ecfee9c	0.40611732
12	0xbe925bad	-0.28585568
13	0xbb3600a2	-0.0027771373
14	0xbe08e7ab	-0.13369624
15	0x3dbbc7dc	0.091689795
16	0xbe5a2768	-0.21304095
17	0xbd7618fb	-0.060082417
18	0xbd311682	-0.043234356
19	0xbdea8a2d	-0.11452136
20	0xbccd33c1	-0.025049092
21	0xbec667c2	-0.38751036
22	0xbecbef5f	-0.39831063
23	0xbe746564	-0.23866802
24	0x3e992ac3	0.29915437
25	0x3f098959	0.537252
26	0xbf0a37c2	-0.5399133
27	0xbe9f167f	-0.3107185
28	0xbe7b0925	-0.24515207
29	0xbe4dd9ad	-0.20102568
30	0x3e061e2f	0.13097452
31	0x3e1f0da1	0.15532543
32	0xbec96a8c	-0.393391
33	0xbe947faf	-0.29003665
34	0xbe695bf6	-0.22788987
35	0xbd1d3a30	-0.03838557

mlr.0.weight f4 [64, 12]
0	0x3b8a086f	0.004212431
1	0xbc8d331b	-0.017236283
2	0x3d8e21fc	0.06940076
3	0x3da5ad0d	0.080896474
4	0xbe863deb	-0.26219115
5	0xbdda2d76	-0.10653202
6	0x3e78efb0	0.24310184
7	0x3de64eb8	0.11245483
8	0xbc6b3dd1	-0.014358
9	0xbe323890	-0.1740439
10	0xbe34da04	-0.17661291
11	0xbe846555	-0.2585856
12	0xbd94848e	-0.07251845
13	0x3de02edb	0.10946437
14	0x3e4aac8c	0.19792384
15	0x3e14cc2e	0.14531013
16	0xbe7315ce	-0.23738787
17	0xbe259b82	-0.16172603
18	0xbcfd255d	-0.030901605
19	0x3e9817b5	0.29705587
20	0x3d7ae89d	0.061256994
21	0xbd78eea8	-0.060774475
22	0x3e0e0ae9	0.1387135
23	0xbdb7602f	-0.089538924
24	0xbe3f54b8	-0.18684661
25	0x3e57c1d1	0.21070029
26	0xbe06694f	-0.1312611
27	0xbd6d08d9	-0.057869766
28	0xbe9308a2	-0.28717524
29	0x3e45d6b0	0.19320178
30	0x3e5ff596	0.21871027
31	0x3dd776d6	0.10520713
32	0xbe4e1dd8	-0.20128572
33	0xbe91df12	-0.28490502
34	0xbe701533	-0.23445587
35	0x3e5c6e75	0.21526511
36	0x3e0debbe	0.1385946
37	0x3e78c064	0.24292141
38	0x3e1adb91	0.1512282
39	0x3d95a139	0.073061414
40	0xbb394397	-0.0028269046
41	0xbe60cee1	-0.21953918
42	0xbe7d43c4	-0.24732882
43	0xbe8a3eff	-0.27001187
44	0x3df2047c	0.118172616
45	0xbe1121bc	-0.14173025
46	0xbd6df6b7	-0.058096614
47	0xbe2a1f0c	-0.16613406
48	0xbd5776ac	-0.05260341
49	0xbe500e52	-0.20317963
50	0xbe4126e0	-0.18862486
51	0x3dc41c12	0.095756665
52	0xbdafb459	-0.085793205
53	0x3e367d1c	0.17821163
54	0xbdbdaa0e	-0.09260951
55	0xbe58d84d	-0.21176262
56	0xbd509fad	-0.05093353
57	0xbe0f4aff	-0.13993452
58	0xbdb4dfec	-0.08831772
59	0xbe8cb4e0	-0.27481747
60	0x3e2314ec	0.1592595
61	0xbe590e47	-0.21196853
62	0x3e0aef69	0.1356789
63	0x3df5b267	0.11996918
64	0x3e4cfd58	0.20018518
65	0xbe6d9f1e	-0.2320523
66	0x3e4bb9af	0.19895051
67	0xbe114a20	-0.14188433
68	0x3dd2a42c	0.102852196
69	0x3e866da8	0.26255536
70	0xbd389fc8	-0.045074254
71	0xbba98f9e	-0.005174591
72	0xbd99d9f7	-0.075122766
73	0xbe7fb2ac	-0.24970502
74	0x3e04fc27	0.12986813
75	0xbe972978	-0.29523826
76	0x3e2ea397	0.17054592
77	0x3e544e30	0.20732951
78	0x3e8756e4	0.2643348
79	0xbd9d312a	-0.07675393
80	0xbe7bbfd5	-0.24584897
81	0x3d665a7e	0.056238644
82	0x3e1a6cab	0.15080516
83	0xbe978aed	-0.2959818
84	0xbd8631bb	-0.06552454
85	0xbe313377	-0.17304789
86	0xbcced62a	-0.025248606
87	0xbe117ffd	-0.1420898
88	0xbdf1aa87	-0.11800104
89	0xbdbbaf0d	-0.09164248
90	0xbe8c74de	-0.27432913
91	0x3e728b75	0.23686011
92	0x3e77d042	0.24200538
93	0xbd397beb	-0.045284193
94	0xbd06a7da	-0.03287492
95	0xbdf14881	-0.11781407
96	0xbe857964	-0.26069176
97	0xbe8fd516	-0.2809226
98	0x3ddbba19	0.10728855
99	0xbe224cc5	-0.15849598
100	0xbe3e095d	-0.1855826
101	0xbcb882e7	-0.022523357
102	0xbdc4e0e0	-0.09613204
103	0xbdbf4484	-0.0933924
104	0x3c17f82b	0.009275476
105	0xbd7acdf8	-0.061231583
106	0xbdcb8f4f	-0.09939443
107	0xbe0d8960	-0.13821936
108	0xbe6e6d50	-0.23283887
109	0x3e71ec35	0.23625262
110	0xbdf5c714	-0.12000862
111	0x3d90b502	0.070657745
112	0xbdd08118	-0.10180873
113	0x3c94371e	0.018092688
114	0x3e87d0df	0.26526543
115	0x3e07700b	0.13226335
116	0xbe7ffc3f	-0.24998568
117	0x3de3e2d7	0.11127251
118	0x3e8c47af	0.2739844
119	0x3d9eb068	0.077484906
120	0x3e71e770	0.23623443
121	0x3ea32a08	0.31868005
122	0xbc0ecd3c	-0.008715924
123	0x3dc0ac1b	0.094078265
124	0xbe2578ab	-0.16159312
125	0xbccfc24c	-0.025361203
126	0x3e7ffa93	0.2499793
127	0x3e401ac9	0.18760218
128	0xbe113dcb	-0.14183728
129	0xbe48090b	-0.195347
130	0xbe20a8dc	-0.15689415
131	0xbe78ad2e	-0.24284813
132	0xbe64195c	-0.22275299
133	0xbd923431	-0.07138861
134	0x3e477ef6	0.19482026
135	0x3d45ea3d	0.04831909
136	0xbe60d667	-0.21956788
137	0xbe6d23db	-0.23158209
138	0x3e130e2b	0.14360873
139	0xbe5be1c8	-0.21472847
140	0xbd11966a	-0.035543837
141	0x3e0dcd7e	0.1384792
142	0xbe08cf0d	-0.13360234
143	0xbd00ee24	-0.03147711
144	0xbccdd859	-0.025127577
145	0xbd8bdea2	-0.06829573
146	0xbe15e162	-0.14636758
147	0xbe83c18e	-0.25733608
148	0xbe6ef3f9	-0.23335256
149	0xbe1e48c5	-0.15457447
150	0x3e8ec09f	0.27881333
151	0xbe0ec7e0	-0.13943434
152	0xbe468183	-0.19385342
153	0x3d8f4e19	0.06997318
154	0x3da2f152	0.079561844
155	0x3e21f6c5	0.15816791
156	0x3e8a4b48	0.2701056
157	0x3e518658	0.20461404
158	0xbe76f7d4	-0.24117976
159	0x3d8ded4a	0.06930025
160	0x3e639222	0.22223714
161	0x3c922606	0.017840397
162	0xbdfefa4e	-0.124500856
163	0x3ea5b026	0.32360953
164	0xbd718ae9	-0.058970366
165	0xbdf1d32c	-0.11807856
166	0xbe584556	-0.211202
167	0x3d81c011	0.06335462
168	0x3de7e8ad	0.11323676
169	0x3d49967e	0.049215786
170	0x3d2daaf8	0.042399377
171	0xbe6f3875	-0.2336138
172	0xbe918c8f	-0.2842755
173	0xbc1d53ab	-0.0096024675
174	0x3e7e80ba	0.24853793
175	0x3e1b808f	0.1518576
176	0xbe3b25ea	-0.18276182
177	0xbd55a3a0	-0.052157998
178	0xbe68f38d	-0.22749157
179	0xbe1da4a7	-0.15394841
180	0x3d933f9a	0.071898654
181	0x3e2a304c	0.16619986
182	0x3e801ca7	0.2502186
183	0xbe831862	-0.2560454
184	0x3e551d5e	0.20811984
185	0xbe47410a	-0.19458404
186	0x3df5b3ae	0.11997162
187	0x3e84f690	0.25969362
188	0x3cae3475	0.021265248
189	0x3e8c51bd	0.2740611
190	0xbe6a7e45	-0.2289973
191	0xbdbc4201	-0.09192277
192	0x3e1f98fa	0.155857
193	0xbd9a7347	-0.07541519
194	0xbd92ae25	-0.07162122
195	0xbe0806de	-0.1328387
196	0x3e3ef186	0.18646821
197	0x3e042dac	0.12908047
198	0x3da3cc80	0.0799799
199	0xbe32edd4	-0.17473537
200	0xbe7cc518	-0.2468456
201	0x3c9942e3	0.018708652
202	0x3d9583e0	0.07300544
203	0xbe154b2f	-0.14579462
204	0xbda56b12	-0.08077063
205	0x3e47a415	0.19496186
206	0x3cbc61a2	0.022995774
207	0x3c5564e2	0.013024541
208	0xbd917f0c	-0.071043104
209	0xbe85d901	-0.26142123
210	0xbe8af8bc	-0.27142894
211	0xbe0d4d87	-0.13799106
212	0xbe1642f2	-0.14673975
213	0x3db8314c	0.08993778
214	0xbdac1b4b	-0.08403643
215	0xbde74b0a	-0.112936094
216	0x3ea4df0d	0.32201424
217	0x3e0eca23	0.13944297
218	0x3e7c3614	0.24630004
219	0xbdceec34	-0.10103646
220	0xbd9920ad	-0.074769355
221	0x3e150229	0.14551605
222	0xbe1acf6a	-0.15118185
223	0xbe145f26	-0.14489421
224	0x3cfd2b8c	0.030904554
225	0xbd838e21	-0.06423593
226	0xbe2f7d67	-0.17137681
227	0x3e5e92fd	0.21735759
228	0x3e8d52c9	0.27602223
229	0x3da46298	0.08026618
230	0xbc712ce5	-0.014720176
231	0xbe6fab12	-0.23405102
232	0xbd86c1f8	-0.06579965
233	0x3ddb6924	0.10713413
234	0x3e309e3d	0.17247863
235	0x3b53aab2	0.0032297787
236	0xbd94dc00	-0.07268524
237	0x3e49abf9	0.19694509
238	0xbe410539	-0.18849649
239	0x3e668391	0.22511126
240	0xbd7f70c2	-0.062363394
241	0x3d37fa77	0.044916596
242	0xbc74403e	-0.014907895
243	0x3d9a4671	0.07532967
244	0xbd2bb70f	-0.041922625
245	0x3e8091cb	0.2511123
246	0x3d10effd	0.03538512
247	0x3e8b28af	0.27179477
248	0x3ea6616d	0.32496205
249	0xbdc6e669	-0.09711916
250	0xbe270690	-0.16311097
251	0x3e8fbebd	0.2807521
252	0x3e67a38e	0.22620985
253	0xbe61b506	-0.22041711
254	0xbcb6cf13	-0.022315538
255	0xbe91c049	-0.28467014

mlr.0.bias f4 [64]
0	0xbda2912d	-0.07937846
1	0x3e733393	0.23750143
2	0x3db71e51	0.08941329
3	0xbd4e2dc2	-0.050336607
4	0x3d47be5c	0.048765525
5	0xbdf1515f	-0.117830984
6	0x3dd6867f	0.10474872
7	0x3de9dc28	0.114189446
8	0x3d9ec429	0.07752258
9	0xbe0e7d80	-0.13915062
10	0x3e84428d	0.25832024
11	0xbd2ab479	-0.04167602
12	0xbde62aa7	-0.11238604
13	0x3e530850	0.2060864
14	0x3e61e3ef	0.22059606
15	0x3e8a32f0	0.26991987
16	0x3d9570f0	0.07296932
17	0xbdc989ea	-0.09840758
18	0x3e292df1	0.16521432
19	0x3e8283ed	0.25491276
20	0xbe88e3f4	-0.26736414
21	0xbd127c4e	-0.035763077
22	0xbe56ad10	-0.20964456
23	0x3d5c5ab1	0.053797428
24	0x3de86807	0.11347967
25	0xbd274a95	-0.04084261
26	0xbcc5d5ab	-0.024149736
27	0x3dc22715	0.094801106
28	0xbd46ba56	-0.048517548
29	0xbe75c45e	-0.2400069
30	0x3e4eda7b	0.20200531
31	0xbe14c80d	-0.14529438
32	0xbd8734d0	-0.0660187
33	0x3cdf10c7	0.02722968
34	0x3aa285b6	0.0012399468
35	0xbe8b08f3	-0.27155265
36	0x3e079f70	0.13244414
37	0xbe0645b8	-0.13112533
38	0xbe22b3d7	-0.15888916
39	0x3d7b652b	0.06137578
40	0xbe1a43a0	-0.1506486
41	0xbe3e1f2b	-0.18566577
42	0xbdc73501	-0.097269066
43	0xbdcf8b1c	-0.10133955
44	0xbdf6e8f9	-0.12056155
45	0xbd7bafe6	-0.061447047
46	0x3d40bbe3	0.047054183
47	0xbe6f3520	-0.2336011
48	0xbe32ec41	-0.17472936
49	0x3b8a066a	0.0042121904
50	0x3d246f9e	0.04014551
51	0x3df9642e	0.12177311
52	0xbe41d456	-0.18928656
53	0x3dbcb61c	0.09214422
54	0x3e0e99d1	0.13925864
55	0x3dea43e6	0.11438732
56	0xbe8c26bb	-0.273733
57	0xbe053e82	-0.13012126
58	0xbe89163a	-0.2677477
59	0xbe2e0254	-0.16993076
60	0x3e32bf0e	0.17455694
61	0xbd308e8d	-0.043104697
62	0x3dfb1799	0.1226036
63	0xbe2d8562	-0.16945413

mlr.2.weight f4 [208, 64]
0	0x3c9b9b60	0.018994987
1	0xbd5adc11	-0.053432528
2	0x3d7ff1d8	0.0624865
3	0xbd5ff024	-0.054672375
4	0xbd006380	-0.03134489
5	0xbd9b91ec	-0.07596192
6	0x3c00dc03	0.007864955
7	0x3df31122	0.11868502
8	0x3d78837c	0.06067227
9	0xbd16da96	-0.036829554
10	0x3c941f48	0.018081322
11	0xbc608f60	-0.013706058
12	0xbdce1958	-0.10063428
13	0x3e01b39b	0.1266617
14	0xba5fa71f	-0.0008531678
15	0x3d55aaff	0.052165028
16	0xbd19d5b0	-0.037557304
17	0xbd6f9318	-0.05848989
18	0x3d446a30	0.04795283
19	0x3d95ea11	0.07320035
20	0x3d964318	0.07337016
21	0xbd76c180	-0.06024313
22	0x3e259428	0.16169798
23	0xbc96bcc0	-0.01840055
24	0xbd42cb6d	-0.047557283
25	0xbcc19134	-0.023628809
26	0x3dfc0300	0.1230526
27	0x3cda2191	0.026627334
28	0xbc8b0088	-0.016968027
29	0xbc6e4e32	-0.01454501
30	0xbcb14594	-0.021639623
31	0xbdd79c4a	-0.10527857
32	0xbd87bf8b	-0.06628331
33	0x3d95d588	0.073161185
34	0x3e0eccec	0.13945359
35	0x3df44d08	0.11928755
36	0xbdb8d136	-0.09024279
37	0x3d8a7604	0.06760791
38	0xbd8d3ceb	-0.06896385
39	0x3ddad5b8	0.10685295
40	0x3db8b7c8	0.090194285
41	0x3e057069	0.13031162
42	0x3db85548	0.09000641
43	0x3dea138a	0.11429508
44	0x3b1f7240	0.0024329573
45	0x3db805f9	0.08985514
46	0xbc9b411d	-0.018951947
47	0x3d5ef150	0.054429352
48	0xbd248ecc	-0.040175244
49	0xbb098e00	-0.002098918
50	0xbdded126	-0.10879736
51	0xbb57863c	-0.0032886406
52	0xbcc138aa	-0.02358659
53	0xbd2cb550	-0.0421651
54	0xbd7167f6	-0.058937036
55	0xbda9e965	-0.082964696
56	0x3cc28816	0.023746531
57	0x3de6ed21	0.112756975
58	0x3e1b9397	0.1519302
59	0x3def1f33	0.11675873
60	0xbd191bac	-0.037379906
61	0xbdfd2fbe	-0.12362622
62	0x3d42356c	0.04741423
63	0x3d8f70bc	0.07003924
64	0xbddbc772	-0.107314005
65	0x3da51940	0.08061457
66	0x3dd87132	0.10568465
67	0x3bf81f20	0.0075720698
68	0xbd9a3abe	-0.075307354
69	0x3e135399	0.14387359
70	0x3d7933a0	0.06084025
71	0x3da98604	0.082775146
72	0xbdad210c	-0.08453569
73	0x3de95b4d	0.11394367
74	0xbd49f861	-0.04930914
75	0x3dfd4f80	0.12368679
76	0xbd58ef2c	-0.052962467
77	0x3df8b75d	0.12144349
78	0x3caf70e3	0.021416133
79	0x3d9054e3	0.07047441
80	0xbbcb3def	-0.0062024514
81	0x3d524be8	0.05134192
82	0xbbe0a419	-0.0068554995
83	0xbd9b6c6f	-0.075890414
84	0x3c92736a	0.0178773
85	0x3dc895fc	0.09794232
86	0x3cc70476	0.02429412
87	0x3d20ee58	0.039289802
88	0xbb972d8e	-0.004613585
89	0x3e147f89	0.14501776
90	0x3d9936a8	0.07481128
91	0x3da5918a	0.080844
92	0xbd82db7e	-0.06389521
93	0xbd5472e5	-0.051867384
94	0x3cc3b817	0.023891492
95	0xbd962f34	-0.07333222
96	0x3e139a7e	0.14414403
97	0xbdf60282	-0.12012197
98	0x3dd895ca	0.10575445
99	0x3dff35c2	0.12461425
100	0x3d80364a	0.06260355
101	0x3d2e94c4	0.042622343
102	0xbde4ea3d	-0.1117749
103	0x3e285440	0.16438389
104	0xbcaf2718	-0.021380946
105	0xbd990683	-0.07471945
106	0x3dfcb6b4	0.12339535
107	0xbabc02b2	-0.0014344065
108	0xbc10e420	-0.008843452
109	0x3e27efeb	0.16400115
110	0xbd48be8f	-0.049009856
111	0xbdb51e10	-0.088436246
112	0x3ca68528	0.020327166
113	0xbc891100	-0.016731739
114	0x3cebdeb8	0.028792724
115	0xbd86554f	-0.0655924
116	0x3d836a1b	0.064167224
117	0xbd63b78c	-0.055594966
118	0xbd021d0d	-0.031765986
119	0xbd9b4e3d	-0.07583282
120	0x3d720709	0.05908874
121	0x3d8b6dff	0.068080895
122	0xbd5277a1	-0.05138362
123	0x3e24595c	0.16049713
124	0x3daab805	0.0833588
125	0x3cbe0448	0.0231954
126	0xbd964e92	-0.07339205
127	0x3c9a6c80	0.018850565
128	0x3df6aa92	0.120442525
129	0x3df03507	0.11728864
130	0xbdc7640a	-0.09735878
131	0x3de9aea6	0.11410265
132	0x3c1ebd70	0.00968872
133	0x3dc713bb	0.0972056
134	0x3dd61b4b	0.104544245
135	0x3dda3e0a	0.10656364
136	0xbdc78f98	-0.09744185
137	0x3e14ce02	0.1453171
138	0xbd5d044b	-0.053959172
139	0x3c1987d0	0.009370759
140	0xbdb2e22c	-0.08734545
141	0x3c641baf	0.013922616
142	0xbc0bd83d	-0.008535442
143	0x3c9956d3	0.018718159
144	0xbbdde1c2	-0.006771297
145	0x3c2186e0	0.009858817
146	0x3e271784	0.16317564
147	0x3de0ecc2	0.10982658
148	0x3e0368ea	0.1283299
149	0x3d4ced3c	0.05003093
150	0x3e15e989	0.14639868
151	0xbbbd06c0	-0.005768627
152	0x3d4159b8	0.047204703
153	0x3d920406	0.07129674
154	0xbddf43f2	-0.109016314
155	0xbd8a3f74	-0.06750384
156	0x3c7b1670	0.015325174
157	0xbb82bf5c	-0.003990097
158	0x3c81cd76	0.015845042
159	0xbceaf740	-0.028682351
160	0x3d693a5f	0.056940433
161	0x3da68ebe	0.08132695
162	0x3b25be06	0.0025290265
163	0x3dcd0534	0.10010758
164	0x3dca20b8	0.09869522
165	0xbdc47ac2	-0.09593727
166	0xbdb45648	-0.08805519
167	0xbd7bb62b	-0.061453026
168	0xbd8c4b0e	-0.06850253
169	0xbc2b2a30	-0.01044707
170	0xbc1a26e0	-0.009408683
171	0x3c5fa34a	0.013649771
172	0xbd8157f8	-0.06315607
173	0x3b898372	0.0041965777
174	0xbc4053e4	-0.011738751
175	0x3dfb2552	0.12262978
176	0xbd3dc310	-0.046328604
177	0xbdb74bd6	-0.089500114
178	0x3d54d650	0.051962197
179	0x3ce7f56b	0.028315267
180	0x3e1892e5	0.14899786
181	0x3d9ff508	0.07810408
182	0x3e1050a5	0.14093263
183	0xbd6683be	-0.056277983
184	0x3da0d1c5	0.0785251
185	0x3e1380bb	0.14404576
186	0xbc792b14	-0.0152080245
187	0x3e2d696a	0.16934744
188	0x3e09007a	0.13379088
189	0x3ab36c80	0.0013688952
190	0x3d76dcb0	0.060269058
191	0xbd330198	-0.04370269
192	0xbddf4770	-0.109022975
193	0x3d48726d	0.04893725
194	0x3d18a3e0	0.03726566
195	0xbda74fa4	-0.08169487
196	0x3d7851e0	0.060624957
197	0xbd9759e1	-0.0739019
198	0x3deb9ddb	0.11504718
199	0x3df7e86e	0.12104879
200	0x3d0b6574	0.0340323
201	0xbd45cba5	-0.048289914
202	0x3d8d29c5	0.068927325
203	0x3cae8178	0.02130197
204	0x3d0b38f0	0.033989847
205	0x3d884407	0.066536
206	0x3dbbc3f0	0.091682315
207	0xbcfde659	-0.030993627
208	0xbc772168	-0.015083648
209	0x3d0ba01c	0.03408824
210	0x3d186e1b	0.03721438
211	0x3dfdee6a	0.123989895
212	0xbc9c1ce3	-0.019056743
213	0xbb9529a0	-0.004552081
214	0x3d86b0dd	0.06576703
215	0xbd07fb48	-0.033198625
216	0x3de5737c	0.112036675
217	0x3d41ff22	0.047362454
218	0xbdec9a56	-0.11552875
219	0x3c290062	0.010315033
220	0xbd68389c	-0.056694612
221	0x3d4c8787	0.049933936
222	0xbc49fad5	-0.012327869
223	0xbdfdef66	-0.12399177
224	0x3c38ddbc	0.011283334
225	0xbc4427f0	-0.0119724125
226	0xbbd6e0e5	-0.0065575712
227	0x3deb3532	0.114847556
228	0xbcdf6f98	-0.027274892
229	0x3da47574	0.08030215
230	0x3d20b9db	0.039239746
231	0xbd983ce6	-0.074334905
232	0x3cf0a030	0.029373258
233	0x3e0d15da	0.13777867
234	0xbda77324	-0.08176258
235	0xbd37b2c8	-0.044848233
236	0x3dfa95da	0.12235613
237	0x3e0651ed	0.1311719
238	0xbd3f7f3b	-0.046752196
239	0x3d9a0bf6	0.075218126
240	0xbc8300a0	-0.015991509
241	0xbdfc65de	-0.12324117
242	0x3c19df90	0.00939168
243	0x3d8c093f	0.06837701
244	0x3ba31bb4	0.0049776677
245	0x3d321dc8	0.043485433
246	0xbdb31f47	-0.087462
247	0x3dea89d7	0.11452072
248	0x3df659ae	0.12028824
249	0x3dcb9ba7	0.09941798
250	0x3d7e7e21	0.062132005
251	0x3db054ca	0.08609922
252	0xbd889545	-0.06669096
253	0xbcffded0	-0.031234175
254	0xbc438480	-0.011933446
255	0xbd8e75e0	-0.069560766

mlr.2.bias f4 [208]
0	0x3d74b6c9	0.05974463
1	0xba9cf0a4	-0.0011973572
2	0xbdb52321	-0.08844591
3	0x3d576998	0.052590936
4	0x3dd5e5b4	0.10444203
5	0x3dc4cc1a	0.09609242
6	0x3ded9869	0.116013356
7	0xbd39d25f	-0.04536664
8	0x3db35e59	0.0875823
9	0x3dda4a1b	0.10658666
10	0x3dba609f	0.0910046
11	0xbd2a5919	-0.041588876
12	0x3de33bcc	0.1109539
13	0xbd980f85	-0.07424835
14	0xbd5f3f73	-0.05450387
15	0x3db893f6	0.09012596
16	0x3dddec88	0.108361304
17	0x3d9a7393	0.07541575
18	0xbb6a59b5	-0.0035759036
19	0xbd886263	-0.06659391
20	0x3dbc9074	0.0920724
21	0xbcf00d81	-0.029303314
22	0x3dae578e	0.085127935
23	0x3cae3ee9	0.021270232
24	0x3d7b54d9	0.061360214
25	0x3d62e892	0.055397578
26	0xbcbac36a	-0.022798259
27	0xbca9e39f	-0.020738421
28	0xbc7e7b63	-0.015532347
29	0xbca77969	-0.020443635
30	0xbd8041b6	-0.06262533
31	0x3d5bb42e	0.05363863
32	0x3d83e718	0.06440562
33	0xbdca4182	-0.09875776
34	0xbd022ae3	-0.03177918
35	0xbda12713	-0.07868781
36	0x3cab0fe8	0.020881608
37	0xbd08ff23	-0.033446442
38	0x3de2d718	0.11076182
39	0xbd8d0f45	-0.06887678
40	0xbca96aa0	-0.020680726
41	0x3e134d6f	0.14385007
42	0x3cb7c767	0.02243395
43	0x3dd8b4b3	0.10581341
44	0xbceda7e3	-0.029010719
45	0x3df63208	0.120212615
46	0xbd7f67d6	-0.062354885
47	0xbcee16ba	-0.029063571
48	0xbd8be876	-0.06831448
49	0x3dffadfa	0.12484355
50	0x3d740997	0.059579458
51	0xbc467b88	-0.012114413
52	0x3cfea95c	0.031086616
53	0x3d203dc9	0.039121423
54	0xbd8e7341	-0.06955577
55	0xbd695e14	-0.056974486
56	0x3d3c8d0b	0.046032947
57	0x3d9f6edd	0.07784817
58	0x3d1e4ad2	0.038645573
59	0x3dda67b5	0.10664312
60	0x3c55de75	0.013053526
61	0x3dbb3e9e	0.09142803
62	0x3d26ed87	0.040753867
63	0x3dff7c55	0.12474886
64	0x3d5a4d79	0.05329654
65	0xbd4f4174	-0.05059953
66	0x3db5ad21	0.08870912
67	0xbcd82a4e	-0.02638736
68	0xbd86885d	-0.06568978
69	0xbd9e5e8c	-0.07732877
70	0x3df89acd	0.12138901
71	0x3d28d6de	0.04122054
72	0x3d9afa4c	0.075672716
73	0xbcb3ac55	-0.02193276
74	0xbda944d3	-0.0826508
75	0x3d306cbf	0.04307246
76	0xbd888020	-0.06665063
77	0x3d5a8f7f	0.053359505
78	0x3b623e84	0.0034522125
79	0x3d4b44a0	0.049625993
80	0x3dd1abbf	0.10237836
81	0xbda2baa6	-0.079457566
82	0x3d9388d8	0.07203835
83	0xbcd69517	-0.026194138
84	0x3a738040	0.0009288825
85	0xbd4617d3	-0.048362564
86	0xbcf1bf54	-0.029510178
87	0x3d78f38f	0.06077915
88	0x3d9437cb	0.07237204
89	0xbda2c9fd	-0.079486825
90	0x3d230309	0.039797816
91	0x3d0e49ef	0.034738477
92	0x3dd06f37	0.101774625
93	0x3cb1adea	0.021689374
94	0x3e0dfffb	0.1386718
95	0x3e00b2bc	0.12568182
96	0xbd8fdcb9	-0.070245214
97	0x3dd3a832	0.10334815
98	0x3d6882c3	0.05676533
99	0x3c10409d	0.0088044675
100	0xbd4815a4	-0.048848763
101	0xbd6d6a0f	-0.057962473
102	0x3d71f35b	0.059069972
103	0xbcf5c099	-0.029999064
104	0x3d91aced	0.07113061
105	0x3cd5dd0e	0.026106384
106	0xbc18d582	-0.009328248
107	0x3dc55643	0.09635594
108	0xbd4fe064	-0.050751105
109	0xbc5f964d	-0.013646674
110	0x3de29972	0.110644236
111	0x3db9b81c	0.09068319
112	0x3e11e9be	0.14249322
113	0x3dc7e9f8	0.09761423
114	0xbd84dab2	-0.06487025
115	0x3da9da6a	0.08293612
116	0x3d0188ca	0.031624593
117	0x3de965c4	0.113963634
118	0xbc2e88d1	-0.010652737
119	0x3dbdb353	0.09262719
120	0xbc75cc3d	-0.0150023075
121	0x3d8827da	0.06648226
122	0xbd2cecfd	-0.042218197
123	0x3da81ceb	0.08208641
124	0x3da86686	0.0822268
125	0x3dd03b5d	0.10167573
126	0xbcd2d30d	-0.025735402
127	0xbd9bddc2	-0.07610656
128	0x3d90359b	0.070414744
129	0xbd20deb6	-0.039274894
130	0xbd7aee6b	-0.06126253
131	0x3d5a3917	0.0532771
132	0x3e0125ca	0.12612072
133	0xbd8b0203	-0.06787493
134	0xbc33aa60	-0.0109659135
135	0xbd559fe0	-0.05215442
136	0x3bb2fc8d	0.0054622353
137	0x3dc3b817	0.09556597
138	0xbd921784	-0.071333915
139	0x3e01cb41	0.12675191
140	0x3da9ecc8	0.082971156
141	0x3cfe86e2	0.031070177
142	0x3dd09130	0.10183942
143	0x3da23273	0.07919779
144	0x3d6c6a40	0.057718515
145	0x3c9f261f	0.019427357
146	0xbd2920c2	-0.041291006
147	0xbdaf7c66	-0.08568649
148	0x3dc5143c	0.09623
149	0xbb88024c	-0.0041506644
150	0xbdb16f69	-0.08663828
151	0xbc099b59	-0.008398854
152	0xbd612bef	-0.05497354
153	0x3dd4dc31	0.10393561
154	0x3dc4b0f9	0.09604067
155	0xbdd22cdb	-0.10262462
156	0x3d709455	0.05873521
157	0xbce20a5d	-0.027592832
158	0x3e076c01	0.13224794
159	0x3d1958fd	0.03743838
160	0x3be253bd	0.006906955
161	0x3da0b4e0	0.07846999
162	0xbd8e9e21	-0.069637544
163	0xbcf791bc	-0.030220859
164	0x3dd2a20b	0.102848135
165	0x3df02b0d	0.11726961
166	0x3c8b0e12	0.016974483
167	0x3dc3eb70	0.095663905
168	0xbd9fdd23	-0.0780585
169	0xbdabce80	-0.08388996
170	0xbb019811	-0.0019774477
171	0xbdc7e2b6	-0.097600386
172	0x3de9d73e	0.11418007
173	0xbcd70a86	-0.026250135
174	0xbd1e008a	-0.038574733
175	0x3d93814c	0.07202396
176	0x3be9d61f	0.007136121
177	0x3d9cb946	0.076525256
178	0x3dc1f86d	0.094712116
179	0xbd6d81e3	-0.057985198
180	0x3d721696	0.05910357
181	0x3a076c4c	0.0005165979
182	0x3da66f6b	0.0812672
183	0xbd37f4f1	-0.04491133
184	0x3d2b95fb	0.04189108
185	0x3d6401a1	0.055665616
186	0xbd981b51	-0.07427085
187	0x3d73063d	0.05933212
188	0xbc54f0a4	-0.012996826
189	0x3d88f885	0.06688026
190	0xbd151374	-0.036395505
191	0xba66e1eb	-0.0008807468
192	0xbdb924b2	-0.09040202
193	0xbb9ddde7	-0.0048177126
194	0x3dd1f997	0.102526836
195	0x3d8b0551	0.067881234
196	0xbd4436bc	-0.04790376
197	0xbdb64644	-0.08900121
198	0x3dd6e14c	0.10492191
199	0xbd452e94	-0.048140123
200	0xbd8b5521	-0.068033464
201	0xbd149f9f	-0.03628504
202	0x3d9409bb	0.072284184
203	0x3cdea62a	0.027178843
204	0xbd161776	-0.036643468
205	0x3db1f51e	0.086893305
206	0x3e0b3b53	0.13596849
207	0x3d5cf563	0.053944957
