pqc_reup_v1_backup/best_model_epoch_13.pth (torch, 61285 bytes, 6 tensors)

reupload_weights f4 [12, 3, 4]
0	0x3e397473	0.18110828
1	0x3e16f76f	0.14742826
2	0x3e07c66c	0.13259286
3	0xbdb9e601	-0.09077073
4	0x3e9b35cf	0.3031449
5	0x3da42ae2	0.08015992
6	0x3e8695f1	0.2628627
7	0x3e4cc26e	0.19996044
8	0x3d9e94d2	0.07743229
9	0x3e9b0de4	0.30284035
10	0x3e121192	0.14264515
11	0x3d9fd1a8	0.07803661
12	0xbe3cf1e3	-0.18451647
13	0xbdf6476b	-0.12025341
14	0xbdaa0187	-0.083010726
15	0x3d86fa60	0.06590724
16	0x3e09062b	0.13381259
17	0xbdaa9666	-0.083294675
18	0xbe18741a	-0.14888039
19	0xbd7b214e	-0.06131106
20	0x3daefc81	0.08544255
21	0x3e77af05	0.24187858
22	0x3e11a39f	0.14222573
23	0x3e4ce1cb	0.20008008
24	0x3cface2e	0.030615892
25	0x3db52715	0.08845345
26	0x3d2eaf83	0.04264785
27	0x3d996913	0.074907444
28	0x3e8a7cb9	0.2704828
29	0x3e925993	0.28583965
30	0x3e68b17d	0.22723956
31	0x3ebdcfbb	0.37072548
32	0xbda95ff7	-0.08270257
33	0x3c6646b4	0.014054943
34	0x3da7bad2	0.0818993
35	0x3e83c54f	0.25736472
36	0x3bdaa5c3	0.0066725924
37	0xbdd0143a	-0.10160108
38	0x3aafca80	0.001341179
39	0xbe327c5e	-0.17430255
40	0xbde25bc4	-0.11052659
41	0x3e258fac	0.16168088
42	0xbd6803a1	-0.056644086
43	0x3c44cb5a	0.012011373
44	0x3de82921	0.1133597
45	0x3ed5dfef	0.4177241
46	0x3e06e5d6	0.13173613
47	0x3e426169	0.18982472
48	0x3c55e139	0.013054186
49	0x3d77df41	0.060515646
50	0x3dbe65a1	0.09296728
51	0x3e0a04a8	0.13478339
52	0x3cd21330	0.025643915
53	0x3e32b569	0.17452015
54	0x3d6aa7b6	0.057288848
55	0x3d99aea9	0.07504017
56	0xbe2bd140	-0.16779041
57	0xbb95f5a9	-0.004576404
58	0xbdd57599	-0.104228206
59	0xbd41e1cb	-0.047334474
60	0xbd6a9a9f	-0.057276364
61	0x3d96ae27	0.07357436
62	0xbe5a89c7	-0.2134162
63	0x3c526ac2	0.012842836
64	0x3c20f8b5	0.009824921
65	0xbbbfdaa7	-0.005854923
66	0x3de64f43	0.11245587
67	0xbc93abb1	-0.018026205
68	0xbe05404c	-0.13012809
69	0xbe25de7a	-0.1619815
70	0xbe853807	-0.26019308
71	0x3c728e41	0.014804424
72	0xbc378436	-0.011200955
73	0x3c7fb5c2	0.015607299
74	0xbca004eb	-0.019533595
75	0x3dc9c9d3	0.09852948
76	0xbd83943e	-0.06424759
77	0xbe6d7596	-0.23189387
78	0xbec1d09c	-0.3785447
79	0xbe38cfbb	-0.18047993
80	0x3df55bb9	0.11980385
81	0x3dff0fc5	0.1245418
82	0x3c929644	0.017893918
83	0xbdb4ebf6	-0.088340685
84	0x3dfe60d3	0.124208115
85	0x3deb25ec	0.114818424
86	0x3de9fe30	0.114254355
87	0x3cbbe226	0.022934984
88	0xbe398fd8	-0.18121278
89	0xbe9986cd	-0.29985657
90	0xbe95b2bb	-0.29237923
91	0xbe046e89	-0.12932791
92	0xbebd6cfa	-0.36997205
93	0xbe8ddac7	-0.27705976
94	0xba0e7dde	-0.0005435626
95	0xbdc32a28	-0.09529525
96	0xbe8fab06	-0.28060168
97	0xbc8e8b7b	-0.017400494
98	0xbcbfec6f	-0.02342817
99	0xbd729068	-0.059219748
100	0x3e7ad515	0.24495347
101	0x3ebdafce	0.3704819
102	0x3eccb6ed	0.3998331
103	0x3e80b017	0.25134346
104	0xbe996c4e	-0.29965442
105	0xbda4098a	-0.08009632
106	0xbddc237e	-0.10748957
107	0xbe15eeab	-0.14641826
108	0x3d303a8a	0.043024577
109	0x3e160c75	0.1465319
110	0x3d50132b	0.05079953
111	0x3d852394	0.065009266
112	0xbebb8152	-0.366221
113	0xbe843a4f	-0.25825736
114	0xbe9c221e	-0.3049478
115	0xbe8fb6fa	-0.28069288
116	0x3d8c3e9a	0.06847878
117	0xbafbd5a2	-0.0019213448
118	0xbd693f81	-0.056945328
119	0xbc6ea984	-0.014566783
120	0xbdbdf70b	-0.09275635
121	0xbdb75599	-0.08951873
122	0xbaf91491	-0.0019003322
123	0x3d11ced1	0.035597626
124	0x3dee659e	0.11640476
125	0x3cebb354	0.028772034
126	0x3e2ceef0	0.16888022
127	0x3dfe5c50	0.12419951
128	0xbe5e7a63	-0.21726374
129	0xbe999d1a	-0.3000267
130	0xbf04e9df	-0.5191936
131	0xbefa96d5	-0.489432
132	0xbc8f4efb	-0.017493716
133	0x3e4790d5	0.19488843
134	0x3d99b5ea	0.075054005
135	0x3d5d3150	0.054002106
136	0xbe44ac60	-0.19206381
137	0xbe8d9e90	-0.27660036
138	0xbefd4c00	-0.49472046
139	0xbe538d3b	-0.20659344
140	0xbe518882	-0.2046223
141	0x3b0aa5cd	0.0021155954
142	0xbe2c8389	-0.16847052
143	0xbcaacf35	-0.020850757

reupload_bias f4 [12, 3]
0	0xbec912c4	-0.3927213
1	0x3e98b8bd	0.29828444
2	0x3e434ed1	0.19073035
3	0x3ece4e3b	0.4029406
4	0xbe9f0d58	-0.31064868
5	0xbc6b3694	-0.014356274
6	0xbe9bc35f	-0.30422494
7	0x3edf2b80	0.43587875
8	0x3dbd2975	0.09236423
9	0x3eb0c37b	0.3452414
10	0xbd41763f	-0.04723191
11	0x3f0dab41	0.5533944
12	0xbeb9c886	-0.362858
13	0x3e2e4e2a	0.17022005
14	0xbe7f3cf6	-0.24925599
15	0x3e3bf04b	0.18353383
16	0xbec20ff8	-0.37902808
17	0xbe84a205	-0.2590486
18	0xbe16eb5d	-0.14738221
19	0xbe938a7e	-0.288166
20	0xbdeb4246	-0.1148725
21	0xbef27a75	-0.47359052
22	0xbec5eff2	-0.38659626
23	0xbe16947d	-0.14705081
24	0x3ec02b73	0.3753315
25	0x3f2973d7	0.6619238
26	0xbf120e83	-0.57053393
27	0xbec9c133	-0.39405212
28	0xbe819368	-0.25307775
29	0xbd98db53	-0.07463708
30	0x3e6e54b7	0.23274504
31	0x3e61b6f1	0.22042443
32	0xbf32ce56	-0.69846094
33	0xbec1f43a	-0.37881643
34	0xbeb7f39d	-0.3592805
35	0x3c62705f	0.013820737

mlr.0.weight f4 [64, 12]
0	0x3b8a086f	0.004212431
1	0xbc8d331b	-0.017236283
2	0x3d8e21fc	0.06940076
3	0x3da5ad0d	0.080896474
4	0xbe863deb	-0.26219115
5	0xbdda2d76	-0.10653202
6	0x3e78efb0	0.24310184
7	0x3de64eb8	0.11245483
8	0xbc6b3dd1	-0.014358
9	0xbe323890	-0.1740439
10	0xbe34da04	-0.17661291
11	0xbe846555	-0.2585856
12	0xbdb65d2d	-0.089044906
13	0x3dcbd664	0.09953001
14	0x3e3b4cc8	0.18291008
15	0x3e0c6eb9	0.13714112
16	0xbe7f6113	-0.24939375
17	0xbe2cb876	-0.16867241
18	0xbd396860	-0.045265555
19	0x3e962841	0.29327586
20	0x3d47dcee	0.04879468
21	0xbd8c2b7e	-0.06844233
22	0x3dff91b4	0.124789625
23	0xbdc24893	-0.09486499
24	0xbe3f54b8	-0.18684661
25	0x3e57c1d1	0.21070029
26	0xbe06694f	-0.1312611
27	0xbd6d08d9	-0.057869766
28	0xbe9308a2	-0.28717524
29	0x3e45d6b0	0.19320178
30	0x3e5ff596	0.21871027
31	0x3dd776d6	0.10520713
32	0xbe4e1dd8	-0.20128572
33	0xbe91df12	-0.28490502
34	0xbe701533	-0.23445587
35	0x3e5c6e75	0.21526511
36	0x3e0debbe	0.1385946
37	0x3e78c064	0.24292141
38	0x3e1adb91	0.1512282
39	0x3d95a139	0.073061414
40	0xbb394397	-0.0028269046
41	0xbe60cee1	-0.21953918
42	0xbe7d43c4	-0.24732882
43	0xbe8a3eff	-0.27001187
44	0x3df2047c	0.118172616
45	0xbe1121bc	-0.14173025
46	0xbd6df6b7	-0.058096614
47	0xbe2a1f0c	-0.16613406
48	0xbd5776ac	-0.05260341
49	0xbe500e52	-0.20317963
50	0xbe4126e0	-0.18862486
51	0x3dc41c12	0.095756665
52	0xbdafb459	-0.085793205
53	0x3e367d1c	0.17821163
54	0xbdbdaa0e	-0.09260951
55	0xbe58d84d	-0.21176262
56	0xbd509fad	-0.05093353
57	0xbe0f4aff	-0.13993452
58	0xbdb4dfec	-0.08831772
59	0xbe8cb4e0	-0.27481747
60	0x3e32b579	0.17452039
61	0xbe58d462	-0.21174768
62	0x3e10b87e	0.14132878
63	0x3df55ac5	0.119802035
64	0x3e52a3be	0.20570275
65	0xbe6847b0	-0.22683597
66	0x3e531bc6	0.20616063
67	0xbe07e86e	-0.13272259
68	0x3de40166	0.11133079
69	0x3e8b2505	0.2717668
70	0xbceb44c0	-0.028719306
71	0x3c1b1bff	0.009467124
72	0xbd88bbc7	-0.06676441
73	0xbe76f1a9	-0.24115624
74	0x3e1aaa8f	0.15104125
75	0xbe952d15	-0.29135957
76	0x3e3adb98	0.18247831
77	0x3e6285a1	0.22121288
78	0x3e934f51	0.2877145
79	0xbda640cf	-0.0811783
80	0xbe7572e1	-0.23969604
81	0x3d82e222	0.06390788
82	0x3e2f67ae	0.17129394
83	0xbe976845	-0.2957174
84	0xbd8631bb	-0.06552454
85	0xbe313377	-0.17304789
86	0xbcced62a	-0.025248606
87	0xbe117ffd	-0.1420898
88	0xbdf1aa87	-0.11800104
89	0xbdbbaf0d	-0.09164248
90	0xbe8c74de	-0.27432913
91	0x3e728b75	0.23686011
92	0x3e77d042	0.24200538
93	0xbd397beb	-0.045284193
94	0xbd06a7da	-0.03287492
95	0xbdf14881	-0.11781407
96	0xbe857964	-0.26069176
97	0xbe8fd516	-0.2809226
98	0x3ddbba19	0.10728855
99	0xbe224cc5	-0.15849598
100	0xbe3e095d	-0.1855826
101	0xbcb882e7	-0.022523357
102	0xbdc4e0e0	-0.09613204
103	0xbdbf4484	-0.0933924
104	0x3c17f82b	0.009275476
105	0xbd7acdf8	-0.061231583
106	0xbdcb8f4f	-0.09939443
107	0xbe0d8960	-0.13821936
108	0xbe5deeda	-0.21673146
109	0x3e74b0c3	0.23895554
110	0xbdea396a	-0.11436732
111	0x3d976230	0.07391775
112	0xbdc2f279	-0.09518904
113	0x3cc79fc2	0.02436817
114	0x3e8b572f	0.27214953
115	0x3e13f3ca	0.14448467
116	0xbe753d67	-0.23949204
117	0x3dfc52c8	0.12320477
118	0x3e93ad8c	0.28843343
119	0x3dbea3c7	0.09308582
120	0x3e554f65	0.20831068
121	0x3e991410	0.2989812
122	0xbd2e0eb8	-0.042494506
123	0x3da3279b	0.079665385
124	0xbe3ec852	-0.18631104
125	0xbd3e7191	-0.046495024
126	0x3e5c6f57	0.21526848
127	0x3e37a4de	0.17933986
128	0xbe26a19b	-0.16272585
129	0xbe5c29b9	-0.21500291
130	0xbe4689ae	-0.19388458
131	0xbe830cf8	-0.25595832
132	0xbe64195c	-0.22275299
133	0xbd923431	-0.07138861
134	0x3e477ef6	0.19482026
135	0x3d45ea3d	0.04831909
136	0xbe60d667	-0.21956788
137	0xbe6d23db	-0.23158209
138	0x3e130e2b	0.14360873
139	0xbe5be1c8	-0.21472847
140	0xbd11966a	-0.035543837
141	0x3e0dcd7e	0.1384792
142	0xbe08cf0d	-0.13360234
143	0xbd00ee24	-0.03147711
144	0xbccdd859	-0.025127577
145	0xbd8bdea2	-0.06829573
146	0xbe15e162	-0.14636758
147	0xbe83c18e	-0.25733608
148	0xbe6ef3f9	-0.23335256
149	0xbe1e48c5	-0.15457447
150	0x3e8ec09f	0.27881333
151	0xbe0ec7e0	-0.13943434
152	0xbe468183	-0.19385342
153	0x3d8f4e19	0.06997318
154	0x3da2f152	0.079561844
155	0x3e21f6c5	0.15816791
156	0x3e8d7785	0.2763025
157	0x3e4b35b0	0.19844699
158	0xbe7e3cce	-0.24827883
159	0x3d8496a1	0.06474043
160	0x3e60dfd5	0.21960385
161	0x3c341ccf	0.010993197
162	0xbe06f7d7	-0.13180481
163	0x3ea8514b	0.32874522
164	0xbd68a92b	-0.056801956
165	0xbdf417f0	-0.11918628
166	0xbe581e3d	-0.21105285
167	0x3d8fda6a	0.07024081
168	0x3de1a434	0.110176474
169	0x3d9ccb19	0.07655925
170	0x3d761f87	0.06008866
171	0xbe520603	-0.20510106
172	0xbe880d8d	-0.26572838
173	0x3c724286	0.014786368
174	0x3e8808cb	0.26569209
175	0x3e2c045f	0.16798542
176	0xbe300f95	-0.17193444
177	0xbd13e632	-0.036108203
178	0xbe65f549	-0.2245685
179	0xbe152551	-0.14565016
180	0x3d8aae85	0.06771568
181	0x3e17dfc7	0.14831458
182	0x3e6ce326	0.23133525
183	0xbe8b9213	-0.27259883
184	0x3e45da94	0.19321662
185	0xbe57e55f	-0.21083592
186	0x3dcee3f3	0.101020716
187	0x3e81ccc7	0.25351545
188	0x3c497a40	0.012297213
189	0x3e86dc9a	0.2634018
190	0xbe75b990	-0.23996568
191	0xbdc314be	-0.09525441
192	0x3e14e7ea	0.14541593
193	0xbdafa33a	-0.08576055
194	0xbda7df02	-0.08196832
195	0xbe129821	-0.14315845
196	0x3e345d46	0.17613706
197	0x3df31af6	0.11870377
198	0x3d8e9e9a	0.069638446
199	0xbe3d940c	-0.18513507
200	0xbe83b0cf	-0.25720832
201	0x3c080e3e	0.008304177
202	0x3d802d50	0.06258643
203	0xbe1ff836	-0.15622029
204	0xbda56b12	-0.08077063
205	0x3e47a415	0.19496186
206	0x3cbc61a2	0.022995774
207	0x3c5564e2	0.013024541
208	0xbd917f0c	-0.071043104
209	0xbe85d901	-0.26142123
210	0xbe8af8bc	-0.27142894
211	0xbe0d4d87	-0.13799106
212	0xbe1642f2	-0.14673975
213	0x3db8314c	0.08993778
214	0xbdac1b4b	-0.08403643
215	0xbde74b0a	-0.112936094
216	0x3ea9c70b	0.3315967
217	0x3e07e14b	0.13269536
218	0x3e7bcee3	0.2459064
219	0xbddde278	-0.10834211
220	0xbd9ae2c9	-0.07562787
221	0x3e1190a0	0.14215326
222	0xbe19e667	-0.15029298
223	0xbe12e7a8	-0.14346182
224	0x3d08444d	0.03326826
225	0xbd8067aa	-0.06269772
226	0xbe255c8c	-0.16148585
227	0x3e64bff7	0.22338854
228	0x3e8dcbbb	0.27694497
229	0x3d88c1a1	0.06677557
230	0xbcd3e7cc	-0.025867365
231	0xbe7d58d4	-0.24740916
232	0xbd9a5b15	-0.07536904
233	0x3dc52747	0.09626632
234	0x3e262f66	0.16229019
235	0xba911443	-0.001106866
236	0xbd9ec9aa	-0.07753308
237	0x3e44b02a	0.19207826
238	0xbe434170	-0.19067931
239	0x3e65b90e	0.22433874
240	0xbd1ce0ef	-0.03830045
241	0x3d604f6c	0.054763243
242	0xbb5c1b10	-0.0033585466
243	0x3db00284	0.0859423
244	0xbce2ba0f	-0.02767661
245	0x3e87341c	0.26406944
246	0x3d4356eb	0.047690313
247	0x3e96350e	0.29337353
248	0x3eb011bd	0.34388533
249	0xbda1b0da	-0.0789506
250	0xbe1183f9	-0.142105
251	0x3e9c96be	0.30583757
252	0x3e67a38e	0.22620985
253	0xbe61b506	-0.22041711
254	0xbcb6cf13	-0.022315538
255	0xbe91c049	-0.28467014

mlr.0.bias f4 [64]
0	0xbda2912d	-0.07937846
1	0x3e49a0dd	0.1969027
2	0x3db71e51	0.08941329
3	0xbd4e2dc2	-0.050336607
4	0x3d47be5c	0.048765525
5	0xbe262912	-0.16226605
6	0x3e0c90be	0.1372709
7	0x3de9dc28	0.114189446
8	0x3d9ec429	0.07752258
9	0xbe36c16a	-0.17847219
10	0x3e5d6c7b	0.21623413
11	0xbd2ab479	-0.04167602
12	0xbde62aa7	-0.11238604
13	0x3e2d8bc0	0.16947842
14	0x3e9123a2	0.28347498
15	0x3e5a5055	0.21319707
16	0x3d8147d0	0.06312525
17	0xbdc989ea	-0.09840758
18	0x3dfaf0a7	0.12252932
19	0x3e4b93ab	0.1988055
20	0xbe9980b1	-0.29980996
21	0xbd127c4e	-0.035763077
22	0xbe7e7c1a	-0.24852028
23	0x3d5c5ab1	0.053797428
24	0x3d81c848	0.06337029
25	0xbda83eff	-0.082151406
26	0xbcc5d5ab	-0.024149736
27	0x3d1c6cd6	0.03818973
28	0xbd46ba56	-0.048517548
29	0xbe9017b4	-0.28143084
30	0x3e6b557b	0.22981827
31	0xbe14c80d	-0.14529438
32	0xbdfe5515	-0.12418572
33	0x3cdf10c7	0.02722968
34	0xbd23af50	-0.039962113
35	0xbe8b08f3	-0.27155265
36	0x3e079f70	0.13244414
37	0xbe0645b8	-0.13112533
38	0xbe22b3d7	-0.15888916
39	0x3c93c6bf	0.018039105
40	0xbe1a43a0	-0.1506486
41	0xbe6f76b9	-0.23385133
42	0xbdc73501	-0.097269066
43	0xbe122499	-0.14271773
44	0xbdf6e8f9	-0.12056155
45	0xbdd7188c	-0.10502729
46	0xbbe7cfb8	-0.0070743226
47	0xbe6f3520	-0.2336011
48	0xbe32ec41	-0.17472936
49	0x3b8a066a	0.0042121904
50	0x3d246f9e	0.04014551
51	0x3d8eef1c	0.069792
52	0xbe68b9e9	-0.22727169
53	0x3dbcb61c	0.09214422
54	0x3e18e964	0.14932781
55	0x3d91bf93	0.07116618
56	0xbe8c26bb	-0.273733
57	0xbe361c13	-0.17784147
58	0xbe9d6c51	-0.307467
59	0xbe581f81	-0.21105768
60	0x3e0a2ab2	0.1349285
61	0xbd308e8d	-0.043104697
62	0x3dfb1799	0.1226036
63	0xbe2d8562	-0.16945413

mlr.2.weight f4 [208, 64]
0	0x3c9b9b60	0.018994987
1	0xbd4a0623	-0.04932226
2	0x3d7ff1d8	0.0624865
3	0xbd5ff024	-0.054672375
4	0xbd006380	-0.03134489
5	0xbda92269	-0.08258516
6	0xbccac0bc	-0.024750106
7	0x3df31122	0.11868502
8	0x3d78837c	0.06067227
9	0xbc53cd1f	-0.012927323
10	0x3cbc2ea2	0.022971455
11	0xbc608f60	-0.013706058
12	0xbdce1958	-0.10063428
13	0x3e11d0e0	0.14239836
14	0x3d353858	0.044243187
15	0x3d736da7	0.059430744
16	0xbd56e635	-0.052465636
17	0xbd6f9318	-0.05848989
18	0x3d490a48	0.04908207
19	0x3d9dd454	0.07706514
20	0x3dc64d9e	0.09682773
21	0xbd76c180	-0.06024313
22	0x3e20c775	0.15701087
23	0xbc96bcc0	-0.01840055
24	0xbd1908a9	-0.037361775
25	0xbc33ea8a	-0.010981211
26	0x3dfc0300	0.1230526
27	0x3d0536d3	0.032522988
28	0xbc8b0088	-0.016968027
29	0xbb6f27a3	-0.0036492131
30	0x3c464382	0.012101056
31	0xbdd79c4a	-0.10527857
32	0xbd75362e	-0.059866123
33	0x3d95d588	0.073161185
34	0x3e18a3a5	0.14906175
35	0x3df44d08	0.11928755
36	0xbdb8d136	-0.09024279
37	0x3d8a7604	0.06760791
38	0xbd8d3ceb	-0.06896385
39	0x3dee71ba	0.11642785
40	0x3db8b7c8	0.090194285
41	0x3e262cfb	0.16228096
42	0x3db85548	0.09000641
43	0x3def696e	0.11690031
44	0x3b1f7240	0.0024329573
45	0x3dd1e8a3	0.1024945
46	0xb94e0e3e	-0.00019650997
47	0x3d5ef150	0.054429352
48	0xbd248ecc	-0.040175244
49	0xbb098e00	-0.002098918
50	0xbdded126	-0.10879736
51	0x3a993652	0.0011689162
52	0xbcd99737	-0.026561363
53	0xbd2cb550	-0.0421651
54	0xbd352cb3	-0.04423208
55	0xbd9fc925	-0.07802037
56	0x3cc28816	0.023746531
57	0x3e0148bc	0.12625402
58	0x3e1c5809	0.15267958
59	0x3e009366	0.12556228
60	0xbce6d886	-0.028179418
61	0xbdfd2fbe	-0.12362622
62	0x3d42356c	0.04741423
63	0x3d8f70bc	0.07003924
64	0xbddbc772	-0.107314005
65	0x3dac1296	0.084019825
66	0x3dd87132	0.10568465
67	0x3bf81f20	0.0075720698
68	0xbd9a3abe	-0.075307354
69	0x3e134764	0.14382702
70	0xbb97e389	-0.0046352786
71	0x3da98604	0.082775146
72	0xbdad210c	-0.08453569
73	0x3e13688a	0.14395347
74	0xbd41f36c	-0.047351286
75	0x3dfd4f80	0.12368679
76	0xbd58ef2c	-0.052962467
77	0x3e0cb210	0.137398
78	0x3cb8ec11	0.022573503
79	0x3d9e48d9	0.07728738
80	0xbc7f9372	-0.015599119
81	0x3d524be8	0.05134192
82	0xbbafff4e	-0.005371011
83	0xbd94a659	-0.07258291
84	0x3d4f734d	0.05064707
85	0x3dc895fc	0.09794232
86	0x3d01f2a9	0.03172556
87	0x3d20ee58	0.039289802
88	0x3bc6c211	0.006065615
89	0x3e257d57	0.16161095
90	0x3d9936a8	0.07481128
91	0x3db3d608	0.087810576
92	0xbd82db7e	-0.06389521
93	0xbd0e2c92	-0.034710474
94	0x3d2854d0	0.04109651
95	0xbd962f34	-0.07333222
96	0x3e21091d	0.15726133
97	0xbdf60282	-0.12012197
98	0x3def971f	0.11698746
99	0x3dff35c2	0.12461425
100	0x3d80364a	0.06260355
101	0x3d2e94c4	0.042622343
102	0xbde4ea3d	-0.1117749
103	0x3e34b404	0.17646796
104	0xbcaf2718	-0.021380946
105	0xbd1323f1	-0.03592295
106	0x3dfcb6b4	0.12339535
107	0x3bc330f8	0.0059567653
108	0xbc10e420	-0.008843452
109	0x3e37331a	0.17890587
110	0xbcf6d087	-0.03012873
111	0xbdb51e10	-0.088436246
112	0x3ca68528	0.020327166
113	0xbc891100	-0.016731739
114	0x3cebdeb8	0.028792724
115	0xbd71dd9d	-0.059049238
116	0x3d8ec28a	0.06970699
117	0xbd63b78c	-0.055594966
118	0xbd0af235	-0.033922393
119	0xbd8ee49d	-0.06977198
120	0x3d720709	0.05908874
121	0x3dad79c4	0.084704906
122	0xbd1a40c0	-0.037659407
123	0x3e372469	0.17884983
124	0x3dbf4bcd	0.0934063
125	0x3cbe0448	0.0231954
126	0xbd964e92	-0.07339205
127	0x3c9a6c80	0.018850565
128	0x3df6aa92	0.120442525
129	0x3e03e57b	0.12880509
130	0xbdc7640a	-0.09735878
131	0x3de9aea6	0.11410265
132	0x3c1ebd70	0.00968872
133	0x3dacc405	0.08435825
134	0x3dd980d5	0.10620276
135	0x3dda3e0a	0.10656364
136	0xbdc78f98	-0.09744185
137	0x3e252d57	0.16130577
138	0xbd1c2b63	-0.038127314
139	0x3c1987d0	0.009370759
140	0xbdb2e22c	-0.08734545
141	0x3d10c4c7	0.03534391
142	0x3daf5661	0.08561397
143	0x3d013969	0.03154889
144	0xbc83b20b	-0.016076108
145	0x3c2186e0	0.009858817
146	0x3e2cc1c1	0.16870786
147	0x3df1e420	0.118110895
148	0x3e1544c7	0.14577018
149	0x3d4ced3c	0.05003093
150	0x3e098022	0.13427785
151	0xbbbd06c0	-0.005768627
152	0x3d74ab8b	0.05973391
153	0x3dacc152	0.084353104
154	0xbddf43f2	-0.109016314
155	0xbd6ab812	-0.05730445
156	0x3c7b1670	0.015325174
157	0x3b6f1014	0.003647809
158	0x3d944f8a	0.07241733
159	0xbceaf740	-0.028682351
160	0x3d71b992	0.059014864
161	0x3da68ebe	0.08132695
162	0x3c40b4f0	0.011761889
163	0x3dcd0534	0.10010758
164	0x3dca20b8	0.09869522
165	0xbdc47ac2	-0.09593727
166	0xbdb45648	-0.08805519
167	0xbd4ee0dd	-0.050507415
168	0xbd8c4b0e	-0.06850253
169	0x3c95e9b9	0.018299924
170	0xbc1a26e0	-0.009408683
171	0x3c5ae998	0.013361357
172	0xbd8157f8	-0.06315607
173	0x3c83e7b5	0.016101697
174	0x3c2050aa	0.009784857
175	0x3dfb2552	0.12262978
176	0xbd3dc310	-0.046328604
177	0xbdb74bd6	-0.089500114
178	0x3d54d650	0.051962197
179	0x3d0f2fca	0.034957685
180	0x3e0fcf69	0.14043964
181	0x3d9ff508	0.07810408
182	0x3e2b9a2f	0.16758035
183	0xbd4900dd	-0.04907309
184	0x3da0d1c5	0.0785251
185	0x3e204575	0.15651496
186	0xbcc72f26	-0.024314474
187	0x3e318c47	0.17338668
188	0x3e17e67e	0.1483402
189	0x3ab36c80	0.0013688952
190	0x3d76dcb0	0.060269058
191	0xbd330198	-0.04370269
192	0xbddf4770	-0.109022975
193	0x3d34ed2c	0.044171497
194	0x3d18a3e0	0.03726566
195	0xbda74fa4	-0.08169487
196	0x3d7851e0	0.060624957
197	0xbd82ab7c	-0.06380364
198	0xbd3ff057	-0.046860065
199	0x3df7e86e	0.12104879
200	0x3d0b6574	0.0340323
201	0xbc0cd21d	-0.008595017
202	0x3d6b965f	0.057516452
203	0x3cae8178	0.02130197
204	0x3d0b38f0	0.033989847
205	0x3da54424	0.080696374
206	0xbbdfca4b	-0.006829535
207	0xbcf9e695	-0.030505458
208	0xbcfb0660	-0.030642688
209	0x3d0ba01c	0.03408824
210	0x3d16b23e	0.03679108
211	0x3dfd2201	0.12360001
212	0x3d0a27af	0.03372925
213	0xbb9529a0	-0.004552081
214	0x3dbd0e6d	0.09231267
215	0xbd07fb48	-0.033198625
216	0x3df69eff	0.12042045
217	0x3d8c7605	0.06858448
218	0xbdec9a56	-0.11552875
219	0x3c5b4f07	0.013385541
220	0xbd68389c	-0.056694612
221	0x3d9bca3e	0.07606934
222	0xbd0c0a09	-0.034189258
223	0xbdfdef66	-0.12399177
224	0x3d1b12dc	0.037859783
225	0xbc4427f0	-0.0119724125
226	0x3b9e2c87	0.0048270854
227	0x3deb3532	0.114847556
228	0xbcdf6f98	-0.027274892
229	0x3da47574	0.08030215
230	0x3d20b9db	0.039239746
231	0xbd73b5dc	-0.059499606
232	0x3cf0a030	0.029373258
233	0x3e41ed0f	0.18938087
234	0xbda77324	-0.08176258
235	0xbcf70cf8	-0.030157551
236	0x3dfa95da	0.12235613
237	0x3e16633d	0.14686294
238	0xbcf2d964	-0.029644676
239	0x3d9a0bf6	0.075218126
240	0xbc8300a0	-0.015991509
241	0xbdfc65de	-0.12324117
242	0x3c19df90	0.00939168
243	0x3d9bad02	0.07601358
244	0x3cc2d00a	0.023780841
245	0x3d321dc8	0.043485433
246	0xbe19c12a	-0.15015092
247	0x3df1c668	0.11805421
248	0x3df659ae	0.12028824
249	0x3df295b1	0.118449576
250	0x3dc5d6cc	0.0966011
251	0x3df6293b	0.12019583
252	0xbd6b8efe	-0.057509415
253	0xbcffded0	-0.031234175
254	0xbc438480	-0.011933446
255	0xbd8e75e0	-0.069560766

mlr.2.bias f4 [208]
0	0x3d8096a1	0.0627873
1	0xbb107053	-0.0022039607
2	0xbd922b9d	-0.07137225
3	0x3d0d123b	0.034441214
4	0x3d92590f	0.07145893
5	0x3dac7af7	0.08421891
6	0x3db6337a	0.08896537
7	0xbd4b68b5	-0.049660403
8	0x3d7d4271	0.06183094
9	0x3db1035d	0.086432196
10	0x3d76b5ef	0.0602321
11	0xbd83a3b7	-0.064277105
12	0x3da6fcde	0.08153699
13	0xbdae183c	-0.08500716
14	0xbd91c73e	-0.071180806
15	0x3d842c48	0.064537585
16	0x3d995d01	0.07488442
17	0x3ca48b56	0.020085972
18	0xbd21182a	-0.039329685
19	0xbd9b3dd2	-0.07580151
20	0x3d615ec7	0.055022027
21	0xbd2bcece	-0.04194527
22	0x3d400e02	0.04688836
23	0x3c8eec0d	0.017446542
24	0x3d1f3ee9	0.038878355
25	0x3d1c2a49	0.038126264
26	0xbc0d78e8	-0.008634783
27	0xbbb52f4a	-0.005529319
28	0xbc7a154b	-0.015263866
29	0xbd148a76	-0.03626486
30	0xbd6a2186	-0.057160877
31	0x3d10377e	0.03520917
32	0x3d2601b3	0.040528964
33	0xbdd864bb	-0.10566088
34	0xbcce0b2b	-0.02515181
35	0xbd912ee9	-0.070890255
36	0xbb7e247a	-0.0038779066
37	0xbd2ca415	-0.04214867
38	0x3db27a75	0.08714763
39	0xbda0b07c	-0.07846162
40	0xbcf134f3	-0.029444193
41	0x3ddbc273	0.107304476
42	0x3bc89534	0.006121302
43	0x3d90f5d6	0.070781395
44	0xbd3535c6	-0.044240735
45	0x3d86a6c4	0.06574777
46	0xbd99a5a9	-0.075023
47	0xbd516880	-0.05112505
48	0xbd9c7938	-0.07640308
49	0x3db27a59	0.08714742
50	0x3d44bdfa	0.04803274
51	0xbcce4c06	-0.025182735
52	0x3c924e1d	0.017859513
53	0x3c9f91a3	0.019478625
54	0xbd9112fe	-0.070837006
55	0xbd3c5b7e	-0.04598569
56	0xbb0ea5de	-0.0021766345
57	0x3d4e30e7	0.050339606
58	0x3d35e177	0.044404473
59	0x3d97080e	0.07374583
60	0x3cc574ec	0.024103604
61	0x3d8e6ed2	0.06954731
62	0x3cac9cc9	0.021070855
63	0x3dc1a4c3	0.09455254
64	0x3d008fb5	0.03138705
65	0xbd4996e1	-0.049216155
66	0x3d65ebc9	0.056133065
67	0xbd198180	-0.037477016
68	0xbd9aea77	-0.07564252
69	0xbd922966	-0.071368024
70	0x3da9be10	0.08288205
71	0x3cbe0b55	0.023198763
72	0x3d134047	0.03594997
73	0xbd40c004	-0.04705812
74	0xbdcf5500	-0.10123634
75	0x3cf8d445	0.030374656
76	0xbd7c8db7	-0.061658587
77	0x3d12347f	0.035694595
78	0xbaa9be32	-0.0012950359
79	0x3cdf4674	0.027255274
80	0x3d97e63c	0.074169606
81	0xbd7aecd9	-0.06126103
82	0x3d3dfefa	0.046385743
83	0xbca07168	-0.019585326
84	0x3c3e1a37	0.01160293
85	0xbd0a0cdf	-0.03370368
86	0xbc93edc1	-0.018057706
87	0x3d40518a	0.04695276
88	0x3d1f61e7	0.038911726
89	0xbd7d659d	-0.061864484
90	0x3cf8bf0c	0.030364536
91	0x3cebf144	0.028801568
92	0x3d4a64b8	0.04941246
93	0xbc56caf2	-0.013109909
94	0x3dc2e74c	0.09516773
95	0x3d9c2044	0.07623342
96	0xbd8f4f46	-0.06997542
97	0x3d33d855	0.043907482
98	0x3c6edf4d	0.014579606
99	0xbd338d61	-0.043836
100	0xbd921bb6	-0.07134192
101	0xbd9fc538	-0.07801288
102	0x3cb42266	0.021989059
103	0xbd357960	-0.044305205
104	0x3d206cda	0.03916631
105	0x3ceac69c	0.028659157
106	0xbc625ecb	-0.013816546
107	0x3db87423	0.09006526
108	0xbd568933	-0.052376937
109	0xbcfcc2e5	-0.030854652
110	0x3dae8eb2	0.08523311
111	0x3d843ec9	0.06457288
112	0x3e010f47	0.12603484
113	0x3d828155	0.063723244
114	0xbd7eb1a2	-0.062181123
115	0x3d7666ff	0.06015682
116	0x3cdb04e6	0.026735734
117	0x3daaa783	0.083327316
118	0xbd40431c	-0.046939
119	0x3d765b8b	0.060145896
120	0xbd001052	-0.031265564
121	0x3d08aeb0	0.03336972
122	0xbd5c703a	-0.053817965
123	0x3caa8832	0.020816896
124	0x3d8044f4	0.06263152
125	0x3d8de149	0.06927735
126	0xbd884b45	-0.066549815
127	0xbd94f461	-0.07273174
128	0x3cc239b2	0.023709152
129	0xbd8ef2f1	-0.06979931
130	0xbd7bf2e1	-0.061510924
131	0x3d46a481	0.048496727
132	0x3dc7ee81	0.09762288
133	0xbd8a691f	-0.067583315
134	0xbd47022c	-0.048586056
135	0xbd4c8381	-0.0499301
136	0xbcc82260	-0.024430454
137	0x3d964fb3	0.0733942
138	0xbdafe3ab	-0.08588346
139	0x3dadf5f9	0.08494181
140	0x3d53ceae	0.051710777
141	0x3c10ddf9	0.008841985
142	0x3d957b33	0.07298889
143	0x3d3760a5	0.0447699
144	0x3c745799	0.014913463
145	0xbca32bc2	-0.019918326
146	0xbd86145b	-0.06546851
147	0xbde76e81	-0.11300374
148	0x3d3dd5fb	0.046346646
149	0xbd34bfba	-0.044128157
150	0xbdedfba3	-0.116202615
151	0xbd3ba766	-0.04581394
152	0xbd93dd4c	-0.072199434
153	0x3d808f1c	0.06277296
154	0x3d68b2ae	0.056811027
155	0xbde5fb4f	-0.11229574
156	0x3d25d3c0	0.040485144
157	0xbcdcd2f2	-0.026956055
158	0x3daa9db3	0.0833086
159	0x3c730c5a	0.014834488
160	0xbcbbb416	-0.02291302
161	0x3d1c0db5	0.03809901
162	0xbd9faa1d	-0.077961184
163	0xbd070ac4	-0.03296925
164	0x3d99aea5	0.07504014
165	0x3db7a0e9	0.08966238
166	0xbb2e1f78	-0.002656905
167	0x3d791cc9	0.060818467
168	0xbdaa303e	-0.08309983
169	0xbdbcaaeb	-0.092122875
170	0xbce79e86	-0.028273832
171	0xbdd3f0ed	-0.10348687
172	0x3d8572c4	0.065160304
173	0xbd8377a5	-0.06419305
174	0xbd86beb1	-0.0657934
175	0x3cbb8cbf	0.022894261
176	0xbbef0c4a	-0.007295166
177	0x3d062f27	0.03275981
178	0x3cdbc0e6	0.02682538
179	0xbd8213e4	-0.0635145
180	0x3d0240e4	0.031800166
181	0xbca33eaa	-0.019927341
182	0x3d831096	0.06399648
183	0xbd3fea0a	-0.046854056
184	0x3bfef8a3	0.0077811047
185	0x3d691ee4	0.056914225
186	0xbdad6694	-0.08466831
187	0x3d3a8649	0.04553822
188	0xbc83a8f3	-0.016071772
189	0x3d56d64d	0.052450467
190	0xbd35a57d	-0.044347275
191	0xbc9788ae	-0.018497791
192	0xbd93b1c0	-0.072116375
193	0xbc8582eb	-0.016297778
194	0x3d432120	0.047639012
195	0x3d32a291	0.043612067
196	0xbdab89a8	-0.08375865
197	0xbdb7e25c	-0.089787215
198	0x3d612d23	0.054974686
199	0xbd9d44db	-0.07679149
200	0xbdb2b401	-0.08725739
201	0xbd973e4d	-0.0738493
202	0x3cfc0f54	0.030769028
203	0x3c476049	0.012168952
204	0xbd2b5ec7	-0.041838434
205	0x3d62a082	0.055328853
206	0x3dde9927	0.10869055
207	0x3cbc53e5	0.022989223
