pqc_reup_v1_backup/best_model_epoch_6.pth (torch, 61273 bytes, 6 tensors)

reupload_weights f4 [12, 3, 4]
00000000: 6eda 3e3e 8cac 383e c24b f23d 965d ebbd
00000010: 3362 9d3e dc28 f73d d217 803e a916 093e
00000020: 8cdb d93d aa33 b63e 2fd1 263e 5035 f33d
00000030: 2f36 40be bd45 d8bd 41f4 b9bd 8dca 023d
00000040: e9aa 433e 4478 58bd 5977 f8bd c9f1 69bb
00000050: d2cd 063e 2209 8b3e 586c 423e df37 8e3e
00000060: ad64 6d3d fafd aa3d fa51 083d b881 993d
00000070: 07f2 753e 1870 893e 6d83 663e 5113 b43e
00000080: 45ad 85bd 0736 263c 3668 a23d 27b8 833e
00000090: 1442 2abb 5d44 bfbd bea2 92bc 98f9 36be
000000a0: 18a8 9ebd 22ba 383e 2ace 1bbc d341 663d
000000b0: e33e e43d 3597 e43e e58a df3d 3907 333e
000000c0: e0b0 c23c bbcd 2a3d 938e ca3d dd2b 183e
000000d0: 3d7f 393c ce1e 393e 6e5f 6ebc 07d5 c9bb
000000e0: 9072 06be 630e 053c e0f4 88bc 51d2 583d
000000f0: b26f 78bd f4b9 ab3d 971a 5dbe d9ec 463d
00000100: eed6 333d 44fa ab3c 510e 1e3e 001e a7bc
00000110: e34f a2bd 3632 bfbd ee90 38be e8aa 383d
00000120: 446c 77bc 9c45 4f3d 9daf 213c 0adc 863d
00000130: 0529 16bd 2a59 25be d886 9fbe dc32 16be
00000140: 4cbb 1b3e bab7 f43d 5b79 b23c a62e e03d
00000150: 351d fe3d 6fe5 e53d 8048 ec3d 9f1a bc3c
00000160: 14a8 5bbe e735 adbe c0be c0be d294 57be
00000170: 582c d2be 9f2e a4be 7fbc 91bd ae18 25be
00000180: d816 9ebe 72cc debc 5882 6b3c b52e 81bd
00000190: d7cf 5d3e 6ab4 733e 1b43 9d3e 29f7 0e3e
000001a0: 5413 c7be d634 9abe ba09 aebe e078 b7be
000001b0: 9460 913d bdc0 213e 0f9e 743d 0f69 743d
000001c0: 9b8f e4be c7fa a2be 1619 bbbe 134e 92be
000001d0: fb8b 02bc 036b 7bbd 773d f0bd bd56 54bd
000001e0: 9dc5 a1bd 2cd1 65bd f739 2bbd b26f ba3b
000001f0: eee0 ef3d 63ab 183d 0c39 ed3d f525 9c3d
00000200: 9ecb 38bd e106 0dbe 0de8 c5be 6c1b b3be
00000210: b3aa cdbb ca9f 483e 5735 843d 42f0 573d
00000220: 5100 05be a0af 6ebe 9fd7 d6be b5e7 18be
00000230: b0e3 1abe 52b2 c83c 133d e9bd 1ecd 833c
0.18638012 0.18034571 0.11830856 -0.114924595 0.30738983 0.1206834 0.25018173 0.1338755
0.10637578 0.35586292 0.16290735 0.11875403 -0.1877067 -0.105601765 -0.09079791 0.03193145
0.19108166 -0.05284907 -0.12132139 -0.0035697094 0.13164452 0.27155405 0.18986642 0.27777
0.05795734 0.083492234 0.033281304 0.07495445 0.24018107 0.26843333 0.22511072 0.35170987
-0.06527189 0.010144717 0.07930033 0.25726435 -0.0025979327 -0.09339211 -0.017899867 -0.1786865
-0.07746905 0.18039754 -0.009509603 0.05621512 0.11144807 0.44646612 0.10915164 0.17483224
0.023765981 0.041700106 0.09890475 0.14860483 0.01132184 0.18078157 -0.014549119 -0.006159428
-0.1312964 0.008121106 -0.016718328 0.05293495 -0.060653396 0.08385077 -0.21592174 0.04856572
0.043906145 0.02099336 0.15435149 -0.020400047 -0.079253934 -0.09335749 -0.18024036 0.045084864
-0.015101496 0.050603494 0.00986853 0.06584938 -0.036660213 -0.16147295 -0.31157565 -0.14667839
0.15208167 0.119491056 0.021786382 0.109463975 0.124079145 0.112254016 0.11537266 0.022961913
-0.21450835 -0.33830187 -0.3764553 -0.21052864 -0.41049457 -0.3206682 -0.07116031 -0.16122696
-0.30876803 -0.027197096 0.014374338 -0.06307737 0.21661316 0.23799291 0.3071526 0.13961472
-0.38881934 -0.30118436 -0.33991796 -0.35834408 0.07098499 0.1579618 0.05972105 0.059670504
-0.44640812 -0.31831953 -0.36542577 -0.2857519 -0.007967944 -0.06138135 -0.117304735 -0.051840533
-0.0789902 -0.056107685 -0.041803326 0.0056895847 0.11712824 0.037272822 0.115831465 0.07624427
-0.04511606 -0.13772155 -0.38653603 -0.3498186 -0.0062764524 0.19592205 0.06455486 0.052719362
-0.12988402 -0.23309183 -0.4196138 -0.14932139 -0.15125918 0.024499092 -0.11388602 0.016089018

reupload_bias f4 [12, 3]
00000000: eea7 c6be 9826 853e ab6e 613e e531 c93e
00000010: 531f 97be 7b32 ffba 6afa 8dbe 8605 c03e
00000020: ff02 a63d 16f1 a73e 983e 2abd d987 013f
00000030: 4f70 adbe 803d bb3d 2bb0 29be 8f0e 1e3e
00000040: 9f97 a1be 46ac 28be d511 cfbd 64c1 5bbe
00000050: 2692 0ebc 66b1 e4be 9fc5 c9be 0cd1 3bbe
00000060: 4df0 b53e c314 1a3f 0e2e 22bf 2129 bdbe
00000070: 6ecc 83be 04a0 f4bd 0474 463e d13e 583e
00000080: b6ad fdbe 56dc b2be f720 91be 40a6 1e3d
-0.38799995 0.26006007 0.22014873 0.3929588 -0.29516086 -0.001947 -0.27730113 0.37504214
0.0810604 0.3280112 -0.0415636 0.5059791 -0.33874747 0.091425896 -0.16571109 0.15435241
-0.3156099 -0.16471967 -0.10110823 -0.21460491 -0.008701837 -0.44666594 -0.39408585 -0.18341464
0.35534897 0.6018793 -0.63351524 -0.3694544 -0.25741905 -0.11944583 0.19380194 0.21117713
-0.49546593 -0.34933728 -0.28345463 0.038732767

mlr.0.weight f4 [64, 12]
00000000: 6f08 8a3b 1b33 8dbc fc21 8e3d 0dad a53d
00000010: eb3d 86be 762d dabd b0ef 783e b84e e63d
00000020: d13d 6bbc 9038 32be 04da 34be 5565 84be
00000030: 8dce 87bd ae5b df3d 701f 4b3e 82a6 143e
00000040: 8261 71be e142 24be 2a96 f4bc 3e7b 9a3e
00000050: 3694 853d 1d0e 6abd ba0a 133e 8ace a9bd
00000060: b854 3fbe d1c1 573e 4f69 06be d908 6dbd
00000070: a208 93be b0d6 453e 96f5 5f3e d676 d73d
00000080: d81d 4ebe 12df 91be 3315 70be 756e 5c3e
00000090: beeb 0d3e 64c0 783e 91db 1a3e 39a1 953d
000000a0: 9743 39bb e1ce 60be c443 7dbe ff3e 8abe
000000b0: 7c04 f23d bc21 11be b7f6 6dbd 0c1f 2abe
000000c0: ac76 57bd 520e 50be e026 41be 121c c43d
000000d0: 59b4 afbd 1c7d 363e 0eaa bdbd 4dd8 58be
000000e0: ad9f 50bd ff4a 0fbe ecdf b4bd e0b4 8cbe
000000f0: e027 2f3e 19ca 58be d324 0d3e 01de f63d
00000100: c8dd 503e 53cb 6abe 9dd1 4e3e 6506 09be
00000110: 9c53 e23d b3dc 893e a4b5 12bd c9f9 ca3b
00000120: 71a0 8abd bc55 77be bc33 0d3e dff6 92be
00000130: 90dd 363e da8a 5c3e 3474 8b3e cd6d 8dbd
00000140: abb1 73be e61d 833d 6e2e 223e 36a8 93be
00000150: bb31 86bd 7733 31be 2ad6 cebc fd7f 11be
00000160: 87aa f1bd 0daf bbbd de74 8cbe 758b 723e
00000170: 42d0 773e eb7b 39bd daa7 06bd 8148 f1bd
00000180: 6479 85be 16d5 8fbe 19ba db3d c54c 22be
00000190: 5d09 3ebe e782 b8bc e0e0 c4bd 8444 bfbd
000001a0: 2bf8 173c f8cd 7abd 4f8f cbbd 6089 0dbe
000001b0: a6c1 61be 48f1 713e 4491 f1bd 3f6e 913d
000001c0: 1008 c9bd 8647 a83c c14a 893e 7d9e 0f3e
000001d0: d8ed 77be 39f4 f13d 760a 913e 94f6 b53d
000001e0: df8b 763e c999 a13e 88e6 38bc 606d bb3d
000001f0: 6067 26be d5cd dbbc 91e6 7d3e d6ff 423e
00000200: 171d 0fbe 18a2 46be 9373 1ebe ce9f 73be
00000210: 5c19 64be 3134 92bd f67e 473e 3dea 453d
00000220: 67d6 60be db23 6dbe 2b0e 133e c8e1 5bbe
00000230: 6a96 11bd 7ecd 0d3e 0dcf 08be 24ee 00bd
00000240: 59d8 cdbc a2de 8bbd 62e1 15be 8ec1 83be
00000250: f9f3 6ebe c548 1ebe 9fc0 8e3e e0c7 0ebe
00000260: 8381 46be 194e 8f3d 52f1 a23d c5f6 213e
00000270: 9224 8f3e ff14 503e 2183 76be 8e8f 8b3d
00000280: f98c 653e 8296 963c cdb2 fcbd e18c a83e
00000290: acb3 5abd 9207 e9bd b345 51be c94f 933d
000002a0: 9282 ee3d 00c2 573d bd62 3b3d edb7 6bbe
000002b0: c2d7 8fbe 4420 c9bb eef5 803e 10fd 1e3e
000002c0: 6ec2 37be 6c92 47bd be99 65be 3037 1abe
000002d0: 88f2 a23d ba81 263e 8453 7e3e 4fc9 84be
000002e0: c3da 543e 28bc 48be 7c58 f33d 0de4 863e
000002f0: e230 cc3c 4d92 8d3e 0f95 65be 191d aebd
00000300: 1698 1a3e 914e a4bd 978a 9cbd bdef 0cbe
00000310: 1006 3a3e 9774 fe3d 83f2 993d cae6 37be
00000320: 7adb 80be d6fa 623c 6b8a 8b3d 3049 1abe
00000330: 126b a5bd 15a4 473e a261 bc3c e264 553c
00000340: 0c7f 91bd 01d9 85be bcf8 8abe 874d 0dbe
00000350: f242 16be 4c31 b83d 4b1b acbd 0a4b e7bd
00000360: ae64 aa3e fd5e 0e3e 640b 7e3e 9670 cfbd
00000370: bfcd 92bd 30d9 163e e92e 18be 2b9a 0dbe
00000380: 730c 1a3d a76a 70bd 2edf 26be b58e 683e
00000390: d56c 923e c17c a13d 8b57 68bc d2e7 70be
000003a0: c6a7 82bd 3b1d dd3d 15f6 313e f512 153c
000003b0: 36e2 88bd 138c 4e3e 2b8a 39be 8ecc 6f3e
000003c0: 521e 49bd 0e8f 3b3d 8c06 44bc 05ac 9c3d
000003d0: bcc2 18bd 1f47 823e e05d 203d 53c5 8f3e
000003e0: 4de6 aa3e 0f4f b7bd 8d72 1cbe 721d 963e
000003f0: 8ea3 673e 06b5 61be 13cf b6bc 49c0 91be
0.004212431 -0.017236283 0.06940076 0.080896474 -0.26219115 -0.10653202 0.24310184 0.11245483
-0.014358 -0.1740439 -0.17661291 -0.2585856 -0.06631193 0.109061584 0.19836211 0.14516643
-0.23572353 -0.16041137 -0.02985676 0.3017215 0.065224096 -0.057142366 0.1435956 -0.08291347
-0.18684661 0.21070029 -0.1312611 -0.057869766 -0.28717524 0.19320178 0.21871027 0.10520713
-0.20128572 -0.28490502 -0.23445587 0.21526511 0.1385946 0.24292141 0.1512282 0.073061414
-0.0028269046 -0.21953918 -0.24732882 -0.27001187 0.118172616 -0.14173025 -0.058096614 -0.16613406
-0.05260341 -0.20317963 -0.18862486 0.095756665 -0.085793205 0.17821163 -0.09260951 -0.21176262
-0.05093353 -0.13993452 -0.08831772 -0.27481747 0.17105055 -0.21170844 0.13783579 0.12054063
0.20397103 -0.22929125 0.20197149 -0.13381346 0.110511035 0.26926193 -0.035817757 0.0061943275
-0.06768883 -0.24153799 0.13789266 -0.28703973 0.17857957 0.21537343 0.27237093 -0.069057085
-0.23798244 0.06402187 0.15838024 -0.28839272 -0.06552454 -0.17304789 -0.025248606 -0.1420898
-0.11800104 -0.09164248 -0.27432913 0.23686011 0.24200538 -0.045284193 -0.03287492 -0.11781407
-0.26069176 -0.2809226 0.10728855 -0.15849598 -0.1855826 -0.022523357 -0.09613204 -0.0933924
0.009275476 -0.061231583 -0.09939443 -0.13821936 -0.22046527 0.23627198 -0.11795285 0.07101106
-0.09815991 0.020541918 0.26814845 0.14025302 -0.24211824 0.1181416 0.28328294 0.08884922
0.24076794 0.3156264 -0.011285432 0.09151721 -0.16250372 -0.026831547 0.24794985 0.19042906
-0.1397594 -0.19397771 -0.15473776 -0.2379143 -0.22275299 -0.07138861 0.19482026 0.04831909
-0.21956788 -0.23158209 0.14360873 -0.21472847 -0.035543837 0.1384792 -0.13360234 -0.03147711
-0.025127577 -0.06829573 -0.14636758 -0.25733608 -0.23335256 -0.15457447 0.27881333 -0.13943434
-0.19385342 0.06997318 0.079561844 0.15816791 0.27957588 0.2032051 -0.24073459 0.0681449
0.22417058 0.018382315 -0.12338791 0.32919982 -0.053394005 -0.11378397 -0.20436744 0.07192952
0.11645998 0.052675247 0.04574846 -0.23019381 -0.28094298 -0.0061378796 0.2518763 0.15526223
-0.17945263 -0.048723623 -0.22421929 -0.15060115 0.079564154 0.16260424 0.24836546 -0.25934836
0.20786576 -0.19603026 0.118821114 0.26345864 0.024925653 0.2765068 -0.22420143 -0.08501644
0.15097079 -0.08022798 -0.076436214 -0.13763328 0.18166375 0.124245815 0.075169586 -0.17959133
-0.25167447 0.013853749 0.068135105 -0.15066981 -0.08077063 0.19496186 0.022995774 0.013024541
-0.071043104 -0.26142123 -0.27142894 -0.13799106 -0.14673975 0.08993778 -0.08403643 -0.112936094
0.33279938 0.13903423 0.24809033 -0.10128896 -0.07168149 0.14731288 -0.14861645 -0.13828342
0.03760953 -0.05869546 -0.16296074 0.22710688 0.28598657 0.07885123 -0.014181028 -0.23525932
-0.063796565 0.10796591 0.17379029 0.009098758 -0.06683771 0.20170622 -0.18119113 0.23417875
-0.04910118 0.045790724 -0.0119644515 0.076499976 -0.03729509 0.25444886 0.039152026 0.28080234
0.3337883 -0.08950626 -0.15278073 0.2931934 0.22620985 -0.22041711 -0.022315538 -0.28467014

mlr.0.bias f4 [64]
00000000: 2d91 a2bd 5968 5b3e 511e b73d c22d 4ebd
00000010: 5cbe 473d c9d2 1abe a99e eb3d 28dc e93d
00000020: 29c4 9e3d c681 31be d94e 6d3e 79b4 2abd
00000030: a72a e6bd aaf9 333e 743f 653e 1e94 713e
00000040: a854 8c3d ea89 c9bd dad9 093e cdc2 633e
00000050: d02a 9abe 4e7c 12bd f903 79be b15a 5c3d
00000060: 05b1 a43d 20aa 96bd abd5 c5bc 4cfb 7b3d
00000070: 56ba 46bd bdf6 8bbe 3dca 603e 0dc8 14be
00000080: 3480 d5bd c710 df3c 22f6 efbc f308 8bbe
00000090: 709f 073e b845 06be d7b3 22be 8c4c ea3c
000000a0: a043 1abe a4dd 64be 0135 c7bd ed93 09be
000000b0: f9e8 f6bd 4721 c2bd aca5 593c 2035 6fbe
000000c0: 41ec 32be 6a06 8a3b 9e6f 243d fe69 b23d
000000d0: 4ac2 63be 1cb6 bc3d 6805 043e a952 a73d
000000e0: bb26 8cbe 70c7 27be 4b58 9bbe d470 50be
000000f0: 71c5 133e 8d8e 30bd 9917 fb3d 6285 2dbe
-0.07937846 0.21426524 0.08941329 -0.050336607 0.048765525 -0.1511947 0.115048714 0.114189446
0.07752258 -0.17334661 0.23174609 -0.04167602 -0.11238604 0.17575708 0.22387487 0.23591658
0.068520844 -0.09840758 0.1346201 0.2224228 -0.30110788 -0.035763077 -0.24317922 0.053797428
0.08041576 -0.073566675 -0.024149736 0.061518952 -0.048517548 -0.27336684 0.21952148 -0.14529438
-0.104248434 0.02722968 -0.02929217 -0.27155265 0.13244414 -0.13112533 -0.15888916 0.028600954
-0.1506486 -0.22350174 -0.097269066 -0.13435335 -0.12056155 -0.094790034 0.013284128 -0.2336011
-0.17472936 0.0042121904 0.04014551 0.08711623 -0.22242084 0.09214422 0.12892687 0.08170063
-0.273733 -0.16384673 -0.303408 -0.2035554 0.14430787 -0.043104697 0.1226036 -0.16945413

mlr.2.weight f4 [208, 64]
00000000: 609b 9b3c 986a 6abd d8f1 7f3d 24f0 5fbd
00000010: 8063 00bd c4e0 85bd 9113 00bc 2211 f33d
00000020: 7c83 783d 06dc b3bc bbc4 213c 608f 60bc
00000030: 5819 cebd dd41 023e 431f 48bc e849 513d
00000040: b1ba 45bd 1893 6fbd e062 413d 4541 943d
00000050: 6255 bb3d 80c1 76bd 961a 373e c0bc 96bc
00000060: ddd2 37bd ed1c 87bc 0003 fc3d fc70 db3c
00000070: 8800 8bbc 41f9 44bb 3d68 2abd 4a9c d7bd
00000080: 1f58 60bd 88d5 953d 597f 143e 084d f43d
00000090: 36d1 b8bd 0476 8a3d eb3c 8dbd 4d66 e53d
000000a0: c8b7 b83d 529f 143e 4855 b83d d934 fc3d
000000b0: 4072 1f3b 67be c43d f937 83bc 50f1 5e3d
000000c0: cc8e 24bd 008e 09bb 26d1 debd c46e a838
000000d0: 8eee 2bbc 50b5 2cbd 9dfa 97bd efd6 a4bd
000000e0: 1688 c23c 25a8 f63d b2e0 2f3e d8c9 063e
000000f0: f5b8 16bd be2f fdbd 6c35 423d bc70 8f3d
00000100: 72c7 dbbd 62c8 9b3d 3271 d83d 201f f83b
00000110: be3a 9abd 279f 1f3e 5279 303d 0486 a93d
00000120: 0c21 adbd 041a 053e 05ee 70bd 804f fd3d
00000130: 2cef 58bd 386e f93d d5c9 ef3b 087d 8d3d
00000140: 5813 5fbc e84b 523d c960 fdbb 8f94 9dbd
00000150: a78d 1b3d fc95 c83d 7c9c 333d 58ee 203d
00000160: 308c f8ba 0092 1c3e a836 993d 81c8 a53d
00000170: 7edb 82bd 85ed 1fbd f220 573a 342f 96bd
00000180: 1dcb 203e 8202 f6bd ebb1 e43d c235 ff3d
00000190: 4a36 803d c494 2e3d 3dea e4bd d911 2e3e
000001a0: 1827 afbc 8368 6fbd b4b6 fc3d 8e20 0a3c
000001b0: 20e4 10bc 11c0 2e3e 9eb7 3cbd 101e b5bd
000001c0: 2885 a63c 0011 89bc b8de eb3c c98f 7dbd
000001d0: b4c9 a13d 8cb7 63bd 1d0f 57bd 7707 96bd
000001e0: 0907 723d be81 9c3d 9eb1 ecbc cb87 353e
000001f0: 67d0 ab3d 4804 be3c 924e 96bd 806c 9a3c
00000200: 92aa f63d ac7a ef3d 0a64 c7bd a6ae e93d
00000210: 70bd 1e3c c424 d73d 90d3 c13d 0a3e da3d
00000220: 988f c7bd 77c0 203e 1d97 69bd d087 193c
00000230: 2ce2 b2bd e36e 8c3c c594 a5bc 9246 a83c
00000240: 19f6 63bc e086 213c 2ec2 283e 8a7e e43d
00000250: 342d 123e 3ced 4c3d 87ad 223e c006 bdbb
00000260: 8695 523d 2c9d a03d f243 dfbd a03d 85bd
00000270: 7016 7b3c c041 bc3b 637a c33b 40f7 eabc
00000280: bbd0 873d be8e a63d e7c8 093c 3405 cd3d
00000290: b820 ca3d c27a c4bd 4856 b4bd 9006 64bd
000002a0: 0e4b 8cbd 9190 1a3b e026 1abc d636 ae3c
000002b0: f857 81bd 7eb7 2d3c 7a11 e5bb 5225 fb3d
000002c0: 10c3 3dbd d64b b7bd 50d6 543d e53f 063d
000002d0: 0fca 223e 08f5 9f3d 0866 033e 27a8 56bd
000002e0: c5d1 a03d eb28 1b3e 3414 81ba 2074 393e
000002f0: 3816 0c3e 806c b33a b0dc 763d 9801 33bd
00000300: 7047 dfbd 418c 273d e0a3 183d a44f a7bd
00000310: e051 783d 53c2 6fbd 9ddf bb3d 6ee8 f73d
00000320: 7465 0b3d d0c6 edbc dd15 5e3d 7881 ae3c
00000330: f038 0b3d 9dd2 843d 7a5d 9d3d 5ff8 0fbd
00000340: edd5 d6bc 1ca0 0b3d 10b4 0d3d bf57 f73d
00000350: ff2a cf3b a029 95bb a22c bb3d 48fb 07bd
00000360: 3e46 e83d 7062 653d 569a ecbd 09fd 063c
00000370: 9c38 68bd f5b8 853d 6d7c 39bd 66ef fdbd
00000380: 9d16 e13c f027 44bc 04b8 54ba 3235 eb3d
00000390: 986f dfbc 7475 a43d dbb9 203d 67a4 8cbd
000003a0: 30a0 f03c e9e4 203e 2473 a7bd bc55 07bd
000003b0: da95 fa3d e200 0d3e 6471 39bd f60b 9a3d
000003c0: a000 83bc de65 fcbd 90df 193c d495 923d
000003d0: 0e75 c43c c81d 323d 1fb5 d6bd c94a ed3d
000003e0: ae59 f63d bdc1 dd3d 0f3b bb3d d0bb db3d
000003f0: cddf 8abd d0de ffbc 8084 43bc e075 8ebd
0.018994987 -0.057230562 0.0624865 -0.054672375 -0.03134489 -0.06537011 -0.007817165 0.11868502
0.06067227 -0.021955501 0.009873564 -0.013706058 -0.10063428 0.12720437 -0.012214485 0.051095873
-0.048273746 -0.05848989 0.047213435 0.07239012 0.09147145 -0.06024313 0.17881235 -0.01840055
-0.04487883 -0.016493285 0.1230526 0.026787274 -0.016968027 -0.0030055793 -0.041603316 -0.10527857
-0.05477154 0.073161185 0.14501704 0.11928755 -0.09024279 0.06760791 -0.06896385 0.11201153
0.090194285 0.14513901 0.09000641 0.123147674 0.0024329573 0.09606629 -0.0160179 0.054429352
-0.040175244 -0.002098918 -0.10879736 8.031496e-05 -0.010493888 -0.0421651 -0.074208476 -0.08048808
0.023746531 0.1204379 0.17175558 0.13162935 -0.036797483 -0.12362622 0.04741423 0.07003924
-0.107314005 0.07606579 0.10568465 0.0075720698 -0.075307354 0.15588056 0.04308445 0.082775146
-0.08453569 0.12998205 -0.058820743 0.12368679 -0.052962467 0.12179226 0.0073177614 0.069086134
-0.013615452 0.05134192 -0.007732485 -0.07694351 0.037976887 0.09794232 0.043850407 0.039289802
-0.0018962678 0.1529007 0.07481128 0.08094884 -0.06389521 -0.039044876 0.00082065084 -0.07333222
0.15702482 -0.12012197 0.11166748 0.12461425 0.06260355 0.042622343 -0.1117749 0.16998996
-0.021380946 -0.05844928 0.12339535 0.008430613 -0.008843452 0.17065455 -0.04607355 -0.088436246
0.020327166 -0.016731739 0.028792724 -0.061904702 0.078998 -0.055594966 -0.052504648 -0.073256426
0.05908874 0.07641934 -0.028893288 0.17727582 0.08389359 0.0231954 -0.07339205 0.018850565
0.120442525 0.1169332 -0.09735878 0.11410265 0.00968872 0.10505059 0.094641805 0.10656364
-0.09744185 0.1569842 -0.05702888 0.009370759 -0.08734545 0.017142719 -0.02021254 0.020541463
-0.013913655 0.009858817 0.16480324 0.11156948 0.14275056 0.05003093 0.15886508 -0.005768627
0.051412128 0.07842478 -0.109016314 -0.06505895 0.015325174 0.0057451427 0.0059655174 -0.028682351
0.06631609 0.08132695 0.008409715 0.10010758 0.09869522 -0.09593727 -0.08805519 -0.05567032
-0.06850253 0.0023584703 -0.009408683 0.021266382 -0.06315607 0.01060283 -0.0069906088 0.12262978
-0.046328604 -0.089500114 0.051962197 0.03277578 0.15897392 0.07810408 0.1283189 -0.052406456
0.0785251 0.15152328 -0.000984794 0.18110704 0.13680351 0.0013688952 0.060269058 -0.04370269
-0.109022975 0.04090524 0.03726566 -0.08169487 0.060624957 -0.05853493 0.0917351 0.12104879
0.0340323 -0.029025465 0.05422007 0.02130197 0.033989847 0.06485484 0.07683845 -0.035148975
-0.026225055 0.03408824 0.03459555 0.12077283 0.006322264 -0.004552081 0.091393724 -0.033198625
0.11341523 0.05600208 -0.11552875 0.008239039 -0.056694612 0.065294184 -0.045284677 -0.12399177
0.027476603 -0.0119724125 -0.00081145787 0.114847556 -0.027274892 0.08030215 0.039239746 -0.06867295
0.029373258 0.15712322 -0.08176258 -0.033040747 0.12235613 0.13769868 -0.045274153 0.075218126
-0.015991509 -0.12324117 0.00939168 0.07157484 0.023981597 0.043485433 -0.10483765 0.1158653
0.12028824 0.10827968 0.09142124 0.10729182 -0.06780968 -0.031234175 -0.011933446 -0.069560766

mlr.2.bias f4 [208]
00000000: a931 473d 92fc 65bc 93af bebd b88d 083d
00000010: 465f a63d 580d 9d3d fb85 ba3d 2e8f 80bd
00000020: 6ca5 863d 4b84 b33d 8f58 843d 0e62 87bd
00000030: 9c9d ae3d 4ef3 b2bd a6e9 8bbd d38d 933d
00000040: fada b23d eee9 4b3d f938 d3bc dd2b a6bd
00000050: ed6f 8e3d 372f 2fbd 9875 763d f7fa 403c
00000060: 85ec 253d 30a3 253d 4e46 f3bc c9e9 fabc
00000070: ce12 f9bc 1ab1 27bd 6f1e 99bd a954 073d
00000080: 2183 3b3d c723 e4bd fd1c 1fbd 5e81 b1bd
00000090: 9a78 75ba 9ebb 44bd f566 b93d 376c 9fbd
000000a0: 2b30 e8bc 4b23 023e 278a 623c d775 ad3d
000000b0: 7c92 27bd 9bbf bf3d c44d 9ebd 9bff 48bd
000000c0: 3bc4 adbd 3aee c93d 7986 393d 7bad edbc
000000d0: c232 143c 00ec 703c 94a0 b2bd ff75 87bd
000000e0: 497d 613c 3358 493d 3068 f83c 68f6 9e3d
000000f0: c4ee ec3b 8e3b 923d f1f5 bc3c 410a d23d
00000100: ec07 0e3d b079 64bd 03e2 8e3d f018 19bd
00000110: e2a1 9bbd d857 a5bd 3496 ca3d 19f5 c73c
00000120: 2bab 453d efb0 2cbd e4bd cdbd a4c0 de3c
00000130: 872d 9bbd 7357 0a3d 71ba 58bc 5da5 cd3c
00000140: d6df 953d 969f b9bd d5e6 373d dd3d 27bd
00000150: 9cc9 1cbc 1932 60bd 2499 26bd b95f 243d
00000160: 23b7 2c3d 12a5 aebd 71f3 933c 35f3 ae3c
00000170: 8e03 923d 3240 2ebb bd6e e43d 073d c53d
00000180: 5ae6 a9bd acef 8f3d f0d8 e73c b5c6 b2bc
00000190: cc99 93bd 4d7d a3bd 4d74 023d d7ce 44bd
000001a0: fe80 293d 2a87 1c3c da6e e9bc 46ab 9c3d
000001b0: 080d 8bbd cea3 18bd a9c3 a63d f6a2 823d
000001c0: 052f f63d 5e58 8b3d a917 a6bd a209 5d3d
000001d0: e611 3c3c bfed b13d 01fb 15bd 2da8 873d
000001e0: 21f0 18bd 20a8 223d 9f9b 77bd a2df 463d
000001f0: e0e1 703d c700 9d3d a9af 5dbd bcc8 b5bd
00000200: 987b 1d3d 8bc2 86bd a8d0 9fbd fb55 123d
00000210: 47bc ca3d 6c17 aebd 8828 34bd 1ba9 8dbd
00000220: ea03 babc cfc3 943d 3578 babd 9389 c33d
00000230: 48a8 5f3d b92f dd3b fdab 993d 1625 573d
00000240: 55cb ef3c 0904 13bc 3d53 82bd 9e1b e6bd
00000250: 7bdd 873d 9f83 01bd 98a0 e6bd df28 1bbd
00000260: ddc4 9cbd 6c52 963d 96c1 863d 5c47 f9bd
00000270: 05e5 133d 19ce 30bd 722f c93d 3182 2a3c
00000280: cdda aabc c800 453d 5589 babd 7601 40bd
00000290: 58d4 a23d f4e3 bd3d c02b 47bb a1c8 8a3d
000002a0: 18f2 bdbd deda c2bd d644 b3bc 1d9f debd
000002b0: b870 ac3d 39bb 57bd 502d 78bd 6354 313d
000002c0: c4e8 52bc 6be8 433d cb92 793d b5f1 9ebd
000002d0: 1127 083d 59ef 9dbc bf2d 743d 1761 6bbd
000002e0: 180a 743c c576 1d3d 944f c7bd 3892 1f3d
000002f0: f349 01bd 1175 423d 6309 55bd a129 c6bc
00000300: 2c4d c9bd 0f2b e4bc 7fb5 8c3d a49c 573d
00000310: aaf2 93bd 2f27 cbbd 0e5c 993d 98ad 93bd
00000320: 6374 b1bd 93d9 7abd 14a8 3a3d 3479 ab3b
00000330: 5a4c 52bd f37f 7d3d 3526 ec3d 0938 eb3c
0.048631344 -0.014037268 -0.09310832 0.03333828 0.08123641 0.07668561 0.09107586 -0.06277309
0.065745205 0.08765467 0.06462204 -0.06610499 0.08526155 -0.08737813 -0.06831674 0.07204785
0.08733173 0.04978364 -0.025784003 -0.08113835 0.06954942 -0.042769637 0.06017074 0.011778585
0.040508766 0.04043883 -0.02969661 -0.030629056 -0.030404475 -0.04094038 -0.07476508 0.033039723
0.04577935 -0.111396365 -0.038846005 -0.08667253 -0.00093639793 -0.04803049 0.090528406 -0.07784312
-0.02834328 0.12708776 0.013826883 0.08469742 -0.040911183 0.09362718 -0.07729676 -0.04907189
-0.084846936 0.09859891 0.04529426 -0.029013386 0.009045305 0.014704704 -0.08722034 -0.06614303
0.01376278 0.04915638 0.030323118 0.07761842 0.0072306115 0.071402654 0.023066493 0.10255862
0.034675524 -0.055780113 0.06976702 -0.037377298 -0.07599236 -0.080733955 0.0989193 0.024408864
0.04825894 -0.042160925 -0.100459844 0.027191468 -0.07577043 0.033774804 -0.013228045 0.025103265
0.07318084 -0.09063642 0.044897873 -0.04083048 -0.009569552 -0.054735277 -0.04067339 0.04013035
0.04216684 -0.085275784 0.018060418 0.021356205 0.07129584 -0.0026588556 0.11153934 0.09630781
-0.08295889 0.07028136 0.028301686 -0.021823267 -0.07207069 -0.079828836 0.031849194 -0.04804882
0.041382782 0.00955371 -0.028495241 0.07649855 -0.06789595 -0.03726559 0.08142788 0.063787386
0.12020687 0.06803964 -0.081099816 0.053964265 0.011478877 0.086879246 -0.03661633 0.06623874
-0.03733838 0.039711118 -0.060451146 0.048553117 0.05880916 0.07666164 -0.0541226 -0.08876178
0.038447946 -0.06580075 -0.0780347 0.03572653 0.09899192 -0.08500561 -0.043983966 -0.0691702
-0.022706944 0.0726391 -0.09104959 0.095477246 0.054603845 0.0067500737 0.07503507 0.052525602
0.029271761 -0.00897313 -0.06363533 -0.11235736 0.06634041 -0.031619664 -0.112610996 -0.037880775
-0.07654736 0.073399395 0.06579892 -0.12171814 0.036107082 -0.0431653 0.098235026 0.010407017
-0.020856285 0.04809645 -0.09108225 -0.046876393 0.079506576 0.09271994 -0.0030391067 0.06776548
-0.09274691 -0.09514402 -0.02188341 -0.10870192 0.08419937 -0.052668784 -0.06059009 0.043293368
-0.012872878 0.047829073 0.06093101 -0.07760946 0.03324038 -0.019279169 0.05961394 -0.05746564
0.014894985 0.038443346 -0.09731975 0.038957804 -0.031564664 0.047474924 -0.052010905 -0.024189772
-0.098291725 -0.027852563 0.06870555 0.05263962 -0.07224019 -0.09919583 0.07488261 -0.07210845
-0.08664777 -0.06124265 0.045570448 0.0052329544 -0.051342346 0.0618896 0.11530725 0.028713243
