pqc_reup_v1_backup/best_model_epoch_8.pth (torch, 61273 bytes, 6 tensors)

reupload_weights f4 [12, 3, 4]
00000000: fd89 3d3e 2fc9 323e 965e fa3d 2fa1 c9bd
00000010: 21ec 9b3e 7138 e23d b660 813e aa4d 1e3e
00000020: 77eb d03d 18c8 b03e e68f 273e 13eb 043e
00000030: 1ef4 46be e7a4 e1bd 1b5b b1bd 0ebd 243d
00000040: 9f4e 3a3e b1b5 7abd 73f8 0bbe 35fb d1bc
00000050: bad6 fb3d cc87 863e 9159 303e 4fb8 813e
00000060: 9d42 3e3d d75e b33d af24 243d 41c2 973d
00000070: e601 873e 5759 953e 900e 7d3e 2f3d bf3e
00000080: f2c0 babd 047b 813b 76f0 973d 0c8b 7a3e
00000090: 3675 a93a 549c bebd e7dc 42bc f5fb 3cbe
000000a0: 8ad2 c7bd 27e9 273e e9fc 0dbd 721b 343d
000000b0: 9958 0f3e 5481 f23e 1aea 0d3e fd47 4d3e
000000c0: fffa e43c f5c3 4a3d 88e8 c33d 7706 133e
000000d0: 9e38 f03c ddf7 493e 6a0e 223c 85c6 9d3c
000000e0: eb09 16be fd2c 17bb 3507 58bd c081 593c
000000f0: 9c08 5fbd 6260 993d 48e1 62be 7995 183d
00000100: 9003 033c b112 5fba e832 033e 5f32 1ebd
00000110: 40af f2bd 0607 fbbd 546a 5abe 6269 a73c
00000120: bb96 8bbc 1898 1d3d 780d 65ba 52a2 a53d
00000130: ef4a 9bbd b7ee 57be eb57 b8be 1be6 2ebe
00000140: 033d 163e 66fd f93d 59cc c33c 2052 a43d
00000150: d69e 043e be04 ef3d 85d3 e73d 27f4 ac3c
00000160: 7c31 55be b695 a9be a50b babe 5a3f 4abe
00000170: f8bb cabe 9d3c 9cbe 645d 47bd b38e 0ebe
00000180: 1eac 9abe c167 06bd f2fd b43a 4116 8bbd
00000190: cd9d 7c3e 9758 853e 57a3 a43e 80ad 263e
000001a0: 8c0c bbbe ab65 8cbe a8de 9fbe 4b18 a8be
000001b0: 1bea 873d 6e3a 1f3e 6b98 6e3d 13f2 893d
000001c0: ba16 d8be 536c 98be ee7e b0be d5db 90be
000001d0: de4b c63c 2942 06bd da2e b5bd 0fd0 15bd
000001e0: 50e8 b2bd 65d5 8bbd 47e2 03bd 0d0f 4a3c
000001f0: 1c49 eb3d 7a35 033d 59ec 083e 5f65 bc3d
00000200: 020c b5bd c9c0 37be e13f dbbe f1ac c9be
00000210: 8eee 34bc ff79 4d3e 338b 8c3d 0e06 603d
00000220: 907d 18be 63f7 84be 40a3 e6be 3394 32be
00000230: c80e 20be d412 313c 77c2 04be bb97 ca3b
0.1850967 0.17459558 0.12225072 -0.098451965 0.3045359 0.110459216 0.25269097 0.15459314
0.10201161 0.3452766 0.16363487 0.12980299 -0.19429061 -0.11017781 -0.08659955 0.04021936
0.18194054 -0.06120843 -0.13668995 -0.02563248 0.12296815 0.2627548 0.17221667 0.2533593
0.046450246 0.08758324 0.040074047 0.07410098 0.26368636 0.29169723 0.24712586 0.37351367
-0.09118833 0.003951432 0.07418911 0.24467105 0.0012928608 -0.09307161 -0.011893488 -0.18455489
-0.09756954 0.16397534 -0.034665022 0.043971486 0.13998641 0.47364295 0.13858834 0.20046993
0.027951716 0.049503285 0.09565836 0.14357935 0.029323872 0.19723459 0.009891132 0.0192597
-0.14652221 -0.0023067587 -0.05274125 0.013275564 -0.05445157 0.07489087 -0.2215625 0.037251923
0.007996455 -0.000850956 0.12812388 -0.038622256 -0.118498325 -0.12257199 -0.21329623 0.020435993
-0.017039647 0.038475126 -0.0008737664 0.08087601 -0.07582652 -0.21087156 -0.36004576 -0.17079966
0.14671712 0.12206535 0.023901151 0.080234766 0.12951216 0.116708264 0.11319641 0.021112515
-0.20819658 -0.33122033 -0.3633701 -0.19750729 -0.39596534 -0.30514994 -0.04867305 -0.13921623
-0.3020944 -0.03281379 0.0013808592 -0.06791354 0.24669571 0.2604415 0.32155868 0.16277122
-0.3653301 -0.27421317 -0.3122456 -0.32831034 0.06636449 0.15549633 0.058250826 0.06735625
-0.4220484 -0.29770145 -0.3447184 -0.2829272 0.024206098 -0.03277794 -0.08846827 -0.036575373
-0.08735716 -0.06827811 -0.032198217 0.01233269 0.11488554 0.03203342 0.1337141 0.091990225
-0.08840181 -0.17944635 -0.42822173 -0.39389756 -0.011043204 0.20066069 0.06862488 0.054693274
-0.14891648 -0.2596999 -0.45046425 -0.17439346 -0.15630639 0.010807712 -0.12964807 0.0061826385

reupload_bias f4 [12, 3]
00000000: aea4 ccbe 9a1d 823e 5ee4 563e 55c4 d03e
00000010: d932 a0be 51d8 9dbc eb9d 98be fe65 cb3e
00000020: f744 5c3d 0c38 b03e cf3f 7fbd 7175 083f
00000030: f0b7 b5be 97ea e93d a8c8 59be e259 333e
00000040: 3c26 b7be e2c8 53be 28eb 04be ea0f 86be
00000050: 47ca dfbc a3d2 edbe 9169 c5be a64e 24be
00000060: 98e1 bd3e bdcc 203f f559 23bf 1db8 c5be
00000070: 6134 7bbe dd97 b3bd 7835 5d3e 1425 6c3e
00000080: b189 09bf d9a1 bcbe 5713 9bbe 7aec 4f3d
-0.3996939 0.2541321 0.20985553 0.4077479 -0.31288794 -0.019268187 -0.29807982 0.3972625
0.053776708 0.3441776 -0.062316712 0.533042 -0.35491896 0.114216976 -0.2126795 0.17514756
-0.35771358 -0.206821 -0.1298033 -0.26184016 -0.027318133 -0.46449766 -0.38557103 -0.16045627
0.37086177 0.62812406 -0.6380914 -0.3861703 -0.245317 -0.087692 0.21602428 0.23061019
-0.53725725 -0.3684223 -0.30288193 0.05076263

mlr.0.weight f4 [64, 12]
00000000: 6f08 8a3b 1b33 8dbc fc21 8e3d 0dad a53d
00000010: eb3d 86be 762d dabd b0ef 783e b84e e63d
00000020: d13d 6bbc 9038 32be 04da 34be 5565 84be
00000030: 7d5c 8dbd aac0 db3d 239d 483e b225 133e
00000040: dd7e 73be c95b 25be cba5 03bd 390d 9a3e
00000050: 2a1c 813d 6d38 6fbd 76cd 103e 7adb abbd
00000060: b854 3fbe d1c1 573e 4f69 06be d908 6dbd
00000070: a208 93be b0d6 453e 96f5 5f3e d676 d73d
00000080: d81d 4ebe 12df 91be 3315 70be 756e 5c3e
00000090: beeb 0d3e 64c0 783e 91db 1a3e 39a1 953d
000000a0: 9743 39bb e1ce 60be c443 7dbe ff3e 8abe
000000b0: 7c04 f23d bc21 11be b7f6 6dbd 0c1f 2abe
000000c0: ac76 57bd 520e 50be e026 41be 121c c43d
000000d0: 59b4 afbd 1c7d 363e 0eaa bdbd 4dd8 58be
000000e0: ad9f 50bd ff4a 0fbe ecdf b4bd e0b4 8cbe
000000f0: 95f5 333e 4d86 57be 7f63 0f3e 4ea5 f93d
00000100: f64e 533e 6f5e 68be d765 513e d552 05be
00000110: 3b0f e93d f392 8b3e f66b 00bd cc32 323c
00000120: 07e6 90bd 3f74 72be 4e18 133e b631 91be
00000130: d808 3a3e 433c 613e d569 8e3e a916 93bd
00000140: 1427 74be 86c0 833d 8e01 233e 7787 95be
00000150: bb31 86bd 7733 31be 2ad6 cebc fd7f 11be
00000160: 87aa f1bd 0daf bbbd de74 8cbe 758b 723e
00000170: 42d0 773e eb7b 39bd daa7 06bd 8148 f1bd
00000180: 6479 85be 16d5 8fbe 19ba db3d c54c 22be
00000190: 5d09 3ebe e782 b8bc e0e0 c4bd 8444 bfbd
000001a0: 2bf8 173c f8cd 7abd 4f8f cbbd 6089 0dbe
000001b0: 54ae 5cbe c111 733e f053 edbd 7508 943d
000001c0: 055e c4bd ddd6 b73c 797e 8a3e 230b 133e
000001d0: 537a 74be a0cc f83d e02f 933e efb7 be3d
000001e0: df27 723e b117 a03e cd65 83bc 24d1 b63d
000001f0: f123 2abe 006a f4bc 01fb 783e d82a 413e
00000200: d97c 12be 68a2 49be f2cb 23be f514 76be
00000210: 5c19 64be 3134 92bd f67e 473e 3dea 453d
00000220: 67d6 60be db23 6dbe 2b0e 133e c8e1 5bbe
00000230: 6a96 11bd 7ecd 0d3e 0dcf 08be 24ee 00bd
00000240: 59d8 cdbc a2de 8bbd 62e1 15be 8ec1 83be
00000250: f9f3 6ebe c548 1ebe 9fc0 8e3e e0c7 0ebe
00000260: 8381 46be 194e 8f3d 52f1 a23d c5f6 213e
00000270: e14f 903e d095 4f3e 887e 76be d7e5 8a3d
00000280: bf04 663e e127 943c bd81 fcbd f433 a93e
00000290: b484 55bd 068b e7bd 7fb2 4fbe 541d 973d
000002a0: bedf fc3d 5c4f 9d3d d223 893d 8698 53be
000002b0: adc3 85be 5e67 853c d0b2 8b3e 0d80 2d3e
000002c0: b881 29be 4b2c 04bd 5eeb 58be 7b70 0fbe
000002d0: ef80 a63d 2e66 243e 9aa9 7c3e 43b7 85be
000002e0: 6cc6 533e 1319 4abe bf4c f03d 2b29 873e
000002f0: 79f6 ce3c 9995 8d3e 1317 65be 472e abbd
00000300: eae7 143e 3aa3 afbd 02df a7bd 2198 12be
00000310: 465d 343e f61a f33d 9a9e 8e3d 0c94 3dbe
00000320: cfb0 83be 470e 083c 502d 803d 36f8 1fbe
00000330: 126b a5bd 15a4 473e a261 bc3c e264 553c
00000340: 0c7f 91bd 01d9 85be bcf8 8abe 874d 0dbe
00000350: f242 16be 4c31 b83d 4b1b acbd 0a4b e7bd
00000360: 5107 ac3e 2653 0e3e b938 7f3e a894 cfbd
00000370: 0091 90bd d697 173e c5be 16be 06f2 0bbe
00000380: 498d 213d a0ae 69bd b0c8 23be fe20 6b3e
00000390: d296 933e 5c80 9e3d 5030 73bc ef4a 72be
000003a0: 0e76 83bd 1ce8 db3d 1a8e 313e eff6 213c
000003b0: bb44 87bd 584f 4f3e a4ff 37be fc98 713e
000003c0: d810 2ebd 0006 463d b0e7 0bbc 1e3f a23d
000003d0: 2c06 09bd 660b 843e 7c63 2f3d 4b71 923e
000003e0: 3b7f ad3e fb82 adbd b085 16be 9e4f 993e
000003f0: 8ea3 673e 06b5 61be 13cf b6bc 49c0 91be
0.004212431 -0.017236283 0.06940076 0.080896474 -0.26219115 -0.10653202 0.24310184 0.11245483
-0.014358 -0.1740439 -0.17661291 -0.2585856 -0.06902406 0.10730107 0.19591193 0.14369848
-0.23778863 -0.16148295 -0.032140534 0.30088213 0.063042 -0.05840342 0.14140877 -0.08391471
-0.18684661 0.21070029 -0.1312611 -0.057869766 -0.28717524 0.19320178 0.21871027 0.10520713
-0.20128572 -0.28490502 -0.23445587 0.21526511 0.1385946 0.24292141 0.1512282 0.073061414
-0.0028269046 -0.21953918 -0.24732882 -0.27001187 0.118172616 -0.14173025 -0.058096614 -0.16613406
-0.05260341 -0.20317963 -0.18862486 0.095756665 -0.085793205 0.17821163 -0.09260951 -0.21176262
-0.05093353 -0.13993452 -0.08831772 -0.27481747 0.17574151 -0.21047325 0.14002798 0.121897325
0.2063559 -0.22692274 0.20449005 -0.13019879 0.11379858 0.2726055 -0.03135296 0.010876369
-0.07075124 -0.23677157 0.1436474 -0.2835824 0.18167436 0.21995644 0.27815118 -0.071820565
-0.23843032 0.06433205 0.15918562 -0.29204914 -0.06552454 -0.17304789 -0.025248606 -0.1420898
-0.11800104 -0.09164248 -0.27432913 0.23686011 0.24200538 -0.045284193 -0.03287492 -0.11781407
-0.26069176 -0.2809226 0.10728855 -0.15849598 -0.1855826 -0.022523357 -0.09613204 -0.0933924
0.009275476 -0.061231583 -0.09939443 -0.13821936 -0.21550876 0.23737241 -0.115882754 0.072281756
-0.09588245 0.022441322 0.27049616 0.14359717 -0.23874788 0.12148404 0.28747463 0.09312426
0.23648022 0.31268075 -0.016039753 0.08926609 -0.16615273 -0.029835701 0.243145 0.18864
-0.14305438 -0.1969086 -0.15995768 -0.24031432 -0.22275299 -0.07138861 0.19482026 0.04831909
-0.21956788 -0.23158209 0.14360873 -0.21472847 -0.035543837 0.1384792 -0.13360234 -0.03147711
-0.025127577 -0.06829573 -0.14636758 -0.25733608 -0.23335256 -0.15457447 0.27881333 -0.13943434
-0.19385342 0.06997318 0.079561844 0.15816791 0.28185943 0.20271993 -0.24071705 0.0678212
0.22462748 0.018085422 -0.12329433 0.3304745 -0.05212851 -0.113058135 -0.20282935 0.07378641
0.12347363 0.07681152 0.06696285 -0.20663652 -0.2612585 0.01628464 0.2728486 0.16943379
-0.1655339 -0.032268804 -0.21183535 -0.14007752 0.08130061 0.16054603 0.24674073 -0.2611638
0.2068116 -0.19736128 0.11733388 0.26398596 0.025264012 0.27653196 -0.22372083 -0.08358436
0.14541593 -0.08576055 -0.08196832 -0.14315845 0.17613706 0.11870377 0.069638446 -0.18513507
-0.25720832 0.008304185 0.06258643 -0.15622029 -0.08077063 0.19496186 0.022995774 0.013024541
-0.071043104 -0.26142123 -0.27142894 -0.13799106 -0.14673975 0.08993778 -0.08403643 -0.112936094
0.33599332 0.13898906 0.24923982 -0.10135776 -0.070589066 0.14804015 -0.1472121 -0.13666543
0.03944138 -0.0570513 -0.15994525 0.22961804 0.28826004 0.07739326 -0.014843062 -0.23661397
-0.064190015 0.10737631 0.17339364 0.009885534 -0.06604906 0.20245111 -0.17968613 0.23593515
-0.042496532 0.048345566 -0.008539125 0.07922195 -0.03345315 0.25789946 0.042819485 0.2860206
0.33886132 -0.08472248 -0.14699435 0.29943556 0.22620985 -0.22041711 -0.022315538 -0.28467014

mlr.0.bias f4 [64]
00000000: 2d91 a2bd 39f4 533e 511e b73d c22d 4ebd
00000010: 5cbe 473d 8886 24be 13ce 133e 28dc e93d
00000020: 29c4 9e3d e209 3abe 92d6 673e 79b4 2abd
00000030: a72a e6bd 30d9 2d3e 1af1 8e3e 1c75 653e
00000040: d047 813d ea89 c9bd c24f 023e 27c6 573e
00000050: ef5b 9ebe 4e7c 12bd 90de 80be b15a 5c3d
00000060: 28ad 8f3d 2cc3 a8bd abd5 c5bc 4b13 483d
00000070: 56ba 46bd 1685 90be 54be 6e3e 0dc8 14be
00000080: 34a6 f3bd c710 df3c 49cb 17bd f308 8bbe
00000090: 709f 073e b845 06be d7b3 22be 7ed2 ac3c
000000a0: a043 1abe 51c0 70be 0135 c7bd d35b 12be
000000b0: f9e8 f6bd f439 d4bd ba84 0d3b 2035 6fbe
000000c0: 41ec 32be 6a06 8a3b 9e6f 243d 96a7 9c3d
000000d0: 894c 6cbe 1cb6 bc3d 4161 143e a14d 9a3d
000000e0: bb26 8cbe c7fa 31be ea2d a0be 9d40 5abe
000000f0: 5c6d 0d3e 8d8e 30bd 9917 fb3d 6285 2dbe
-0.07937846 0.20698632 0.08941329 -0.050336607 0.048765525 -0.16066945 0.1443408 0.114189446
0.07752258 -0.18167832 0.22640446 -0.04167602 -0.11238604 0.16977382 0.2791832 0.22407955
0.06312525 -0.09840758 0.12725738 0.21071683 -0.30929515 -0.035763077 -0.25169802 0.053797428
0.07015449 -0.08240351 -0.024149736 0.048846524 -0.048517548 -0.28226537 0.23314792 -0.14529438
-0.11896935 0.02722968 -0.037059102 -0.27155265 0.13244414 -0.13112533 -0.15888916 0.021096464
-0.1506486 -0.23510863 -0.097269066 -0.1429284 -0.12056155 -0.10362616 0.0021594004 -0.2336011
-0.17472936 0.0042121904 0.04014551 0.07649152 -0.23076071 0.09214422 0.14490224 0.07534338
-0.273733 -0.1738082 -0.3128503 -0.2131371 0.13811249 -0.043104697 0.1226036 -0.16945413

mlr.2.weight f4 [208, 64]
00000000: 609b 9b3c be66 5bbd d8f1 7f3d 24f0 5fbd
00000010: 8063 00bd 6aa9 90bd f352 3ebc 2211 f33d
00000020: 7c83 783d 2cba aabc bafd 7a3c 608f 60bc
00000030: 5819 cebd 29f8 063e 82e0 d53c 1826 5e3d
00000040: 35e6 56bd 1893 6fbd a89b 463d 6453 983d
00000050: d4ad ba3d 80c1 76bd a0e2 2f3e c0bc 96bc
00000060: a282 2dbd 4189 7bbc 0003 fc3d c498 ef3c
00000070: 8800 8bbc fbf4 78bb 27de d0bc 4a9c d7bd
00000080: ac2a 69bd 88d5 953d 65b8 153e 084d f43d
00000090: 36d1 b8bd 0476 8a3d eb3c 8dbd 8e0e e83d
000000a0: c8b7 b83d e3dd 173e 4855 b83d ee68 f83d
000000b0: 4072 1f3b 8281 c83d 0758 41bc 50f1 5e3d
000000c0: cc8e 24bd 008e 09bb 26d1 debd c481 553a
000000d0: cab5 7dbc 50b5 2cbd 5733 b4bd 7021 a2bd
000000e0: 1688 c23c ae8a f93d 60c0 283e 1501 043e
000000f0: 633e 0abd be2f fdbd 6c35 423d bc70 8f3d
00000100: 72c7 dbbd 1dba 9f3d 3271 d83d 201f f83b
00000110: be3a 9abd 1db9 1d3e 8bfb 803c 0486 a93d
00000120: 0c21 adbd 03a2 093e ebce 66bd 804f fd3d
00000130: 2cef 58bd 53a3 003e 0d9a 253c b3d8 913d
00000140: 7293 7fbc e84b 523d 3972 e2bb d80e 9bbd
00000150: 99da 2b3d fc95 c83d d4f6 2c3d 58ee 203d
00000160: 9358 f039 cf24 1f3e a836 993d 98ee a93d
00000170: 7edb 82bd 6446 18bd bdcd f93b 342f 96bd
00000180: 1dc8 213e 8202 f6bd 0ba4 e83d c235 ff3d
00000190: 4a36 803d c494 2e3d 3dea e4bd 6916 303e
000001a0: 1827 afbc ce37 56bd b4b6 fc3d 6227 0e3c
000001b0: 20e4 10bc c279 313e 9230 2cbd 101e b5bd
000001c0: 2885 a63c 0011 89bc b8de eb3c e4d7 78bd
000001d0: ea88 9f3d 8cb7 63bd e268 97bd 9864 93bd
000001e0: 0907 723d 64ff a13d 7a84 f3bc c2e7 363e
000001f0: 3f20 b13d 4804 be3c 924e 96bd 806c 9a3c
00000200: 92aa f63d e424 f93d 0a64 c7bd a6ae e93d
00000210: 70bd 1e3c 040c c63d 4431 f83d 0a3e da3d
00000220: 988f c7bd 74da 1d3e c25e 4abd d087 193c
00000230: 2ce2 b2bd 7e28 b73c f2ba 7d3d d98c c83c
00000240: 0bb2 83bc e086 213c e382 2a3e b6a5 e93d
00000250: 78ef 0d3e 3ced 4c3d 883a 173e c006 bdbb
00000260: 510c 5c3d ee89 a03d f243 dfbd 6985 7fbd
00000270: 7016 7b3c 12fb 203b a9b1 f63c 40f7 eabc
00000280: 9361 7b3d be8e a63d 9ce5 0b3c 3405 cd3d
00000290: b820 ca3d c27a c4bd 4856 b4bd 0199 61bd
000002a0: 0e4b 8cbd 4c3f 2d3b e026 1abc 114f 8e3c
000002b0: f857 81bd abd9 363c 836c 43bb 5225 fb3d
000002c0: 10c3 3dbd d64b b7bd 50d6 543d 5692 073d
000002d0: 5a61 1a3e 08f5 9f3d fde7 003e 2c3e 52bd
000002e0: c5d1 a03d ef13 1b3e ddc4 54bc 6d58 333e
000002f0: 3abf 0f3e 806c b33a b0dc 763d 9801 33bd
00000300: 7047 dfbd 8738 1f3d e0a3 183d a44f a7bd
00000310: e051 783d 5054 60bd 3eb6 b03a 6ee8 f73d
00000320: 7465 0b3d 72f1 9abc c993 4e3d 7881 ae3c
00000330: f038 0b3d 30eb 883d 0600 81bb a004 13bd
00000340: 6006 fbbc 1ca0 0b3d 4b6b 0b3d 11bd f53d
00000350: 23e6 973c a029 95bb 65f2 ca3d 48fb 07bd
00000360: e911 eb3d 2588 773d 569a ecbd e405 093c
00000370: 9c38 68bd 1172 923d 27d2 67bd 66ef fdbd
00000380: 1144 0c3d f027 44bc ed27 e63a 3235 eb3d
00000390: 986f dfbc 7475 a43d dbb9 203d 70f4 86bd
000003a0: 30a0 f03c 9cb7 2c3e 2473 a7bd 44ae f0bc
000003b0: da95 fa3d bc7c 103e 056b 2cbd f60b 9a3d
000003c0: a000 83bc de65 fcbd 90df 193c a262 953d
000003d0: f89f f13c c81d 323d d159 09be 360b ee3d
000003e0: ae59 f63d aa9f e63d f444 cf3d 2fc9 ec3d
000003f0: dc60 88bd d0de ffbc 8084 43bc e075 8ebd
0.018994987 -0.05356478 0.0624865 -0.054672375 -0.03134489 -0.07063563 -0.011616456 0.11868502
0.06067227 -0.020840727 0.015319282 -0.013706058 -0.10063428 0.13180603 0.02610803 0.054235548
-0.052465636 -0.05848989 0.04848829 0.074377805 0.09115186 -0.06024313 0.17176294 -0.01840055
-0.04236091 -0.015352548 0.1230526 0.029247649 -0.016968027 -0.0037987817 -0.025496555 -0.10527857
-0.05692546 0.073161185 0.14621122 0.11928755 -0.09024279 0.06760791 -0.06896385 0.11330901
0.090194285 0.14830737 0.09000641 0.12129389 0.0024329573 0.09790327 -0.0118007725 0.054429352
-0.040175244 -0.002098918 -0.10879736 0.0008144642 -0.015485236 -0.0421651 -0.08798855 -0.07916534
0.023746531 0.12184654 0.16479635 0.12891038 -0.033750903 -0.12362622 0.04741423 0.07003924
-0.107314005 0.0779917 0.10568465 0.0075720698 -0.075307354 0.15402646 0.015744945 0.082775146
-0.08453569 0.13440709 -0.056349676 0.12368679 -0.052962467 0.12562303 0.010107529 0.0712141
-0.015599119 0.05134192 -0.006910589 -0.075711906 0.041956518 0.09794232 0.04222758 0.039289802
0.0004584236 0.15541385 0.07481128 0.08297461 -0.06389521 -0.037176505 0.007623403 -0.07333222
0.15798993 -0.12012197 0.11359414 0.12461425 0.06260355 0.042622343 -0.1117749 0.17196049
-0.021380946 -0.052299313 0.12339535 0.008676382 -0.008843452 0.17331603 -0.042038508 -0.088436246
0.020327166 -0.016731739 0.028792724 -0.060752764 0.07789786 -0.055594966 -0.07393052 -0.07196921
0.05908874 0.0791004 -0.029726256 0.17861846 0.086487286 0.0231954 -0.07339205 0.018850565
0.120442525 0.121652395 -0.09735878 0.11410265 0.00968872 0.096702605 0.12118772 0.10656364
-0.09744185 0.15415365 -0.049406774 0.009370759 -0.08734545 0.022358175 0.061945863 0.024481224
-0.016076108 0.009858817 0.16651492 0.1140856 0.13860881 0.05003093 0.14768422 -0.005768627
0.053722683 0.07838808 -0.109016314 -0.06238309 0.015325174 0.0024563712 0.030114012 -0.028682351
0.06137235 0.08132695 0.00853863 0.10010758 0.09869522 -0.09593727 -0.08805519 -0.055077557
-0.06850253 0.0026435433 -0.009408683 0.017371686 -0.06315607 0.0111602945 -0.0029819317 0.12262978
-0.046328604 -0.089500114 0.051962197 0.03309854 0.15076199 0.07810408 0.12588497 -0.051328823
0.0785251 0.15144323 -0.012986389 0.175142 0.14037791 0.0013688952 0.060269058 -0.04370269
-0.109022975 0.038872268 0.03726566 -0.08169487 0.060624957 -0.054767907 0.0013482047 0.12104879
0.0340323 -0.018913958 0.050433908 0.02130197 0.033989847 0.066854835 -0.0039367704 -0.035893083
-0.030642688 0.03408824 0.03403787 0.11998952 0.018542355 -0.004552081 0.09909514 -0.033198625
0.114780255 0.060432572 -0.11552875 0.008363221 -0.056694612 0.07150663 -0.0565969 -0.12399177
0.0342446 -0.0119724125 0.0017559506 0.114847556 -0.027274892 0.08030215 0.039239746 -0.065895915
0.029373258 0.16866916 -0.08176258 -0.029379971 0.12235613 0.14110082 -0.04209425 0.075218126
-0.015991509 -0.12324117 0.00939168 0.07294203 0.029495224 0.043485433 -0.13413168 0.11623232
0.12028824 0.11260922 0.10120574 0.1156181 -0.066590995 -0.031234175 -0.011933446 -0.069560766

mlr.2.bias f4 [208]
00000000: 7cda 613d 7ad3 3cbc 6f5d aabd f5d5 e13c
00000010: 4930 913d b559 9d3d 9dcb ae3d fa53 70bd
00000020: fc03 733d b0e3 a83d f046 613d 78fb 91bd
00000030: aafb a13d 4f80 b3bd a4b2 92bd 0fdc 8a3d
00000040: 0619 9f3d d53e f53c 5469 14bd 7446 a5bd
00000050: b4a9 6f3d 3d4b 32bd 1047 483d b9d1 7f3c
00000060: 7ca2 163d 5b8d 1d3d 91c0 9fbc 0be7 a5bc
00000070: 3d0b d4bc 38f4 37bd 27f9 8ebd 4d0a f43c
00000080: 488f 1d3d 7cef e6bd e5cb 14bd 9686 aabd
00000090: 702f febb ba93 48bd c1a5 ad3d 3885 a2bd
000000a0: fe1a 01bd 6735 ef3d 58c8 043c a7d7 9b3d
000000b0: 105e 37bd 2e1d 9b3d cd26 a0bd 28de 5dbd
000000c0: 77c3 abbd e47e b73d 67d5 3c3d c974 edbc
000000d0: 21db 0b3c 9385 503c 8569 abbd 6ec2 6cbd
000000e0: 0c4e 3ebb 52ad 373d 1f83 133d 2e1c 8f3d
000000f0: 6ebb 5e3c adab 863d 47e0 883c 91a7 bf3d
00000100: 9392 ec3c f6aa 5cbd eefa 793d bb08 1dbd
00000110: 92fa a2bd 170c 9ebd c491 b53d 2067 b93c
00000120: 0ce3 1c3d 621e 47bd 4067 d7bd d3d0 ea3c
00000130: 6830 8ebd 7bc3 023d f8a7 23bc a744 a03c
00000140: 24f9 8b3d aebe 9fbd 888a 1f3d b676 04bd
00000150: aa93 8438 e2a1 37bd 5db7 f5bc 2964 273d
00000160: 7cd4 043d 566e 99bd cd66 ad3c 3f1b d13c
00000170: 72a7 633d 86ef 24bc 0261 cb3d 991a a53d
00000180: c860 9ebd 6473 533d c970 843c c134 24bd
00000190: ec9d 9abd e466 adbd a3fe b93c 3fc9 45bd
000001a0: 9433 093d 03d8 a13c 8e8d ccbc 1f2c a23d
000001b0: d26e 85bd 40d8 1bbd 9ec2 a23d 461a 753d
000001c0: 4fa1 f53d 9557 7a3d 885b 98bd 000d 543d
000001d0: f83b 923c 8848 aa3d 4406 41bd 814b 7a3d
000001e0: f7c0 12bd f0a4 093d 1160 6ebd 5f19 e03c
000001f0: 9880 743d 4f63 8f3d 0ac5 87bd 6c9a a4bd
00000200: a2b7 d53c 5e30 94bd cbad 92bd dd13 2b3d
00000210: bc06 c03d d437 a5bd fc2f 61bd b70c 79bd
00000220: 030a f9bc d6bc 8d3d fb04 bdbd 243a b03d
00000230: caeb 443d c60a 983b 9073 903d 07c6 3d3d
00000240: 38b8 a03c 218d 94bc 2847 89bd e3c1 f1bd
00000250: 96d5 5b3d 05a4 28bd 7031 f4bd f796 46bd
00000260: 0286 9ebd 002c 7e3d f441 683d d0ea f3bd
00000270: 32fe 0f3d 6e6a 15bd 91d3 ad3d c511 f13b
00000280: ef87 edbc 6b1e 213d efe3 b5bd b6c5 2fbd
00000290: 68f5 953d 97ca b43d 3c8b eebb 1e95 743d
000002a0: 8e4e babd 3b3e c3bd 31a3 d8bc 6de1 dbbd
000002b0: a269 933d dcac 81bd ee10 87bd 6a50 fe3c
000002c0: 754e 37bc 3615 133d f0a7 1b3d 3d4a 93bd
000002d0: 75f9 f23c 9a1e b1bc 450b 713d e0fb 5dbd
000002e0: 2380 b73b 23c3 3b3d 3818 c3bd c6d8 223d
000002f0: d3f7 d6bc 7cdf 413d 38c0 54bd 5ece d3bc
00000300: 47f4 b2bd 28ff d6bc 7adb 4b3d 683d 403d
00000310: b750 a7bd 2d86 c1bd 5ea8 7c3d 25ed 9ebd
00000320: 2cdc b3bd f53e 90bd d985 0c3d c35f 003c
00000330: 876a 3ebd 9803 693d 9bb3 e03d 1836 b83c
0.055140004 -0.011525029 -0.08318602 0.027567843 0.07089288 0.07683126 0.0853493 -0.058673836
0.05932997 0.08246553 0.054999292 -0.07128042 0.07909329 -0.08764707 -0.07162979 0.06780254
0.07768445 0.029937187 -0.03623326 -0.080700785 0.05851145 -0.043528784 0.048895895 0.015613967
0.03677605 0.038464885 -0.019501003 -0.020251771 -0.025884265 -0.04491064 -0.06981116 0.029790068
0.03846672 -0.11276147 -0.03632726 -0.083264515 -0.00775712 -0.048969008 0.08478881 -0.07935566
-0.031519882 0.116801076 0.008104406 0.07609492 -0.04476744 0.07573925 -0.07819901 -0.054166943
-0.08386891 0.08959749 0.046101954 -0.028986352 0.008536131 0.012727159 -0.08369736 -0.05780261
-0.0029038219 0.044843026 0.03601372 0.06987797 0.013594491 0.06575713 0.016708506 0.09358133
0.028878486 -0.05387398 0.06103032 -0.038338404 -0.07957949 -0.0771715 0.08865693 0.022632182
0.038302466 -0.04861296 -0.1051774 0.028664028 -0.069428265 0.031924706 -0.009988777 0.019563986
0.06834629 -0.07800041 0.038950473 -0.032339774 6.321755e-05 -0.044832118 -0.029994661 0.040867005
0.032429203 -0.07491748 0.021167183 0.025525687 0.05557961 -0.010066872 0.09930612 0.08061714
-0.07733303 0.051623717 0.016167061 -0.040089373 -0.075496525 -0.084668905 0.022704428 -0.048287626
0.033496454 0.019756323 -0.024969842 0.07918572 -0.06515278 -0.03804803 0.079472765 0.05983951
0.11993658 0.06111868 -0.07439333 0.05177021 0.017850861 0.083146155 -0.047125116 0.061107162
-0.035828557 0.033604562 -0.058197085 0.027355848 0.05969295 0.070013635 -0.06629379 -0.08037266
0.02608854 -0.07235788 -0.07162055 0.04176699 0.093762845 -0.08067289 -0.054977402 -0.06080314
-0.030400282 0.06920783 -0.092294656 0.086048394 0.04807643 0.004639956 0.07053292 0.04633143
0.019619092 -0.018133702 -0.06703025 -0.11804559 0.05367049 -0.041172046 -0.11923492 -0.048483815
-0.07740404 0.06205368 0.056703523 -0.11910021 0.03515453 -0.036478452 0.08487619 0.0073568546
-0.028995482 0.03933565 -0.088813655 -0.04291316 0.07322198 0.088277034 -0.0072797816 0.05971252
-0.09097014 -0.09533354 -0.026445003 -0.10736356 0.07197882 -0.063317984 -0.06595026 0.031044204
-0.011188139 0.0359089 0.038001955 -0.07191894 0.029659966 -0.021621037 0.058848638 -0.054195285
0.005599992 0.045840394 -0.09526104 0.039757513 -0.026241219 0.047332272 -0.051941127 -0.02585524
-0.087379985 -0.026244715 0.049769856 0.04693356 -0.08169692 -0.0944942 0.061684005 -0.077600755
-0.08782229 -0.07043258 0.034307335 0.007835331 -0.04648831 0.056888193 0.10971757 0.022486731
