pqc_reup_v1_backup/best_model_epoch_7.pth (torch, 61273 bytes, 6 tensors)

reupload_weights f4 [12, 3, 4]
0	0x3e3ddf4e	0.18542215
1	0x3e36bfd4	0.17846614
2	0x3df693a0	0.12039876
3	0xbdd6d829	-0.10490448
4	0x3e9cc78c	0.30620992
5	0x3df01fbf	0.11724805
6	0x3e811981	0.2521477
7	0x3e15958a	0.14607826
8	0x3dd59b60	0.10430026
9	0x3eb42196	0.35181874
10	0x3e27e9d5	0.16397794
11	0x3e025d30	0.1273086
12	0xbe4664c8	-0.19374382
13	0xbddea2b2	-0.108708754
14	0xbdb66e6e	-0.089077815
15	0x3d0d9742	0.03456808
16	0x3e3e2e79	0.18572415
17	0xbd74ef4b	-0.05979852
18	0xbe07a5bb	-0.13246815
19	0xbc8b5141	-0.017006518
20	0x3e051d2b	0.12999408
21	0x3e894255	0.2680842
22	0x3e39a001	0.18127443
23	0x3e887a5e	0.2665586
24	0x3d56633a	0.052340724
25	0x3db0d057	0.08633488
26	0x3d1d6b93	0.03843267
27	0x3d98edd9	0.07467241
28	0x3e8661b7	0.26246426
29	0x3e950585	0.29105774
30	0x3e7d9383	0.24763303
31	0x3ebf49a9	0.37360886
32	0xbda58777	-0.080824785
33	0x3ba778c1	0.0051108305
34	0x3d9b04b3	0.07569256
35	0x3e7e2ef6	0.24822602
36	0xbacf0207	-0.0015793451
37	0xbdc0deef	-0.09417521
38	0xbc8471d2	-0.016167555
39	0xbe3ca0cf	-0.18420719
40	0xbdb24bb1	-0.08705843
41	0x3e30af55	0.17254384
42	0xbcb0a894	-0.02156476
43	0x3d558781	0.05213118
44	0x3e0b7b65	0.1362129
45	0x3ef10d4b	0.47080454
46	0x3e096ca4	0.1342035
47	0x3e4b598a	0.19858375
48	0x3ce0695b	0.027393987
49	0x3d3da9d9	0.046304557
50	0x3dc8aa2d	0.097980835
51	0x3e169a31	0.14707257
52	0x3cea0a37	0.028569324
53	0x3e4a35a3	0.19747023
54	0x3bbae182	0.005703152
55	0x3c6dfa91	0.014525072
56	0xbe0e936a	-0.13923422
57	0x3aab92da	0.001309003
58	0xbd11db4d	-0.035609532
59	0x3d0555fa	0.032552697
60	0xbd673a06	-0.05645182
61	0x3d9e98ad	0.07743964
62	0xbe61f93c	-0.22067732
63	0x3d2d3733	0.04228897
64	0x3c88f73c	0.016719453
65	0x3b811052	0.003938713
66	0x3e0a4fd5	0.13507016
67	0xbd17cdcb	-0.037061494
68	0xbddfe370	-0.10932052
69	0xbdecfe93	-0.11571994
70	0xbe517035	-0.2045296
71	0x3cc131a0	0.023583233
72	0xbc7a17e0	-0.015264481
73	0x3d3d243d	0.046177138
74	0x3bd6450c	0.0065389927
75	0x3d994dd6	0.07485549
76	0xbd845c59	-0.064629264
77	0xbe465974	-0.19370061
78	0xbeaf884c	-0.34283674
79	0xbe29f431	-0.16597058
80	0x3e2554f5	0.1614569
81	0x3e06614f	0.13123058
82	0x3d07d1da	0.033159114
83	0x3de8c325	0.11365346
84	0x3e03b40f	0.12861656
85	0x3ded6569	0.11591608
86	0x3deacb58	0.11464566
87	0x3cb9c09e	0.022674855
88	0xbe5ad126	-0.21368846
89	0xbeac9670	-0.33708525
90	0xbebe4ae8	-0.37166524
91	0xbe52cdbe	-0.20586297
92	0xbecd7cd5	-0.40134302
93	0xbe9f2c07	-0.31088278
94	0xbd69c435	-0.057071883
95	0xbe17199f	-0.14755867
96	0xbe9d221d	-0.3069009
97	0xbd02152a	-0.031758465
98	0x3bece846	0.0072298376
99	0xbd88c03e	-0.06677292
100	0x3e703400	0.23457336
101	0x3e805f76	0.2507283
102	0x3ea251e6	0.3170311
103	0x3e1d1556	0.1534017
104	0xbec63a47	-0.38716337
105	0xbe999e79	-0.30003718
106	0xbead4fc8	-0.3384993
107	0xbeb605d3	-0.3555132
108	0x3d8fde3f	0.07024812
109	0x3e2150cc	0.15753478
110	0x3d76f285	0.06028988
111	0x3d8643da	0.065559104
112	0xbee03b6e	-0.4379534
113	0xbe9f5de9	-0.31126335
114	0xbeb77f1e	-0.3583917
115	0xbe93d61a	-0.28874284
116	0x3c49d10c	0.012317907
117	0xbd2c0893	-0.042000365
118	0xbdc95056	-0.09829776
119	0xbd2672a0	-0.04063666
120	0xbdadc4a1	-0.084847696
121	0xbd81e252	-0.06341995
122	0xbd1f27d3	-0.03885634
123	0x3bdb744d	0.0066972137
124	0x3decaf26	0.115568444
125	0x3d0cd8bf	0.034386393
126	0x3dffc73a	0.12489171
127	0x3dabd71f	0.083906405
128	0xbd99d25a	-0.075108245
129	0xbe2b1f39	-0.16711129
130	0xbed4fc73	-0.41598853
131	0xbec2b1f2	-0.38026386
132	0xbbf1a02e	-0.0073738312
133	0x3e4d2a79	0.20035733
134	0x3d8a5b10	0.0675565
135	0x3d5fd5c3	0.05464722
136	0xbe1372f1	-0.14399315
137	0xbe80ac8a	-0.25131637
138	0xbee06668	-0.4382813
139	0xbe2967c8	-0.16543496
140	0xbe1be89b	-0.1522545
141	0x3c9bdb9b	0.019025614
142	0xbdf1664c	-0.1178709
143	0x3c747b16	0.014921924

reupload_bias f4 [12, 3]
0	0xbeccc713	-0.39995632
1	0x3e80c93c	0.2515353
2	0x3e57ac5c	0.21061844
3	0x3ecfb50e	0.4056782
4	0xbe9f69c5	-0.31135383
5	0xbc5e7a78	-0.0135790035
6	0xbe968c5c	-0.2940396
7	0x3eca3f77	0.39501545
8	0x3d6ae935	0.05735131
9	0x3eaece68	0.3414185
10	0xbd693db0	-0.056943595
11	0x3f078802	0.52941906
12	0xbeb45068	-0.35217595
13	0x3de38628	0.11109573
14	0xbe4bc934	-0.19900972
15	0x3e2f97d1	0.17147757
16	0xbeb2df44	-0.34935963
17	0xbe4aeca0	-0.19816828
18	0xbdfa97a0	-0.122359514
19	0xbe8040ee	-0.25049537
20	0xb993033b	-0.00028040432
21	0xbeec1420	-0.46109104
22	0xbec78527	-0.38968775
23	0xbe29bd5d	-0.16576143
24	0x3ebcc422	0.36868387
25	0x3f1efd6c	0.6210544
26	0xbf2572c8	-0.6462827
27	0xbec44a91	-0.3833814
28	0xbe812532	-0.2522369
29	0xbdbfebf1	-0.09371174
30	0x3e5819a3	0.2110353
31	0x3e680fe7	0.22662316
32	0xbf066179	-0.5249248
33	0xbeba8a39	-0.3643358
34	0xbe96738a	-0.29385024
35	0x3d638d0a	0.055554427

mlr.0.weight f4 [64, 12]
0	0x3b8a086f	0.004212431
1	0xbc8d331b	-0.017236283
2	0x3d8e21fc	0.06940076
3	0x3da5ad0d	0.080896474
4	0xbe863deb	-0.26219115
5	0xbdda2d76	-0.10653202
6	0x3e78efb0	0.24310184
7	0x3de64eb8	0.11245483
8	0xbc6b3dd1	-0.014358
9	0xbe323890	-0.1740439
10	0xbe34da04	-0.17661291
11	0xbe846555	-0.2585856
12	0xbd8910a4	-0.06692627
13	0x3ddda6f2	0.10822858
14	0x3e4a0f72	0.19732454
15	0x3e13f643	0.1444941
16	0xbe72317f	-0.23651694
17	0xbe24a25a	-0.16077557
18	0xbcfc17da	-0.030773092
19	0x3e9a7c3d	0.3017291
20	0x3d844eb6	0.064603254
21	0xbd6afadd	-0.057368148
22	0x3e127d87	0.14305697
23	0xbda996ab	-0.08280691
24	0xbe3f54b8	-0.18684661
25	0x3e57c1d1	0.21070029
26	0xbe06694f	-0.1312611
27	0xbd6d08d9	-0.057869766
28	0xbe9308a2	-0.28717524
29	0x3e45d6b0	0.19320178
30	0x3e5ff596	0.21871027
31	0x3dd776d6	0.10520713
32	0xbe4e1dd8	-0.20128572
33	0xbe91df12	-0.28490502
34	0xbe701533	-0.23445587
35	0x3e5c6e75	0.21526511
36	0x3e0debbe	0.1385946
37	0x3e78c064	0.24292141
38	0x3e1adb91	0.1512282
39	0x3d95a139	0.073061414
40	0xbb394397	-0.0028269046
41	0xbe60cee1	-0.21953918
42	0xbe7d43c4	-0.24732882
43	0xbe8a3eff	-0.27001187
44	0x3df2047c	0.118172616
45	0xbe1121bc	-0.14173025
46	0xbd6df6b7	-0.058096614
47	0xbe2a1f0c	-0.16613406
48	0xbd5776ac	-0.05260341
49	0xbe500e52	-0.20317963
50	0xbe4126e0	-0.18862486
51	0x3dc41c12	0.095756665
52	0xbdafb459	-0.085793205
53	0x3e367d1c	0.17821163
54	0xbdbdaa0e	-0.09260951
55	0xbe58d84d	-0.21176262
56	0xbd509fad	-0.05093353
57	0xbe0f4aff	-0.13993452
58	0xbdb4dfec	-0.08831772
59	0xbe8cb4e0	-0.27481747
60	0x3e33371f	0.17501496
61	0xbe57e895	-0.21084817
62	0x3e0ead96	0.13933405
63	0x3df8ee4b	0.12154826
64	0x3e52b2e1	0.2057605
65	0xbe69088b	-0.22757165
66	0x3e5099d1	0.20371176
67	0xbe05f472	-0.1308153
68	0x3de7fd4d	0.1132761
69	0x3e8b41a8	0.2719853
70	0xbd04be87	-0.032408264
71	0x3c24cf3b	0.010059173
72	0xbd9455a4	-0.07242897
73	0xbe75831b	-0.23975794
74	0x3e0ec1fe	0.1394119
75	0xbe9266c1	-0.2859402
76	0x3e37060f	0.17873405
77	0x3e5d91bf	0.21637629
78	0x3e8c21cb	0.27369532
79	0xbd94432e	-0.07239376
80	0xbe761bb8	-0.24034011
81	0x3d7e3719	0.062064264
82	0x3e1fba88	0.155985
83	0xbe95fb11	-0.2929311
84	0xbd8631bb	-0.06552454
85	0xbe313377	-0.17304789
86	0xbcced62a	-0.025248606
87	0xbe117ffd	-0.1420898
88	0xbdf1aa87	-0.11800104
89	0xbdbbaf0d	-0.09164248
90	0xbe8c74de	-0.27432913
91	0x3e728b75	0.23686011
92	0x3e77d042	0.24200538
93	0xbd397beb	-0.045284193
94	0xbd06a7da	-0.03287492
95	0xbdf14881	-0.11781407
96	0xbe857964	-0.26069176
97	0xbe8fd516	-0.2809226
98	0x3ddbba19	0.10728855
99	0xbe224cc5	-0.15849598
100	0xbe3e095d	-0.1855826
101	0xbcb882e7	-0.022523357
102	0xbdc4e0e0	-0.09613204
103	0xbdbf4484	-0.0933924
104	0x3c17f82b	0.009275476
105	0xbd7acdf8	-0.061231583
106	0xbdcb8f4f	-0.09939443
107	0xbe0d8960	-0.13821936
108	0xbe5d7900	-0.21628189
109	0x3e72ad07	0.23698817
110	0xbdeeaf3e	-0.116545185
111	0x3d933f54	0.07189813
112	0xbdc58901	-0.09645272
113	0x3cb421bc	0.021988742
114	0x3e8a2094	0.2697798
115	0x3e128db6	0.14311871
116	0xbe750902	-0.23929217
117	0x3df78943	0.120867275
118	0x3e92beba	0.28661138
119	0x3dbd9357	0.092566185
120	0x3e7540cf	0.23950504
121	0x3ea0f0f5	0.31433836
122	0xbc599d32	-0.013282107
123	0x3db97c7a	0.09056945
124	0xbe27e11f	-0.1639447
125	0xbce55259	-0.027993368
126	0x3e7be02f	0.24597238
127	0x3e429f7b	0.1900615
128	0xbe10321e	-0.14081618
129	0xbe4790c9	-0.19488825
130	0xbe205635	-0.15657885
131	0xbe7419ea	-0.2383801
132	0xbe64195c	-0.22275299
133	0xbd923431	-0.07138861
134	0x3e477ef6	0.19482026
135	0x3d45ea3d	0.04831909
136	0xbe60d667	-0.21956788
137	0xbe6d23db	-0.23158209
138	0x3e130e2b	0.14360873
139	0xbe5be1c8	-0.21472847
140	0xbd11966a	-0.035543837
141	0x3e0dcd7e	0.1384792
142	0xbe08cf0d	-0.13360234
143	0xbd00ee24	-0.03147711
144	0xbccdd859	-0.025127577
145	0xbd8bdea2	-0.06829573
146	0xbe15e162	-0.14636758
147	0xbe83c18e	-0.25733608
148	0xbe6ef3f9	-0.23335256
149	0xbe1e48c5	-0.15457447
150	0x3e8ec09f	0.27881333
151	0xbe0ec7e0	-0.13943434
152	0xbe468183	-0.19385342
153	0x3d8f4e19	0.06997318
154	0x3da2f152	0.079561844
155	0x3e21f6c5	0.15816791
156	0x3e905f62	0.2819777
157	0x3e500936	0.20316014
158	0xbe761d0c	-0.24034518
159	0x3d8bba49	0.068226404
160	0x3e664681	0.22487833
161	0x3c99246e	0.018694129
162	0xbdfbaf71	-0.12289322
163	0x3ea953cd	0.33071747
164	0xbd5496f0	-0.051901758
165	0xbde69771	-0.11259354
166	0xbe4f7b7a	-0.20261946
167	0x3d9797ae	0.074019775
168	0x3e02563e	0.12728211
169	0x3d95a748	0.07307297
170	0x3d854b5b	0.065085135
171	0xbe576f73	-0.21038608
172	0xbe869ff0	-0.26293898
173	0x3c5ab70f	0.013349309
174	0x3e8acd7d	0.271099
175	0x3e2d6c1e	0.16935775
176	0xbe28f0fb	-0.16498177
177	0xbd069cd8	-0.03286442
178	0xbe56f746	-0.20992765
179	0xbe0db7fc	-0.13839716
180	0x3da775d7	0.08176773
181	0x3e25ac26	0.1617895
182	0x3e7de6c0	0.24795055
183	0xbe851d6c	-0.2599901
184	0x3e54d73a	0.20785227
185	0xbe48ef16	-0.19622454
186	0x3df2c845	0.11854605
187	0x3e87826d	0.26466694
188	0x3cd51711	0.026011975
189	0x3e8e0616	0.27739018
190	0xbe6446ab	-0.22292583
191	0xbdaa1cd7	-0.08306282
192	0x3e14ea04	0.14542395
193	0xbdaf9f06	-0.08575253
194	0xbda7dace	-0.081960306
195	0xbe12960d	-0.14315052
196	0x3e345f5a	0.17614499
197	0x3df31f2b	0.11871179
198	0x3d8ea2ce	0.06964646
199	0xbe3d91f4	-0.18512708
200	0xbe83afc7	-0.25720045
201	0x3c082ffc	0.008312222
202	0x3d803185	0.06259445
203	0xbe1ff61d	-0.15621229
204	0xbda56b12	-0.08077063
205	0x3e47a415	0.19496186
206	0x3cbc61a2	0.022995774
207	0x3c5564e2	0.013024541
208	0xbd917f0c	-0.071043104
209	0xbe85d901	-0.26142123
210	0xbe8af8bc	-0.27142894
211	0xbe0d4d87	-0.13799106
212	0xbe1642f2	-0.14673975
213	0x3db8314c	0.08993778
214	0xbdac1b4b	-0.08403643
215	0xbde74b0a	-0.112936094
216	0x3eabe085	0.33569732
217	0x3e0e9540	0.13924122
218	0x3e7f0314	0.24903518
219	0xbdceeb30	-0.10103452
220	0xbd90a4d7	-0.07062691
221	0x3e17b256	0.14814124
222	0xbe1705f2	-0.14748362
223	0xbe0bcc17	-0.13652073
224	0x3d2184b1	0.039433185
225	0xbd698cfc	-0.05701922
226	0xbe245519	-0.16048087
227	0x3e6b17e3	0.22958331
228	0x3e93975d	0.2882642
229	0x3da003bf	0.078132145
230	0xbc6ae75f	-0.01433739
231	0xbe7187cd	-0.2358696
232	0xbd826ccf	-0.0636841
233	0x3ddd0bdb	0.10793277
234	0x3e3200fb	0.17383187
235	0x3c280ad8	0.010256492
236	0xbd8698bf	-0.06572103
237	0x3e4f9bc2	0.2027426
238	0xbe37ef53	-0.17962389
239	0x3e71c72c	0.23611134
240	0xbd34c447	-0.044132497
241	0x3d41bf5a	0.047301628
242	0xbc20bc32	-0.009810494
243	0x3da01813	0.07817092
244	0xbd0e64b7	-0.034764018
245	0x3e837186	0.2567255
246	0x3d2a08ba	0.04151223
247	0x3e91b666	0.2845947
248	0x3eacc7b8	0.33746123
249	0xbdb03717	-0.086042576
250	0xbe1834e6	-0.14863929
251	0x3e9880f4	0.29785883
252	0x3e67a38e	0.22620985
253	0xbe61b506	-0.22041711
254	0xbcb6cf13	-0.022315538
255	0xbe91c049	-0.28467014

mlr.0.bias f4 [64]
0	0xbda2912d	-0.07937846
1	0x3e560662	0.20900872
2	0x3db71e51	0.08941329
3	0xbd4e2dc2	-0.050336607
4	0x3d47be5c	0.048765525
5	0xbe2391fa	-0.15973654
6	0x3e0b4720	0.13601351
7	0x3de9dc28	0.114189446
8	0x3d9ec429	0.07752258
9	0xbe3a2576	-0.18178353
10	0x3e690f24	0.22759682
11	0xbd2ab479	-0.04167602
12	0xbde62aa7	-0.11238604
13	0x3e2dea46	0.169839
14	0x3e87149c	0.2638291
15	0x3e686f81	0.22698785
16	0x3d814be6	0.063133046
17	0xbdc989ea	-0.09840758
18	0x3e031229	0.12799896
19	0x3e5a812b	0.21338336
20	0xbe9e48eb	-0.30915007
21	0xbd127c4e	-0.035763077
22	0xbe80c1b2	-0.25147778
23	0x3d5c5ab1	0.053797428
24	0x3d937880	0.07200718
25	0xbda71526	-0.081583306
26	0xbcc5d5ab	-0.024149736
27	0x3d559c51	0.052151028
28	0xbd46ba56	-0.048517548
29	0xbe9028a1	-0.28155997
30	0x3e6c2b4b	0.2306339
31	0xbe14c80d	-0.14529438
32	0xbded76a3	-0.11594894
33	0x3cdf10c7	0.02722968
34	0xbd15275f	-0.0364145
35	0xbe8b08f3	-0.27155265
36	0x3e079f70	0.13244414
37	0xbe0645b8	-0.13112533
38	0xbe22b3d7	-0.15888916
39	0x3caf950d	0.021433378
40	0xbe1a43a0	-0.1506486
41	0xbe6f3e9e	-0.2336373
42	0xbdc73501	-0.097269066
43	0xbe11bda7	-0.14232503
44	0xbdf6e8f9	-0.12056155
45	0xbdd259c4	-0.10271028
46	0x3b9081c2	0.0044099996
47	0xbe6f3520	-0.2336011
48	0xbe32ec41	-0.17472936
49	0x3b8a066a	0.0042121904
50	0x3d246f9e	0.04014551
51	0x3da06a09	0.078327246
52	0xbe6be262	-0.23035577
53	0x3dbcb61c	0.09214422
54	0x3e055b6e	0.13023159
55	0x3d9a51c6	0.07535128
56	0xbe8c26bb	-0.273733
57	0xbe309ac5	-0.1724654
58	0xbe9ff71c	-0.31243217
59	0xbe5951e4	-0.21222645
60	0x3e0dc596	0.13844904
61	0xbd308e8d	-0.043104697
62	0x3dfb1799	0.1226036
63	0xbe2d8562	-0.16945413

mlr.2.weight f4 [208, 64]
0	0x3c9b9b60	0.018994987
1	0xbd640d3b	-0.05567668
2	0x3d7ff1d8	0.0624865
3	0xbd5ff024	-0.054672375
4	0xbd006380	-0.03134489
5	0xbd88999b	-0.06669923
6	0xbcb97793	-0.022640025
7	0x3df31122	0.11868502
8	0x3d78837c	0.06067227
9	0xbca5a89c	-0.020222
10	0x3c441bad	0.011969489
11	0xbc608f60	-0.013706058
12	0xbdce1958	-0.10063428
13	0x3e049634	0.12947923
14	0x3b2a7f08	0.0026015658
15	0x3d578f09	0.052626643
16	0xbd56dfff	-0.052459713
17	0xbd6f9318	-0.05848989
18	0x3d44706f	0.047958788
19	0x3d965c64	0.07341841
20	0x3dbded4f	0.09273779
21	0xbd76c180	-0.06024313
22	0x3e355eea	0.17711988
23	0xbc96bcc0	-0.01840055
24	0xbd31ce2d	-0.043409515
25	0xbc7af833	-0.015317964
26	0x3dfc0300	0.1230526
27	0x3ce67114	0.028130092
28	0xbc8b0088	-0.016968027
29	0xbb1c217f	-0.0023823676
30	0xbd14d4e4	-0.03633584
31	0xbdd79c4a	-0.10527857
32	0xbd5fefde	-0.054672115
33	0x3d95d588	0.073161185
34	0x3e15a436	0.14613423
35	0x3df44d08	0.11928755
36	0xbdb8d136	-0.09024279
37	0x3d8a7604	0.06760791
38	0xbd8d3ceb	-0.06896385
39	0x3de7a334	0.113104254
40	0x3db8b7c8	0.090194285
41	0x3e1746fc	0.14773172
42	0x3db85548	0.09000641
43	0x3dfc290e	0.12312518
44	0x3b1f7240	0.0024329573
45	0x3dc7ae66	0.09750061
46	0xbc60fe36	-0.013732484
47	0x3d5ef150	0.054429352
48	0xbd248ecc	-0.040175244
49	0xbb098e00	-0.002098918
50	0xbdded126	-0.10879736
51	0x3a5a9f22	0.00083397527
52	0xbc3d7587	-0.011563665
53	0xbd2cb550	-0.0421651
54	0xbdadc370	-0.08484542
55	0xbda2e4c2	-0.07953788
56	0x3cc28816	0.023746531
57	0x3df96941	0.12178279
58	0x3e2e65a5	0.17030962
59	0x3e06cea5	0.13164766
60	0xbd102881	-0.035194878
61	0xbdfd2fbe	-0.12362622
62	0x3d42356c	0.04741423
63	0x3d8f70bc	0.07003924
64	0xbddbc772	-0.107314005
65	0x3d9cdeac	0.07659659
66	0x3dd87132	0.10568465
67	0x3bf81f20	0.0075720698
68	0xbd9a3abe	-0.075307354
69	0x3e20379d	0.15646215
70	0x3c6ec9d4	0.014574487
71	0x3da98604	0.082775146
72	0xbdad210c	-0.08453569
73	0x3e08cc07	0.1335908
74	0xbd6f64e1	-0.058445815
75	0x3dfd4f80	0.12368679
76	0xbd58ef2c	-0.052962467
77	0x3dfd1b77	0.12358754
78	0xbb0f5d24	-0.0021875584
79	0x3d8f5c40	0.07000017
80	0xbc7f87b3	-0.015596318
81	0x3d524be8	0.05134192
82	0xbbeee83e	-0.007290869
83	0xbd9c7053	-0.07638612
84	0x3d2aacfb	0.041668873
85	0x3dc895fc	0.09794232
86	0x3d391062	0.04518164
87	0x3d20ee58	0.039289802
88	0xba0e44b3	-0.0005427107
89	0x3e1e8986	0.15482149
90	0x3d9936a8	0.07481128
91	0x3da7ef08	0.081998885
92	0xbd82db7e	-0.06389521
93	0xbd174852	-0.036934204
94	0x3a63ec5a	0.0008694582
95	0xbd962f34	-0.07333222
96	0x3e22abe9	0.15885891
97	0xbdf60282	-0.12012197
98	0x3de7cc57	0.113182716
99	0x3dff35c2	0.12461425
100	0x3d80364a	0.06260355
101	0x3d2e94c4	0.042622343
102	0xbde4ea3d	-0.1117749
103	0x3e2f8d2d	0.17143698
104	0xbcaf2718	-0.021380946
105	0xbd5de6cc	-0.054175183
106	0x3dfcb6b4	0.12339535
107	0x3c1ce1f0	0.009575352
108	0xbc10e420	-0.008843452
109	0x3e30aeee	0.1725423
110	0xbd33e241	-0.043916944
111	0xbdb51e10	-0.088436246
112	0x3ca68528	0.020327166
113	0xbc891100	-0.016731739
114	0x3cebdeb8	0.028792724
115	0xbd79a12c	-0.06094472
116	0x3da40c2b	0.08010133
117	0xbd63b78c	-0.055594966
118	0xbd8afe08	-0.06786734
119	0xbd942f06	-0.072355315
120	0x3d720709	0.05908874
121	0x3da0b4d0	0.07846987
122	0xbcdc6337	-0.026902778
123	0x3e37dd03	0.17955403
124	0x3dae7a48	0.08519417
125	0x3cbe0448	0.0231954
126	0xbd964e92	-0.07339205
127	0x3c9a6c80	0.018850565
128	0x3df6aa92	0.120442525
129	0x3df45b5d	0.11931489
130	0xbdc7640a	-0.09735878
131	0x3de9aea6	0.11410265
132	0x3c1ebd70	0.00968872
133	0x3dd0b9c2	0.101916805
134	0x3dd23686	0.10264306
135	0x3dda3e0a	0.10656364
136	0xbdc78f98	-0.09744185
137	0x3e2032cd	0.15644379
138	0xbd5ab160	-0.053391814
139	0x3c1987d0	0.009370759
140	0xbdb2e22c	-0.08734545
141	0x3ca38697	0.019961638
142	0x3cf790f6	0.03022049
143	0x3cba3c40	0.022733808
144	0xbc83abc1	-0.01607311
145	0x3c2186e0	0.009858817
146	0x3e29f2b0	0.16596484
147	0x3de79562	0.113077894
148	0x3e112472	0.14174059
149	0x3d4ced3c	0.05003093
150	0x3e1e5594	0.15462333
151	0xbbbd06c0	-0.005768627
152	0x3d58baab	0.052912395
153	0x3da1c5e9	0.078990765
154	0xbddf43f2	-0.109016314
155	0xbd81d5fb	-0.06339642
156	0x3c7b1670	0.015325174
157	0x3ba1d17c	0.0049383026
158	0x3c835466	0.016031455
159	0xbceaf740	-0.028682351
160	0x3d84babf	0.064809315
161	0x3da68ebe	0.08132695
162	0x3c13bd0f	0.009017243
163	0x3dcd0534	0.10010758
164	0x3dca20b8	0.09869522
165	0xbdc47ac2	-0.09593727
166	0xbdb45648	-0.08805519
167	0xbd60d122	-0.054886945
168	0xbd8c4b0e	-0.06850253
169	0x3b58f2b6	0.0033103651
170	0xbc1a26e0	-0.009408683
171	0x3ca4b300	0.020104885
172	0xbd8157f8	-0.06315607
173	0x3c3b4223	0.011429342
174	0xbb9868f6	-0.004651184
175	0x3dfb2552	0.12262978
176	0xbd3dc310	-0.046328604
177	0xbdb74bd6	-0.089500114
178	0x3d54d650	0.051962197
179	0x3d08d8b5	0.033409793
180	0x3e1fb959	0.15598048
181	0x3d9ff508	0.07810408
182	0x3df7af24	0.12093952
183	0xbd52bc4b	-0.0514491
184	0x3da0d1c5	0.0785251
185	0x3e1bc037	0.15210043
186	0xbbb49b37	-0.005511667
187	0x3e377be9	0.17918362
188	0x3e0e374b	0.1388828
189	0x3ab36c80	0.0013688952
190	0x3d76dcb0	0.060269058
191	0xbd330198	-0.04370269
192	0xbddf4770	-0.109022975
193	0x3d1f5e90	0.03890854
194	0x3d18a3e0	0.03726566
195	0xbda74fa4	-0.08169487
196	0x3d7851e0	0.060624957
197	0xbd612a53	-0.054972004
198	0x3cb105cd	0.021609211
199	0x3df7e86e	0.12104879
200	0x3d0b6574	0.0340323
201	0xbcb7152c	-0.022348963
202	0x3d4fedfb	0.050764065
203	0x3cae8178	0.02130197
204	0x3d0b38f0	0.033989847
205	0x3d85b4d7	0.06528633
206	0x3ba6d776	0.005091603
207	0xbd1408d9	-0.03614125
208	0xbcfaf93a	-0.030636419
209	0x3d0ba01c	0.03408824
210	0x3d0afc99	0.033932302
211	0x3df58772	0.11988725
212	0x3c6c3280	0.014416337
213	0xbb9529a0	-0.004552081
214	0x3dc84ebe	0.09780644
215	0xbd07fb48	-0.033198625
216	0x3de95cc9	0.113946505
217	0x3d70a0b4	0.05874701
218	0xbdec9a56	-0.11552875
219	0x3c01da2c	0.007925551
220	0xbd68389c	-0.056694612
221	0x3d8ea1e6	0.069644734
222	0xbd61f958	-0.055169433
223	0xbdfdef66	-0.12399177
224	0x3d0449d6	0.032296978
225	0xbc4427f0	-0.0119724125
226	0x3a5d4552	0.00084408105
227	0x3deb3532	0.114847556
228	0xbcdf6f98	-0.027274892
229	0x3da47574	0.08030215
230	0x3d20b9db	0.039239746
231	0xbd894c93	-0.067040585
232	0x3cf0a030	0.029373258
233	0x3e2824d7	0.16420303
234	0xbda77324	-0.08176258
235	0xbcf768eb	-0.030201396
236	0x3dfa95da	0.12235613
237	0x3e0f213e	0.13977525
238	0xbd33b932	-0.043877788
239	0x3d9a0bf6	0.075218126
240	0xbc8300a0	-0.015991509
241	0xbdfc65de	-0.12324117
242	0x3c19df90	0.00939168
243	0x3d943789	0.07237155
244	0x3cea746a	0.028619964
245	0x3d321dc8	0.043485433
246	0xbdf1a829	-0.11799652
247	0x3ded928f	0.116002195
248	0x3df659ae	0.12028824
249	0x3de36a87	0.11104303
250	0x3dcb498d	0.09926138
251	0x3de80130	0.113283515
252	0xbd8a75ea	-0.067607716
253	0xbcffded0	-0.031234175
254	0xbc438480	-0.011933446
255	0xbd8e75e0	-0.069560766

mlr.2.bias f4 [208]
0	0x3d50f145	0.051011343
1	0xbc655573	-0.013997423
2	0xbdb5125d	-0.08841393
3	0x3ce86a5d	0.02837103
4	0x3d97c99e	0.07411502
5	0x3d99fb81	0.07518674
6	0x3daf68b8	0.085648954
7	0xbd7e96b8	-0.062155455
8	0x3d75fb6f	0.06005424
9	0x3da9ab6f	0.082846515
10	0x3d67d248	0.056597024
11	0xbd926037	-0.07147258
12	0x3da29d3c	0.07940146
13	0xbdb5016c	-0.08838162
14	0xbd9246e6	-0.07142429
15	0x3d8bd5f1	0.068279155
16	0x3da470b2	0.080293074
17	0x3d18a6bf	0.037268396
18	0xbd0840ff	-0.03326511
19	0xbda811e5	-0.08206538
20	0x3d7cc782	0.061713703
21	0xbd35fecf	-0.044432458
22	0x3d5677ef	0.05236047
23	0x3c551647	0.0130058
24	0x3d179e96	0.037016474
25	0x3d1bef73	0.038070153
26	0xbccc771c	-0.02495914
27	0xbcd6c46a	-0.026216704
28	0xbcf15987	-0.029461635
29	0xbd38dd6b	-0.045133036
30	0xbd964679	-0.0733766
31	0x3cf06511	0.029345067
32	0x3d24d29c	0.040239915
33	0xbde79ecf	-0.11309587
34	0xbd1d1b58	-0.038356155
35	0xbdafc485	-0.08582405
36	0xbbd0178b	-0.006350463
37	0xbd4ad298	-0.049517244
38	0x3daf4a10	0.08559048
39	0xbda2fc02	-0.07958223
40	0xbcfdbe92	-0.03097466
41	0x3df6e5db	0.1205556
42	0x3c210031	0.009826706
43	0x3da17055	0.07882754
44	0xbd341b2d	-0.04397123
45	0x3da8844f	0.08228361
46	0xbda216d3	-0.079145096
47	0xbd5b4b53	-0.05353863
48	0xbdafa8d4	-0.08577123
49	0x3dbb97d0	0.09159815
50	0x3d36921f	0.044572946
51	0xbcf9026f	-0.030396668
52	0x3be0b7de	0.006857856
53	0x3c3f4de8	0.011676289
54	0xbdb282b0	-0.08716333
55	0xbd809805	-0.062789954
56	0x3b15a195	0.0022831906
57	0x3d367443	0.04454447
58	0x3d045e3e	0.03231644
59	0x3d923115	0.07138268
60	0x3c224573	0.009904253
61	0x3d889683	0.06669333
62	0x3c92cff8	0.017921433
63	0x3dc4d8a3	0.09611633
64	0x3cf441f0	0.029816598
65	0xbd63fa53	-0.05565865
66	0x3d82b4a5	0.063821115
67	0xbd1e4de2	-0.038648494
68	0xbda1a8a8	-0.07893497
69	0xbda2703f	-0.079315655
70	0x3dbcc8b8	0.092179716
71	0x3cb4f10b	0.022087594
72	0x3d27c6cb	0.040961068
73	0xbd428f45	-0.047499914
74	0xbdd6c0ed	-0.104860164
75	0x3cdaaeb9	0.026694642
76	0xbd95fe15	-0.07323853
77	0x3cfd99c5	0.030957112
78	0xbc56a72e	-0.013101382
79	0x3ca1c3cf	0.01974669
80	0x3d8bd28f	0.0682727
81	0xbdae8cdc	-0.085229605
82	0x3d1fa78b	0.03897814
83	0xbd1b3041	-0.037887815
84	0xbbb25c98	-0.005443167
85	0xbd4d8b2e	-0.05018156
86	0xbd12d63d	-0.035848845
87	0x3d1d41a5	0.03839268
88	0x3d0b8c80	0.034069538
89	0xbda51bbe	-0.08061932
90	0x3c8ffc1b	0.017576268
91	0x3cb7f094	0.022453584
92	0x3d77e117	0.060517397
93	0xbc0fcb13	-0.008776444
94	0x3dd2da57	0.10295551
95	0x3daf1315	0.085485615
96	0xbda616cf	-0.08109819
97	0x3d6e3966	0.05816021
98	0x3c9d5095	0.019203464
99	0xbd0bafe1	-0.034103278
100	0xbd9c0084	-0.07617286
101	0xbdade80d	-0.08491526
102	0x3cc83e56	0.024443787
103	0xbd4ccfaa	-0.05000273
104	0x3d0e98c6	0.034813665
105	0x3c5fb528	0.013654031
106	0xbce94e42	-0.028479699
107	0x3d9be95b	0.076128684
108	0xbd8c75a8	-0.06858379
109	0xbd22224c	-0.03958349
110	0x3d9fcea0	0.078030825
111	0x3d735078	0.059402913
112	0x3df17ef8	0.117917955
113	0x3d7c7196	0.06163176
114	0xbda19891	-0.07890428
115	0x3d4e4ad9	0.05036435
116	0x3c58f306	0.013241535
117	0x3da9492d	0.0826591
118	0xbd376b7f	-0.04478025
119	0x3d7a3862	0.061088927
120	0xbd1d76b1	-0.03844327
121	0x3d0aac60	0.033855796
122	0xbd78540d	-0.060627032
123	0x3d0e2d24	0.03471102
124	0x3d6a6c87	0.057232406
125	0x3d911603	0.070842765
126	0xbd819dc8	-0.063289225
127	0xbdae394d	-0.08507023
128	0x3cf23cd1	0.029570015
129	0xbd929db3	-0.07158985
130	0xbd9ba564	-0.07599905
131	0x3d192ca9	0.037396107
132	0x3dbfd430	0.093666434
133	0xbdacfdff	-0.084468834
134	0xbd57ca78	-0.052683324
135	0xbd86cf76	-0.06582539
136	0xbcf1f781	-0.029536964
137	0x3d8d6485	0.06903938
138	0xbdbe70f7	-0.0929889
139	0x3db52da9	0.088465996
140	0x3d499551	0.049214665
141	0x3b84b9da	0.0040504755
142	0x3d913953	0.07091012
143	0x3d42cab8	0.04755661
144	0x3cb6d7bd	0.022319669
145	0xbc8111e2	-0.015755598
146	0xbd89055c	-0.06690475
147	0xbdf0c00d	-0.11755381
148	0x3d6c8878	0.057747334
149	0xbd1ddf77	-0.03854319
150	0xbdf2a3f5	-0.118476786
151	0xbd3e2fbc	-0.04643224
152	0xbda1cc37	-0.07900279
153	0x3d83fc15	0.06444565
154	0x3d6f5613	0.058431696
155	0xbdfa0f4d	-0.1220995
156	0x3d0bcd5f	0.034131404
157	0xbd273fdb	-0.04083238
158	0x3db5e4d3	0.088815354
159	0x3bd59344	0.0065177996
160	0xbce32ec7	-0.027732266
161	0x3d2a5dd0	0.041593373
162	0xbdbbbfa0	-0.09167409
163	0xbd3bf07a	-0.045883633
164	0x3d989d58	0.07451886
165	0x3db5bb70	0.088736415
166	0xbbd7db02	-0.006587387
167	0x3d7bf22a	0.061510243
168	0xbdbe817f	-0.09302043
169	0xbdc4e6ca	-0.09614332
170	0xbcd1c10a	-0.025604744
171	0xbddefe9e	-0.10888408
172	0x3d9b8cad	0.07595191
173	0xbd771762	-0.060325034
174	0xbd851a25	-0.06499127
175	0x3d101028	0.035171658
176	0xbc5d2e6e	-0.013499839
177	0x3d212156	0.039338432
178	0x3d3e5817	0.046470728
179	0xbd9b2459	-0.07575292
180	0x3cf02748	0.029315606
181	0xbcb66fc1	-0.022270085
182	0x3d6c13bc	0.057636008
183	0xbd683229	-0.05668846
184	0x3c005915	0.007833739
185	0x3d27dd6a	0.04098264
186	0xbdc9062a	-0.09815629
187	0x3d1b74f0	0.037953317
188	0xbcf82eaa	-0.030295689
189	0x3d3bb4d5	0.04582675
190	0xbd5a8126	-0.05334582
191	0xbcddd0dc	-0.027077131
192	0xbdbf2b3e	-0.0933442
193	0xbcec2d3d	-0.028830165
194	0x3d64bab2	0.05584211
195	0x3d45a7ec	0.048255846
196	0xbda2237d	-0.07916925
197	0xbdc7d299	-0.09756965
198	0x3d860318	0.06543559
199	0xbd9d93cf	-0.07694208
200	0xbdb5a4ec	-0.08869347
201	0xbd8bd65c	-0.06827995
202	0x3d1a0d26	0.037610196
203	0x3ba681fb	0.005081413
204	0xbd4bd87b	-0.049767
205	0x3d6b1517	0.05739316
206	0x3de1f956	0.11033885
207	0x3cc2f1fb	0.023797026
