pqc_reup_v1_backup/best_model_epoch_10.pth (torch, 61285 bytes, 6 tensors)

reupload_weights f4 [12, 3, 4]
000000 81 b8 3b 3e 28 4a 28 3e 39 c6 00 3e da 0d bc bd
       0.18332101 0.16434538 0.12575616 -0.091823295
000010 ff 4f 9a 3e 94 9d c5 3d e2 15 82 3e 1b 2d 2c 3e
       0.30139157 0.09649196 0.2540732 0.16814081
000020 97 ba c3 3d 6d 44 a9 3e 2b 23 24 3e 9b 12 fa 3d
       0.095570736 0.33060017 0.1602904 0.1221058
000030 b3 b4 43 be 76 63 e6 bd b5 8e a9 bd 33 34 54 3d
       -0.191119 -0.112494394 -0.08279172 0.051807594
000040 fd 84 2d 3e 58 97 86 bd 08 6b 11 be cb 24 24 bd
       0.16945262 -0.06571835 -0.14200985 -0.04007415
000050 d2 21 db 3d 0d 21 81 3e 07 c8 20 3e f2 26 6b 3e
       0.1069981 0.25220528 0.15701304 0.22964075
000060 8a f7 19 3d a6 99 b3 3d c4 22 26 3d c3 83 95 3d
       0.037589587 0.087695405 0.0405605 0.07300522
000070 36 24 85 3e 2e e1 8f 3e 75 10 6e 3e 18 9b b9 3e
       0.2600419 0.28101486 0.23248465 0.3625114
000080 12 6f c6 bd f8 5f 9c 3b 34 48 97 3d c8 73 7a 3e
       -0.09689154 0.0047721826 0.073868185 0.2445823
000090 66 32 b7 3b 66 59 be bd 2e 0c 93 bb 72 84 39 be
       0.0055907248 -0.09294395 -0.004487536 -0.1811693
0000a0 f4 97 de bd ad 0d 20 3e ce 04 4d bd 9e 5d ee 3c
       -0.108688265 0.15630217 -0.05005341 0.029097375
0000b0 61 8d 08 3e 0e d3 eb 3e da 37 0e 3e 3a db 41 3e
       0.13335182 0.4605946 0.13888493 0.18931285
0000c0 00 c6 c4 3c 18 c2 5b 3d cd 55 bc 3d 1f a7 0c 3e
       0.024020195 0.0536519 0.09196053 0.13735627
0000d0 85 1b b4 3c ab 08 3c 3e 9c 37 80 3c 3a 00 e2 3c
       0.021985779 0.18362682 0.015651517 0.027587999
0000e0 01 fc 21 be 74 09 c4 bb d0 c0 9c bd 56 c8 6b bc
       -0.15818788 -0.005982572 -0.076539636 -0.0143910255
0000f0 a6 8a 59 bd 12 fb 96 3d 21 c2 60 be 19 d6 e9 3c
       -0.05311074 0.073721066 -0.21949054 0.028544473
000100 b6 15 45 3b 86 97 a1 bb d7 1a f6 3d f2 72 0b bd
       0.0030072755 -0.004931393 0.12016838 -0.034045167
000110 5f 6c 02 be 5e c8 09 be e8 02 6a be f4 37 9c 3c
       -0.12736653 -0.1345534 -0.22852671 0.01906965
000120 0a 46 91 bc dc d5 db 3c 39 32 34 bc 88 9f b5 3d
       -0.017733593 0.026835375 -0.010998302 0.08868319
000130 d7 6e a7 bd 0f 29 6a be df 0b c1 be b4 99 33 be
       -0.08175438 -0.22867225 -0.3770437 -0.17539102
000140 79 de fb 3d df dd e0 3d 11 e9 2b 3c c8 85 97 3b
       0.12298293 0.109798186 0.010492579 0.0046241023
000150 be 0e 03 3e 43 34 ed 3d 8c 65 e3 3d c1 71 a0 3c
       0.12798592 0.11582234 0.11103353 0.019585492
000160 7a 5e 47 be 61 47 a2 be c0 bf af be ad dd 36 be
       -0.19469634 -0.31695083 -0.3432598 -0.17858
000170 32 1e c5 be 27 69 96 be 50 3c 08 bd dd 32 00 be
       -0.384996 -0.293771 -0.033260643 -0.12519403
000180 29 76 95 be 60 cf f0 bc e5 34 02 bc 69 7a 87 bd
       -0.29191712 -0.02939576 -0.007947181 -0.06615145
000190 8e e0 85 3e fd d6 92 3e ec 8e ab 3e ef e6 3d 3e
       0.26147884 0.28679648 0.33507478 0.18545125
0001a0 9c 03 a5 be 2f 89 4e be f2 08 72 be 28 12 83 be
       -0.32229316 -0.20169519 -0.23636225 -0.2559979
0001b0 39 da 67 3d 68 7b 1a 3e cd 44 5c 3d 6d b9 87 3d
       0.056604598 0.15086138 0.05377655 0.06627164
0001c0 89 7f ca be 74 98 8d be ec 7b a5 be 84 9b 8b be
       -0.39550427 -0.27655375 -0.32321107 -0.27267087
0001d0 21 62 2f 3d e6 99 a0 bc f4 61 98 bd 31 86 e3 bc
       0.042818192 -0.019604634 -0.07440558 -0.027773948
0001e0 70 7b b7 bd 51 8d 9b bd 19 5b 9b bc 61 01 be 3c
       -0.08959091 -0.07595313 -0.018964337 0.023194017
0001f0 e6 f2 ec 3d c5 54 f8 3c ab 01 18 3e 36 eb d7 3d
       0.11569767 0.030313859 0.14844386 0.1054291
000200 0c 9f 0b be 5b 0b 65 be 1c f8 f0 be ea 4c e1 be
       -0.1363489 -0.22367613 -0.47064292 -0.44003993
000210 4c 0e 86 bc 85 e5 4a 3e 97 f4 8f 3d 0d c1 5d 3d
       -0.01636424 0.19814117 0.07029074 0.054139186
000220 1b 86 24 be fb cc 89 be 18 b3 f0 be 98 be 42 be
       -0.16066782 -0.269142 -0.47011638 -0.19018018
000230 7e d7 2d be f0 53 16 3b 89 34 1a be 75 29 21 bc
       -0.16976735 0.0022938214 -0.15059103 -0.009836544

reupload_bias f4 [12, 3]
000000 f3 b7 ca be b1 ae 87 3e 06 a2 54 3e f3 a5 d0 3e
       -0.39593467 0.26500466 0.20764932 0.4075161
000010 a8 45 9f be 39 01 c9 bc e4 41 9a be 31 31 cc 3e
       -0.3110783 -0.024536716 -0.30128396 0.3988128
000020 95 a5 7c 3d e6 e9 b0 3e 0c 19 80 bd 33 a7 08 3f
       0.06168135 0.3455345 -0.06254777 0.53380126
000030 88 2d b7 be 49 99 f8 3d 15 3d 6a be 3e a2 36 3e
       -0.35776925 0.12138612 -0.22874863 0.17835328
000040 ba 6b bb be c4 43 63 be 9a af 0d be dd a3 8c be
       -0.36605626 -0.2219382 -0.13836518 -0.27468768
000050 01 1f a0 bd 0c 09 f0 be fe 54 c2 be 65 4d 1d be
       -0.078184135 -0.46881902 -0.3795547 -0.15361555
000060 ba 0d bf 3e 86 df 23 3f 88 ae 1a bf 98 a3 c7 be
       0.3731516 0.64012945 -0.60422564 -0.38992
000070 f9 da 73 be 9c 57 a7 bd 14 7b 64 3e d8 47 6e 3e
       -0.23814 -0.08171007 0.22312576 0.23269594
000080 c0 cb 17 bf 4e 36 bf be 91 6a a5 be bb 91 0a 3d
       -0.5929527 -0.3734612 -0.32307866 0.033830386

mlr.0.weight f4 [64, 12]
000000 6f 08 8a 3b 1b 33 8d bc fc 21 8e 3d 0d ad a5 3d
       0.004212431 -0.017236283 0.06940076 0.080896474
000010 eb 3d 86 be 76 2d da bd b0 ef 78 3e b8 4e e6 3d
       -0.26219115 -0.10653202 0.24310184 0.11245483
000020 d1 3d 6b bc 90 38 32 be 04 da 34 be 55 65 84 be
       -0.014358 -0.1740439 -0.17661291 -0.2585856
000030 43 f8 9c bd 58 ef d4 3d f6 5d 43 3e 76 28 10 3e
       -0.0766454 0.10397214 0.19078812 0.14077935
000040 cf 3c 78 be 6f 6e 28 be fc 96 18 bd a0 5a 98 3e
       -0.24241947 -0.16448377 -0.037253365 0.2975664
000050 7e 29 6b 3d 51 f8 7f bd 7a 5d 0a 3e 68 dc b4 bd
       0.057412617 -0.062492672 0.13512221 -0.08831102
000060 b8 54 3f be d1 c1 57 3e 4f 69 06 be d9 08 6d bd
       -0.18684661 0.21070029 -0.1312611 -0.057869766
000070 a2 08 93 be b0 d6 45 3e 96 f5 5f 3e d6 76 d7 3d
       -0.28717524 0.19320178 0.21871027 0.10520713
000080 d8 1d 4e be 12 df 91 be 33 15 70 be 75 6e 5c 3e
       -0.20128572 -0.28490502 -0.23445587 0.21526511
000090 be eb 0d 3e 64 c0 78 3e 91 db 1a 3e 39 a1 95 3d
       0.1385946 0.24292141 0.1512282 0.073061414
0000a0 97 43 39 bb e1 ce 60 be c4 43 7d be ff 3e 8a be
       -0.0028269046 -0.21953918 -0.24732882 -0.27001187
0000b0 7c 04 f2 3d bc 21 11 be b7 f6 6d bd 0c 1f 2a be
       0.118172616 -0.14173025 -0.058096614 -0.16613406
0000c0 ac 76 57 bd 52 0e 50 be e0 26 41 be 12 1c c4 3d
       -0.05260341 -0.20317963 -0.18862486 0.095756665
0000d0 59 b4 af bd 1c 7d 36 3e 0e aa bd bd 4d d8 58 be
       -0.085793205 0.17821163 -0.09260951 -0.21176262
0000e0 ad 9f 50 bd ff 4a 0f be ec df b4 bd e0 b4 8c be
       -0.05093353 -0.13993452 -0.08831772 -0.27481747
0000f0 34 a6 33 3e 11 c3 57 be 1f da 0f 3e 6f c7 f8 3d
       0.1754387 -0.21070506 0.1404805 0.12147414
000100 a7 47 53 3e be 2f 68 be 79 fc 51 3e 81 c8 05 be
       0.20632802 -0.22674462 0.20506467 -0.13064767
000110 63 e2 e7 3d e5 7a 8b 3e 23 08 fa bc 01 e0 2f 3c
       0.11322477 0.272422 -0.030521458 0.010734559
000120 e3 3e 91 bd 8d 83 74 be 29 ea 14 3e d7 ce 92 be
       -0.07092073 -0.23878308 0.1454245 -0.2867343
000130 15 60 39 3e 6c 53 61 3e 55 b5 8f 3e 73 9d 9b bd
       0.18103059 0.22004479 0.28068033 -0.075983904
000140 31 c1 75 be 25 9f 81 3d 7a a9 25 3e 78 be 96 be
       -0.23999478 0.063291825 0.16177931 -0.2944219
000150 bb 31 86 bd 77 33 31 be 2a d6 ce bc fd 7f 11 be
       -0.06552454 -0.17304789 -0.025248606 -0.1420898
000160 87 aa f1 bd 0d af bb bd de 74 8c be 75 8b 72 3e
       -0.11800104 -0.09164248 -0.27432913 0.23686011
000170 42 d0 77 3e eb 7b 39 bd da a7 06 bd 81 48 f1 bd
       0.24200538 -0.045284193 -0.03287492 -0.11781407
000180 64 79 85 be 16 d5 8f be 19 ba db 3d c5 4c 22 be
       -0.26069176 -0.2809226 0.10728855 -0.15849598
000190 5d 09 3e be e7 82 b8 bc e0 e0 c4 bd 84 44 bf bd
       -0.1855826 -0.022523357 -0.09613204 -0.0933924
0001a0 2b f8 17 3c f8 cd 7a bd 4f 8f cb bd 60 89 0d be
       0.009275476 -0.061231583 -0.09939443 -0.13821936
0001b0 34 7e 5c be 79 99 73 3e 12 cb eb bd 71 0d 95 3d
       -0.21532518 0.23789014 -0.11513342 0.07277954
0001c0 6c 66 c3 bd fa 0c bc 3c 50 e7 8a 3e 18 4e 13 3e
       -0.0954102 0.022955406 0.27129602 0.14385259
0001d0 85 61 74 be b9 f8 f9 3d da 8b 93 3e 0d f0 be 3d
       -0.23865326 0.12205643 0.28817636 0.0932313
0001e0 99 d5 67 3e a0 63 9d 3e 57 2d ce bc c8 6d ae 3d
       0.22640075 0.3074007 -0.025168104 0.08517033
0001f0 02 8a 31 be 0f 6f 13 bd ad 3f 6f 3e a1 b0 3c 3e
       -0.17337802 -0.035994586 0.23364134 0.18426754
000200 a1 f7 19 be ac 87 50 be 51 82 2f be ed 8d 7c be
       -0.15035869 -0.20364255 -0.17139556 -0.24663515
000210 5c 19 64 be 31 34 92 bd f6 7e 47 3e 3d ea 45 3d
       -0.22275299 -0.07138861 0.19482026 0.04831909
000220 67 d6 60 be db 23 6d be 2b 0e 13 3e c8 e1 5b be
       -0.21956788 -0.23158209 0.14360873 -0.21472847
000230 6a 96 11 bd 7e cd 0d 3e 0d cf 08 be 24 ee 00 bd
       -0.035543837 0.1384792 -0.13360234 -0.03147711
000240 59 d8 cd bc a2 de 8b bd 62 e1 15 be 8e c1 83 be
       -0.025127577 -0.06829573 -0.14636758 -0.25733608
000250 f9 f3 6e be c5 48 1e be 9f c0 8e 3e e0 c7 0e be
       -0.23335256 -0.15457447 0.27881333 -0.13943434
000260 83 81 46 be 19 4e 8f 3d 52 f1 a2 3d c5 f6 21 3e
       -0.19385342 0.06997318 0.079561844 0.15816791
000270 f8 6e 8f 3e 0f ff 4d 3e 6e 8e 78 be 49 15 88 3d
       0.2801435 0.20116828 -0.24273083 0.06644685
000280 9f 78 64 3e 47 d4 80 3c 0e 8b 00 be bd 93 a8 3e
       0.22311638 0.015726222 -0.12553045 0.32925215
000290 19 01 5c bd 40 e4 eb bd 52 d9 51 be d0 d4 93 3d
       -0.053711984 -0.115181446 -0.20493057 0.07218325
0002a0 94 ea ec 3d 9a 18 9d 3d 22 e8 82 3d a8 24 53 be
       0.1156818 0.07670708 0.06391932 -0.20619452
0002b0 2e fa 86 be b3 44 7d 3c 2f 13 8a 3e 59 3d 2b 3e
       -0.26362747 0.015458274 0.2696776 0.16722621
0002c0 bc aa 2d be de 21 0f bd 3e a3 5f be 03 da 13 be
       -0.16959661 -0.034944408 -0.21839616 -0.14438634
0002d0 8b d5 9e 3d d7 70 20 3e ac 24 78 3e 65 9f 87 be
       0.07755574 0.15668045 0.24232739 -0.26488796
0002e0 e7 b1 4f 3e 6c 54 4e be 3e d7 e6 3d 99 6f 85 3e
       0.20282708 -0.20149392 0.11271523 0.26061705
0002f0 e9 16 b0 3c bb 90 8b 3e 98 92 69 be 86 68 b2 bd
       0.0214953 0.27258858 -0.22809827 -0.087113425
000300 ea e7 14 3e 3a a3 af bd 02 df a7 bd 21 98 12 be
       0.14541593 -0.08576055 -0.08196832 -0.14315845
000310 46 5d 34 3e f6 1a f3 3d 9a 9e 8e 3d 0c 94 3d be
       0.17613706 0.11870377 0.069638446 -0.18513507
000320 cf b0 83 be 3e 0e 08 3c 50 2d 80 3d 36 f8 1f be
       -0.25720832 0.008304177 0.06258643 -0.15622029
000330 12 6b a5 bd 15 a4 47 3e a2 61 bc 3c e2 64 55 3c
       -0.08077063 0.19496186 0.022995774 0.013024541
000340 0c 7f 91 bd 01 d9 85 be bc f8 8a be 87 4d 0d be
       -0.071043104 -0.26142123 -0.27142894 -0.13799106
000350 f2 42 16 be 4c 31 b8 3d 4b 1b ac bd 0a 4b e7 bd
       -0.14673975 0.08993778 -0.08403643 -0.112936094
000360 e2 57 ab 3e d6 45 0c 3e 48 3e 7e 3e 8a 2d d4 bd
       0.33465487 0.13698515 0.24828446 -0.103602484
000370 38 a8 93 bd 1c b1 15 3e 31 9d 17 be f8 39 0e be
       -0.072098196 0.14618343 -0.14806058 -0.13889301
000380 8a d6 19 3d 47 4a 71 bd 87 37 24 be 85 1a 69 3e
       0.037558116 -0.058908727 -0.16036807 0.22764023
000390 96 fe 91 3e 5f 5f 97 3d 32 88 94 bc 6d f2 75 be
       0.28514546 0.073912375 -0.01813135 -0.2401826
0003a0 1c 62 8a bd ae c0 d4 3d a0 3a 2e 3e c4 8d d2 3b
       -0.06756994 0.10388313 0.17014551 0.006425591
0003b0 bd 3c 8e bd 42 0b 4c 3e 68 09 3b be 1c 18 6e 3e
       -0.06945179 0.1992617 -0.18265307 0.23251384
0003c0 da 71 27 bd 49 26 4d 3d 36 f5 dd bb d5 cf a5 3d
       -0.04088006 0.05008534 -0.006773616 0.080962814
0003d0 35 7c 01 bd 43 e9 84 3e 95 70 36 3d e4 6f 93 3e
       -0.031612594 0.25959215 0.04454096 0.28796303
0003e0 80 54 ae 3e 2e 2a aa bd f5 94 14 be 19 43 9a 3e
       0.34048843 -0.083088264 -0.14509948 0.30129316
0003f0 8e a3 67 3e 06 b5 61 be 13 cf b6 bc 49 c0 91 be
       0.22620985 -0.22041711 -0.022315538 -0.28467014

mlr.0.bias f4 [64]
000000 2d 91 a2 bd dd 4f 4f 3e 51 1e b7 3d c2 2d 4e bd
       -0.07937846 0.20245309 0.08941329 -0.050336607
000010 5c be 47 3d 31 d6 24 be 30 d5 11 3e 28 dc e9 3d
       0.048765525 -0.16097333 0.14241481 0.114189446
000020 29 c4 9e 3d 99 45 38 be 57 99 64 3e 79 b4 2a bd
       0.07752258 -0.179953 0.2232412 -0.04167602
000030 a7 2a e6 bd fb cf 2e 3e c7 4b 92 3e 2e d7 61 3e
       -0.11238604 0.17071526 0.2857344 0.22054741
000040 d0 47 81 3d ea 89 c9 bd 17 41 01 3e a4 34 53 3e
       0.06312525 -0.09840758 0.12622486 0.2062555
000050 2a 1f 9c be 4e 7c 12 bd 4d 59 80 be b1 5a 5c 3d
       -0.30492526 -0.035763077 -0.2506813 0.053797428
000060 77 62 8a 3d 7f ad a8 bd ab d5 c5 bc 6e af 3a 3d
       0.06757062 -0.08236217 -0.024149736 0.04557746
000070 56 ba 46 bd 4a 72 90 be 07 00 6e 3e 0d c8 14 be
       -0.048517548 -0.28212196 0.23242198 -0.14529438
000080 31 85 f9 bd c7 10 df 3c 0e f9 19 bd f3 08 8b be
       -0.12183607 0.02722968 -0.037591033 -0.27155265
000090 70 9f 07 3e b8 45 06 be d7 b3 22 be 79 0b aa 3c
       0.13244414 -0.13112533 -0.15888916 0.020757424
0000a0 a0 43 1a be 65 ab 6f be 01 35 c7 bd a3 fe 11 be
       -0.1506486 -0.23405226 -0.097269066 -0.14257292
0000b0 f9 e8 f6 bd 58 ab d4 bd 92 dd df ba 20 35 6f be
       -0.12056155 -0.10384244 -0.0017079583 -0.2336011
0000c0 41 ec 32 be 6a 06 8a 3b 9e 6f 24 3d ec 6f 97 3d
       -0.17472936 0.0042121904 0.04014551 0.07394394
0000d0 8c 13 6b be 1c b6 bc 3d 12 63 15 3e d2 c1 9a 3d
       -0.22956675 0.09214422 0.14588574 0.075564995
0000e0 bb 26 8c be 87 6e 33 be 64 7f 9f be b2 d2 59 be
       -0.273733 -0.17522632 -0.3115188 -0.2127178
0000f0 d1 dd 0d 3e 8d 8e 30 bd 99 17 fb 3d 62 85 2d be
       0.13854147 -0.043104697 0.1226036 -0.16945413

mlr.2.weight f4 [208, 64]
000000 60 9b 9b 3c 1d 7b 55 bd d8 f1 7f 3d 24 f0 5f bd
       0.018994987 -0.052119363 0.0624865 -0.054672375
000010 80 63 00 bd a0 cb 9b bd 2d 2d 62 bc 22 11 f3 3d
       -0.03134489 -0.07607198 -0.013804716 0.11868502
000020 7c 83 78 3d c6 89 9a bc f8 a8 95 3c 60 8f 60 bc
       0.06067227 -0.018864524 0.018269047 -0.013706058
000030 58 19 ce bd a8 c0 0b 3e 02 0b 22 3d 71 5c 69 3d
       -0.10063428 0.13647711 0.03956128 0.056972925
000040 35 e6 56 bd 18 93 6f bd 64 be 49 3d e6 6e 9b 3d
       -0.052465636 -0.05848989 0.049253836 0.075895116
000050 d6 45 bc 3d 80 c1 76 bd 16 7e 28 3e c0 bc 96 bc
       0.09193008 -0.06024313 0.16454348 -0.01840055
000060 40 ee 23 bd be 0c 65 bc 00 03 fc 3d ba e6 00 3d
       -0.040022135 -0.013980089 0.1230526 0.031470038
000070 88 00 8b bc 8a 6a 91 bb 60 2b 08 bc 4a 9c d7 bd
       -0.016968027 -0.0044377493 -0.008311123 -0.10527857
000080 94 da 71 bd 88 d5 95 3d 37 bd 16 3e 08 4d f4 3d
       -0.059046343 0.073161185 0.14720617 0.11928755
000090 36 d1 b8 bd 04 76 8a 3d eb 3c 8d bd c8 70 ea 3d
       -0.09024279 0.06760791 -0.06896385 0.114472926
0000a0 c8 b7 b8 3d 0c 5b 1c 3e 48 55 b8 3d 34 19 f4 3d
       0.090194285 0.15269107 0.09000641 0.119188696
0000b0 40 72 1f 3b e0 75 cc 3d 0b ca ee bb 50 f1 5e 3d
       0.0024329573 0.0998342 -0.007287269 0.054429352
0000c0 cc 8e 24 bd 00 8e 09 bb 26 d1 de bd 62 be a3 3a
       -0.040175244 -0.002098918 -0.10879736 0.0012492652
0000d0 f2 c4 a9 bc 50 b5 2c bd c6 8e 7f bd 79 84 a0 bd
       -0.020723794 -0.0421651 -0.06239202 -0.07837767
0000e0 16 88 c2 3c 36 86 fc 3d 46 c8 21 3e df 9d 01 3e
       0.023746531 0.12330286 0.15799055 0.1265788
0000f0 58 b8 fc bc be 2f fd bd 6c 35 42 3d bc 70 8f 3d
       -0.03084962 -0.12362622 0.04741423 0.07003924
000100 72 c7 db bd 51 c5 a5 3d 32 71 d8 3d 20 1f f8 3b
       -0.107314005 0.08094276 0.10568465 0.0075720698
000110 be 3a 9a bd 0a b1 18 3e 1b fa 0f 3c 04 86 a9 3d
       -0.075307354 0.14911285 0.008787657 0.082775146
000120 0c 21 ad bd ba dc 0c 3e 54 ab 54 bd 80 4f fd 3d
       -0.08453569 0.13756076 -0.051921204 0.12368679
000130 2c ef 58 bd 3c ae 05 3e da 38 9f 3c 84 66 97 3d
       -0.052962467 0.13054746 0.019436289 0.073926
000140 72 93 7f bc e8 4b 52 3d 44 80 c7 bb 40 04 98 bd
       -0.015599119 0.05134192 -0.0060882885 -0.074226856
000150 2d 3d 36 3d fc 95 c8 3d 1b 1b 17 3d 58 ee 20 3d
       0.044491936 0.09794232 0.036891084 0.039289802
000160 c2 e4 38 3b 5f 4d 21 3e a8 36 99 3d a4 42 af 3d
       0.0028212522 0.15752171 0.07481128 0.085576326
000170 7e db 82 bd de 5c 16 bd a9 be bf 3c 34 2f 96 bd
       -0.06389521 -0.03670966 0.023406344 -0.07333222
000180 5c a7 20 3e 82 02 f6 bd 0d d4 ea 3d c2 35 ff 3d
       0.15688843 -0.12012197 0.11466227 0.12461425
000190 4a 36 80 3d c4 94 2e 3d 3d ea e4 bd 17 be 31 3e
       0.06260355 0.042622343 -0.1117749 0.1735767
0001a0 18 27 af bc 67 2d 3e bd b4 b6 fc 3d 57 4a ea 3b
       -0.021380946 -0.046430018 0.12339535 0.0071499753
0001b0 20 e4 10 bc d3 b5 33 3e 15 6b 19 bd 10 1e b5 bd
       -0.008843452 0.17549829 -0.037455637 -0.088436246
0001c0 28 85 a6 3c 00 11 89 bc b8 de eb 3c 2d fb 75 bd
       0.020327166 -0.016731739 0.028792724 -0.060053993
0001d0 cb 14 97 3d 8c b7 63 bd 07 0d 4c bd 41 6f 91 bd
       0.07377013 -0.055594966 -0.04981711 -0.07101298
0001e0 09 07 72 3d 66 ef a5 3d fe d1 0c bd 32 3b 36 3e
       0.05908874 0.08102302 -0.03437995 0.17796019
0001f0 69 8d b7 3d 48 04 be 3c 92 4e 96 bd 80 6c 9a 3c
       0.08962519 0.0231954 -0.07339205 0.018850565
000200 92 aa f6 3d c6 47 01 3e 0a 64 c7 bd a6 ae e9 3d
       0.120442525 0.12625036 -0.09735878 0.11410265
000210 70 bd 1e 3c 4c 7b b8 3d f7 da fc 3d 0a 3e da 3d
       0.00968872 0.09007892 0.12346452 0.10656364
000220 98 8f c7 bd 32 d8 1e 3e ce a2 2d bd d0 87 19 3c
       -0.09744185 0.1551216 -0.04239159 0.009370759
000230 2c e2 b2 bd a5 07 e7 3c f1 f4 a9 3d 72 60 e7 3c
       -0.08734545 0.028201887 0.08298672 0.02824423
000240 0b b2 83 bc e0 86 21 3c 89 2a 2c 3e c7 c2 ee 3d
       -0.016076108 0.009858817 0.16813101 0.116582446
000250 e5 4e 0e 3e 3c ed 4c 3d e9 f6 0e 3e c0 06 bd bb
       0.13897283 0.05003093 0.13961376 -0.005768627
000260 51 ed 67 3d 46 07 a4 3d f2 43 df bd 81 7a 72 bd
       0.056622807 0.080092 -0.109016314 -0.05919886
000270 70 16 7b 3c 90 76 d6 3a 42 92 5e 3d 40 f7 ea bc
       0.015325174 0.0016362239 0.0543387 -0.028682351
000280 e3 d8 6f 3d be 8e a6 3d 76 99 1c 3c 34 05 cd 3d
       0.05855645 0.08132695 0.009558072 0.10010758
000290 b8 20 ca 3d c2 7a c4 bd 48 56 b4 bd 53 ca 5a bd
       0.09869522 -0.09593727 -0.08805519 -0.053415608
0002a0 0e 4b 8c bd ea f8 e5 3b e0 26 1a bc 05 0f 74 3c
       -0.06850253 0.0070181983 -0.009408683 0.014896159
0002b0 f8 57 81 bd 6f a7 54 3c 60 95 03 3b 52 25 fb 3d
       -0.06315607 0.012979372 0.0020078048 0.12262978
0002c0 10 c3 3d bd d6 4b b7 bd 50 d6 54 3d 4d 0f 0b 3d
       -0.046328604 -0.089500114 0.051962197 0.03395014
0002d0 70 35 14 3e 08 f5 9f 3d 76 39 24 3e 12 18 4d bd
       0.1447351 0.07810408 0.16037545 -0.050071783
0002e0 c5 d1 a0 3d 18 7c 1c 3e 68 52 ab bc df 89 30 3e
       0.0785251 0.15281713 -0.020913318 0.17240094
0002f0 0f c7 13 3e 80 6c b3 3a b0 dc 76 3d 98 01 33 bd
       0.14431404 0.0013688952 0.060269058 -0.04370269
000300 70 47 df bd c2 48 25 3d e0 a3 18 3d a4 4f a7 bd
       -0.109022975 0.04035259 0.03726566 -0.08169487
000310 e0 51 78 3d 37 c4 6e bd d6 88 d0 bc 6e e8 f7 3d
       0.060624957 -0.058292594 -0.025455873 0.12104879
000320 74 65 0b 3d b1 27 61 bc 99 bd 56 3d 78 81 ae 3c
       0.0340323 -0.013742373 0.05242691 0.02130197
000330 f0 38 0b 3d 6d db 93 3d d1 7c 1e bc c0 3e 0c bd
       0.033989847 0.072195865 -0.009673313 -0.03423953
000340 60 06 fb bc 1c a0 0b 3d fd ec 0d 3d 36 86 f7 3d
       -0.030642688 0.03408824 0.034649838 0.120861456
000350 4e f9 d3 3c a0 29 95 bb 69 8e c6 3d 48 fb 07 bd
       0.025875714 -0.004552081 0.09695131 -0.033198625
000360 59 4c ef 3d f5 87 82 3d 56 9a ec bd d6 87 2c 3c
       0.11684484 0.06373588 -0.11552875 0.010530433
000370 9c 38 68 bd da 30 97 3d cf f0 4d bd 66 ef fd bd
       -0.056694612 0.073823646 -0.05027848 -0.12399177
000380 7f b1 13 3d f0 27 44 bc 39 d1 31 3b 32 35 eb 3d
       0.036057945 -0.0119724125 0.0027132763 0.114847556
000390 98 6f df bc 74 75 a4 3d db b9 20 3d 51 08 82 bd
       -0.027274892 0.08030215 0.039239746 -0.063492425
0003a0 30 a0 f0 3c fd 7a 36 3e 24 73 a7 bd 6a c1 f2 bc
       0.029373258 0.17820354 -0.08176258 -0.029633243
0003b0 da 95 fa 3d fe fa 12 3e 46 02 19 bd f6 0b 9a 3d
       0.12235613 0.14353558 -0.037355684 0.075218126
0003c0 a0 00 83 bc de 65 fc bd 90 df 19 3c c6 76 97 3d
       -0.015991509 -0.12324117 0.00939168 0.07395701
0003d0 fe f2 e0 3c c8 1d 32 3d 79 1c 17 be 5e b7 ee 3d
       0.027459618 0.043485433 -0.14756955 0.11656068
0003e0 ae 59 f6 3d 7c ac eb 3d ff c2 cc 3d 86 15 f2 3d
       0.12028824 0.11507508 0.0999813 0.118205115
0003f0 96 2f 81 bd d0 de ff bc 80 84 43 bc e0 75 8e bd
       -0.063079044 -0.031234175 -0.011933446 -0.069560766

mlr.2.bias f4 [208]
000000 11 7e 6f 3d f6 52 e1 bb 82 05 9b bd a6 29 ee 3c
       0.058469836 -0.006876345 -0.0756941 0.029072594
000010 45 85 8d 3d d3 dd a3 3d ea 49 b1 3d 88 6e 5e bd
       0.06910185 0.08001294 0.08656676 -0.05430463
000020 69 19 76 3d 82 3a ac 3d aa c9 64 3d 8a 1b 8e bd
       0.060082827 0.08409597 0.055856384 -0.069388464
000030 b3 d5 a3 3d ef 50 b2 bd 10 5f 93 bd 50 47 87 3d
       0.07999744 -0.08706843 -0.07195866 0.06605399
000040 c1 16 99 3d a8 c5 b3 3c a2 30 21 bd 8d b3 a0 bd
       0.07475043 0.021944836 -0.03935302 -0.078467466
000050 ca 79 62 3d b6 b4 2d bd 92 a3 38 3d 71 49 93 3c
       0.05529193 -0.042408668 0.045077868 0.017979356
000060 b5 74 19 3d 01 d2 1d 3d 65 69 5e bc 22 37 42 bc
       0.037464816 0.038530353 -0.013574933 -0.011853965
000070 0a a1 a5 bc 14 d9 2b bd 1c 0e 82 bd 4b 57 03 3d
       -0.020218391 -0.04195507 -0.063503474 0.03206567
000080 90 88 19 3d 17 c6 e2 bd f8 03 01 bd e0 dc a0 bd
       0.03748375 -0.11072939 -0.031497926 -0.078546286
000090 3d 39 04 bc 1a 64 3f bd 26 cb ac 3d 4a 64 a3 bd
       -0.008070287 -0.046726324 0.08437185 -0.07978113
0000a0 a9 84 01 bd e2 d9 e4 3d 10 df c4 3b 76 b1 94 3d
       -0.031620655 0.1117437 0.0060080364 0.072604105
0000b0 20 44 3c bd be b0 8c 3d 12 d3 9c bd 22 27 5c bd
       -0.045963407 0.068696484 -0.07657446 -0.053748257
0000c0 73 3e a6 bd 05 98 b3 3d 55 ec 43 3d d1 91 dc bc
       -0.0811738 0.0876923 0.047832806 -0.026925
0000d0 68 f5 4a 3c 67 53 7d 3c 5e e6 9e bd c5 08 50 bd
       0.012387611 0.015461779 -0.07758783 -0.050789613
0000e0 ca 5f ba bb 67 a1 3f 3d fd 59 26 3d dc 57 8d 3d
       -0.0056876885 0.046784785 0.040613163 0.069015235
0000f0 ea 78 9a 3c 7c 0e 87 3d 4c b3 8c 3c 0b 7d bc 3d
       0.018856484 0.065945596 0.01717534 0.092035376
000100 d4 f9 e2 3c c7 43 54 bd 90 2d 6b 3d c4 d3 1b bd
       0.027707018 -0.05182245 0.0574165 -0.038043752
000110 27 e3 a1 bd e3 f5 97 bd ac 87 ab 3d 5d 9a c4 3c
       -0.07904654 -0.07419946 0.08375487 0.023999387
000120 10 01 16 3d 84 bb 46 bd 6d a4 d3 bd a7 6b fd 3c
       0.036622107 -0.048518673 -0.10334096 0.030935122
000130 be fb 82 bd c9 7f 0b 3d 48 65 b9 bb 90 de b3 3c
       -0.06395672 0.034057412 -0.0056578256 0.021956712
000140 9b 7f 90 3d 40 4d 8c bd de 50 2c 3d 68 dd ce bc
       0.07055589 -0.06850672 0.04206931 -0.02525206
000150 b7 e7 f7 3b 73 96 1b bd 1d cc b6 bc 1f f8 34 3d
       0.0075654644 -0.037985276 -0.022314126 0.04418194
000160 e9 b0 0c 3d d5 0d 88 bd ef 30 d8 3c d1 bb f1 3c
       0.034348402 -0.06643263 0.02639052 0.029508503
000170 50 02 53 3d f4 de 3b bc 5f 17 c5 3d c9 24 9d 3d
       0.051515877 -0.01146673 0.09623598 0.07673032
000180 02 38 94 bd 58 b7 3b 3d 3b 7d 6e 3c 4b 4f 36 bd
       -0.07237245 0.045829147 0.014556224 -0.044509213
000190 6a e1 96 bd 18 0e a8 bd fe 51 b8 3c 5d 2e 3d bd
       -0.07367213 -0.08205813 0.022500034 -0.046186794
0001a0 c4 ab 10 3d 51 0d cc 3c bd f8 a1 bc 28 42 ae 3d
       0.03532006 0.024908694 -0.019771928 0.08508712
0001b0 b3 cf 72 bd 97 76 0c bd 22 55 a9 3d 18 59 80 3d
       -0.05928011 -0.034292784 0.08268191 0.06266993
0001c0 16 57 fd 3d f9 05 80 3d 5e 16 8b bd 7b 95 65 3d
       0.12370126 0.06251139 -0.067913756 0.05605076
0001d0 72 52 bf 3c e2 d6 ab 3d 56 e1 45 bd 64 5e 7a 3d
       0.023354743 0.08390595 -0.0483106 0.061125174
0001e0 1f bd 08 bd 53 bf 08 3d c1 d1 61 bd a3 52 ad 3c
       -0.033383485 0.033385586 -0.055131678 0.021157568
0001f0 03 50 7d 3d 24 75 8f 3d 63 d4 8a bd de 8a 99 bd
       0.061843883 0.07004765 -0.06778791 -0.0749719
000200 14 87 c8 3c 21 07 92 bd a4 b1 86 bd 2c 4a 3c 3d
       0.024478473 -0.07130266 -0.06576851 0.045969173
000210 4e f8 c3 3d 1c a0 97 bd 7a d3 5c bd d8 7c 5d bd
       0.09568845 -0.07403585 -0.053912617 -0.05407414
000220 4e 45 ea bc d4 13 93 3d a6 c7 b5 bd 67 89 ae 3d
       -0.0285975 0.07181516 -0.088759705 0.08522301
000230 6e c5 4b 3d e1 e1 de 3b 0f 55 92 3d 30 2d 3b 3d
       0.04974883 0.006801829 0.0714513 0.04569739
000240 aa 2b 82 3c 64 25 a4 bc 81 09 87 bd bd 82 ee bd
       0.015889961 -0.02003736 -0.065936096 -0.1164603
000250 b7 2c 45 3d e9 51 31 bd 77 bf f2 bd af ef 46 bd
       0.048138347 -0.043291006 -0.11852925 -0.048568424
000260 9e 56 99 bd ec 42 7a 3d 6f 70 65 3d 63 56 ed bd
       -0.07487224 0.061098978 0.05601543 -0.115887426
000270 63 e8 1b 3d 5a b9 ff bc a6 b7 a8 3d 17 0d 2c 3c
       0.038063418 -0.031216312 0.08238153 0.010501168
000280 e0 25 e4 bc 1a 1b 1c 3d 50 61 ab bd 74 bc 15 bd
       -0.027850091 0.038111784 -0.0836817 -0.036556676
000290 84 df 97 3d 61 96 b6 3d 80 53 b3 bb a0 1f 74 3d
       0.07415679 0.08915401 -0.0054726005 0.059600472
0002a0 ea 55 b1 bd 0b 6a bf bd 47 39 e5 bc a1 2a d6 bd
       -0.08658965 -0.09346398 -0.027981414 -0.104573496
0002b0 a3 d3 89 3d 0c f6 85 bd 6d a6 89 bd 94 9b cb 3c
       0.067298196 -0.0654107 -0.06721196 0.024854459
0002c0 76 35 0e bc b2 2b 0a 3d 88 d1 f4 3c a0 7e 87 bd
       -0.008679738 0.033733077 0.029885069 -0.06615949
0002d0 7d ea fa 3c a3 a7 a5 bc 0d f0 7c 3d 62 48 4d bd
       0.03062939 -0.020221537 0.061752368 -0.050117858
0002e0 22 65 bb 3b af fb 56 3d 55 82 b8 bd 68 7d 31 3d
       0.005718843 0.052486118 -0.09009234 0.043332487
0002f0 08 c4 a8 bc ad 6b 4f 3d da aa 45 bd 8d ff b9 bc
       -0.020601287 0.050639797 -0.04825864 -0.022704864
000300 3b f7 a0 bd 7f 42 af bc 03 69 38 3d dc 9d 39 3d
       -0.078596555 -0.021394012 0.045022022 0.045316562
000310 a8 38 ae bd bd 8d ba bd 67 19 65 3d 62 b2 9f bd
       -0.085069 -0.09109066 0.05593243 -0.07797696
000320 13 41 b2 bd 23 53 96 bd f7 96 01 3d 53 79 3c 3c
       -0.08703818 -0.07340076 0.031638112 0.011503535
000330 1a e5 2f bd f7 e8 67 3d af 19 e0 3d 21 4c bb 3c
       -0.042943098 0.056618657 0.10942399 0.02286345
