pqc_reup_v1_backup/best_model_epoch_5.pth (torch, 61273 bytes, 6 tensors)

reupload_weights f4 [12, 3, 4]
000000 2a 34 40 3e 24 a4 36 3e ab d8 eb 3d 7f d2 04 be
       0.18769899 0.17836052 0.115159355 -0.12970923
000010 54 5d 9a 3e a5 7b e7 3d 70 d9 75 3e cd ca e5 3d
       0.3014933 0.1130288 0.24008727 0.11220322
000020 4b 2f d1 3d a8 20 b3 3e 6d 13 1e 3e 6e f1 ca 3d
       0.102140985 0.34985852 0.15437098 0.0990933
000030 c2 c0 31 be 93 ca cb bd 98 e1 b9 bd 42 d3 0d 3d
       -0.17358688 -0.09950747 -0.09076232 0.0346253
000040 1f 21 4b 3e df 58 21 bd b5 d6 d1 bd dd 77 68 3c
       0.19836853 -0.039391395 -0.1024603 0.014188734
000050 fd d0 fa 3d e2 a6 89 3e 89 39 47 3e dc b7 90 3e
       0.122468926 0.26885134 0.19455542 0.28265274
000060 2c 3e 7a 3d 68 8f 9e 3d 02 fd b2 3c 61 00 96 3d
       0.061094448 0.07742196 0.02184916 0.07324291
000070 2e 99 3c 3e 4f 57 59 3e b1 12 2c 3e 49 7c 97 3e
       0.18417808 0.21224712 0.16804005 0.2958701
000080 d9 49 81 bd b8 51 4f 3b 86 11 8e 3d 7f 94 82 3e
       -0.063129134 0.0031634402 0.06936936 0.2550392
000090 96 54 1f ba 63 fb b5 bd 3d 76 75 bc 72 a0 29 be
       -0.0006077973 -0.08885839 -0.0149818035 -0.16565111
0000a0 ec 59 a5 bd 70 9c 33 3e 26 3d 3e bc e4 b9 38 3d
       -0.08073792 0.17540145 -0.011611259 0.045099154
0000b0 16 53 6b 3d 47 10 c9 3e c3 52 62 3d b7 67 f7 3d
       0.057452284 0.3927023 0.05525471 0.12080329
0000c0 66 24 71 3c 08 22 0a 3d 9f 14 c6 3d 89 15 15 3e
       0.014718151 0.03372386 0.09671902 0.14558996
0000d0 3f 1c 12 bd db 85 09 3e d3 4b 81 bd 2f f8 60 bd
       -0.03567147 0.13429968 -0.063132904 -0.054924186
0000e0 39 2a 0d be 20 cf 6a 3b 20 f2 3b bc da 79 70 3d
       -0.13785638 0.0035829023 -0.011471301 0.058709957
0000f0 cf 81 87 bd 89 80 c3 3d 2d 8c 52 be 46 3e 6a 3d
       -0.06616556 0.095460005 -0.20561285 0.057188295
000100 49 07 ab 3d fe d3 2a 3d 0d e9 34 3e 0f 51 71 3b
       0.08350999 0.041706078 0.17667027 0.0036821996
000110 00 af 04 bd db 7c 7b bd 01 c3 16 be 81 1c a3 3d
       -0.032393456 -0.06139837 -0.14722826 0.07964421
000120 1e c0 ae bc 64 5b 3f 3d e0 8c 70 3b ea 33 4c 3d
       -0.021331843 0.046718016 0.0036705062 0.049854197
000130 e0 65 78 3a f6 e5 f8 bd 94 53 8c be f2 e5 f3 bd
       0.000947563 -0.121532366 -0.27407515 -0.11909093
000140 8e 04 05 3e e6 93 c5 3d a0 49 ff ba 13 3c a0 3d
       0.12990019 0.0964735 -0.0019476898 0.07823958
000150 59 62 ea 3d 47 f8 d4 3d e7 27 eb 3d 45 44 ac 3c
       0.114445396 0.10398918 0.1148222 0.021028647
000160 64 b8 54 be 15 cf a9 be 24 53 c0 be 4b fc 55 be
       -0.20773464 -0.33165804 -0.3756343 -0.20897023
000170 39 f6 d7 be 02 3e aa be e9 06 b8 bd 7e 2f 37 be
       -0.4218004 -0.33250433 -0.08985693 -0.1788921
000180 df 3b 9c be 76 33 93 bc b4 59 c1 3c a4 84 62 bd
       -0.30514428 -0.017968874 0.023602344 -0.055302277
000190 3f e7 46 3e e1 5e 62 3e 3f bc 94 3e ba 1f f8 3d
       0.19424151 0.22106506 0.2904987 0.12115426
0001a0 fe 17 b5 be ee 28 87 be 2b e2 9a be 5c cf a4 be
       -0.35369867 -0.26398414 -0.30250677 -0.32189453
0001b0 63 fc 89 3d 19 75 1f 3e 35 15 60 3d 7b a3 46 3d
       0.06737592 0.15572013 0.054707725 0.04849575
0001c0 04 ba e1 be d2 e2 9f be 65 dd b7 be 26 6d 89 be
       -0.4408723 -0.31227738 -0.35911098 -0.26841086
0001d0 34 32 0f bd f0 9c b7 bd 6e fd 12 be 37 65 8e bd
       -0.034959987 -0.0896548 -0.14354488 -0.06952899
0001e0 9c 5d 8e bd 8a a9 3b bd be db 26 bd f5 c9 2d 3c
       -0.06951448 -0.045815982 -0.040736906 0.010607232
0001f0 ca df f3 3d dd 6c 25 3d 92 3e da 3d 31 c4 8e 3d
       0.11907919 0.040387023 0.106564656 0.06971014
000200 1f 16 03 3c 43 30 ae bd 4d 09 ab be 95 03 98 be
       0.00800088 -0.08505299 -0.33405533 -0.29690233
000210 2c 48 2b bc 3f ce 3d 3e 40 6f 70 3d cf 34 44 3d
       -0.010454219 0.18535708 0.058699846 0.047901925
000220 dd 8f cb bd 28 d7 4b be 0f fb c6 be 03 aa f4 bd
       -0.09939549 -0.19906294 -0.38863418 -0.1194649
000230 e6 bc 1a be 89 8e cf 3c 2b c0 f7 bd 6e 0b ea 3b
       -0.15111122 0.02533652 -0.120972 0.007142476

reupload_bias f4 [12, 3]
000000 a7 30 b7 be c5 ac 8d 3e d7 38 71 3e f3 2c ba 3e
       -0.35779306 0.27670875 0.23556839 0.3636242
000010 ca fe 84 be 36 57 7e 3c 44 17 79 be 1e 08 a6 3e
       -0.2597564 0.015523722 -0.24325281 0.32428068
000020 1e ae d9 3d 24 be 98 3e 9c fe dc bc f6 23 e8 3e
       0.10628913 0.29832566 -0.026976876 0.45339936
000030 c3 c3 9e be 95 28 2d 3d 90 e6 fc bd 73 d3 f4 3d
       -0.3100873 0.04227503 -0.12348664 0.11954393
000040 ec eb 81 be ba 64 d3 bd 2e a8 88 bd fe df 1e be
       -0.25375307 -0.103219464 -0.06672703 -0.15515134
000050 18 1f c7 bb 27 e1 d4 be 3f b6 cc be 00 4c 5d be
       -0.0060767047 -0.41578028 -0.39982793 -0.21611023
000060 3a bb a6 3e c6 26 11 3f d1 a2 16 bf be 65 ad be
       0.32564718 0.5669979 -0.5884219 -0.33866686
000070 f0 fc 83 be 96 61 2b be 79 67 23 3e 20 c6 37 3e
       -0.25778913 -0.16736445 0.1595744 0.17946672
000080 ec 15 e3 be ed dd a2 be d3 21 87 be 28 49 50 bb
       -0.44352663 -0.3180994 -0.26392993 -0.0031781886

mlr.0.weight f4 [64, 12]
000000 6f 08 8a 3b 1b 33 8d bc fc 21 8e 3d 0d ad a5 3d
       0.004212431 -0.017236283 0.06940076 0.080896474
000010 eb 3d 86 be 76 2d da bd b0 ef 78 3e b8 4e e6 3d
       -0.26219115 -0.10653202 0.24310184 0.11245483
000020 d1 3d 6b bc 90 38 32 be 04 da 34 be 55 65 84 be
       -0.014358 -0.1740439 -0.17661291 -0.2585856
000030 cb 91 8c bd a2 5e e0 3d c7 55 4b 3e 58 f9 14 3e
       -0.06863745 0.1095555 0.1985694 0.14548242
000040 ab b9 71 be 85 a7 24 be a6 2f f5 bc aa 88 99 3e
       -0.23605983 -0.16079529 -0.029929947 0.2998708
000050 63 c7 82 3d be d1 6f bd 43 3d 11 3e 6f 4a af bd
       0.06385686 -0.058549635 0.14183526 -0.08559119
000060 b8 54 3f be d1 c1 57 3e 4f 69 06 be d9 08 6d bd
       -0.18684661 0.21070029 -0.1312611 -0.057869766
000070 a2 08 93 be b0 d6 45 3e 96 f5 5f 3e d6 76 d7 3d
       -0.28717524 0.19320178 0.21871027 0.10520713
000080 d8 1d 4e be 12 df 91 be 33 15 70 be 75 6e 5c 3e
       -0.20128572 -0.28490502 -0.23445587 0.21526511
000090 be eb 0d 3e 64 c0 78 3e 91 db 1a 3e 39 a1 95 3d
       0.1385946 0.24292141 0.1512282 0.073061414
0000a0 97 43 39 bb e1 ce 60 be c4 43 7d be ff 3e 8a be
       -0.0028269046 -0.21953918 -0.24732882 -0.27001187
0000b0 7c 04 f2 3d bc 21 11 be b7 f6 6d bd 0c 1f 2a be
       0.118172616 -0.14173025 -0.058096614 -0.16613406
0000c0 ac 76 57 bd 52 0e 50 be e0 26 41 be 12 1c c4 3d
       -0.05260341 -0.20317963 -0.18862486 0.095756665
0000d0 59 b4 af bd 1c 7d 36 3e 0e aa bd bd 4d d8 58 be
       -0.085793205 0.17821163 -0.09260951 -0.21176262
0000e0 ad 9f 50 bd ff 4a 0f be ec df b4 bd e0 b4 8c be
       -0.05093353 -0.13993452 -0.08831772 -0.27481747
0000f0 8c d0 27 3e 46 9a 59 be e5 43 0b 3e bb c4 f4 3d
       0.16388148 -0.21250257 0.13600118 0.11951586
000100 42 24 4e 3e fe 1b 6d be 3b 77 4c 3e 7f 48 0e be
       0.20131019 -0.2315521 0.19967358 -0.13894843
000110 3a 6a d8 3d 2a 93 87 3e 38 1d 2a bd e9 31 3e ba
       0.10567136 0.26479465 -0.04153177 -0.0007255362
000120 4d d0 a1 bd c7 cc 81 be 95 11 01 3e 79 19 99 be
       -0.07901058 -0.25351545 0.12604363 -0.29902247
000130 89 bb 2a 3e 59 63 50 3e 90 62 85 3e d7 0e a5 bd
       0.16673101 0.20350398 0.2605176 -0.08059471
000140 2a a8 7f be b2 95 56 3d 59 77 16 3e 52 83 99 be
       -0.24966493 0.052388854 0.14693965 -0.29983002
000150 bb 31 86 bd 77 33 31 be 2a d6 ce bc fd 7f 11 be
       -0.06552454 -0.17304789 -0.025248606 -0.1420898
000160 87 aa f1 bd 0d af bb bd de 74 8c be 75 8b 72 3e
       -0.11800104 -0.09164248 -0.27432913 0.23686011
000170 42 d0 77 3e eb 7b 39 bd da a7 06 bd 81 48 f1 bd
       0.24200538 -0.045284193 -0.03287492 -0.11781407
000180 64 79 85 be 16 d5 8f be 19 ba db 3d c5 4c 22 be
       -0.26069176 -0.2809226 0.10728855 -0.15849598
000190 5d 09 3e be e7 82 b8 bc e0 e0 c4 bd 84 44 bf bd
       -0.1855826 -0.022523357 -0.09613204 -0.0933924
0001a0 2b f8 17 3c f8 cd 7a bd 4f 8f cb bd 60 89 0d be
       0.009275476 -0.061231583 -0.09939443 -0.13821936
0001b0 68 83 69 be fa 75 71 3e 5d e5 f4 bd 75 f0 8f 3d
       -0.22804034 0.2358016 -0.1195781 0.070282854
0001c0 d8 1f ce bd a7 76 98 3c e5 38 88 3e 74 6b 0a 3e
       -0.100646675 0.018611265 0.26605907 0.13517553
0001d0 f6 fe 7c be e9 b8 e8 3d af 19 8e 3e f4 ac a7 3d
       -0.24706635 0.11363394 0.2775397 0.08187285
0001e0 4c 8f 74 3e ca 48 a2 3e 25 29 23 bc 60 79 bd 3d
       0.23882788 0.3169616 -0.00995854 0.09251666
0001f0 1d e3 25 be 71 13 d7 bc 47 06 7f 3e 87 84 41 3e
       -0.16199918 -0.026254388 0.24904738 0.18898211
000200 89 0c 10 be 3b 63 47 be ea 30 1f be 0e fd 75 be
       -0.14067282 -0.19471447 -0.15546003 -0.24022314
000210 5c 19 64 be 31 34 92 bd f6 7e 47 3e 3d ea 45 3d
       -0.22275299 -0.07138861 0.19482026 0.04831909
000220 67 d6 60 be db 23 6d be 2b 0e 13 3e c8 e1 5b be
       -0.21956788 -0.23158209 0.14360873 -0.21472847
000230 6a 96 11 bd 7e cd 0d 3e 0d cf 08 be 24 ee 00 bd
       -0.035543837 0.1384792 -0.13360234 -0.03147711
000240 59 d8 cd bc a2 de 8b bd 62 e1 15 be 8e c1 83 be
       -0.025127577 -0.06829573 -0.14636758 -0.25733608
000250 f9 f3 6e be c5 48 1e be 9f c0 8e 3e e0 c7 0e be
       -0.23335256 -0.15457447 0.27881333 -0.13943434
000260 83 81 46 be 19 4e 8f 3d 52 f1 a2 3d c5 f6 21 3e
       -0.19385342 0.06997318 0.079561844 0.15816791
000270 fd 00 8c 3e ec c2 4f 3e 2f d1 77 be 6e 84 8a 3d
       0.27344504 0.202892 -0.24200891 0.0676354
000280 8a 76 63 3e b8 24 8b 3c c1 00 00 be c3 74 a6 3e
       0.22213188 0.016985282 -0.12500288 0.32510957
000290 42 2f 6b bd f8 15 f0 bd d1 08 56 be d9 c2 87 3d
       -0.057418115 -0.1172294 -0.209018 0.06628961
0002a0 e2 a5 dc 3d d7 05 33 3d 9e 1a 17 3d a2 dc 74 be
       0.10773827 0.04370674 0.03689062 -0.2391229
0002b0 4c 5e 94 be 9f 8d 77 bc c1 dc 78 3e b8 de 15 3e
       -0.28978193 -0.015109449 0.24302961 0.14635742
0002c0 65 c8 40 be bd 2e 6c bd 8a 95 6e be 9e 45 23 be
       -0.18826444 -0.05766176 -0.23299232 -0.15944526
0002d0 e4 6e 98 3d 9c 7a 27 3e 62 61 7e 3e cf 69 84 be
       0.07443026 0.16355366 0.24841836 -0.25861976
0002e0 a5 10 54 3e 45 04 49 be 65 b7 f2 3d 17 52 85 3e
       0.20709474 -0.19630535 0.11851386 0.26039192
0002f0 d6 1f b4 3c fc 54 8c 3e eb 28 69 be 67 c5 b7 bd
       0.021987837 0.27408588 -0.22769515 -0.089731984
000300 fa 98 1f 3e 47 73 9a bd 25 ae 92 bd de 06 08 be
       0.155857 -0.07541519 -0.07162122 -0.1328387
000310 86 f1 3e 3e ac 2d 04 3e 80 cc a3 3d d4 ed 32 be
       0.18646821 0.12908047 0.0799799 -0.17473537
000320 18 c5 7c be e3 42 99 3c e0 83 95 3d 2f 4b 15 be
       -0.2468456 0.018708652 0.07300544 -0.14579462
000330 12 6b a5 bd 15 a4 47 3e a2 61 bc 3c e2 64 55 3c
       -0.08077063 0.19496186 0.022995774 0.013024541
000340 0c 7f 91 bd 01 d9 85 be bc f8 8a be 87 4d 0d be
       -0.071043104 -0.26142123 -0.27142894 -0.13799106
000350 f2 42 16 be 4c 31 b8 3d 4b 1b ac bd 0a 4b e7 bd
       -0.14673975 0.08993778 -0.08403643 -0.112936094
000360 9d 1a a7 3e f2 ec 0d 3e ec 64 7c 3e 60 9b d0 bd
       0.32637492 0.13859919 0.24647874 -0.101858854
000370 4d 63 97 bd 2f 1e 15 3e b7 3f 1a be fc e8 11 be
       -0.07391987 0.14562295 -0.15063368 -0.14249033
000380 99 d6 08 3d 00 a8 7f bd 4e 1d 2c be 2f 91 62 3e
       0.03340778 -0.062416077 -0.16808054 0.22125696
000390 49 6d 8f 3e 2d 23 a2 3d a4 1b 74 bc 40 c1 70 be
       0.28013065 0.079168655 -0.014899168 -0.23511219
0003a0 60 a7 85 bd 66 1e db 3d 0e ce 30 3e 4c 32 b2 3b
       -0.06526065 0.106991574 0.17266104 0.0054381248
0003b0 b4 3c 90 bd 97 52 4b 3e a2 fe 3d be 3e 50 6a 3e
       -0.07042828 0.19855724 -0.18554166 0.22882172
0003c0 ef 82 6b bd 86 95 35 3d 36 79 6e bc e2 35 99 3d
       -0.057497915 0.04433205 -0.014555266 0.074809805
0003d0 33 05 27 bd 7f c9 80 3e 56 ed 13 3d 55 ac 8c 3e
       -0.040776443 0.2515373 0.036115013 0.2747523
0003e0 f1 e3 a7 3e bb 40 c2 bd 08 4a 23 be 71 0e 92 3e
       0.32791093 -0.094850026 -0.1594621 0.28526643
0003f0 8e a3 67 3e 06 b5 61 be 13 cf b6 bc 49 c0 91 be
       0.22620985 -0.22041711 -0.022315538 -0.28467014

mlr.0.bias f4 [64]
000000 2d 91 a2 bd b8 f0 66 3e 51 1e b7 3d c2 2d 4e bd
       -0.07937846 0.22552764 0.08941329 -0.050336607
000010 5c be 47 3d 19 55 08 be 77 85 cf 3d 28 dc e9 3d
       0.048765525 -0.13313712 0.10132878 0.114189446
000020 29 c4 9e 3d 7f b6 1d be 17 ec 79 3e 79 b4 2a bd
       0.07752258 -0.15401648 0.24406467 -0.04167602
000030 a7 2a e6 bd 34 b6 43 3e cf 38 5c 3e 8a d2 81 3e
       -0.11238604 0.19112474 0.21506046 0.2535594
000040 f0 70 95 3d ea 89 c9 bd eb 23 1a 3e cd 94 75 3e
       0.07296932 -0.09840758 0.15052764 0.23982544
000050 1a d7 90 be 4e 7c 12 bd 6c 3e 66 be b1 5a 5c 3d
       -0.2828911 -0.035763077 -0.2248475 0.053797428
000060 ec 6d c8 3d 06 ac 65 bd ab d5 c5 bc 80 80 a1 3d
       0.09786591 -0.056072257 -0.024149736 0.078858376
000070 56 ba 46 bd 7d c5 82 be 68 e6 4d 3e 0d c8 14 be
       -0.048517548 -0.25541297 0.20107424 -0.14529438
000080 ce 99 a9 bd c7 10 df 3c 90 53 57 bc f3 08 8b be
       -0.08281289 0.02722968 -0.013142481 -0.27155265
000090 70 9f 07 3e b8 45 06 be d7 b3 22 be ed 65 3b 3d
       0.13244414 -0.13112533 -0.15888916 0.0457515
0000a0 a0 43 1a be ed bc 4f be 01 35 c7 bd ac 15 ef bd
       -0.1506486 -0.20286913 -0.097269066 -0.116740555
0000b0 f9 e8 f6 bd 93 0e 9e bd 68 b2 fe 3c 20 35 6f be
       -0.12056155 -0.077176236 0.03109093 -0.2336011
0000c0 41 ec 32 be 6a 06 8a 3b 9e 6f 24 3d 48 8c d8 3d
       -0.17472936 0.0042121904 0.04014551 0.105736315
0000d0 18 a6 51 be 1c b6 bc 3d c9 4d 07 3e 88 56 c9 3d
       -0.20473516 0.09214422 0.13213266 0.09830958
0000e0 bb 26 8c be 1d 45 15 be d8 4e 91 be 2c c7 3d be
       -0.273733 -0.14577146 -0.28380466 -0.1853301
0000f0 71 2d 23 3e 8d 8e 30 bd 99 17 fb 3d 62 85 2d be
       0.15935303 -0.043104697 0.1226036 -0.16945413

mlr.2.weight f4 [208, 64]
000000 60 9b 9b 3c 1f eb 64 bd d8 f1 7f 3d 24 f0 5f bd
       0.018994987 -0.05588829 0.0624865 -0.054672375
000010 80 63 00 bd a9 42 8f bd 61 1e 39 3b 22 11 f3 3d
       -0.03134489 -0.06995136 0.0028246867 0.11868502
000020 7c 83 78 3d a4 31 ef bc 9d ef 53 3c 60 8f 60 bc
       0.06067227 -0.029198475 0.012935546 -0.013706058
000030 58 19 ce bd ec 67 01 3e 0f 30 ab bb f0 94 51 3d
       -0.10063428 0.126373 -0.005224235 0.05116743
000040 b0 d5 19 bd 18 93 6f bd dc b3 41 3d 58 67 94 3d
       -0.037557304 -0.05848989 0.047290668 0.07246274
000050 e1 ca a9 3d 80 c1 76 bd b3 69 2f 3e c0 bc 96 bc
       0.08290649 -0.06024313 0.17130165 -0.01840055
000060 4d 34 3e bd 79 2b a4 bc 00 03 fc 3d bc d8 d7 3c
       -0.046436597 -0.02004026 0.1230526 0.026348464
000070 88 00 8b bc 0f 3f 0a bc 6e 53 09 bd 4a 9c d7 bd
       -0.016968027 -0.008437886 -0.03352683 -0.10527857
000080 12 57 76 bd 88 d5 95 3d 43 97 11 3e 08 4d f4 3d
       -0.06014163 0.073161185 0.14217858 0.11928755
000090 36 d1 b8 bd 04 76 8a 3d eb 3c 8d bd ea 14 e0 3d
       -0.09024279 0.06760791 -0.06896385 0.10941489
0000a0 c8 b7 b8 3d 97 05 0d 3e 48 55 b8 3d 4b f0 f3 3d
       0.090194285 0.13771664 0.09000641 0.119110666
0000b0 40 72 1f 3b 6b 42 be 3d c4 bf 93 bc 50 f1 5e 3d
       0.0024329573 0.09290012 -0.018035777 0.054429352
0000c0 cc 8e 24 bd 00 8e 09 bb 26 d1 de bd ba 64 d8 ba
       -0.040175244 -0.002098918 -0.10879736 -0.0016509511
0000d0 f4 70 85 bc 50 b5 2c bd 08 b4 87 bd b6 aa a7 bd
       -0.016289212 -0.0421651 -0.06626135 -0.081868574
0000e0 16 88 c2 3c 51 bd ee 3d b3 be 26 3e 38 9f ff 3d
       0.023746531 0.11657203 0.16283683 0.124815404
0000f0 3d 88 19 bd be 2f fd bd 6c 35 42 3d bc 70 8f 3d
       -0.037483443 -0.12362622 0.04741423 0.07003924
000100 72 c7 db bd 8d c6 9f 3d 32 71 d8 3d 20 1f f8 3b
       -0.107314005 0.078015424 0.10568465 0.0075720698
000110 be 3a 9a bd dd 14 1a 3e 3f b0 60 3d 04 86 a9 3d
       -0.075307354 0.15047021 0.05485558 0.082775146
000120 0c 21 ad bd 15 f2 f9 3d 2b 57 60 bd 80 4f fd 3d
       -0.08453569 0.122043766 -0.05477063 0.12368679
000130 2c ef 58 bd d4 5d f8 3d a1 51 8b 3c ff 6b 8e 3d
       -0.052962467 0.12127271 0.017006697 0.06954192
000140 ef 3d cb bb e8 4b 52 3d b6 4c f3 bb c4 c5 9c bd
       -0.0062024514 0.05134192 -0.007424916 -0.07654908
000150 c9 dd e7 3c fc 95 c8 3d 74 00 0f 3d 58 ee 20 3d
       0.028303998 0.09794232 0.03491254 0.039289802
000160 e1 fd 58 bb 59 9f 18 3e a8 36 99 3d 43 4e a5 3d
       -0.0033110308 0.14904536 0.07481128 0.08071568
000170 7e db 82 bd cf de 38 bd 3d 0b 39 3c 34 2f 96 bd
       -0.06389521 -0.04513436 0.011294183 -0.07333222
000180 1c 87 1a 3e 82 02 f6 bd 91 b3 de 3d c2 35 ff 3d
       0.15090603 -0.12012197 0.10874093 0.12461425
000190 4a 36 80 3d c4 94 2e 3d 3d ea e4 bd e0 4c 2b 3e
       0.06260355 0.042622343 -0.1117749 0.16728544
0001a0 18 27 af bc 26 6c 88 bd b4 b6 fc 3d 04 37 7f 3b
       -0.021380946 -0.06661253 0.12339535 0.0038942704
0001b0 20 e4 10 bc eb 5f 2b 3e ff 4a 44 bd 10 1e b5 bd
       -0.008843452 0.16735809 -0.047923084 -0.088436246
0001c0 28 85 a6 3c 00 11 89 bc b8 de eb 3c 83 63 82 bd
       0.020327166 -0.016731739 0.028792724 -0.063666366
0001d0 ee e3 93 3d 8c b7 63 bd 34 6f 26 bd b5 a5 98 bd
       0.072212085 -0.055594966 -0.040633395 -0.07453481
0001e0 09 07 72 3d b5 11 94 3d 59 58 21 bd 27 77 2d 3e
       0.05908874 0.0722994 -0.039390896 0.16939984
0001f0 51 cf aa 3d 48 04 be 3c 92 4e 96 bd 80 6c 9a 3c
       0.08340324 0.0231954 -0.07339205 0.018850565
000200 92 aa f6 3d a3 c8 ee 3d 0a 64 c7 bd a6 ae e9 3d
       0.120442525 0.11659362 -0.09735878 0.11410265
000210 70 bd 1e 3c 73 39 d2 3d b1 ef cb 3d 0a 3e da 3d
       0.00968872 0.10264864 0.09957827 0.10656364
000220 98 8f c7 bd 85 fa 1b 3e 7a 3d 68 bd d0 87 19 3c
       -0.09744185 0.15232284 -0.056699254 0.009370759
000230 2c e2 b2 bd df 84 77 3c 3b af 4c bc e9 ab 9d 3c
       -0.08734545 0.0151073625 -0.01249295 0.019247012
000240 c2 e1 dd bb e0 86 21 3c 27 cc 27 3e 20 59 e2 3d
       -0.006771297 0.009858817 0.16386472 0.110521555
000250 3b 4d 0c 3e 3c ed 4c 3d ce 73 1e 3e c0 06 bd bb
       0.13701336 0.05003093 0.15473863 -0.005768627
000260 6e 32 4a 3d 8d 54 9a 3d f2 43 df bd 84 21 88 bd
       0.0493645 0.07535658 -0.109016314 -0.066470176
000270 70 16 7b 3c e2 3c fc 3a fb 7b 01 3c 40 f7 ea bc
       0.015325174 0.0019244219 0.007903094 -0.028682351
000280 ef 8d 80 3d be 8e a6 3d a3 38 bf 3b 34 05 cd 3d
       0.06277072 0.08132695 0.005835609 0.10010758
000290 b8 20 ca 3d c2 7a c4 bd 48 56 b4 bd b8 64 6e bd
       0.09869522 -0.09593727 -0.08805519 -0.05820152
0002a0 0e 4b 8c bd 60 27 55 bb e0 26 1a bc a3 32 97 3c
       -0.06850253 -0.003252469 -0.009408683 0.018456763
0002b0 f8 57 81 bd 62 1e ff 3b f1 e5 1d bc 52 25 fb 3d
       -0.06315607 0.0077856043 -0.009637342 0.12262978
0002c0 10 c3 3d bd d6 4b b7 bd 50 d6 54 3d 9b 87 fc 3c
       -0.046328604 -0.089500114 0.051962197 0.03082638
0002d0 51 53 1f 3e 08 f5 9f 3d 99 3c 09 3e 2d 13 5e bd
       0.15559126 0.07810408 0.13402022 -0.054217506
0002e0 c5 d1 a0 3d ee d4 17 3e 49 91 c0 bb 14 f7 34 3e
       0.0785251 0.1482732 -0.0058766943 0.17672378
0002f0 11 4b 0a 3e 80 6c b3 3a b0 dc 76 3d 98 01 33 bd
       0.13505198 0.0013688952 0.060269058 -0.04370269
000300 70 47 df bd 47 38 36 3d e0 a3 18 3d a4 4f a7 bd
       -0.109022975 0.044487264 0.03726566 -0.08169487
000310 e0 51 78 3d e5 eb 87 bd 3b 2d de 3d 6e e8 f7 3d
       0.060624957 -0.0663679 0.10848471 0.12104879
000320 74 65 0b 3d cb 64 21 bd 86 9d 79 3d 78 81 ae 3c
       0.0340323 -0.039402764 0.06094124 0.02130197
000330 f0 38 0b 3d 1f 68 85 3d d4 5e b2 3d 43 f7 08 bd
       0.033989847 0.06514 0.08709493 -0.033438932
000340 68 21 77 bc 1c a0 0b 3d 32 7b 11 3d 05 ed f9 3d
       -0.015083648 0.03408824 0.03551788 0.12203411
000350 12 53 e1 bb a0 29 95 bb ea a5 a0 3d 48 fb 07 bd
       -0.006876358 -0.004552081 0.078441456 -0.033198625
000360 77 30 e6 3d 90 26 52 3d 56 9a ec bd 40 e4 11 3c
       0.11239713 0.051306307 -0.11552875 0.008904517
000370 9c 38 68 bd dd c2 6a 3d 47 bf eb bc 66 ef fd bd
       -0.056694612 0.057314742 -0.028777732 -0.12399177
000380 63 6b 9b 3c f0 27 44 bc d3 71 84 bb 32 35 eb 3d
       0.018972104 -0.0119724125 -0.004041889 0.114847556
000390 98 6f df bc 74 75 a4 3d db b9 20 3d c4 02 93 bd
       -0.027274892 0.08030215 0.039239746 -0.07178262
0003a0 30 a0 f0 3c 5d 3d 16 3e 24 73 a7 bd da 27 20 bd
       0.029373258 0.14671846 -0.08176258 -0.039100505
0003b0 da 95 fa 3d 5a 4d 09 3e 14 2f 3f bd f6 0b 9a 3d
       0.12235613 0.13408414 -0.046675757 0.075218126
0003c0 a0 00 83 bc de 65 fc bd 90 df 19 3c c5 c5 8e 3d
       -0.015991509 -0.12324117 0.00939168 0.06971315
0003d0 14 bc 6a 3c c8 1d 32 3d 8f 56 c3 bd 4a 67 eb 3d
       0.014327068 0.043485433 -0.09537994 0.1149431
0003e0 ae 59 f6 3d af dd d3 3d 5a 85 9c 3d f1 70 c5 3d
       0.12028824 0.10345017 0.07642622 0.096406825
0003f0 c8 a8 8a bd d0 de ff bc 80 84 43 bc e0 75 8e bd
       -0.06770474 -0.031234175 -0.011933446 -0.069560766

mlr.2.bias f4 [208]
000000 21 13 59 3d 4d 3b 09 bc c2 2c bd bd b4 e4 2d 3d
       0.05299676 -0.008375955 -0.092370525 0.042454436
000010 7a 00 bd 3d 24 02 b0 3d a9 01 d6 3d 6a 3f 5c bd
       0.092286065 0.08594158 0.104495354 -0.053771414
000020 6a dc 9e 3d ff 10 c8 3d b1 86 a2 3d f8 bf 58 bd
       0.077568844 0.09768867 0.079358466 -0.05291745
000030 c5 be cb 3d 78 21 a4 bd 2b 0f 79 bd 6c 0b a7 3d
       0.09948496 -0.08014196 -0.06080548 0.081564754
000040 68 3e cb 3d aa 5b 84 3d 0a 9f 55 bc 54 ac 97 bd
       0.099240124 0.06462796 -0.013038406 -0.07405916
000050 9c 4a a6 3d 5a e0 16 bd e3 68 95 3d d3 73 7c 3c
       0.08119699 -0.036835052 0.07295396 0.015408474
000060 83 32 4f 3d 57 fb 41 3d 00 28 e5 bc c7 41 db bc
       0.05058528 0.047358837 -0.027973175 -0.026764764
000070 39 22 c3 bc 2d 37 fe bc 00 a9 8f bd 56 ea 2d 3d
       -0.02382003 -0.03103217 -0.07014656 0.04245981
000080 71 50 65 3d 7a 87 d6 bd 8f c7 0d bd be f8 a7 bd
       0.055984918 -0.10475059 -0.034614142 -0.08201741
000090 d0 53 3e 3c c2 e7 25 bd 49 58 cf 3d 1e 12 96 bd
       0.011616662 -0.040504225 0.10124261 -0.07327674
0000a0 78 82 bc bc c0 23 0c 3e 4a 2d 9d 3c a5 84 c6 3d
       -0.023011431 0.13685513 0.019186635 0.09693269
0000b0 0d 04 0e bd 33 38 dc 3d 36 57 90 bd 98 d3 1e bd
       -0.034671832 0.10752907 -0.07047884 -0.03877601
0000c0 51 da 9d bd 85 43 e6 3d 5d 3b 53 3d cb a1 a8 bc
       -0.07707656 0.11243347 0.051570285 -0.020584961
0000d0 36 a9 9d 3c 04 e9 d6 3c ed ba a2 bd 57 fc 81 bd
       0.019245725 0.026234157 -0.079458095 -0.06346958
0000e0 c7 3b fa 3c c4 24 80 3d 09 65 07 3d 1b 5e bc 3d
       0.030546082 0.062570125 0.03305534 0.09197637
0000f0 d5 80 1b 3c 22 c0 a6 3d c6 af 02 3d 24 c6 e8 3d
       0.009491165 0.08142115 0.031905912 0.11365917
000100 f1 19 33 3d 2a f9 58 bd 6b a3 a3 3d 2e be 02 bd
       0.04372591 -0.052971996 0.07990154 -0.03191965
000110 10 d3 90 bd 54 12 a4 bd 30 78 e3 3d 02 40 03 3d
       -0.07071507 -0.08011308 0.11106908 0.032043464
000120 76 62 80 3d 22 4d 02 bd 50 8b bc bd 7f d4 0d 3d
       0.0626878 -0.03181184 -0.09206259 0.03462648
000130 47 10 95 bd ac 49 31 3d 18 8d c5 bb c8 be 19 3d
       -0.07278495 0.04328315 -0.0060287826 0.03753546
000140 8d f4 b2 3d b4 84 b1 bd cc ed 70 3d c6 ff 12 bd
       0.087380506 -0.08667889 0.05882053 -0.035888456
000150 3a fe c1 bb 53 79 5b bd 23 f1 14 bd 8d 4a 4b 3d
       -0.0059201987 -0.0535825 -0.03636278 0.049631644
000160 9f ea 6c 3d 58 1f af bd 47 53 e3 3c f7 4d dd 3c
       0.05784094 -0.085509 0.02774967 0.027014716
000170 b7 fd b1 3d c9 02 20 3c d9 5a 00 3e 7f 7c e6 3d
       0.086909704 0.009766289 0.12534656 0.112542145
000180 00 f7 9f bd e3 e8 b3 3d b8 c9 2f 3d a0 82 b4 bb
       -0.078107834 0.08784654 0.042916983 -0.005508736
000190 f3 8a 77 bd 74 32 8d bd 44 4f 38 3d d4 7e 22 bd
       -0.060435247 -0.06894389 0.04499747 -0.039671734
0001a0 ef 46 63 3d f6 e9 81 3c bc 0c a7 bc 2e cf ae 3d
       0.05548757 0.015858632 -0.020391814 0.0853561
0001b0 34 cf 75 bd 06 ea e4 bc d4 ca c2 3d eb 94 9c 3d
       -0.060012057 -0.027943622 0.09511343 0.07645591
0001c0 84 00 05 3e 89 dc a7 3d 43 67 99 bd 01 ea 88 3d
       0.12988478 0.081963606 -0.07490399 0.06685258
0001d0 1d af 9e 3c 8d 91 ce 3d aa d8 b7 bc 96 35 a3 3d
       0.01937061 0.10086355 -0.02244218 0.07969205
0001e0 84 3f e4 bc 28 e9 5b 3d 1d 3b 5b bd d8 db 86 3d
       -0.027862318 0.053689152 -0.05352317 0.065849006
0001f0 bd e0 8e 3d 3c 0b b6 3d c8 87 21 bd 9f ee ac bd
       0.06976459 0.088888615 -0.03943613 -0.08443951
000200 34 7d 5d 3d cf 24 57 bd 62 86 92 bd bc d6 2f 3d
       0.05407448 -0.052525338 -0.07154538 0.042929396
000210 e7 6f e4 3d a3 a9 9f bd 71 1e db bc cd 02 81 bd
       0.11154156 -0.077960275 -0.026747914 -0.06299362
000220 3f 74 20 bc e3 e3 a8 3d 2b 5d ab bd 8a b1 e1 3d
       -0.00979334 0.08246591 -0.0836738 0.11020191
000230 ce d0 88 3d 0c 74 7f 3c c6 20 b1 3d 98 2e 85 3d
       0.06680451 0.015591633 0.08648829 0.06503028
000240 61 9f 32 3d a7 96 99 3b fe 2f 61 bd e6 b0 cd bd
       0.043609027 0.0046871486 -0.05497741 -0.10043506
000250 3d 20 a3 3d 4c eb 9a bc 22 66 ca bd 0b 43 b9 bc
       0.07965133 -0.018911026 -0.098827615 -0.022614976
000260 52 6f 88 bd 74 b5 b7 3d 93 02 a5 3d b7 e1 e6 bd
       -0.06661858 0.08970156 0.080571316 -0.112735204
000270 9b 49 39 3d 39 5f 18 bd 4f c0 e7 3d 50 8c b8 3c
       0.04523621 -0.037200186 0.11315977 0.022527844
000280 85 c1 e9 bb ac fa 77 3d 35 02 a8 bd 4b 13 28 bd
       -0.007133665 0.060541794 -0.08203546 -0.041034024
000290 41 9a b7 3d 8f 04 d3 3d 80 ba af 3b 9d 52 a5 3d
       0.089649685 0.10303604 0.0053628087 0.08072398
0002a0 33 38 b3 bd bb fa b8 bd 2a cc 51 bc aa dc d6 bd
       -0.087509535 -0.09032198 -0.012805024 -0.10491307
0002b0 76 bd ca 3d d2 5b 23 bd 49 e9 4d bd 3b 46 6f 3d
       0.09899418 -0.03988249 -0.050271306 0.058416586
0002c0 83 23 74 bb 30 a2 80 3d 38 c1 a0 3d b8 7a 8e bd
       -0.0037252612 0.06280935 0.078493536 -0.069570005
0002d0 0f aa 3e 3d a1 b3 2d bc 28 0a 8c 3d 7d 0f 59 bd
       0.0465489 -0.010601909 0.06837875 -0.052993286
0002e0 49 bd dd 3c a9 34 38 3d 40 aa b0 bd a4 aa 3c 3d
       0.027067797 0.044972096 -0.086262226 0.046061173
0002f0 e7 df c7 bc 4f d9 65 3d a2 04 37 bd b5 be 4c bc
       -0.024398757 0.056115445 -0.044682153 -0.01249664
000300 d4 e9 c5 bd b1 57 8c bc 9c a8 b2 3d ca a7 76 3d
       -0.0966374 -0.017131658 0.08723566 0.06021861
000310 c6 89 70 bd ee b8 c3 bd 31 20 bc 3d e6 74 74 bd
       -0.05872514 -0.09556757 0.091858275 -0.059681796
000320 7a a1 9e bd b7 31 45 bd c0 ca 70 3d 31 97 79 3c
       -0.07745643 -0.048143115 0.058787107 0.015233801
000330 c6 c9 3c bd 1f 47 96 3d 53 6a 00 3e 46 22 24 3d
       -0.046090864 0.07337784 0.1254056 0.04007175
