pqc_reup_v1_backup/model_params_epoch_10.pth (torch, 61309 bytes, 6 tensors)

reupload_weights f4 [12, 3, 4]
0	0x3e38b723	0.18038611
1	0x3e123e8d	0.14281674
2	0x3e09fb26	0.13474712
3	0xbdbd69b5	-0.09248678
4	0x3e9c4b78	0.30526328
5	0x3d9d4e89	0.07680995
6	0x3e88e07d	0.2673377
7	0x3e5bd788	0.21468937
8	0x3d8af722	0.06785418
9	0x3e9565b6	0.29179162
10	0x3e071d80	0.13194847
11	0x3d6340e9	0.055481825
12	0xbe3b6424	-0.1829992
13	0xbdfbf2fd	-0.12302206
14	0xbdaa0302	-0.08301355
15	0x3d8ed642	0.0697446
16	0x3df26966	0.118365094
17	0xbdbdce97	-0.092679195
18	0xbe1bc01a	-0.1521
19	0xbd8b889c	-0.068131655
20	0x3da333b5	0.07968847
21	0x3e7507b6	0.23928723
22	0x3e0d9ccd	0.13829346
23	0x3e4498cb	0.19198911
24	0x3cf0f9f6	0.029416066
25	0x3db5c997	0.08876341
26	0x3d32bb94	0.04363592
27	0x3d9b8753	0.075941704
28	0x3e8c7298	0.27431178
29	0x3e969051	0.2940698
30	0x3e6deeb3	0.23235588
31	0x3ec2e0bc	0.38062084
32	0xbd9ac7cf	-0.07557642
33	0x3c94e5c9	0.018175976
34	0x3db01b2f	0.08598935
35	0x3e86bd31	0.26316217
36	0x3bd70aef	0.0065625827
37	0xbdd68bfe	-0.1047592
38	0x3b1aed54	0.0023639994
39	0xbe305cf5	-0.1722296
40	0xbde3e09d	-0.11126826
41	0x3e274f24	0.16338784
42	0xbd6f780f	-0.058464106
43	0x3bdcdfc4	0.006740542
44	0x3dcc6d63	0.09981801
45	0x3ecad233	0.39613494
46	0x3df9ff6f	0.12206923
47	0x3e460065	0.19336088
48	0x3c0f3e36	0.00874286
49	0x3d7d89c8	0.061898977
50	0x3dc1f1f6	0.094699785
51	0x3e0b0e98	0.13579786
52	0x3d07e3f8	0.033176392
53	0x3e3c8b9c	0.18412632
54	0x3db5126f	0.088414066
55	0x3ddd5c8c	0.108086675
56	0xbe2e20f2	-0.17004755
57	0xbb6ed755	-0.0036444266
58	0xbde78859	-0.11305303
59	0xbd6cade4	-0.057783023
60	0xbd6f6e2f	-0.05845469
61	0x3d97dbb0	0.07414949
62	0xbe58076d	-0.21096583
63	0x3c0bfe8e	0.008544577
64	0x3c8229da	0.015889097
65	0xbb9f100f	-0.0048542093
66	0x3de406b5	0.11134092
67	0xbc3146ca	-0.0108201
68	0xbe003d05	-0.12523277
69	0xbe3087f9	-0.1723937
70	0xbe8aee8d	-0.27135125
71	0x3c5d6101	0.013511897
72	0xbc13181a	-0.008977914
73	0x3c49c095	0.012313982
74	0xbcb2fc36	-0.02184878
75	0x3dcf75d3	0.10129895
76	0xbd5d99b4	-0.05410166
77	0xbe69bc86	-0.22825822
78	0xbebf9f9a	-0.37426454
79	0xbe398613	-0.18117552
80	0x3e03eae4	0.12882572
81	0x3e0d3184	0.1378842
82	0x3ce16d10	0.027517825
83	0xbdede63c	-0.11616179
84	0x3dfc2d1c	0.123132914
85	0x3deaa452	0.11457123
86	0x3decbce8	0.115594685
87	0x3cc63203	0.02419377
88	0xbe359eb2	-0.17736319
89	0xbe964d5e	-0.293559
90	0xbe8791b5	-0.26478353
91	0xbdd1f02d	-0.10250888
92	0xbebadbf0	-0.36495924
93	0xbe8a8fbb	-0.27062783
94	0x3c91310d	0.017723585
95	0xbda021d5	-0.07818953
96	0xbe8e7dbe	-0.2783031
97	0xbc40de29	-0.011771717
98	0xbcd8404c	-0.026397847
99	0xbd6396a2	-0.055563577
100	0x3e65f9ed	0.2245862
101	0x3ed0dbc3	0.40792665
102	0x3ede96cc	0.43474424
103	0x3e8f7b31	0.28023675
104	0xbe9a9edd	-0.30199328
105	0xbd3d901d	-0.046280015
106	0xbd8f7f7a	-0.07006736
107	0xbdf13e2a	-0.11779435
108	0x3d208db6	0.039197646
109	0x3e14b712	0.14522961
110	0x3d4d1551	0.050069157
111	0x3d864c53	0.065575264
112	0xbeb74677	-0.35795948
113	0xbe82055f	-0.25394723
114	0xbe99c958	-0.30036426
115	0xbe94e392	-0.29079872
116	0x3d9ee42a	0.077583626
117	0x3ba981fd	0.0051729665
118	0xbd4d4d3e	-0.050122492
119	0xbc25e9fb	-0.010126586
120	0xbdbf43e8	-0.09339124
121	0xbdbf8d01	-0.09353066
122	0x3b3ed334	0.0029117586
123	0x3d1f1704	0.03884031
124	0x3def9f3b	0.11700293
125	0x3cf3945b	0.029733827
126	0x3e3513b9	0.17683305
127	0x3e06ca11	0.1316302
128	0xbe748827	-0.23880063
129	0xbea3d43b	-0.31997856
130	0xbf061cc8	-0.52387667
131	0xbefd3476	-0.49454087
132	0xbc8e57fa	-0.017375935
133	0x3e46f118	0.19427907
134	0x3d9cae39	0.07650418
135	0x3d5d54ab	0.054035824
136	0xbe52db60	-0.20591497
137	0xbe8e04b4	-0.27737963
138	0xbf00574f	-0.5013322
139	0xbe57e39e	-0.21082923
140	0xbe618d3e	-0.22026536
141	0x3b88dbf6	0.004176612
142	0xbe30672d	-0.17226858
143	0xbcba65c6	-0.022753607

reupload_bias f4 [12, 3]
0	0xbec90ef4	-0.3926922
1	0x3ea05080	0.31311417
2	0x3e37d7c1	0.17953397
3	0x3ecd735e	0.4012708
4	0xbea060aa	-0.3132375
5	0xbc0ee2c9	-0.008721062
6	0xbe9c2fb7	-0.30505154
7	0x3ee6a82f	0.4505019
8	0x3dd467b1	0.1037134
9	0x3eb0984f	0.34491202
10	0xbd2ddf19	-0.04244909
11	0x3f0f31be	0.55935276
12	0xbeba9f9c	-0.36449897
13	0x3e491b1a	0.19639245
14	0xbe8320bc	-0.25610912
15	0x3e3e14a4	0.18562561
16	0xbec36390	-0.38161898
17	0xbe8a3a5c	-0.2699765
18	0xbe19a02c	-0.15002507
19	0xbe947827	-0.2899792
20	0xbdfa8a91	-0.12233461
21	0xbef31d51	-0.47483304
22	0xbec5a5e1	-0.38603118
23	0xbe117c04	-0.14207464
24	0x3ec0cc2b	0.37655768
25	0x3f2b7593	0.6697628
26	0xbf0fd5ee	-0.56185806
27	0xbeca3a68	-0.39497685
28	0xbe86617d	-0.26246253
29	0xbd917baf	-0.07103669
30	0x3e712391	0.23548724
31	0x3e5bc53c	0.21461958
32	0xbf3a9ee2	-0.72898686
33	0xbec2ad02	-0.3802262
34	0xbebe040a	-0.37112457
35	0x3bfb6dd9	0.007673007

mlr.0.weight f4 [64, 12]
0	0x3b8a086f	0.004212431
1	0xbc8d331b	-0.017236283
2	0x3d8e21fc	0.06940076
3	0x3da5ad0d	0.080896474
4	0xbe863deb	-0.26219115
5	0xbdda2d76	-0.10653202
6	0x3e78efb0	0.24310184
7	0x3de64eb8	0.11245483
8	0xbc6b3dd1	-0.014358
9	0xbe323890	-0.1740439
10	0xbe34da04	-0.17661291
11	0xbe846555	-0.2585856
12	0xbdbe3530	-0.092874885
13	0x3dc94c44	0.09829
14	0x3e38c40e	0.18043539
15	0x3e0b82eb	0.1362416
16	0xbe80c317	-0.25148842
17	0xbe2df78c	-0.16988963
18	0xbd43d932	-0.047814555
19	0x3e95a593	0.29227886
20	0x3d3d8074	0.04626508
21	0xbd8fb47e	-0.07016848
22	0x3df8ca04	0.121479064
23	0xbdc5f2d2	-0.09665455
24	0xbe3f54b8	-0.18684661
25	0x3e57c1d1	0.21070029
26	0xbe06694f	-0.1312611
27	0xbd6d08d9	-0.057869766
28	0xbe9308a2	-0.28717524
29	0x3e45d6b0	0.19320178
30	0x3e5ff596	0.21871027
31	0x3dd776d6	0.10520713
32	0xbe4e1dd8	-0.20128572
33	0xbe91df12	-0.28490502
34	0xbe701533	-0.23445587
35	0x3e5c6e75	0.21526511
36	0x3e0debbe	0.1385946
37	0x3e78c064	0.24292141
38	0x3e1adb91	0.1512282
39	0x3d95a139	0.073061414
40	0xbb394397	-0.0028269046
41	0xbe60cee1	-0.21953918
42	0xbe7d43c4	-0.24732882
43	0xbe8a3eff	-0.27001187
44	0x3df2047c	0.118172616
45	0xbe1121bc	-0.14173025
46	0xbd6df6b7	-0.058096614
47	0xbe2a1f0c	-0.16613406
48	0xbd5776ac	-0.05260341
49	0xbe500e52	-0.20317963
50	0xbe4126e0	-0.18862486
51	0x3dc41c12	0.095756665
52	0xbdafb459	-0.085793205
53	0x3e367d1c	0.17821163
54	0xbdbdaa0e	-0.09260951
55	0xbe58d84d	-0.21176262
56	0xbd509fad	-0.05093353
57	0xbe0f4aff	-0.13993452
58	0xbdb4dfec	-0.08831772
59	0xbe8cb4e0	-0.27481747
60	0x3e32a282	0.17444804
61	0xbe595ad2	-0.21226051
62	0x3e112064	0.14172512
63	0x3df3afd6	0.118987724
64	0x3e526a3a	0.20548335
65	0xbe68727e	-0.22699925
66	0x3e539d6a	0.20665517
67	0xbe08ed17	-0.13371693
68	0x3de2c6a5	0.11073045
69	0x3e8b0a65	0.27156368
70	0xbce42385	-0.027848968
71	0x3c10c26a	0.008835414
72	0xbd85d7e0	-0.065353155
73	0xbe785872	-0.24252489
74	0x3e1ccbff	0.15312193
75	0xbe966955	-0.29377237
76	0x3e3b3b3f	0.1828432
77	0x3e627a10	0.22116876
78	0x3e94a98d	0.29035607
79	0xbdabd9a1	-0.08391119
80	0xbe75a718	-0.23989522
81	0x3d82c596	0.06385343
82	0x3e336403	0.1751862
83	0xbe980e08	-0.29698205
84	0xbd8631bb	-0.06552454
85	0xbe313377	-0.17304789
86	0xbcced62a	-0.025248606
87	0xbe117ffd	-0.1420898
88	0xbdf1aa87	-0.11800104
89	0xbdbbaf0d	-0.09164248
90	0xbe8c74de	-0.27432913
91	0x3e728b75	0.23686011
92	0x3e77d042	0.24200538
93	0xbd397beb	-0.045284193
94	0xbd06a7da	-0.03287492
95	0xbdf14881	-0.11781407
96	0xbe857964	-0.26069176
97	0xbe8fd516	-0.2809226
98	0x3ddbba19	0.10728855
99	0xbe224cc5	-0.15849598
100	0xbe3e095d	-0.1855826
101	0xbcb882e7	-0.022523357
102	0xbdc4e0e0	-0.09613204
103	0xbdbf4484	-0.0933924
104	0x3c17f82b	0.009275476
105	0xbd7acdf8	-0.061231583
106	0xbdcb8f4f	-0.09939443
107	0xbe0d8960	-0.13821936
108	0xbe5ea564	-0.21742779
109	0x3e7519db	0.23935644
110	0xbde9c179	-0.11413855
111	0x3d9845c8	0.07435185
112	0xbdc2d803	-0.09513857
113	0x3ccc641c	0.02495008
114	0x3e8b796e	0.2724108
115	0x3e143ca4	0.14476258
116	0xbe7597b9	-0.23983659
117	0x3dfd37af	0.123641364
118	0x3e93ad64	0.28843224
119	0x3dbe8710	0.09303105
120	0x3e502674	0.20327169
121	0x3e982b28	0.29720426
122	0xbd43210d	-0.04763894
123	0x3da1ecf8	0.07906526
124	0xbe425e4b	-0.18981282
125	0xbd48efc9	-0.049056802
126	0x3e56c00d	0.20971699
127	0x3e377b48	0.17918122
128	0xbe29cf49	-0.1658298
129	0xbe5f1e39	-0.21788873
130	0xbe4dbdc2	-0.20091918
131	0xbe83e0f0	-0.2575755
132	0xbe64195c	-0.22275299
133	0xbd923431	-0.07138861
134	0x3e477ef6	0.19482026
135	0x3d45ea3d	0.04831909
136	0xbe60d667	-0.21956788
137	0xbe6d23db	-0.23158209
138	0x3e130e2b	0.14360873
139	0xbe5be1c8	-0.21472847
140	0xbd11966a	-0.035543837
141	0x3e0dcd7e	0.1384792
142	0xbe08cf0d	-0.13360234
143	0xbd00ee24	-0.03147711
144	0xbccdd859	-0.025127577
145	0xbd8bdea2	-0.06829573
146	0xbe15e162	-0.14636758
147	0xbe83c18e	-0.25733608
148	0xbe6ef3f9	-0.23335256
149	0xbe1e48c5	-0.15457447
150	0x3e8ec09f	0.27881333
151	0xbe0ec7e0	-0.13943434
152	0xbe468183	-0.19385342
153	0x3d8f4e19	0.06997318
154	0x3da2f152	0.079561844
155	0x3e21f6c5	0.15816791
156	0x3e8cc624	0.2749492
157	0x3e4aaa02	0.19791415
158	0xbe8024a9	-0.2502797
159	0x3d848cb5	0.0647215
160	0x3e5fbb75	0.21848853
161	0x3c1f1baf	0.00971119
162	0xbe095350	-0.13410687
163	0x3ea88f51	0.32921842
164	0xbd6c43e2	-0.057681926
165	0xbdf66dc4	-0.12032655
166	0xbe5aa959	-0.21353664
167	0x3d8f8d3b	0.070093594
168	0x3dded211	0.10879911
169	0x3d9ce10e	0.07660113
170	0x3d710235	0.058839995
171	0xbe5176a9	-0.20455422
172	0xbe8857d6	-0.26629514
173	0x3c6f8fef	0.014621719
174	0x3e875bf1	0.26437333
175	0x3e2cbbd7	0.1686853
176	0xbe308699	-0.17238845
177	0xbd14be7c	-0.036314473
178	0xbe67ed18	-0.22649038
179	0xbe150d0a	-0.14555755
180	0x3d848b4e	0.06471883
181	0x3e158792	0.14602497
182	0x3e695fcb	0.22790448
183	0xbe8c9331	-0.27456048
184	0x3e42e440	0.19032383
185	0xbe5a97cb	-0.21346967
186	0x3dc7545a	0.09732886
187	0x3e80e8e3	0.25177678
188	0x3c1d2e69	0.009593585
189	0x3e858343	0.26076707
190	0xbe79b60f	-0.24385856
191	0xbdc778f9	-0.097398706
192	0x3e14e7ea	0.14541593
193	0xbdafa33a	-0.08576055
194	0xbda7df02	-0.08196832
195	0xbe129821	-0.14315845
196	0x3e345d46	0.17613706
197	0x3df31af6	0.11870377
198	0x3d8e9e9a	0.069638446
199	0xbe3d940c	-0.18513507
200	0xbe83b0cf	-0.25720832
201	0x3c080e3e	0.008304177
202	0x3d802d50	0.06258643
203	0xbe1ff836	-0.15622029
204	0xbda56b12	-0.08077063
205	0x3e47a415	0.19496186
206	0x3cbc61a2	0.022995774
207	0x3c5564e2	0.013024541
208	0xbd917f0c	-0.071043104
209	0xbe85d901	-0.26142123
210	0xbe8af8bc	-0.27142894
211	0xbe0d4d87	-0.13799106
212	0xbe1642f2	-0.14673975
213	0x3db8314c	0.08993778
214	0xbdac1b4b	-0.08403643
215	0xbde74b0a	-0.112936094
216	0x3ea959ce	0.33076328
217	0x3e068d2f	0.13139795
218	0x3e7b0fc7	0.24517737
219	0xbde0d413	-0.1097795
220	0xbd9d1677	-0.076703005
221	0x3e104b4d	0.14091225
222	0xbe1a9ed4	-0.1509965
223	0xbe1448a0	-0.14480829
224	0x3d03200a	0.032012977
225	0xbd82a3d0	-0.06378901
226	0xbe25ad4b	-0.16179387
227	0x3e63729f	0.22211693
228	0x3e8c8f9e	0.2745332
229	0x3d84b38c	0.06479558
230	0xbce718f3	-0.028210139
231	0xbe7f5c71	-0.24937607
232	0xbd9f10c8	-0.07766873
233	0x3dc0b2eb	0.09409126
234	0x3e23b69f	0.15987633
235	0xbb4ba3aa	-0.0031072893
236	0xbda3871d	-0.07984755
237	0x3e429b11	0.19004466
238	0xbe45d56b	-0.19319694
239	0x3e63697a	0.22208205
240	0xbd1a8dc9	-0.037732873
241	0x3d66a741	0.05631185
242	0xbb22e42a	-0.0024855235
243	0x3db38d1d	0.087671496
244	0xbcd986b0	-0.026553482
245	0x3e87f58d	0.26554528
246	0x3d466e6e	0.048445158
247	0x3e972e52	0.29527527
248	0x3eb0931c	0.34487236
249	0xbd9ef60c	-0.077617735
250	0xbe10ee24	-0.14153343
251	0x3e9d5c97	0.30734703
252	0x3e67a38e	0.22620985
253	0xbe61b506	-0.22041711
254	0xbcb6cf13	-0.022315538
255	0xbe91c049	-0.28467014

mlr.0.bias f4 [64]
0	0xbda2912d	-0.07937846
1	0x3e47e4fb	0.19520943
2	0x3db71e51	0.08941329
3	0xbd4e2dc2	-0.050336607
4	0x3d47be5c	0.048765525
5	0xbe26c0db	-0.16284506
6	0x3e0a8638	0.13527763
7	0x3de9dc28	0.114189446
8	0x3d9ec429	0.07752258
9	0xbe366373	-0.17811374
10	0x3e5b81be	0.21436211
11	0xbd2ab479	-0.04167602
12	0xbde62aa7	-0.11238604
13	0x3e2d1f7f	0.16906546
14	0x3e907221	0.28212073
15	0x3e5801a7	0.2109438
16	0x3d8147d0	0.06312525
17	0xbdc989ea	-0.09840758
18	0x3df852cd	0.12125168
19	0x3e4948f4	0.19656736
20	0xbe98c9a4	-0.2984134
21	0xbd127c4e	-0.035763077
22	0xbe7df131	-0.24799038
23	0x3d5c5ab1	0.053797428
24	0x3d7e207e	0.062042706
25	0xbda83fe4	-0.08215311
26	0xbcc5d5ab	-0.024149736
27	0x3d149ca0	0.03628218
28	0xbd46ba56	-0.048517548
29	0xbe9006c3	-0.2813016
30	0x3e6aac21	0.22917224
31	0xbe14c80d	-0.14529438
32	0xbdff9640	-0.1247983
33	0x3cdf10c7	0.02722968
34	0xbd27cc65	-0.04096641
35	0xbe8b08f3	-0.27155265
36	0x3e079f70	0.13244414
37	0xbe0645b8	-0.13112533
38	0xbe22b3d7	-0.15888916
39	0x3c8b2e59	0.016989874
40	0xbe1a43a0	-0.1506486
41	0xbe6f4db5	-0.23369487
42	0xbdc73501	-0.097269066
43	0xbe125de5	-0.1429363
44	0xbdf6e8f9	-0.12056155
45	0xbdd82ffa	-0.10556026
46	0xbc09dad5	-0.00841399
47	0xbe6f3520	-0.2336011
48	0xbe32ec41	-0.17472936
49	0x3b8a066a	0.0042121904
50	0x3d246f9e	0.04014551
51	0x3d8c534d	0.06851826
52	0xbe682247	-0.22669326
53	0x3dbcb61c	0.09214422
54	0x3e191e37	0.14952932
55	0x3d8e87fe	0.06959532
56	0xbe8c26bb	-0.273733
57	0xbe3702fc	-0.17872232
58	0xbe9ce5da	-0.30644113
59	0xbe57aa90	-0.21061158
60	0x3e0913b8	0.13386428
61	0xbd308e8d	-0.043104697
62	0x3dfb1799	0.1226036
63	0xbe2d8562	-0.16945413

mlr.2.weight f4 [208, 64]
0	0x3c9b9b60	0.018994987
1	0xbd47e677	-0.048803773
2	0x3d7ff1d8	0.0624865
3	0xbd5ff024	-0.054672375
4	0xbd006380	-0.03134489
5	0xbdac7694	-0.084210545
6	0xbcfa25be	-0.030535575
7	0x3df31122	0.11868502
8	0x3d78837c	0.06067227
9	0xbc3030ac	-0.010753792
10	0x3cc3e7e4	0.023914285
11	0xbc608f60	-0.013706058
12	0xbdce1958	-0.10063428
13	0x3e13a7cf	0.14419483
14	0x3d3495ae	0.04408806
15	0x3d75b133	0.059983443
16	0xbd56e635	-0.052465636
17	0xbd6f9318	-0.05848989
18	0x3d4819a7	0.04885259
19	0x3d9e2cb5	0.07723371
20	0x3dcad617	0.09904116
21	0xbd76c180	-0.06024313
22	0x3e1ef7d9	0.15524234
23	0xbc96bcc0	-0.01840055
24	0xbd15dc79	-0.036587212
25	0xbc21861f	-0.009858637
26	0x3dfc0300	0.1230526
27	0x3d058d59	0.032605503
28	0xbc8b0088	-0.016968027
29	0xbb49e151	-0.0030804465
30	0x3c8aa503	0.016924387
31	0xbdd79c4a	-0.10527857
32	0xbd747d1d	-0.05968963
33	0x3d95d588	0.073161185
34	0x3e193299	0.14960708
35	0x3df44d08	0.11928755
36	0xbdb8d136	-0.09024279
37	0x3d8a7604	0.06760791
38	0xbd8d3ceb	-0.06896385
39	0x3defe207	0.11713033
40	0x3db8b7c8	0.090194285
41	0x3e29eaac	0.16593426
42	0x3db85548	0.09000641
43	0x3dee598d	0.11638174
44	0x3b1f7240	0.0024329573
45	0x3dd3b68f	0.10337555
46	0x3b0b5f47	0.0021266507
47	0x3d5ef150	0.054429352
48	0xbd248ecc	-0.040175244
49	0xbb098e00	-0.002098918
50	0xbdded126	-0.10879736
51	0x3a94169a	0.001129824
52	0xbce57198	-0.028008267
53	0xbd2cb550	-0.0421651
54	0xbd137cc3	-0.036007654
55	0xbd9fe6ce	-0.078076944
56	0x3cc28816	0.023746531
57	0x3e025f87	0.12731753
58	0x3e1b564e	0.15169641
59	0x3e00b940	0.12570667
60	0xbce09edf	-0.027419506
61	0xbdfd2fbe	-0.12362622
62	0x3d42356c	0.04741423
63	0x3d8f70bc	0.07003924
64	0xbddbc772	-0.107314005
65	0x3dad9476	0.08475582
66	0x3dd87132	0.10568465
67	0x3bf81f20	0.0075720698
68	0xbd9a3abe	-0.075307354
69	0x3e11c70c	0.14236087
70	0xbc2dc361	-0.010605664
71	0x3da98604	0.082775146
72	0xbdad210c	-0.08453569
73	0x3e1593eb	0.14607207
74	0xbd3d6279	-0.04623649
75	0x3dfd4f80	0.12368679
76	0xbd58ef2c	-0.052962467
77	0x3e0ee371	0.1395395
78	0x3cb9905e	0.022651847
79	0x3da019d8	0.07817429
80	0xbc7f9372	-0.015599119
81	0x3d524be8	0.05134192
82	0xbbadfd38	-0.005309727
83	0xbd93f1e3	-0.072238706
84	0x3d592993	0.053018164
85	0x3dc895fc	0.09794232
86	0x3cf8f11d	0.03038841
87	0x3d20ee58	0.039289802
88	0x3be672cc	0.007032728
89	0x3e26e98a	0.16300026
90	0x3d9936a8	0.07481128
91	0x3db4c78b	0.08827122
92	0xbd82db7e	-0.06389521
93	0xbd0b0092	-0.03393609
94	0x3d3bc74c	0.04584436
95	0xbd962f34	-0.07333222
96	0x3e216331	0.15760495
97	0xbdf60282	-0.12012197
98	0x3df0ef6f	0.11764418
99	0x3dff35c2	0.12461425
100	0x3d80364a	0.06260355
101	0x3d2e94c4	0.042622343
102	0xbde4ea3d	-0.1117749
103	0x3e35ae5b	0.17742293
104	0xbcaf2718	-0.021380946
105	0xbd03c97d	-0.032174576
106	0x3dfcb6b4	0.12339535
107	0x3bb94b86	0.005654755
108	0xbc10e420	-0.008843452
109	0x3e384a40	0.17997074
110	0xbce39185	-0.02777935
111	0xbdb51e10	-0.088436246
112	0x3ca68528	0.020327166
113	0xbc891100	-0.016731739
114	0x3cebdeb8	0.028792724
115	0xbd70c48d	-0.058781195
116	0x3d8c8142	0.068605915
117	0xbd63b78c	-0.055594966
118	0xbcad674e	-0.021167424
119	0xbd8e708b	-0.069550596
120	0x3d720709	0.05908874
121	0x3daff0b6	0.08590834
122	0xbd1d0a00	-0.038339615
123	0x3e37acb1	0.1793697
124	0x3dc19de5	0.09453944
125	0x3cbe0448	0.0231954
126	0xbd964e92	-0.07339205
127	0x3c9a6c80	0.018850565
128	0x3df6aa92	0.120442525
129	0x3e045a70	0.12925124
130	0xbdc7640a	-0.09735878
131	0x3de9aea6	0.11410265
132	0x3c1ebd70	0.00968872
133	0x3da9db40	0.08293772
134	0x3dc9968c	0.09843168
135	0x3dda3e0a	0.10656364
136	0xbdc78f98	-0.09744185
137	0x3e276ee4	0.16350895
138	0xbd18dfcf	-0.037322816
139	0x3c1987d0	0.009370759
140	0xbdb2e22c	-0.08734545
141	0x3d19d5b9	0.037557337
142	0x3dae1f64	0.08502081
143	0x3d049566	0.03236904
144	0xbc83b20b	-0.016076108
145	0x3c2186e0	0.009858817
146	0x3e2cc25d	0.16871019
147	0x3df2684d	0.118363
148	0x3e1825f3	0.14858226
149	0x3d4ced3c	0.05003093
150	0x3e085738	0.13314521
151	0xbbbd06c0	-0.005768627
152	0x3d786eb5	0.060652453
153	0x3dafdc6d	0.08586965
154	0xbddf43f2	-0.109016314
155	0xbd69659c	-0.056981668
156	0x3c7b1670	0.015325174
157	0x3b95de20	0.0045735985
158	0x3d9d2a0a	0.07674034
159	0xbceaf740	-0.028682351
160	0x3d740f03	0.05958463
161	0x3da68ebe	0.08132695
162	0x3c4b2396	0.012398621
163	0x3dcd0534	0.10010758
164	0x3dca20b8	0.09869522
165	0xbdc47ac2	-0.09593727
166	0xbdb45648	-0.08805519
167	0xbd4ac39f	-0.049502965
168	0xbd8c4b0e	-0.06850253
169	0x3cb833ff	0.022485731
170	0xbc1a26e0	-0.009408683
171	0x3c56046f	0.0130625805
172	0xbd8157f8	-0.06315607
173	0x3c8c2973	0.017109608
174	0x3c48b7fe	0.012250898
175	0x3dfb2552	0.12262978
176	0xbd3dc310	-0.046328604
177	0xbdb74bd6	-0.089500114
178	0x3d54d650	0.051962197
179	0x3d106b69	0.035258684
180	0x3e0ecaab	0.13944499
181	0x3d9ff508	0.07810408
182	0x3e2fe0a1	0.17175533
183	0xbd487eea	-0.04894916
184	0x3da0d1c5	0.0785251
185	0x3e2194a4	0.15779358
186	0xbccade15	-0.0247641
187	0x3e3250b6	0.17413601
188	0x3e191d36	0.1495255
189	0x3ab36c80	0.0013688952
190	0x3d76dcb0	0.060269058
191	0xbd330198	-0.04370269
192	0xbddf4770	-0.109022975
193	0x3d39be2c	0.045347378
194	0x3d18a3e0	0.03726566
195	0xbda74fa4	-0.08169487
196	0x3d7851e0	0.060624957
197	0xbd86524d	-0.065586664
198	0xbd5f8e75	-0.054579217
199	0x3df7e86e	0.12104879
200	0x3d0b6574	0.0340323
201	0xbbe9abb7	-0.0071310657
202	0x3d7232a6	0.059130333
203	0x3cae8178	0.02130197
204	0x3d0b38f0	0.033989847
205	0x3dab1380	0.08353329
206	0xbbc0581c	-0.0058698785
207	0xbcf090f3	-0.029365992
208	0xbcfb0660	-0.030642688
209	0x3d0ba01c	0.03408824
210	0x3d194ac7	0.03742483
211	0x3dfecdc4	0.124415904
212	0x3d1520dd	0.036408294
213	0xbb9529a0	-0.004552081
214	0x3db9fe40	0.090816975
215	0xbd07fb48	-0.033198625
216	0x3df8e5bf	0.121531956
217	0x3d8fb589	0.07017047
218	0xbdec9a56	-0.11552875
219	0x3c67b61e	0.014142541
220	0xbd68389c	-0.056694612
221	0x3d9d3483	0.076760314
222	0xbcedfd80	-0.029051542
223	0xbdfdef66	-0.12399177
224	0x3d1d920a	0.03846935
225	0xbc4427f0	-0.0119724125
226	0x3bb06de8	0.0053841956
227	0x3deb3532	0.114847556
228	0xbcdf6f98	-0.027274892
229	0x3da47574	0.08030215
230	0x3d20b9db	0.039239746
231	0xbd6e4fe3	-0.058181655
232	0x3cf0a030	0.029373258
233	0x3e45c9c6	0.19315252
234	0xbda77324	-0.08176258
235	0xbcf8a651	-0.030352743
236	0x3dfa95da	0.12235613
237	0x3e176e72	0.14788225
238	0xbcde4ba7	-0.027135683
239	0x3d9a0bf6	0.075218126
240	0xbc8300a0	-0.015991509
241	0xbdfc65de	-0.12324117
242	0x3c19df90	0.00939168
243	0x3d9cfb9b	0.076651774
244	0x3cb913dd	0.02259248
245	0x3d321dc8	0.043485433
246	0xbe104803	-0.1408997
247	0x3df28a86	0.118428275
248	0x3df659ae	0.12028824
249	0x3df4b205	0.11948017
250	0x3dc3a9c5	0.09553865
251	0x3df78339	0.120855756
252	0xbd63dc86	-0.05563023
253	0xbcffded0	-0.031234175
254	0xbc438480	-0.011933446
255	0xbd8e75e0	-0.069560766

mlr.2.bias f4 [208]
0	0x3d823cc7	0.063592486
1	0xba8ab3bc	-0.001058213
2	0xbd9071aa	-0.0705293
3	0x3d14133a	0.03615115
4	0x3d94430c	0.07239351
5	0x3dae7730	0.08518827
6	0x3db79f0b	0.08965882
7	0xbd466e7e	-0.048445217
8	0x3d7e6135	0.062104423
9	0x3db2892d	0.087175705
10	0x3d7b7d5f	0.06139886
11	0xbd804a41	-0.06264163
12	0x3da75873	0.08171167
13	0xbdad48f2	-0.08461179
14	0xbd912bae	-0.07088409
15	0x3d82ad41	0.06380702
16	0x3d99b690	0.07505524
17	0x3ca4c155	0.02011172
18	0xbd209bca	-0.039211072
19	0xbd99c65a	-0.07508536
20	0x3d614106	0.05499365
21	0xbd2bc90b	-0.041939776
22	0x3d430642	0.04761339
23	0x3c8bb837	0.017055614
24	0x3d212a7b	0.039347153
25	0x3d1b5adc	0.037928447
26	0xbbfac1c5	-0.0076524937
27	0xbb844cff	-0.004037499
28	0xbc673503	-0.01411176
29	0xbd0cd1cd	-0.03437977
30	0xbd63488a	-0.0554891
31	0x3d138b12	0.0360213
32	0x3d2a8be6	0.041637324
33	0xbdd59f91	-0.104308255
34	0xbcbfe7aa	-0.023425896
35	0xbd8c85f6	-0.068614885
36	0xbb254163	-0.0025215975
37	0xbd27605d	-0.040863384
38	0x3db40948	0.08790833
39	0xbda024e3	-0.078195356
40	0xbceabe8e	-0.028655317
41	0x3dd929f3	0.10603704
42	0x3bce8c64	0.006303357
43	0x3d901363	0.07034948
44	0xbd33137d	-0.043719757
45	0x3d85d59e	0.06534885
46	0xbd98b79c	-0.07456896
47	0xbd4e22c0	-0.05032611
48	0xbd99aad5	-0.07503287
49	0x3db24f0b	0.087064825
50	0x3d444a90	0.04792267
51	0xbcc9f6d2	-0.024653826
52	0x3c9e02a7	0.019288374
53	0x3ca75e13	0.0204306
54	0xbd8da92f	-0.06917035
55	0xbd378fb6	-0.044814788
56	0xba50a40f	-0.0007959017
57	0x3d51f976	0.051263295
58	0x3d392635	0.045202453
59	0x3d99bde4	0.07506922
60	0x3cce9782	0.025218729
61	0x3d90d40e	0.07071696
62	0x3cb6a4eb	0.022295436
63	0x3dc3953a	0.09549947
64	0x3d043b26	0.03228297
65	0xbd47b971	-0.048760835
66	0x3d64ad1c	0.055829152
67	0xbd19b1ac	-0.037522957
68	0xbd98b1f8	-0.0745582
69	0xbd90db2c	-0.07073054
70	0x3da941a7	0.08264475
71	0x3cbb48de	0.022861894
72	0x3d127403	0.03575517
73	0xbd3e697f	-0.046487328
74	0xbdcdea17	-0.10054415
75	0x3cf6d26f	0.03012964
76	0xbd7a624b	-0.061128896
77	0x3d141f5f	0.03616273
78	0xb90ae548	-0.0001324612
79	0x3ceb7aa7	0.028745009
80	0x3d99f096	0.07516591
81	0xbd72d975	-0.059289414
82	0x3d433bbd	0.047664393
83	0xbc935a7d	-0.017987484
84	0x3c4dc274	0.012558568
85	0xbd056f1a	-0.032576658
86	0xbc8c22be	-0.01710641
87	0x3d42d85c	0.047569618
88	0x3d2571d6	0.040391766
89	0xbd78b53a	-0.060719706
90	0x3d00558e	0.03133159
91	0x3ce73071	0.02822134
92	0x3d48cbcf	0.049022492
93	0xbc5f2fd4	-0.013622243
94	0x3dc28a23	0.09499004
95	0x3d9bed14	0.076135784
96	0xbd8e3bfa	-0.06945033
97	0x3d33a96e	0.043862753
98	0x3c7115e7	0.014714695
99	0xbd318055	-0.043335278
100	0xbd90bcbd	-0.07067249
101	0xbd9d07da	-0.07667513
102	0x3cb44192	0.022003923
103	0xbd335f34	-0.043791965
104	0x3d25ac99	0.040447805
105	0x3cf26b27	0.02959211
106	0xbc47c778	-0.012193553
107	0x3dbb4f39	0.0914597
108	0xbd4e43ee	-0.05035775
109	0xbcf5aae2	-0.02998871
110	0x3db02137	0.08600085
111	0x3d85a37e	0.06525324
112	0x3e01b97d	0.12668414
113	0x3d835827	0.06413298
114	0xbd776dae	-0.060407333
115	0x3d7bc23f	0.061464544
116	0x3ce27d1c	0.027647547
117	0x3daa569d	0.083173014
118	0xbd3dea9d	-0.046366323
119	0x3d7510a3	0.05983032
120	0xbcfb0a9a	-0.030644704
121	0x3d0875d1	0.033315483
122	0xbd5adfa0	-0.05343592
123	0x3caef476	0.021356802
124	0x3d8064b0	0.062692046
125	0x3d8d2a26	0.06892805
126	0xbd8730e0	-0.06601119
127	0xbd9396dc	-0.072065085
128	0x3cc1bc21	0.023649277
129	0xbd8e0e73	-0.0693635
130	0xbd773394	-0.060351923
131	0x3d493708	0.049124748
132	0x3dc925b8	0.098216474
133	0xbd867606	-0.0656548
134	0xbd3f3fb6	-0.04669162
135	0xbd47d12f	-0.048783477
136	0xbcbc1e0f	-0.022963552
137	0x3d9785a0	0.07398534
138	0xbdadc62e	-0.084850654
139	0x3dae6847	0.08515983
140	0x3d57847a	0.052616574
141	0x3c1d1ad1	0.009588913
142	0x3d96b490	0.07358658
143	0x3d37558e	0.044759326
144	0x3c71afa5	0.01475135
145	0xbca0fb89	-0.019651191
146	0xbd8561cd	-0.06512795
147	0xbde4da1a	-0.11174412
148	0x3d3db682	0.04631663
149	0xbd346fdc	-0.04405199
150	0xbdec32eb	-0.11533149
151	0xbd376bf3	-0.044780683
152	0xbd922af2	-0.071370974
153	0x3d82035a	0.063482955
154	0x3d6a3171	0.057176057
155	0xbde3e03c	-0.11126754
156	0x3d28f646	0.04125049
157	0xbcd351d0	-0.025795847
158	0x3dac3008	0.08407599
159	0x3c858aba	0.016301502
160	0xbcae21ef	-0.021256415
161	0x3d1d865c	0.038458213
162	0xbd9c3e70	-0.076290965
163	0xbd0316c9	-0.03200415
164	0x3d9ad0fa	0.0755939
165	0x3db81abb	0.089894734
166	0xbacfca7a	-0.0015853189
167	0x3d7b576d	0.061362673
168	0xbda83a48	-0.08214241
169	0xbdbbc340	-0.091681
170	0xbce84310	-0.02835229
171	0xbdd3461f	-0.10316109
172	0x3d84f190	0.06491387
173	0xbd8223a1	-0.06354452
174	0xbd8559a7	-0.065112405
175	0x3cb90236	0.022584062
176	0xbbe4af7b	-0.0069789267
177	0x3d05d7f4	0.032676652
178	0x3cda1e07	0.026625646
179	0xbd805288	-0.062657416
180	0x3d03c777	0.032172646
181	0xbca1efca	-0.01976766
182	0x3d848344	0.064703494
183	0xbd3c090e	-0.045907073
184	0x3c0f4cbd	0.008746323
185	0x3d6e1aa1	0.058130864
186	0xbdaa20aa	-0.083070114
187	0x3d3d592a	0.04622761
188	0xbc72cc34	-0.014819194
189	0x3d58bcd2	0.052914448
190	0xbd3112f4	-0.043230966
191	0xbc8e1356	-0.017343204
192	0xbd901991	-0.070361264
193	0xbc74de3f	-0.014945566
194	0x3d4790d3	0.0487221
195	0x3d30ba99	0.043146703
196	0xbdaab04b	-0.083344065
197	0xbdb7738a	-0.08957584
198	0x3d5f9174	0.054582074
199	0xbd9cb293	-0.07651248
200	0xbdb2b2f7	-0.08725541
201	0xbd976222	-0.07391764
202	0x3cfd5b3b	0.030927291
203	0x3c4a00b9	0.012329274
204	0xbd2a64b8	-0.04159996
205	0x3d61ff69	0.05517522
206	0x3dde6f0e	0.10861026
207	0x3cbf1644	0.023326047
